controller_best.pth (torch, 21207 bytes, 5 tensors)

fc1.weight f4 [200, 18]
000000 a0 88 2d bd ea 4a 89 bd df d3 dc bc 82 7d 37 3d
       -0.042366624 -0.06703742 -0.026956497 0.044797428
000010 dc 69 82 3d d3 eb e1 bc c5 73 9e 3d 1d 7a 2b 3c
       0.06367847 -0.02757827 0.07736925 0.010466126
000020 8d b5 ca bc db cd e4 3b 51 00 05 bd 98 9a e7 3c
       -0.024744773 0.0069825477 -0.032471005 0.028271958
000030 d4 c3 2b bd 28 5f bc 3d 53 2b 01 3d 4d 09 90 3c
       -0.041934803 0.09197837 0.031535458 0.01758256
000040 01 92 68 bd 8c b9 75 bd 6c bb 5e be 43 9c 96 bd
       -0.056779865 -0.059991404 -0.21751183 -0.07354023
000050 83 65 2d 3e 71 0b 36 3e 58 ae 2c 3e b3 92 d0 bd
       0.16933255 0.17777802 0.16863382 -0.10184231
000060 56 b3 31 3e bd 62 ed 3c 4d ea 21 3c 23 2d 33 bc
       0.17353567 0.028977746 0.009882522 -0.010936054
000070 17 7a 4b bd 2f 4a ac 3d 02 36 30 3d 1e 1d 60 3d
       -0.04967698 0.08412587 0.043020256 0.05471527
000080 0f 37 0e be df fd 6e bd b0 af e4 3c 72 51 9d bb
       -0.1388819 -0.05834758 0.027915806 -0.004800969
000090 05 f4 04 3e c4 48 35 bd 25 64 99 bd 4a 04 b8 bd
       0.12983711 -0.044258848 -0.07489804 -0.08985193
0000a0 3a a3 9b 3e 4d 72 2b bb 2e 5e 18 3d 22 30 18 bd
       0.3039797 -0.0026160658 0.03719919 -0.037155278
0000b0 d7 c7 dd 3a a8 89 a8 bd 03 4f 47 3d 0e a4 10 bd
       0.0016920519 -0.08229381 0.048659336 -0.035312705
0000c0 28 9b 80 3d de 84 6a bd 73 fd d2 bd 6e 38 77 bd
       0.06279594 -0.05725562 -0.10302248 -0.06035655
0000d0 ea 3f 00 3d b2 2e f8 3c 83 ad b6 bd b2 f5 b4 bd
       0.031310953 0.030295704 -0.089198135 -0.08835925
0000e0 b9 a7 a4 be eb d7 90 be 2e da c8 3b 56 ed 0b 3d
       -0.32159212 -0.28289732 0.0061295247 0.034161888
0000f0 8e a3 13 bd f6 6a 74 bd ca 2f f1 3d 23 0e 05 3d
       -0.03604465 -0.05967232 0.11776693 0.032484185
000100 c0 da 07 be ee 20 a2 bc cb 4a 2c 3d f6 65 3e be
       -0.1326704 -0.019791093 0.042063516 -0.18593583
000110 86 02 0a bd 3c 41 f1 bd c5 52 01 3e a1 6c 39 be
       -0.033693813 -0.117800206 0.1262923 -0.18107845
000120 96 38 fe 3d 67 04 ac 3c 1d 10 10 3e a6 a6 50 bd
       0.12413137 0.020998193 0.14068647 -0.05094018
000130 16 ed 3d 3f ec dc 03 3e 97 0e fa bc 84 e4 6b 3d
       0.7418989 0.12877244 -0.030524535 0.057590976
000140 8b ae ea 3b 62 43 61 3c 58 b1 d9 3d 0e e6 fc 3c
       0.0071619204 0.0137489755 0.10629529 0.030871417
000150 70 5e a4 bd 30 53 9b bd dd 2b 87 be 3d 9b 1b 3d
       -0.08025825 -0.07584226 -0.26400653 0.037989844
000160 87 e9 8a 3d 6d dd c0 bd e6 97 ce 3d bf 8d a9 bc
       0.06782823 -0.094172336 0.10087566 -0.020697473
000170 f7 90 e8 3c 17 81 2e bd ac 1e c3 bd 69 bb 26 3d
       0.028389437 -0.04260358 -0.095273346 0.040706072
000180 58 10 e1 bb 0d dd 3a bc ca 89 2f bd 05 0a 29 bd
       -0.0068684034 -0.011405242 -0.042856015 -0.04126932
000190 ee a6 ae bd 2f fa 53 3d b8 3b 56 bd 06 6b 32 3d
       -0.08527933 0.051752266 -0.052303046 0.043559097
0001a0 9b a6 d1 3c 74 73 99 3d fc 6c 04 3c f2 66 c7 3c
       0.025592139 0.07492724 0.0080826245 0.02434108
0001b0 20 f5 1b 3e e1 72 0d bd 3d ae d9 bd f3 8b ec bd
       0.15230227 -0.034533385 -0.106289364 -0.11550131
0001c0 e7 48 1c 3e d5 a1 43 3d 13 04 7f 3d 15 b3 93 3d
       0.15262185 0.047761757 0.062259745 0.072118916
0001d0 c2 18 73 bd ba c2 bb bd b7 8e 8f 3c 25 87 48 bd
       -0.059349783 -0.091680005 0.017524106 -0.04895701
0001e0 d1 f1 2a 3e f3 4d 06 be 38 53 89 3b bb 17 5d bd
       0.16693808 -0.13115673 0.0041908287 -0.05397771
0001f0 54 54 ef 3c 0b f6 f6 3c ec a4 c7 3d d4 9a d2 3d
       0.029215015 0.03014662 0.09748253 0.10283437
000200 d7 30 2d bf c3 02 3d 3f 7d 03 7e be fd a0 21 3e
       -0.6765265 0.7383234 -0.24806018 0.15784068
000210 93 af be bd d0 91 f4 bc 62 88 9a bd 58 fe 17 be
       -0.09310832 -0.029854685 -0.07545544 -0.14843118
000220 68 3d 57 bd 02 f1 cf bd c5 2d a2 3e f9 12 95 bd
       -0.052548796 -0.101533905 0.31675544 -0.07279009
000230 99 bf 2b 3e 48 d5 a3 3d e7 47 8f 3c 02 34 8d bc
       0.16772307 0.079996645 0.01749034 -0.017236713
000240 cb 10 c4 3c 89 8f ed 3b e7 24 28 3d 9a 37 fb 3c
       0.023933789 0.0072497767 0.041050818 0.030666161
000250 86 5a 0f bc 4a 86 c9 3d a6 40 85 3d b6 91 36 3d
       -0.00874961 0.09840067 0.06506471 0.044572555
000260 f9 1e 13 bc 1a c1 c9 bc c6 24 54 3d a4 ce 82 bc
       -0.008979552 -0.02462821 0.051792882 -0.015967675
000270 af 2e 8b bd 1d 6d bb bd b3 8d a7 bd a4 b4 4f 3c
       -0.067960136 -0.09151671 -0.08181324 0.012677345
000280 26 27 66 bc ff 4c e7 bb 0c 2d 8e 3c e4 d0 70 3c
       -0.01404742 -0.007058739 0.017355464 0.014698241
000290 44 b1 53 3c fa 53 76 bc 47 fa 88 bc a3 35 84 3d
       0.012920681 -0.01503467 -0.016720904 0.06455543
0002a0 fb e4 ae 3b 76 67 96 bc dd 23 0b bd d6 2a 4d 3c
       0.005337355 -0.01835988 -0.03396975 0.01252242
0002b0 e0 06 e0 3c 7b 37 5d bc c1 2f 19 bd 14 34 d3 3a
       0.027347028 -0.013501997 -0.037399057 0.0016113543
0002c0 06 aa 61 bc 03 1b 2c 3d 15 e8 12 3d cd 2d 3f 3d
       -0.013773447 0.042017948 0.035865862 0.04667454
0002d0 f6 14 9c 3c 6f ef 66 bc 8a 68 3c 3d 7e 8f 57 3d
       0.019052964 -0.014095171 0.045998134 0.05262708
0002e0 6b 23 d1 3b 29 31 9b 3d 06 63 50 3d a5 04 64 3d
       0.006382396 0.07577736 0.050875686 0.055668492
0002f0 2c 5c f1 3c fc 60 00 bd 6a 4d 00 3d 5c f3 39 bc
       0.029462896 -0.03134249 0.031323828 -0.011349525
000300 17 46 83 bd a1 3f bb bd 4c b0 c5 bd 13 fb 0f 3c
       -0.06409853 -0.091429956 -0.096527666 0.008787888
000310 63 d9 89 3c e9 7c 68 3c a3 e8 d0 bd 39 e4 50 bd
       0.01682729 0.014189937 -0.10200622 -0.0509989
000320 22 6d dc bd 0c e2 c7 bd a1 d9 06 3e 98 88 05 be
       -0.10763003 -0.09759912 0.13168956 -0.13040388
000330 ab 47 45 3c 6c ba 19 3d 86 4a d6 3c bd 2b 8b 3d
       0.012041013 0.0375313 0.026158582 0.06795452
000340 f7 2c 5a bd 32 43 2d 3d de 71 04 3d 4c 80 6f 3d
       -0.053265538 0.04230041 0.032335155 0.058471963
000350 18 2d c5 3b f1 e1 35 3d d7 5f e2 3c c1 eb ff 3c
       0.0060173385 0.044404928 0.02763359 0.031240346
000360 bf 5a 1b 3f 0e b0 c4 3c e8 37 57 3f 36 98 3d bf
       0.6068534 0.02400973 0.8406968 -0.7406038
000370 24 5c e6 be 7f 12 0b be ea ea b8 bd 46 92 54 bd
       -0.44992173 -0.13581274 -0.09029181 -0.05189731
000380 b4 db ed bd d8 59 f9 39 9e 9e 9f bd c1 f9 af 3c
       -0.11614171 0.0004755992 -0.07793926 0.021481397
000390 a9 58 91 bd ab 58 a8 3c f7 b0 44 3d 0a ff 27 bd
       -0.07096989 0.020550093 0.04802033 -0.04101471
0003a0 88 b9 30 bd 83 6b 34 bd 99 02 aa 3e 39 b9 d3 bd
       -0.043145686 -0.044047844 0.33205107 -0.10338063
0003b0 35 d0 98 3e 7f 0a 41 bd d7 86 d7 be 3f 25 25 3d
       0.2984635 -0.04712915 -0.42095062 0.040318724
0003c0 a2 e6 bd bd 74 55 c6 3d d2 cd e4 bb f1 f7 e6 bd
       -0.09272505 0.09684268 -0.0069825435 -0.1127776
0003d0 79 65 c8 3c 0c c6 39 bd ac ad 53 3e a7 94 c8 3d
       0.024462448 -0.045354888 0.2067172 0.09793978
0003e0 35 83 8d bd 58 7a 94 bc 8e 4d ac 3d 9a bb 7b 3e
       -0.069097914 -0.018124744 0.0841323 0.24583283
0003f0 20 0b 3f 3c f1 e3 06 be a8 48 4d bf 3b a1 53 3f
       0.011660367 -0.1317289 -0.8018899 0.82667893

fc1.bias f4 [200]
000000 48 88 e4 bc 3c 79 ba be 82 c4 d2 bd 4e 2f 0a be
       -0.027897015 -0.3642062 -0.10291387 -0.13494608
000010 4f 7d 57 be c1 f6 70 3c 7b 46 0d bd 92 40 2f be
       -0.21043895 0.014707268 -0.034491044 -0.17114475
000020 c3 2c 5c 3c 9e 6c 9f 3c d2 fc 87 3b 4c dd c9 bd
       0.013438406 0.019460972 0.0041500116 -0.09856662
000030 c0 46 9a be b7 e2 4c be 7b 2e cf be 9f f1 01 be
       -0.30132103 -0.2000836 -0.4046515 -0.12689827
000040 4a d6 c5 be 63 a2 3e be d3 e1 5c bd 59 57 b9 3a
       -0.38640052 -0.18616633 -0.0539263 0.0014140412
000050 37 54 b8 be 14 90 42 be 6c 10 01 be 93 4f 63 be
       -0.3600175 -0.19000274 -0.1260392 -0.22198324
000060 c4 83 7f be 1b f9 b7 3d 9c 38 84 be 2a 5c 66 be
       -0.24952608 0.0898306 -0.2582444 -0.22496095
000070 c6 1b 17 be e0 55 b4 bc ab 16 56 bc 26 91 82 be
       -0.14756688 -0.022013605 -0.013066928 -0.25501364
000080 de 4b 35 be 3f 3e 14 3d 30 74 73 bd 40 11 11 3d
       -0.17704722 0.036192175 -0.059436977 0.03541684
000090 e9 89 20 be 11 5f 60 be 15 59 5a 3d 3c 8f 15 bd
       -0.15677609 -0.21911265 0.05330761 -0.036513552
0000a0 33 da e6 bc 62 8f 2b be ad da c6 bc dd 85 f7 bd
       -0.028180217 -0.16753915 -0.024274195 -0.12086079
0000b0 36 20 d1 be dd 23 0b 3c 6e 7e 87 bd 27 13 85 bd
       -0.40844887 0.008492437 -0.066159114 -0.06497794
0000c0 15 3a 87 be 8e 10 ae bd dc c6 27 be 8f c8 d6 bd
       -0.264115 -0.08499251 -0.16384453 -0.10487472
0000d0 11 b2 81 bd 9b 90 17 be 05 97 83 bd a1 ff ac be
       -0.063327916 -0.14801256 -0.06425289 -0.3378878
0000e0 65 3a e0 bc 7f 3c 0e bd ea 7c a3 bd 30 53 fd bd
       -0.027371595 -0.034725662 -0.0798281 -0.123693824
0000f0 56 dc 86 be 35 c4 d8 bd 10 39 7e bb 49 4b a6 be
       -0.26339978 -0.105842985 -0.0038791336 -0.32479313
000100 c4 87 18 3e 06 27 99 be 35 4d 32 bd e0 2b 82 be
       0.1489554 -0.29912585 -0.04353066 -0.254241
000110 4f c0 92 be 32 bb cf bc 40 ba 4e be 64 e4 cd 3d
       -0.28662345 -0.025357816 -0.20188236 0.10053328
000120 e6 30 b9 be 6e 80 8f bd 0c da 32 be dd f7 f9 bd
       -0.3617012 -0.07006918 -0.17465991 -0.12205479
000130 6f a9 ad be 6e ae f7 bd a1 e8 36 be b5 58 8e be
       -0.3391833 -0.12093817 -0.17862178 -0.27802053
000140 0d 8b 1d be 78 fb 2b be ed 8a 97 bc 52 16 b6 bc
       -0.15385075 -0.16795146 -0.018498862 -0.02222744
000150 97 b0 c8 bd 74 87 84 bd e5 b3 0e be 0a c3 95 bd
       -0.09799307 -0.06471148 -0.13935812 -0.073125914
000160 27 c4 71 be 6e 03 a2 bd ff fa 20 bd 95 14 38 be
       -0.23609982 -0.079108104 -0.03930187 -0.17976601
000170 a1 4f 42 3d 46 25 c6 bd fe bb 05 bd 17 3c 16 bd
       0.04743922 -0.09675078 -0.032649986 -0.0366784
000180 42 b1 78 bd 28 b9 8e bd 70 e0 40 be 8e 7e d1 bd
       -0.06071592 -0.069689095 -0.18835616 -0.102292165
000190 25 c6 da be ef bd 85 3e 77 6d ac bd 10 74 9a 3c
       -0.42729297 0.2612147 -0.08419316 0.018854171
0001a0 21 8f 85 bc c1 79 4d bd 85 12 dd bd b7 e7 10 3d
       -0.0163036 -0.05016494 -0.10794548 0.03537723
0001b0 7b 92 d6 bd c1 c2 b5 be 4c 31 44 3d 34 37 ca bd
       -0.10477158 -0.35500148 0.047898576 -0.098738104
0001c0 79 7b 0e be 19 92 aa be b9 9e 8f be ea 9e 2b 3e
       -0.13914289 -0.3331459 -0.28050783 0.1675984
0001d0 8f 80 bb bd 48 b1 e4 be 66 f1 b3 bd bd 7b 9a be
       -0.0915538 -0.44666505 -0.087862775 -0.3017253
0001e0 e1 37 d1 bd 01 57 e9 bc 24 1e 14 be c8 d4 d9 3c
       -0.10215736 -0.02848387 -0.14464623 0.02659072
0001f0 32 22 15 be 18 1d 99 be 4d 73 dd be 52 1d dd bd
       -0.14563826 -0.2990501 -0.4325203 -0.10796608
000200 25 89 0c be 7e 38 15 be 1f 75 57 be 99 0e ed 3b
       -0.13724191 -0.14572331 -0.21040772 0.007234406
000210 6e 18 e6 bc ce 83 9a be 4f d5 17 bd 89 6c 85 be
       -0.02808782 -0.30178684 -0.03706866 -0.26059368
000220 bf 56 de bd 1f e7 1a 3d de bd 71 bd 6b 3d 9b bd
       -0.10856389 0.03781807 -0.059018962 -0.07580074
000230 e5 74 3e bc 12 d0 9b be 31 89 b8 be dc 6a bd be
       -0.0116245495 -0.30432183 -0.3604217 -0.3699559
000240 b3 72 36 be 1e 30 b9 bd 9e aa e1 bd 7f 97 61 bd
       -0.17817192 -0.09042381 -0.11018871 -0.05507612
000250 9e 56 4f be 56 94 63 be a1 ee 86 bb 71 a0 73 be
       -0.20247886 -0.22224554 -0.0041178023 -0.23791672
000260 54 36 b3 3c 90 95 d1 be 7d b1 2b be a3 8a 1b bd
       0.021876492 -0.4093442 -0.16766925 -0.03797401
000270 40 80 34 be d4 18 20 be 80 f6 bc bd 16 7c 27 be
       -0.17627048 -0.15634471 -0.09226704 -0.16355929
000280 d6 1a 8c bd ae db 93 be ac 77 0f bd 5e 58 56 3d
       -0.06841056 -0.2887854 -0.035026237 0.052330367
000290 3b ac 2f be ec 80 67 bd c2 61 49 bc b7 7d e2 bb
       -0.17155544 -0.056519434 -0.012291374 -0.006911959
0002a0 8c e9 13 be 09 fd b5 bc ee e4 6f be c5 03 58 bd
       -0.1444456 -0.022215383 -0.23427173 -0.05273797
0002b0 1e 6d 74 be 55 24 60 be 4b f2 10 be 6d e9 fc bd
       -0.2386975 -0.2188886 -0.14154927 -0.1234921
0002c0 c4 78 1c be 24 32 63 be d9 d0 fd bc 0b 5e 3d be
       -0.15280443 -0.22187096 -0.030983375 -0.18492906
0002d0 45 9f d3 bd 75 6b db bd 7b 43 12 be 6f 5e 58 be
       -0.103331126 -0.10713855 -0.14283554 -0.21129774
0002e0 69 28 38 be e4 99 a4 bd 52 ea b8 bd 34 5d 1b be
       -0.17984165 -0.08037165 -0.09029068 -0.15172273
0002f0 75 b5 81 be 75 67 42 be 79 ce 8a be 2f 30 4a bd
       -0.25333753 -0.18984778 -0.2711065 -0.049362358
000300 87 41 e4 bd ac ea 0f be 58 20 fb 3b f2 ac 91 bc
       -0.11145311 -0.14054364 0.007663768 -0.017782662
000310 96 90 fb bc 62 59 52 be fd 39 3f be a8 de 0c bd
       -0.030708592 -0.2054191 -0.18674465 -0.03439203

fc2a.weight f4 [4, 200]
000000 5a 3f 42 bb 37 16 25 bd 76 75 0a bd f2 93 5c 3c
       -0.0029639811 -0.04030439 -0.033803426 0.013463007
000010 61 57 f1 ba bb 7c 07 3d 5e b7 0b bc 84 f0 bc bd
       -0.0018412882 0.033077937 -0.008527605 -0.09225562
000020 32 de 4d 3c fe a3 0e 3b 7a 55 25 3b ac c4 3e 3d
       0.0125651825 0.0021765227 0.002522795 0.04657428
000030 c0 9e 48 3e d7 ec 61 3d 5e 10 92 bd cf b7 ec 3d
       0.19591808 0.05515751 -0.07132028 0.11558496
000040 7c 3c 47 3e 82 e5 52 3d 04 92 d7 bc bb 30 d6 3b
       0.19456667 0.051488407 -0.026314743 0.006536571
000050 84 a9 b9 3c 44 e5 a6 3c 24 ce bb 3a f4 1a 22 ba
       0.02266384 0.020372994 0.0014328402 -0.0006183826
000060 e9 2e 8f bd 63 f4 0f 3d f8 e7 86 bd be 96 d6 bd
       -0.06991369 0.035145175 -0.06587213 -0.104779705
000070 89 44 4c bd 30 32 95 bc 49 f4 fc 3c 41 c7 8d bd
       -0.049870048 -0.018212408 0.030878203 -0.0692277
000080 0e b2 26 3d 05 db a9 3d a5 ae 92 bc f0 4b d7 3c
       0.04069715 0.08293728 -0.017905543 0.026281327
000090 b6 ac 03 bd 44 7f c3 bc 40 6f 44 3d 15 d6 5c bd
       -0.03214713 -0.023864396 0.04795766 -0.053915102
0000a0 fd 95 00 bd 23 11 32 3c 46 6e 1b bd 84 a6 ba 3b
       -0.03139304 0.0108683435 -0.03794696 0.0056961197
0000b0 67 6e 8f bd 92 27 92 3c 10 b9 c4 bc 18 1d c8 bc
       -0.070034795 0.017841134 -0.024014026 -0.024427935
0000c0 47 9a bd 3d 9f c1 56 3d a1 8c be 3d 58 c7 bb bd
       0.09257942 0.052430745 0.093041666 -0.09168881
0000d0 65 03 0f bc 5a 3d ab bb 12 04 9e 3d d2 a8 17 3d
       -0.008728837 -0.0052258195 0.0771562 0.037026234
0000e0 69 f3 3f 3d 86 ae 60 bd 77 08 30 3c 56 50 97 bc
       0.046862993 -0.05485394 0.010744206 -0.018470924
0000f0 7a e1 a3 3c 62 39 a4 3c d9 f2 f2 3b 8b 62 d7 3d
       0.020004977 0.020046894 0.0074142036 0.105168425
000100 79 e4 c1 3d 4b 9e 1a be 14 c3 ea bb 4d 6d 36 3d
       0.09467406 -0.15099446 -0.0071643684 0.04453783
000110 a2 95 fd 3d 2e 66 00 bd d7 bd 91 3d 2d 71 52 be
       0.12382056 -0.031347446 0.07116287 -0.20550986
000120 82 11 94 3c 89 81 f2 bc 8a 58 f1 3d a9 ad 3f bd
       0.018074755 -0.029602783 0.117844656 -0.046796475
000130 c7 ad 02 bd cc 4a cd bc 57 4e 85 bc 9e d5 40 3b
       -0.03190401 -0.02506008 -0.016272707 0.00294242
000140 48 ab 89 3d 84 6a e1 bc ca 16 b8 bc d5 03 10 3d
       0.067221224 -0.02751661 -0.022471804 0.035159905
000150 94 0a 47 bc db e9 8c 3c 74 a0 1e bd 76 b8 6b bc
       -0.012148518 0.017201355 -0.03872724 -0.014387241
000160 c0 ef 46 3e dc 1a ef 3c ee 37 c8 3b 74 2a 8b bc
       0.19427395 0.029187612 0.006110183 -0.016988017
000170 0e f7 2c bd a4 61 18 bc d9 21 d4 bc 9f dc 8b bc
       -0.042227797 -0.009300623 -0.025895046 -0.017072974
000180 3f e3 e1 3c 64 d6 31 bb 15 02 90 bd ba 94 80 bd
       0.02757418 -0.0027135843 -0.07031647 -0.06278367
000190 ab 65 f2 bd 59 4b a0 3d e7 9a 59 bd 6f e3 94 3c
       -0.11835798 0.078268714 -0.053126242 0.018174855
0001a0 eb ce 73 3c 36 7b 2c 3c 0b be 82 3d 48 56 8a 3d
       0.014880876 0.010527423 0.06383904 0.06754738
0001b0 9a 2d e1 3c 1d 0f cc bd 9d 7b d6 3d f7 f1 0a 3d
       0.027487565 -0.0996382 0.10472796 0.033922162
0001c0 48 52 2a 3d 88 a1 35 3d fe 3c 7d 3c 90 f2 8d bb
       0.041582376 0.0443435 0.015456436 -0.004331894
0001d0 cf a3 3f bc 96 3b 01 3e ce 6e 8f 3c e5 64 67 3d
       -0.01169677 0.12620386 0.01750889 0.056492705
0001e0 1d c8 b4 3c e7 8a 00 3d 5f 98 8b bc 39 b7 07 3d
       0.022068078 0.031382468 -0.01704043 0.03313372
0001f0 70 0e be bc dd 0e b5 bd 76 4f 9f bd 7b c0 69 3b
       -0.023200244 -0.088407256 -0.07778828 0.0035667706
000200 c3 65 3d bd 12 ed 17 bd e2 8b c7 3d 9a da 07 3c
       -0.046239626 -0.037091322 0.097434774 0.008291865
000210 3a 0e 33 3d fb 78 00 bc 2d 4c 01 bd 19 f8 bb 3d
       0.04371474 -0.007841344 -0.031566788 0.0917818
000220 7b d1 6e bd a4 6c 4f bc 47 08 37 bd 3a 84 bf bc
       -0.058305245 -0.012660179 -0.04468563 -0.02337848
000230 e0 51 00 3d d5 e0 bf bc db 53 14 3e c3 6d c5 bc
       0.031328082 -0.023422638 0.14485113 -0.02410019
000240 10 85 1b 3d 9c d6 35 3d 8f 81 55 3c 8b af a6 3b
       0.037968695 0.04439412 0.013031377 0.0050868443
000250 9f 15 22 bd e4 29 7b 3b 80 f8 2f 3d c6 0b 1e bd
       -0.0395714 0.003832453 0.042961597 -0.038585447
000260 17 1c 26 3d 27 ac d2 bd 7a 3d 84 bd 02 67 25 3d
       0.040554132 -0.10286742 -0.06457038 0.04038144
000270 2c c8 83 3d 6d b5 97 3d 57 03 7e bd 55 0a dd bd
       0.06434664 0.07407651 -0.062014904 -0.10792986
000280 9f 49 27 3d f8 26 05 be 72 ae 09 bc 6d dc 84 bc
       0.040841695 -0.13003147 -0.008403407 -0.016218388
000290 e9 ff 77 3d 10 38 73 3c a8 58 12 3d f7 6e 95 3c
       0.06054679 0.014844909 0.03572908 0.018241389
0002a0 82 7c 90 3c 9d c9 82 3d 4a b9 6a 3d 32 62 b8 bc
       0.017637495 0.06386111 0.05730561 -0.02250776
0002b0 75 19 0c 3e 54 c3 0d bd d1 36 15 bb 11 e0 1a 3d
       0.13681586 -0.034610108 -0.0022768269 0.037811343
0002c0 bc 82 ba bc 1e e7 9b bc 3a 07 b3 bd b1 5f e4 bd
       -0.022767417 -0.019031104 -0.08741613 -0.11151064
0002d0 a4 8b cb 3c 20 ad 91 bd b8 38 11 bd 86 53 98 3d
       0.02484686 -0.07113099 -0.03545448 0.07437806
0002e0 a9 bf 0c 3d 05 23 1b bd 9d 95 c5 3c 3f 8e 91 3d
       0.03436247 -0.037875194 0.024119193 0.071072094
0002f0 cc 05 3b 3d 82 98 93 3c 72 71 ba bd 6b 77 e1 ba
       0.045659825 0.018017057 -0.09103669 -0.0017201727
000300 5e 71 3f 3c db 03 60 3d 8c c5 dc 3c 97 e1 3b 3c
       0.011684744 0.054691177 0.026949666 0.011467359
000310 21 82 bd 3b fe 7d eb 3d b3 16 d8 bc 7f 73 c0 bc
       0.005783335 0.114986405 -0.026378011 -0.023492573
000320 ca dc 05 bc 74 47 5c bd 66 d1 fc bc 09 e4 84 3d
       -0.008170316 -0.05377908 -0.030861568 0.06488807
000330 4e 9a c7 bc 1e 44 a0 3a 5d 0e 95 bc bf 6f 0c 3e
       -0.02436557 0.0012227332 -0.018195326 0.13714503
000340 82 75 8f bb 90 67 02 bd 47 04 a6 bc fa cf 3a 3d
       -0.0043780217 -0.031837046 -0.020265711 0.0456085
000350 10 5b 8f 3e 57 f7 cc bb f4 ae 0d 3e 21 66 cd 3d
       0.27999163 -0.006255071 0.1383627 0.10029245
000360 2a 1c 57 3d 77 99 68 bd 7f aa 69 3b 8f 55 53 bb
       0.052517094 -0.05678698 0.0035654602 -0.0032247042
000370 a7 69 12 be 09 1a 95 3c f7 5f 7a 3b 05 e5 14 bd
       -0.14298116 0.018200891 0.0038204172 -0.036351223
000380 e5 99 07 3e cb 06 07 3d e8 9e 2f 3d 91 78 94 3c
       0.132423 0.032965463 0.042876154 0.018123897
000390 cc 1f d6 bc 69 15 7a bc e3 2c 05 3d 4b bf 74 bc
       -0.026138209 -0.015263894 0.03251351 -0.014938186
0003a0 67 c1 0f bb 07 6f 0c 3e 93 4b df bc 73 ac 15 3e
       -0.0021935345 0.13714229 -0.027257716 0.14616565
0003b0 23 ab d3 bc b7 fa c2 3b 17 19 0b 3e fc f4 a8 bc
       -0.02583844 0.0059502977 0.1358379 -0.02062463
0003c0 f0 10 b6 3b 9a d1 2e bc cb ac 8d bc a1 dd 34 3d
       0.0055562183 -0.01067009 -0.017294308 0.044156674
0003d0 18 98 25 3d 3d 6d 02 bd 5f 93 10 bc 07 13 1b 3d
       0.04042825 -0.03184246 -0.0088241985 0.037859943
0003e0 ff 25 a3 3d 6a 90 c1 3d 5e 13 28 be f6 14 5d bd
       0.079662316 0.09451373 -0.16413638 -0.053975068
0003f0 18 9c 6a 3b 01 89 3e 3d 15 18 b3 3d 2a f0 16 bd
       0.0035798606 0.046517376 0.08744828 -0.036850132

fc2a.bias f4 [4]
000000 b1 aa 8e be ac 40 03 3e 01 ff 06 be 05 88 f3 3d
       -0.27864602 0.12817639 -0.13183214 0.11891178

fc2c.weight f4 [1, 200]
000000 94 9a 5c ba b7 5b bc bc 24 2f a3 bc 79 6b 03 3d
       -0.0008415368 -0.022992952 -0.01991994 0.032084916
000010 b4 d8 97 bc 5a 5d d8 3c 01 b7 a5 bb c1 39 bc 3c
       -0.01853595 0.026411701 -0.005057216 0.022976758
000020 d7 d1 55 3b 9d 17 c4 3b 11 2d 1d bb a3 23 fb bb
       0.0032626295 0.0059842602 -0.002398316 -0.0076641603
000030 0c 04 8f bd 8d 56 71 3d d6 ee 84 3c 45 f0 82 be
       -0.06983194 0.058920432 0.016227167 -0.25573936
000040 b6 61 b9 bd 42 03 1c 3e 51 e6 9e bc 12 90 a7 3b
       -0.0905184 0.15235618 -0.019396933 0.00511361
000050 e9 d4 d1 3c b9 4b 17 bd 9d 64 56 3d af 89 70 bd
       0.025614219 -0.03693745 0.052342046 -0.058725055
000060 8c e8 31 3d a0 a7 0c 3d 19 5f a4 ba ce 84 48 3d
       0.043434665 0.034339547 -0.0012540548 0.048954777
000070 e1 29 d6 bc 9b 5a 4f 3b c2 76 ba 3c 88 72 24 bd
       -0.026143016 0.0031639698 0.022761706 -0.040148288
000080 6b 0b 51 bc a2 e4 a7 bc dc b8 1e bd 86 b8 7b 3d
       -0.01275907 -0.020494763 -0.038750514 0.061455272
000090 2f 9d 75 bc 43 e5 5d bd 41 a6 36 3d 03 d5 df bb
       -0.014991089 -0.05417372 0.044592146 -0.006830813
0000a0 12 9b 74 3b a1 e4 df bb d2 e5 a7 bb c7 00 d1 bc
       0.0037323874 -0.0068326746 -0.0051238323 -0.025513066
0000b0 59 7b 75 3b 88 c9 21 3c ea 44 20 bc 59 33 1e 3e
       0.0037457554 0.009874709 -0.009782055 0.15449275
0000c0 a9 50 a2 bd 57 9e 95 3c d0 d5 eb 3d a8 89 b1 3e
       -0.07925541 0.018263979 0.11515391 0.34675336
0000d0 f7 01 db b9 c4 6d 05 bc 92 b4 6c bb 3b 47 71 bc
       -0.000417724 -0.008143846 -0.003611837 -0.014726455
0000e0 b5 6a 07 3d b9 71 5e bc 9f 48 87 bb fb a7 2f 3e
       0.033060748 -0.013576918 -0.00412853 0.17153923
0000f0 55 25 b5 bb 99 ea ae 3c 00 b3 1b bd aa 92 84 bd
       -0.005528132 0.0213521 -0.038012505 -0.064732864
000100 86 33 d1 be 64 cd 49 3c f2 a7 60 bc b0 ab 16 bd
       -0.40859622 0.012317035 -0.013711916 -0.036784828
000110 4c 2b df bd 03 63 36 bc 50 c2 54 3e 93 9a 28 3e
       -0.1089693 -0.011132005 0.2077725 0.16465215
000120 46 59 05 bd 82 13 8e bc 1f 29 b3 3d 87 cb c6 bd
       -0.03255584 -0.017343286 0.087480776 -0.097067885
000130 78 97 7d 3d c9 e9 81 bb 0f 66 4b bd 03 0d 16 bd
       0.06191203 -0.003964637 -0.049657878 -0.036633503
000140 71 1f 07 3d 92 ed ea 3c 13 86 90 bb 66 29 ce ba
       0.03298897 0.028677735 -0.004410514 -0.001572889
000150 7d fd 95 bc 89 c9 c5 bb 8f 47 fd bc ad af 1b bc
       -0.01830935 -0.0060359878 -0.03091791 -0.009502334
000160 20 a3 c1 bd e6 09 84 bd ac 1c ae bb 10 68 b5 bc
       -0.09454942 -0.064472005 -0.0053134765 -0.022144347
000170 f3 a0 b2 3d 2a 8c 9c bb 62 4a c0 ba 4f ee ff bb
       0.08722105 -0.004777451 -0.0014670605 -0.007810391
000180 a8 cc d2 3c 0d 4e e3 3a cf bb b9 bd 5f 08 af bc
       0.025732353 0.0017341987 -0.09069025 -0.021366296
000190 70 33 f5 3b 60 7f 2e 3c 02 18 59 be a3 09 18 3d
       0.0074829385 0.010650486 -0.21200565 0.037118565
0001a0 14 65 58 be fb d0 3c bc ea 57 f0 bc f2 8c a7 3d
       -0.21132308 -0.011524434 -0.029338796 0.0818118
0001b0 f7 9e f6 3c 87 11 98 3d 04 26 31 3d b3 df 67 bc
       0.030105097 0.07425218 0.043249145 -0.014152455
0001c0 93 5c ce 3d 84 88 c8 bc df b4 68 3d 08 77 7b bb
       0.10076251 -0.024479158 0.056813117 -0.0038370509
0001d0 8e 2e 32 bc 92 15 95 bd 4a 28 a6 bc d6 9d 0b 3e
       -0.010875357 -0.07279505 -0.020282883 0.13634428
0001e0 b8 9a 81 bb 8c f4 a9 3d 41 12 c0 bc f1 95 ca 3b
       -0.0039552115 0.08298597 -0.023446204 0.006182425
0001f0 a0 24 01 3d 85 a9 92 3d 95 bd fb 3c 7b 9d 33 bd
       0.03152907 0.071612395 0.030730048 -0.043851357
000200 64 a3 41 3e 98 c4 90 3d ae c6 29 be a0 07 72 bd
       0.18909985 0.07068747 -0.16579697 -0.059089303
000210 cd c6 f4 3b b4 5e 80 bd b7 e6 02 bc 71 ad 2a bd
       0.007469988 -0.06268063 -0.007989577 -0.041669313
000220 d6 8e 58 bd eb aa 52 3e c0 3c 71 3c ff e0 e7 3b
       -0.052870594 0.20573013 0.014723957 0.007076382
000230 d8 b1 59 3c a6 9b 71 3d 47 b4 ca bd 06 47 d9 bd
       0.01328703 0.05898633 -0.098976664 -0.1060925
000240 49 b8 82 3d 8a fe 36 bc 51 a4 c4 3c 0c a3 1c bc
       0.06382806 -0.011169085 0.024004133 -0.009560358
000250 ff a2 bb 3c 06 7a 0f 3d 10 73 56 ba a4 fa 26 bd
       0.022904871 0.03502848 -0.0008180598 -0.040766373
000260 de 90 9b 3c 04 c2 be 3c b1 5d d4 bc de 40 00 3d
       0.018989976 0.023285873 -0.025923582 0.031311862
000270 69 ce 07 bd a7 52 07 be 5d 66 90 3d af bd 2e 3d
       -0.033155832 -0.13215123 0.07050774 0.042661365
000280 fd 47 e4 bc 6a 0b 54 bc a9 1e bb bb 54 b7 87 3d
       -0.027866358 -0.012942174 -0.005710442 0.06626764
000290 07 cc 56 3c b2 e0 17 ba 9d 57 84 bb 4d 01 a2 bb
       0.013110167 -0.0005793675 -0.0040387646 -0.0049440027
0002a0 34 00 25 3c ad f5 8f 3d 43 c6 8e 3d 1b 07 ab 3b
       0.010070849 0.07029281 0.06971409 0.005219353
0002b0 72 2d 06 be 12 8c 54 bd ff 79 c4 3c 52 58 86 3a
       -0.13103274 -0.051891394 0.023983954 0.001024971
0002c0 77 4c aa 3c 29 d8 9d bd dc 87 f9 bd 8c 80 e9 bd
       0.020788414 -0.07707245 -0.12184116 -0.114014715
0002d0 a0 c0 04 bd f3 20 a4 3d 96 d2 93 bb c3 c2 b7 3c
       -0.032410264 0.08014097 -0.004511188 0.022431737
0002e0 70 56 a3 bd 0b fa b7 3c 68 e6 50 bc db 67 2a 3e
       -0.07975471 0.022458097 -0.012750246 0.1664118
0002f0 57 11 a3 3d bf 99 3b bc 83 c8 e9 bc 7e a0 89 3b
       0.07962292 -0.01145023 -0.028537994 0.0042000404
000300 3e 81 54 3b 86 dd ce bc 57 57 59 3d 71 f8 a1 bb
       0.0032425667 -0.025252115 0.05306181 -0.0049429466
000310 dd 9d b3 3c 75 eb 63 bd 2b 88 a4 bc e2 3e 82 bb
       0.021925861 -0.05564447 -0.020084461 -0.0039747814
