controller_last.pth (torch, 21207 bytes, 5 tensors)

fc1.weight f4 [200, 18]
0	0xbd2b223d	-0.0417807
1	0xbdbeccb9	-0.093163915
2	0xbd7e367d	-0.062063683
3	0x3cd9bd1f	0.026579438
4	0x3d526e19	0.05137453
5	0xbba09bb2	-0.004901373
6	0x3dbb74de	0.0915315
7	0xbb4ffa5d	-0.0031734922
8	0xbbb2dc61	-0.0054584
9	0x3d333c51	0.043758694
10	0xbabe9559	-0.0014540359
11	0x3d428f2e	0.047499828
12	0xbd9972cf	-0.07492601
13	0x3df77dff	0.12084579
14	0x3cefec22	0.029287402
15	0x3d485804	0.048912063
16	0xbcf61865	-0.03004093
17	0xbcc77df8	-0.024352059
18	0xbe5fd705	-0.21859367
19	0xbdb7607f	-0.08953952
20	0x3e12e40d	0.14344807
21	0x3e234cd8	0.15947282
22	0x3e2a2196	0.16614375
23	0xbde85364	-0.113440305
24	0x3e33ed83	0.17571072
25	0x3d0f84a8	0.03503862
26	0x3d26b4a4	0.040699616
27	0xbb08281f	-0.0020775867
28	0xbd1a105b	-0.037613254
29	0x3df24e9c	0.118314
30	0x3c4558eb	0.0120451255
31	0x3d7cf7ce	0.061759762
32	0xbdf4c8eb	-0.119523846
33	0xbbc388bc	-0.0059672277
34	0x3d143541	0.0361836
35	0x3cb513bf	0.022104142
36	0x3ddf5add	0.10906003
37	0xbd6110c4	-0.05494763
38	0xbdab323b	-0.0835919
39	0xbdc5d326	-0.09659414
40	0x3e8be9c2	0.2732678
41	0xbc83ca2c	-0.016087614
42	0x3d018687	0.031622436
43	0xbd103858	-0.035209984
44	0x3c2ef608	0.010678776
45	0xbd8d3643	-0.06895115
46	0x3d4274a1	0.047474507
47	0xbb0312ae	-0.0020000148
48	0x3d4b5b18	0.04964742
49	0xbc71f079	-0.014766806
50	0xbdc30590	-0.09522545
51	0xbca686d2	-0.02032796
52	0x3cdc1edc	0.026870184
53	0x3d68ee3f	0.056867834
54	0xbdc390d2	-0.09549107
55	0xbdb151fd	-0.08658216
56	0xbeaa8532	-0.33304745
57	0xbe98f5d2	-0.29875046
58	0x3b14289a	0.0022607208
59	0x3d47b888	0.048759967
60	0xbcafe6b7	-0.021472318
61	0xbd8e8800	-0.06959534
62	0x3de7f20b	0.11325463
63	0x3db46ba1	0.08809591
64	0xbddf648a	-0.10907848
65	0xbcf350c1	-0.029701592
66	0x3cabf1d0	0.020989329
67	0xbe29527c	-0.16535372
68	0xbcea19d1	-0.028576763
69	0xbdb64b4a	-0.08901079
70	0x3e1b7197	0.1518005
71	0xbe122f25	-0.14275797
72	0x3dc3a3b2	0.09552707
73	0x3c510053	0.012756425
74	0x3e12f02d	0.14349432
75	0xbd438ce2	-0.04774178
76	0x3f375a51	0.71622187
77	0x3de8b103	0.11361887
78	0xbd031a72	-0.032007642
79	0x3d3810d3	0.04493792
80	0x3d112edb	0.035445075
81	0x3ce2c756	0.027682941
82	0x3ddafe43	0.10693028
83	0x3d78349c	0.060597047
84	0xbdac982d	-0.08427463
85	0xbd59f324	-0.053210393
86	0xbe6d49fa	-0.23172751
87	0x3db9f311	0.09079564
88	0x3d91b155	0.071139015
89	0xbd9e8bec	-0.07741532
90	0x3da34094	0.07971302
91	0x3c377f64	0.011199806
92	0x3d290a3c	0.041269526
93	0xbc50bd20	-0.012740403
94	0xbdd4a00a	-0.103820875
95	0x3d5106c6	0.05103185
96	0xbd6361bb	-0.055513125
97	0xbcdc6ef3	-0.026908373
98	0xbd90e0b5	-0.070741095
99	0xbd484362	-0.048892386
100	0xbdc0a0ae	-0.09405647
101	0x3d3e2701	0.046423916
102	0xbc8e6441	-0.01738179
103	0x3c77eed5	0.015132626
104	0x3d2b5e02	0.0418377
105	0x3d00b127	0.031418946
106	0x3ca45f68	0.020065024
107	0x3ca2f26d	0.019890988
108	0x3e01fc6f	0.12693952
109	0xbcdcf75d	-0.02697342
110	0xbde8acb2	-0.11361064
111	0xbdf46e2d	-0.11935077
112	0x3e03866b	0.12844245
113	0x3ca6caa7	0.020360304
114	0x3d3c80f3	0.046021413
115	0x3d6fb2ad	0.058520008
116	0xbd53e2f2	-0.051730104
117	0xbd937e81	-0.07201863
118	0x3cf756eb	0.030192813
119	0xbcbdc6e5	-0.02316613
120	0x3e236ab7	0.15958677
121	0xbdce1531	-0.10062636
122	0x3ac60ae3	0.0015109446
123	0xbcf6ffa7	-0.030151201
124	0x3d4c340f	0.049854334
125	0x3d56a1ce	0.052400403
126	0x3dbc73be	0.092017636
127	0x3dbc229b	0.09186288
128	0xbf2f3aac	-0.684489
129	0x3f42a336	0.7603029
130	0xbe78efca	-0.24310222
131	0x3e2fcbf2	0.17167643
132	0xbdccc900	-0.09999275
133	0xbd2bc1a6	-0.041932724
134	0xbdaf1622	-0.085491434
135	0xbe1d84f8	-0.15382755
136	0xbd3cfac6	-0.046137594
137	0xbe159071	-0.14605881
138	0x3eb2cae9	0.34920433
139	0xbda1a88d	-0.07893477
140	0x3e1ae639	0.15126885
141	0x3d6236e6	0.055228136
142	0x3bc75541	0.006083161
143	0xbd30dd97	-0.043180075
144	0x3d5fdbcf	0.054652985
145	0x3c1ab2e9	0.00944207
146	0x3d5ea152	0.054353066
147	0x3d138634	0.036016658
148	0x3cc79dd7	0.024367256
149	0x3d893c24	0.06700924
150	0x3d53be8f	0.051695403
151	0x3d7c91c6	0.061662458
152	0xbcaa1adb	-0.020764759
153	0xbd400892	-0.046883173
154	0x3d318c0f	0.04334646
155	0xbac434bf	-0.0014969333
156	0xbd518630	-0.05115336
157	0xbd716bc5	-0.058940668
158	0xbdd1e77b	-0.102492295
159	0xbd09e381	-0.03366423
160	0xbd516e83	-0.051130783
161	0xbd0ee731	-0.03488845
162	0xbc02d756	-0.00798591
163	0x3cb3d7b9	0.02195345
164	0x3bdf911a	0.0068227174
165	0xbca78041	-0.020446898
166	0xbbaf0c24	-0.0053420234
167	0x3d8b5c4d	0.06804714
168	0x3c96b867	0.018398477
169	0xbd61dc5f	-0.055141803
170	0xbcbbd4bd	-0.02292859
171	0x3d4793a9	0.048724804
172	0x3c9ba110	0.018997699
173	0xbc8ae9c9	-0.01695718
174	0xbd0c96b9	-0.034323428
175	0xbc26b533	-0.010175037
176	0x3cb17fc7	0.021667374
177	0x3cde32d6	0.02712385
178	0x3d0cf1d0	0.034410298
179	0x3d3605e6	0.04443922
180	0x3d39224b	0.04519872
181	0xbc0a1f09	-0.008430251
182	0x3d6e0d4b	0.058118146
183	0x3d5aea20	0.053445935
184	0x3ce8958e	0.028391626
185	0x3d3e2c4a	0.046428956
186	0x3cefd8bb	0.02927815
187	0x3d8e8b7a	0.06960197
188	0x3c62c49e	0.0138408225
189	0xbd7f0594	-0.06226118
190	0x3ca38e39	0.019965278
191	0x3c74975c	0.014928665
192	0xbd5e3450	-0.054249108
193	0xbd6f6607	-0.05844691
194	0xbde282ef	-0.1106013
195	0xbca2504b	-0.019813677
196	0xbcd8e121	-0.026474537
197	0xbbfbcf83	-0.0076846494
198	0xbdd80543	-0.105478786
199	0xbd48c023	-0.04901136
200	0xbdfc9d48	-0.123346865
201	0xbdb7c0ac	-0.08972296
202	0x3df470f3	0.11935606
203	0xbdfcab9c	-0.123374194
204	0x3c7996ad	0.015233678
205	0x3cb5766d	0.022151196
206	0x3d35f4c9	0.0444229
207	0x3d4fd41c	0.050739393
208	0xbd666cc1	-0.05625606
209	0x3d92b8a2	0.07164122
210	0x3c9261ab	0.017868837
211	0x3d496779	0.049170945
212	0x3b9ca400	0.0047802925
213	0x3dba567d	0.090985276
214	0x3cbc054a	0.02295174
215	0x3d583edb	0.05279432
216	0x3f19d760	0.6009426
217	0x3d7b2f24	0.061324254
218	0x3f63c1d0	0.8896761
219	0xbf451c02	-0.7699586
220	0xbef99281	-0.48744586
221	0xbdfc37fd	-0.123153664
222	0xbdbcd712	-0.09220709
223	0xbd6b0ec1	-0.057387117
224	0xbe20b582	-0.1569424
225	0x3cb87ebd	0.022521371
226	0xbdbfb7c6	-0.09361224
227	0xbd0a267d	-0.03372811
228	0xbda65ca9	-0.08123142
229	0x3cb5dc4d	0.022199774
230	0x3d97141e	0.07376884
231	0xbd971b42	-0.07378246
232	0xbb991e84	-0.004672827
233	0xbd845aa5	-0.064626016
234	0x3ea09939	0.313669
235	0xbdbb82a1	-0.09155775
236	0x3ea9839d	0.33108225
237	0xbcbe702d	-0.023246849
238	0xbed7a31c	-0.4211663
239	0x3d6cd08c	0.057816073
240	0xbe14c600	-0.14528656
241	0x3d85a4a3	0.065255426
242	0xbd3c8686	-0.04602673
243	0xbe02b0b9	-0.12762727
244	0xbc24ce20	-0.01005891
245	0xbda7a52a	-0.081857994
246	0x3e72cd72	0.23711184
247	0x3db6b9b5	0.089221396
248	0xbd6c7b28	-0.05773464
249	0xbd480075	-0.04882856
250	0x3dc10cca	0.094262674
251	0x3e6f6c98	0.23381269
252	0x3c912e85	0.017722378
253	0xbe1704d8	-0.14747941
254	0xbf52257b	-0.8208844
255	0x3f5a7627	0.85336536

fc1.bias f4 [200]
0	0xbd3d888f	-0.04627281
1	0xbed617da	-0.41815072
2	0xbe0a1ec4	-0.13488299
3	0xbdef900e	-0.11697398
4	0xbe88ca41	-0.26716807
5	0x3d02fb2d	0.03197782
6	0xbd7e84fe	-0.06213855
7	0xbe0109f6	-0.12601456
8	0x3c3fdc86	0.011710292
9	0x3d16415d	0.03668343
10	0xbc7851a4	-0.015156183
11	0xbe0ef24d	-0.13959618
12	0xbe76ba83	-0.24094586
13	0xbe1e4c52	-0.15458801
14	0xbeb8afde	-0.36071676
15	0xbe08d205	-0.13361366
16	0xbea99e3c	-0.33128536
17	0xbe5cfc47	-0.21580611
18	0xbd906007	-0.07049566
19	0x3ca67156	0.020317715
20	0xbed692c0	-0.41908836
21	0xbe5e219e	-0.21692511
22	0xbdf6ace2	-0.120446935
23	0xbe842095	-0.25806108
24	0xbe40df60	-0.18835211
25	0x3dad79f8	0.08470529
26	0xbe80c21c	-0.25148094
27	0xbe5c41d9	-0.21509494
28	0xbe3ae923	-0.18252997
29	0xbd4eed95	-0.050519545
30	0x3cbe2f37	0.023215873
31	0xbe93da86	-0.28877658
32	0xbe565ff9	-0.20935048
33	0x3dd0f803	0.102035545
34	0xbda0ab13	-0.0784513
35	0x3db08119	0.086183734
36	0xbe5b72a0	-0.21430445
37	0xbe5f8422	-0.21827748
38	0x3db6741e	0.08908866
39	0xbca9081e	-0.020633753
40	0xbcf517af	-0.02991852
41	0xbe524c02	-0.20536807
42	0xbcb7fe1c	-0.022460036
43	0xbdeaca9b	-0.11464425
44	0xbec82fe8	-0.3909905
45	0x3ce538dd	0.027981216
46	0xbdbad601	-0.09122849
47	0xbd8ea2d7	-0.06964653
48	0xbe62cfbb	-0.22149555
49	0xbd40bee8	-0.047057062
50	0xbe54460c	-0.20729846
51	0xbdd48832	-0.1037754
52	0xbdb45b4e	-0.088064775
53	0xbe2da1b2	-0.16956213
54	0xbd3df17b	-0.04637287
55	0xbecea929	-0.40363434
56	0xbc22d543	-0.009938541
57	0xbd9099a6	-0.07060556
58	0xbdf21075	-0.11819545
59	0xbdf7bddb	-0.12096759
60	0xbe98f3ca	-0.29873496
61	0xbdd05cf1	-0.10173977
62	0xbd3f8176	-0.046754323
63	0xbe9f9d27	-0.31174585
64	0x3e443d5f	0.19164036
65	0xbe8c2a32	-0.27375942
66	0xbd113c39	-0.035457823
67	0xbe84ff72	-0.2597614
68	0xbe79f335	-0.24409182
69	0xbcd0e710	-0.025500804
70	0xbe7632b5	-0.2404278
71	0x3dd1be46	0.1024137
72	0xbec06216	-0.37574834
73	0xbd61d2e4	-0.05513276
74	0xbe0747da	-0.13211003
75	0xbe0df415	-0.13862641
76	0xbe9f1ead	-0.3107809
77	0xbdac9921	-0.084276445
78	0xbe54ebb3	-0.20793037
79	0xbe84b8f2	-0.25922352
80	0xbe08d801	-0.13363649
81	0xbe3a57b4	-0.18197519
82	0xbcde69b7	-0.027150018
83	0x3ba64815	0.005074511
84	0xbdefa0ae	-0.11700569
85	0xbd70673f	-0.058692213
86	0xbe2cce6b	-0.16875617
87	0xbdc4468e	-0.0958377
88	0xbe4b52af	-0.1985576
89	0xbdc0ba30	-0.094105124
90	0xbbf8c1ab	-0.0075914464
91	0xbe514604	-0.20436865
92	0x3cfe52c5	0.031045327
93	0xbdec3c56	-0.11534946
94	0xbd619112	-0.05506999
95	0xbd6481a9	-0.055787716
96	0xbd2bbc55	-0.041927654
97	0xbda3c9da	-0.079974845
98	0xbe4a8393	-0.19776754
99	0xbde03724	-0.10948017
100	0xbec953bd	-0.393217
101	0x3e8e36fd	0.27776328
102	0xbdd9f4f8	-0.10642427
103	0x3d0ba97a	0.034097172
104	0x3c5a699c	0.013330843
105	0xbd04cab1	-0.032419864
106	0xbd6a5ae1	-0.057215575
107	0x3d6978e3	0.057000052
108	0xbdc758db	-0.09733745
109	0xbea55708	-0.32292962
110	0x3dc46d22	0.09591128
111	0xbe09a6f0	-0.13442588
112	0xbdf64a17	-0.1202585
113	0xbe8aaadc	-0.2708348
114	0xbe683e17	-0.22679935
115	0x3e27d549	0.16389956
116	0xbdc0097b	-0.09376808
117	0xbee20d3f	-0.4415073
118	0xbdc32db8	-0.095302045
119	0xbe960ca2	-0.29306513
120	0xbd99878f	-0.07496559
121	0xbc0a4e45	-0.0084415125
122	0xbe2e65d5	-0.17031033
123	0x3d878544	0.06617215
124	0xbe1b81a1	-0.15186168
125	0xbe89284b	-0.26788554
126	0xbed3621c	-0.4128579
127	0xbe15cf3c	-0.14629835
128	0xbe2fe5cb	-0.17177503
129	0xbdee2ca3	-0.116296075
130	0xbe5002a1	-0.20313503
131	0x3c91fcd6	0.017820757
132	0xbd38be78	-0.04510352
133	0xbeb75a68	-0.35811162
134	0xbd89610f	-0.067079656
135	0xbe5bfa1b	-0.21482126
136	0xbe0db420	-0.13838243
137	0x3d250032	0.04028339
138	0xbdad573f	-0.084639065
139	0xbdc2e6da	-0.09516688
140	0xbbce21d6	-0.0062906547
141	0xbe86d713	-0.26335964
142	0xbe9b6edf	-0.30358025
143	0xbece4c85	-0.40292755
144	0xbe2812e7	-0.1641346
145	0xbd9d228a	-0.076726034
146	0xbdb1f9e1	-0.08690239
147	0xbd4f8ff7	-0.050674405
148	0xbe4b0665	-0.19826658
149	0xbe3eff82	-0.18652156
150	0x3c52307f	0.012828945
151	0xbe93e798	-0.2888763
152	0x3cdd1d91	0.026991637
153	0xbec72950	-0.38898706
154	0xbe30ffb3	-0.17285042
155	0xbc9dfad1	-0.019284638
156	0xbe0633ea	-0.13105741
157	0xbe460338	-0.19337165
158	0xbdb8b1d2	-0.090182915
159	0xbe4e8801	-0.20169069
160	0xbdb5669f	-0.08857464
161	0xbe88ffe6	-0.26757735
162	0xbc8b9577	-0.017039044
163	0x3d7d3c2c	0.061824962
164	0xbe414b31	-0.1887634
165	0xbdaeb42d	-0.085304596
166	0xbd0272ba	-0.031847693
167	0xbbde6c75	-0.0067878314
168	0xbe01662b	-0.1263663
169	0x3c0587b0	0.008150026
170	0xbe3c3d8f	-0.18382858
171	0xbd8094c2	-0.06278373
172	0xbe36c64c	-0.17849082
173	0xbe2c0ea0	-0.16802454
174	0xbe1b9442	-0.15193275
175	0xbe1a4f48	-0.15069306
176	0xbe070c8e	-0.13188383
177	0xbe861eb5	-0.26195303
178	0xbd8d6ca2	-0.06905486
179	0xbe643129	-0.22284378
180	0xbdf229ea	-0.11824401
181	0xbe0ea3fc	-0.13929743
182	0xbe44e2cc	-0.19227141
183	0xbe75c3ae	-0.24000427
184	0xbe4fd6c6	-0.20296773
185	0xbda76237	-0.0817303
186	0xbdee34b7	-0.11631148
187	0xbe0da37d	-0.13831897
188	0xbe9efc75	-0.31051984
189	0xbe48c3fc	-0.19606012
190	0xbe796349	-0.2435428
191	0xbdcf7823	-0.10130336
192	0xbde081f0	-0.109622836
193	0xbe4956dd	-0.19662042
194	0x3caba67b	0.020953408
195	0xbd34bafc	-0.044123635
196	0xbc91ccb5	-0.017797807
197	0xbe0b3200	-0.13593292
198	0xbe67b67d	-0.22628208
199	0xbd739f52	-0.05947811

fc2a.weight f4 [4, 200]
0	0xbd7cc45f	-0.06171071
1	0xbd5aa367	-0.05337849
2	0xbd422911	-0.047402445
3	0x3c7bcbba	0.015368396
4	0xbc7f1ee6	-0.015571332
5	0x3d11dfad	0.035613704
6	0xbc90cf6f	-0.017677037
7	0xbd6bf328	-0.05760494
8	0x3af34d4c	0.0018562465
9	0xbc8454a9	-0.01615365
10	0xbbef6abe	-0.007306426
11	0x3cdab2eb	0.026696643
12	0x3e3ab701	0.18233873
13	0x3d97f0ef	0.07419001
14	0xbda8cfbc	-0.08242747
15	0x3de0a2d1	0.10968555
16	0x3e42d637	0.19027029
17	0x3d698f5a	0.057021476
18	0xbc74e458	-0.0149470195
19	0x3d3051dc	0.043046817
20	0x3cd3c7f9	0.02585219
21	0x3d280042	0.04101587
22	0xbcb42e3b	-0.0219947
23	0x3cbba146	0.02290405
24	0xbdcd997d	-0.10039041
25	0x3d3d0bd0	0.046153843
26	0xbd462b40	-0.04838109
27	0xbdcc1f63	-0.09966924
28	0xbd2f5408	-0.042804748
29	0xbc054eaa	-0.008136431
30	0x3d2ddd81	0.04244757
31	0xbd63207d	-0.055450905
32	0xbca7d050	-0.020485073
33	0x3d9e5392	0.077307835
34	0xbc2cc0b1	-0.010543988
35	0xba004a7b	-0.0004893911
36	0xbd2157be	-0.039390318
37	0xbc9d94ef	-0.019236056
38	0x3c5f9687	0.013646728
39	0xbb151b4f	-0.0022751873
40	0x3b77657f	0.0037749705
41	0x3c0249c1	0.007952155
42	0x3c114cc8	0.008868404
43	0x3cee0cff	0.029058931
44	0xbd62bf8e	-0.055358462
45	0x3b4427bc	0.002993091
46	0xbd2774ea	-0.040882982
47	0xbd566d2f	-0.05235022
48	0x3daa9bcf	0.083304994
49	0x3ce5a3df	0.028032241
50	0x3dc33933	0.09532394
51	0xbdec287d	-0.1153116
52	0xbc5b13f2	-0.013371455
53	0xbc2772b8	-0.010220222
54	0x3dd55f19	0.10418529
55	0x3d66ed88	0.05637887
56	0x3d3c2e24	0.04594244
57	0xbd62cd3f	-0.05537152
58	0x3b95e5a7	0.004574496
59	0xbd276bf8	-0.04087445
60	0x3c65304a	0.013988564
61	0x3cb4fc9c	0.02209311
62	0xbb85027b	-0.0040591336
63	0x3df92cc5	0.12166742
64	0x3d88018c	0.0664092
65	0xbe23e401	-0.16004945
66	0xba84d64b	-0.0010134665
67	0x3d66e91f	0.056374665
68	0x3df9037d	0.121588685
69	0x3c4f1d52	0.012641268
70	0x3dac2619	0.08405704
71	0xbe5c46bc	-0.21511358
72	0x3c77802e	0.015106244
73	0x3b256ada	0.002524069
74	0x3dc23b74	0.09483996
75	0xbd1d2d92	-0.038373537
76	0xbd06b287	-0.0328851
77	0x3c6df00e	0.0145225655
78	0x3c3b4b0d	0.011431468
79	0x3d294d70	0.041333616
80	0x3d5ffbfe	0.054683678
81	0xbcc4077f	-0.023929356
82	0xbcf98af1	-0.03046176
83	0xbbd826f9	-0.006596443
84	0xbafb53dd	-0.0019174773
85	0x3c713dea	0.014724234
86	0xbd2297e1	-0.039695624
87	0x3bcfb8cc	0.006339168
88	0x3e4663a0	0.19373941
89	0x3cb3e167	0.021958066
90	0x3d9065ee	0.070506915
91	0xbd255321	-0.04036248
92	0xbd890841	-0.066910274
93	0xbd43fff2	-0.04785151
94	0x3b2518f2	0.002519187
95	0xbd3114f8	-0.043232888
96	0xb8cce678	-9.770406e-05
97	0xbc95c91d	-0.018284375
98	0xbd914f3e	-0.070951924
99	0xbd4ef081	-0.05052233
100	0xbdea57ac	-0.11442503
101	0x3d4f2119	0.050568674
102	0xbd0dda29	-0.034631882
103	0x3cb836cc	0.022487067
104	0xbbe1ae78	-0.0068872534
105	0x3d82c87e	0.06385897
106	0x3d2e4c77	0.04255339
107	0x3d671627	0.05641761
108	0xbb8a671a	-0.0042237164
109	0xbdd52799	-0.10407943
110	0x3db68d0f	0.089136235
111	0x3d0d91d4	0.0345629
112	0x3d6dde72	0.05807347
113	0x3d0c06cb	0.034186166
114	0xbb4aba54	-0.0030933814
115	0xbc57fffa	-0.013183588
116	0x3d45485e	0.048164718
117	0x3e14165e	0.14461657
118	0x3d5ebc06	0.054378532
119	0x3d02c6fb	0.031928044
120	0x3d14e474	0.036350682
121	0x3d268375	0.04065271
122	0xbc8bc260	-0.017060459
123	0x3cff2cab	0.031149229
124	0xbd42160b	-0.047384303
125	0xbdbc2e1c	-0.09188482
126	0xbdba0f41	-0.09084941
127	0xbb5a0c09	-0.0033271334
128	0xbcd37506	-0.025812637
129	0xbdbf9266	-0.09354095
130	0x3de6891b	0.112566195
131	0xbb05148e	-0.002030644
132	0x3cb3e0a9	0.021957712
133	0xbba9de1c	-0.005183948
134	0xbbf6b29c	-0.007528616
135	0x3d98b3e5	0.07456187
136	0xbd53cc77	-0.051708665
137	0xbd1eb2e7	-0.038744833
138	0xbd27cedc	-0.04096876
139	0xbcebeca4	-0.028799362
140	0x3c4b938c	0.012425315
141	0xbd77e932	-0.060525127
142	0x3e0d8eeb	0.1382405
143	0xbd03344b	-0.032032292
144	0xbb745350	-0.0037281103
145	0x3d157beb	0.03649513
146	0xbbca3a44	-0.0061714966
147	0x3d3f31d4	0.04667838
148	0xbd214be5	-0.03937902
149	0xbd01a477	-0.031650987
150	0x3d9e7de4	0.077388555
151	0xbd4ecdb5	-0.050489146
152	0x3ceae468	0.028673366
153	0xbdd69fca	-0.10479696
154	0xbd878b70	-0.066183925
155	0x3d5ae680	0.05344248
156	0x3d1457fb	0.036216717
157	0x3d8135ac	0.06309065
158	0xbd3e61ad	-0.04647987
159	0xbdd4f418	-0.1039812
160	0x3d105d1e	0.035245053
161	0xbdf8e48a	-0.12152965
162	0x3d219531	0.03944892
163	0xbc9f5223	-0.019448346
164	0x3d62861c	0.055303678
165	0x3d0f4dba	0.034986235
166	0x3c5468c1	0.012964428
167	0x3ca5f4f1	0.020258399
168	0xbc5a6a85	-0.01333106
169	0x3d7e9e17	0.062162485
170	0x3cfcec67	0.030874444
171	0xbc98d03c	-0.018653981
172	0x3e0e4d3f	0.13896655
173	0xbd16d91a	-0.036828138
174	0x3b8921f3	0.0041849553
175	0x3c893706	0.01674987
176	0xbd1e1edd	-0.038603652
177	0xbd08c0c6	-0.033386968
178	0xbdb6a2b2	-0.089177504
179	0xbdf2a602	-0.1184807
180	0x3c4eb3ed	0.01261614
181	0xbdad090b	-0.084489904
182	0xbd207c78	-0.039181203
183	0x3dc57205	0.09640888
184	0x3d780209	0.060548816
185	0xbd292c67	-0.04130211
186	0x3c853e0c	0.016264938
187	0x3d3fb118	0.04679975
188	0x3d380e96	0.044935785
189	0x3c6b4503	0.014359715
190	0xbdc4e0a2	-0.09613158
191	0xbd00bb98	-0.031428903
192	0x3cceee90	0.02526024
193	0x3d0fb600	0.035085678
194	0x3ada527c	0.0016656662
195	0x3ba6dd99	0.0050923345
196	0x3c535fa9	0.012901225
197	0x3dba3bc5	0.090934314
198	0xbccc31e5	-0.024926135
199	0xbc44f046	-0.012020176
200	0xba1826ed	-0.000580414
201	0xbda0b93e	-0.07847832
202	0xbd11a4ba	-0.035557486
203	0x3d824f91	0.06362832
204	0xbca477b3	-0.020076608
205	0x3a5fa0f9	0.00085307617
206	0xbcce7b9b	-0.025205424
207	0x3e02525d	0.12726732
208	0x3c38ded8	0.011283599
209	0x3cb27bb6	0.021787506
210	0xbc4cd152	-0.012501078
211	0x3d313c0f	0.043270167
212	0x3e9e3651	0.30900815
213	0xbcbd339a	-0.023095895
214	0x3e0cd5f1	0.13753487
215	0x3dd26e9a	0.10275002
216	0x3d68e06b	0.056854647
217	0xbdb17d4c	-0.086664766
218	0xbb340c77	-0.002747325
219	0x3b86795f	0.004103824
220	0xbe32d7cb	-0.17465131
221	0xbbf7006a	-0.007537891
222	0x3ca70702	0.020389084
223	0xbd3ba400	-0.0458107
224	0x3e1a6916	0.1507915
225	0x3d3e9c87	0.046535995
226	0x3c8b301d	0.016990716
227	0x3ba0dfd9	0.004909497
228	0xbd6b7370	-0.057483137
229	0xbcdb329e	-0.026757535
230	0x3d04b6ee	0.032401018
231	0xbd790fed	-0.060806204
232	0x3cef35e5	0.029200504
233	0x3e1e40d8	0.15454423
234	0xbd5b0ada	-0.053477146
235	0x3e28e4ed	0.16493578
236	0xbd288955	-0.041146595
237	0xbcc3d309	-0.02390434
238	0x3e376aac	0.17911786
239	0xbd4d6508	-0.05014518
240	0xbcef3b1e	-0.029202994
241	0xbc86e775	-0.01646779
242	0xbd41d548	-0.04732254
243	0x3b02ac12	0.0019938988
244	0x3c6e2892	0.01453604
245	0xbc08c0ec	-0.008346777
246	0xbc86928a	-0.016427297
247	0x3d7c3416	0.06157311
248	0x3daf624f	0.08563673
249	0x3e06e0ce	0.13171694
250	0xbe317f1d	-0.17333646
251	0xbd32a3ea	-0.043613352
252	0xbc023deb	-0.007949333
253	0x3d27b3de	0.04094302
254	0x3db019e8	0.08598691
255	0xbd8c5597	-0.068522625

fc2a.bias f4 [4]
0	0xbe868836	-0.26275796
1	0x3e30d6d5	0.17269452
2	0xbdfe6af5	-0.12422744
3	0x3d43d296	0.047808252

fc2c.weight f4 [1, 200]
0	0xbc765bdf	-0.015036552
1	0xbce35a3c	-0.027752988
2	0xbcbaea86	-0.022816908
3	0x3d1ac66f	0.037786897
4	0xbc8293e7	-0.015939666
5	0x3cfa6142	0.030563954
6	0xbc02ba93	-0.007979053
7	0x3ceebeb1	0.029143663
8	0xbb9391e6	-0.0045034764
9	0x3befcf67	0.0073184255
10	0xbb75044c	-0.0037386594
11	0xba934047	-0.0011234366
12	0xbda002ad	-0.0781301
13	0x3d83b870	0.06431663
14	0x3c8481ca	0.01617517
15	0xbe85ca38	-0.26130843
16	0xbdaf71bd	-0.08566616
17	0x3e1fabbe	0.15592858
18	0xbd014b61	-0.031566028
19	0x3b3e1942	0.0029006754
20	0x3ccd3ee7	0.025054408
21	0xbd262259	-0.0405601
22	0x3d5c7820	0.053825498
23	0xbd844759	-0.06458921
24	0x3d15a6b8	0.03653595
25	0x3cdd8282	0.02703977
26	0xbc08e4b2	-0.008355306
27	0x3d2a960f	0.041647013
28	0xbcd0251b	-0.025408318
29	0x3b11bd16	0.0022237948
30	0x3cd8a2ff	0.02644491
31	0xbd133266	-0.035936736
32	0xbc98940e	-0.018625285
33	0xbca20d50	-0.019781739
34	0xbd0f4015	-0.034973223
35	0x3d74883f	0.059700247
36	0xbca5684d	-0.020191336
37	0xbd82a881	-0.06379796
38	0x3d408e16	0.047010504
39	0xbb620afd	-0.0034491413
40	0x3bcb7f74	0.006210262
41	0xbc1fcf18	-0.009753965
42	0xbb178730	-0.002312135
43	0xbc85fddd	-0.016356403
44	0x3c279419	0.01022818
45	0x3c368e2d	0.011142296
46	0xbc478e03	-0.012179854
47	0x3e19de6c	0.15026253
48	0xbdb0a3fe	-0.08625029
49	0x3c121fd0	0.0089187175
50	0x3df2e61e	0.118602976
51	0x3eb8df1b	0.36107716
52	0xb9d6915f	-0.0004092557
53	0xbc8d9499	-0.017282771
54	0x3b2c2803	0.0026268966
55	0xbc3ee2d5	-0.011650761
56	0x3d0e0da1	0.034680966
57	0xbc31fa04	-0.010862831
58	0xbc7717e4	-0.01508138
59	0x3e37caf4	0.17948514
60	0xbc721702	-0.014775993
61	0x3cd4dffa	0.025985707
62	0xbd44cf87	-0.048049476
63	0xbd6f6dbf	-0.05845427
64	0xbed3f689	-0.4139903
65	0x3c6b69b9	0.014368468
66	0xbc596692	-0.013269084
67	0xbd134f1c	-0.035964116
68	0xbdedf880	-0.11619663
69	0xbbd2de9f	-0.00643523
70	0x3e59907b	0.21246521
71	0x3e213561	0.15743019
72	0xbd041dc0	-0.032254934
73	0xbc03c920	-0.008043557
74	0x3db12e66	0.08651428
75	0xbdd95cef	-0.10613429
76	0x3d69481a	0.056953527
77	0xbc1e070b	-0.009645234
78	0xbd3f2f20	-0.0466758
79	0xbce1a013	-0.02754215
80	0x3d15fe8e	0.036619715
81	0x3cbc7ead	0.023009622
82	0xbc0111aa	-0.007877747
83	0xbc95f32e	-0.018304434
84	0xbc765caa	-0.015036741
85	0xbb94dda7	-0.0045430246
86	0xbd00e6e4	-0.031470194
87	0xbb21f539	-0.0024712814
88	0xbdc469fc	-0.095905274
89	0xbd731b19	-0.059352014
90	0x3bc0c604	0.0058829803
91	0xbcb5c242	-0.022187356
92	0x3dad5b90	0.0846473
93	0xbc0eaa22	-0.008707555
94	0x3ac7583e	0.0015208793
95	0xbbddeaba	-0.0067723664
96	0x3cea4220	0.028595984
97	0xbb7ec4cf	-0.0038874631
98	0xbdcdcae9	-0.10048468
99	0xbcbec78e	-0.023288514
100	0x3c92ecaa	0.017935116
101	0x3c44ea62	0.012018772
102	0xbe68f24b	-0.22748677
103	0x3cdbf54e	0.026850369
104	0xbe5d97ef	-0.2163999
105	0xbb175e1b	-0.0023096863
106	0xbce1c60f	-0.027560262
107	0x3da679bd	0.081286885
108	0x3cc8ba00	0.024502754
109	0x3d9a3156	0.07528941
110	0x3d2d11b6	0.04225322
111	0xbc1dff7b	-0.009643431
112	0x3dd7a4d8	0.10529488
113	0xbce47e22	-0.027892176
114	0x3d72f5e5	0.059316535
115	0xbb841fca	-0.00403211
116	0xbac8bc0d	-0.0015314833
117	0xbd940a1a	-0.07228489
118	0xbc840cf5	-0.01611946
119	0x3e0ef43d	0.13960357
120	0xbb842308	-0.0040324964
121	0x3d9b8b03	0.07594874
122	0xbd0c9fc6	-0.03433206
123	0x3b9a151c	0.0047022235
124	0x3c44dfbd	0.012016234
125	0x3da57c4c	0.08080348
126	0x3d15a3b9	0.03653309
127	0xbd3c9c17	-0.046047296
128	0x3e47b49c	0.19502491
129	0x3d90a8ea	0.07063468
130	0xbe35be8e	-0.17748472
131	0xbd83a69c	-0.064282626
132	0x3c353b99	0.0110615725
133	0xbd8911aa	-0.06692822
134	0x3b98fd40	0.0046688616
135	0xbd388eb2	-0.04505796
136	0xbd72d037	-0.0592806
137	0x3e4d1c18	0.20030248
138	0x3bed10dc	0.007234676
139	0x3c819f48	0.015823022
140	0x3be59936	0.0070067896
141	0x3d71c149	0.05902222
142	0xbdd122af	-0.102116935
143	0xbde9a274	-0.114079386
144	0x3d77cbe9	0.0604972
145	0xbcb8435a	-0.022493053
146	0x3cb80b9b	0.022466471
147	0xb89282b4	-6.986168e-05
148	0x3caea933	0.021320915
149	0x3ce5f2aa	0.028069813
150	0x3bfa63d4	0.007641295
151	0xbd3c8779	-0.046027634
152	0x3ce220bf	0.027603505
153	0x3cd4a0f8	0.025955662
154	0xbcf81b28	-0.030286387
155	0x3d27b491	0.040943686
156	0xbd2418e8	-0.040062815
157	0xbe0828a1	-0.13296749
158	0x3d799fa5	0.060943265
159	0x3d3c793a	0.04601405
160	0xbce6adeb	-0.028159102
161	0xbc69e251	-0.014275149
162	0xbbdc0e28	-0.0067155547
163	0x3d6fdeb1	0.058561984
164	0x3b99dc6d	0.0046954663
165	0x3bc29e13	0.005939254
166	0xbbdc95f7	-0.0067317444
167	0x3ac9299f	0.0015347487
168	0x3c039e72	0.008033382
169	0x3d894c69	0.06704027
170	0x3d945205	0.072422065
171	0xb9ef7a24	-0.00045676634
172	0xbe027140	-0.12738514
173	0xbd80af69	-0.06283457
174	0x3c87ad77	0.016562207
175	0xbbef2936	-0.007298614
176	0x3c56ec6d	0.013117892
177	0xbdb059e1	-0.08610893
178	0xbdfaf7b6	-0.12254278
179	0xbdf2b101	-0.11850167
180	0xbcfcbef7	-0.030852778
181	0x3d872f36	0.06600802
182	0xbc8d4d02	-0.017248634
183	0x3cab7bb6	0.020933013
184	0xbdaf9d58	-0.08574933
185	0x3c78fd5b	0.015197123
186	0xbc323883	-0.010877731
187	0x3e23b5fd	0.15987392
188	0x3d98d99d	0.074633814
189	0xbc6112ea	-0.01373742
190	0xbce75bb5	-0.028241972
191	0xbb8340cf	-0.0040055285
192	0x3b0ee09f	0.0021801365
193	0xbd15b4a7	-0.036549237
194	0x3d3d0fd5	0.046157677
195	0xbc4a302f	-0.012340589
196	0x3d0629b0	0.0327546
197	0xbd817edb	-0.06323024
198	0xbcd0e4a0	-0.025499642
199	0xbbecaff0	-0.007223122
