whole_experiment/7_env/vae_last.pth (torch, 55227 bytes, 14 tensors)

conv_enc1.weight f4 [8, 3, 3, 3]
0	0xbea36c30	-0.31918478
1	0xbd9b0506	-0.075693175
2	0x3e4c74c8	0.19966424
3	0xbe866655	-0.26249948
4	0x3d557651	0.05211479
5	0xbe60d97a	-0.2195796
6	0xbdd8fc13	-0.10594954
7	0x3decf0c0	0.11569357
8	0x3db54a64	0.088520795
9	0xbe3349d2	-0.17508629
10	0x3d92a9bb	0.0716128
11	0x3e4decf1	0.20109917
12	0xbe9b20ef	-0.30298564
13	0x3e332701	0.17495348
14	0xbddb058f	-0.106944196
15	0xbe11cf3d	-0.14239211
16	0x3d994ea2	0.07485701
17	0x3dbdb5e4	0.092632085
18	0xbe53974e	-0.20663187
19	0xbd0f5695	-0.03499468
20	0x3d4c37ce	0.049857907
21	0xbe08a49a	-0.1334404
22	0x3d9d96ee	0.07694803
23	0x3d37fedc	0.044920787
24	0xbe0ac109	-0.135502
25	0xbd29eeaa	-0.041487373
26	0xbe2461fa	-0.16053
27	0x3df66ed2	0.12032856
28	0xbe8029f6	-0.25032014
29	0x3cddbbc2	0.027067069
30	0x3e0001c8	0.1250068
31	0x3e2d6c9a	0.1693596
32	0x3dbfc6c0	0.093640804
33	0xbdeea146	-0.11651854
34	0xbe438af6	-0.19095978
35	0x3c545b0d	0.012961161
36	0x3c149b3d	0.009070215
37	0xbe278fe2	-0.1636348
38	0xbe0b120c	-0.13581103
39	0x3e95cbf5	0.2925717
40	0x3dc113a9	0.09427578
41	0x3e152d66	0.145681
42	0xbe2fef76	-0.17181191
43	0xbe39c3b4	-0.18141061
44	0xbe80cf25	-0.2515804
45	0xbd9851bd	-0.07437465
46	0xbe57ae17	-0.21062504
47	0x3e48e484	0.19618422
48	0x3e5ac2ba	0.21363345
49	0x3e1d1175	0.1533869
50	0xbdc64364	-0.096808225
51	0xbe391536	-0.18074498
52	0xbbc2b4b3	-0.005941951
53	0xbe0b5a90	-0.13608766
54	0x3e417a88	0.18894398
55	0xbe063120	-0.13104677
56	0xbddbed26	-0.10738592
57	0x3e5f7c49	0.21824755
58	0x3d910952	0.07081856
59	0x3e3d693e	0.18497178
60	0x3e64478f	0.22292922
61	0x3e2b8b27	0.16752301
62	0xbe2e754d	-0.17036934
63	0x3c457d9b	0.012053872
64	0x3dc164ce	0.09443055
65	0xbd983930	-0.07432783
66	0x3e7c800e	0.24658224
67	0xbe1fa938	-0.15591896
68	0xbddc87e1	-0.10768104
69	0x3df591b0	0.11990678
70	0xbe3229a4	-0.17398697
71	0x3e3fc8ba	0.18728915
72	0x3e1c6d98	0.15276182
73	0x3e366d12	0.17815045
74	0x3e215901	0.15756609
75	0x3e6929ea	0.22769895
76	0xbcf7da75	-0.030255536
77	0x3d45cc8b	0.04829077
78	0x3e50dd66	0.20396957
79	0xbe43b5f8	-0.19112384
80	0x3e4a0500	0.1972847
81	0xbe1cf964	-0.1532951
82	0x3dc86d2b	0.09786447
83	0x3d832094	0.06402698
84	0x3e7a2e4e	0.24431726
85	0xbc6d30cb	-0.014476965
86	0xbdb242b7	-0.08704131
87	0x3df96d62	0.12179066
88	0xbe1ef371	-0.15522553
89	0x3dd82006	0.10552983
90	0x3de2d2b7	0.11075347
91	0x3e28fdf9	0.16503133
92	0xbb5e4d0f	-0.0033920442
93	0x3dbded45	0.09273771
94	0xbe8f69ad	-0.28010312
95	0xbe5f06a0	-0.21779871
96	0x3e5e759e	0.21724555
97	0x3e3135dd	0.17305703
98	0xbe0abfbc	-0.13549703
99	0xbcec981f	-0.02888113
100	0xbe196458	-0.14979684
101	0x3dd183a5	0.10230187
102	0xbdcef990	-0.10106194
103	0x3e5c0385	0.21485718
104	0x3e31175f	0.17294072
105	0x3e4b9fdf	0.19885205
106	0x3e207a8e	0.15671751
107	0xbd3b51f9	-0.045732472
108	0x3b112cbd	0.002215191
109	0x3e91938b	0.2843288
110	0x3e69fffc	0.22851557
111	0xbcc1a299	-0.023637103
112	0xbd9cbee1	-0.07653595
113	0x3c0b2a66	0.008493995
114	0x3d948f8d	0.07253943
115	0x3d4646ab	0.048407238
116	0xbdabd09d	-0.08389399
117	0x3e1c0b35	0.1523865
118	0x3e3623fe	0.17787167
119	0x3e290382	0.16505244
120	0xbe29c028	-0.16577208
121	0xbe8c1c36	-0.27365273
122	0x3e60a4b3	0.21937828
123	0xbdb41089	-0.08792216
124	0xbd8c4eed	-0.068509914
125	0x3e373f68	0.17895281
126	0x3cbd03d8	0.023073122
127	0xbc8aed25	-0.016958782
128	0x3d5a5fd0	0.05331403
129	0xbbd22dd5	-0.006414155
130	0x3c9969b0	0.018727154
131	0xbdf07b25	-0.11742238
132	0xbd2a8079	-0.041626427
133	0x3d41e86e	0.047340803
134	0xbd8bb18d	-0.068209745
135	0xbc29f0f5	-0.01037239
136	0xbeda609c	-0.42651832
137	0xbd28831c	-0.04114066
138	0x3d612d16	0.054974638
139	0x3e193bf8	0.14964283
140	0xbc27f076	-0.010250201
141	0xbe6ec226	-0.23316249
142	0xbe229da4	-0.15880448
143	0xbe54f82f	-0.207978
144	0x3cf4dffd	0.029891962
145	0xbe0bbeea	-0.13647047
146	0x3de9b78c	0.11411962
147	0xbd7daae7	-0.061930563
148	0x3d95132a	0.07279046
149	0x3df84b79	0.1212377
150	0xbdda98f0	-0.10673702
151	0xbe2d6cdf	-0.16936062
152	0xbe467b2e	-0.19382927
153	0x3d61c95f	0.055123683
154	0xbd328f53	-0.043593716
155	0xbe68dbea	-0.2274014
156	0xbdb4d3ef	-0.088294856
157	0x3e48409e	0.195559
158	0x3bd30fef	0.0064411084
159	0x3acfd28d	0.0015855596
160	0x3da77960	0.08177447
161	0x3de6f5d2	0.11277355
162	0xbe255e0e	-0.1614916
163	0x3d8d4c10	0.068992734
164	0xbe2e1f68	-0.17004168
165	0x3dd0786f	0.10179221
166	0xbd5f2597	-0.054479208
167	0xbdc96dc7	-0.098353915
168	0xbe9c593c	-0.3053683
169	0x3d896901	0.06709481
170	0xbe68ea2c	-0.2274558
171	0xbe5785ee	-0.21047184
172	0xbe425e57	-0.189813
173	0xbe218f67	-0.1577736
174	0xbce7e4df	-0.028307376
175	0xbd354ba6	-0.044261597
176	0xbd4f5dad	-0.050626446
177	0xbe7634dd	-0.24043603
178	0x3de03f31	0.10949553
179	0xbe214440	-0.15748692
180	0xbe783106	-0.24237451
181	0xbddc6b1c	-0.10762617
182	0xbd957886	-0.07298379
183	0xbc249db3	-0.010047364
184	0x3e76f3c0	0.24116421
185	0xbd943164	-0.07235983
186	0xbd5f27f9	-0.05448148
187	0x3e06a0cc	0.13147277
188	0x3df0ae3d	0.11751983
189	0xbe059524	-0.13045174
190	0xbd0e6ae1	-0.034769896
191	0xbd4b475d	-0.049628604
192	0xbdaf238b	-0.08551701
193	0xbcb58b4a	-0.022161145
194	0x3e3622dd	0.17786737
195	0xbe84abc5	-0.259123
196	0xbe006fff	-0.12542723
197	0x3d3abccf	0.04559022
198	0xbd6f0ee2	-0.058363803
199	0x3c8b06f9	0.016971098
200	0x3dd809fd	0.1054878
201	0xbd3641d7	-0.044496384
202	0xbe01f12e	-0.12689659
203	0x3da44197	0.08020323
204	0xbd9c1ef8	-0.07623094
205	0xbd84c1d6	-0.06482284
206	0x3e41bfb4	0.18920785
207	0x3cba460f	0.022738485
208	0x3d786f79	0.060653184
209	0xbe0053bf	-0.12531947
210	0xbe08fff2	-0.13378885
211	0xbe32c6b0	-0.17458606
212	0x3da938a4	0.082627565
213	0xbd9fab84	-0.07796386
214	0xbe5ad951	-0.21371962
215	0x3e7e65de	0.24843547

conv_enc1.bias f4 [8]
0	0xbd31b817	-0.043388452
1	0xbc9b18a4	-0.018932648
2	0xbc53b6f5	-0.012922038
3	0xbde052eb	-0.10953315
4	0xbd72fdf5	-0.059324224
5	0x3d660858	0.0561603
6	0x3e333973	0.17502384
7	0xbdf27e54	-0.118405014

conv_enc2.weight f4 [16, 8, 3, 3]
0	0xbdedcf3c	-0.116117924
1	0x3e144bfc	0.1448211
2	0xbd2cb9f3	-0.042169522
3	0x3b95c9ea	0.004571189
4	0xbde8f874	-0.11375514
5	0xbd498f2f	-0.049208816
6	0x3d356ae5	0.044291396
7	0x3d2b0394	0.04175146
8	0x3e4ab8e3	0.19797091
9	0xbd2780fe	-0.0408945
10	0xbdad333a	-0.08457036
11	0x3c7ab27d	0.015301344
12	0xbda44bfc	-0.08022305
13	0xbd8b9561	-0.06815601
14	0x3e29c4df	0.16579007
15	0xbe0543d6	-0.13014159
16	0x3d5bc6a8	0.05365625
17	0xbd88b8fd	-0.06675909
18	0xbd640771	-0.05567116
19	0xbddb6d71	-0.10714234
20	0x3dab358a	0.08359821
21	0xbd246fd0	-0.040145695
22	0xbd5b317b	-0.053513985
23	0x3df255c1	0.118327625
24	0xbe1767aa	-0.14785638
25	0xbe189223	-0.14899497
26	0x3bfe2485	0.0077558183
27	0xbe5400de	-0.20703456
28	0xbe1060a8	-0.14099371
29	0x3e2ca0c8	0.16858208
30	0xbe22533d	-0.15852065
31	0xbe1cf2a2	-0.15326932
32	0x3e20ab30	0.15690303
33	0xbe6a6bcd	-0.22892685
34	0xbdc391c8	-0.0954929
35	0x3d23e33f	0.04001164
36	0xbdd1bc48	-0.1024099
37	0xbba20ebf	-0.0049456055
38	0xbc75c4fe	-0.01500058
39	0xbd495766	-0.049155615
40	0x3dbbe613	0.091747425
41	0xbcad308d	-0.021141315
42	0x3da31cae	0.079644546
43	0x3de595c6	0.11210208
44	0x3e58e7a9	0.21182121
45	0xbe28e2d1	-0.16492774
46	0xbd83047f	-0.06397342
47	0xbe2d764e	-0.16939661
48	0x3d3e004b	0.046387
49	0x3ce50d9c	0.027960591
50	0x3e042feb	0.12908904
51	0xbd4e628f	-0.05038696
52	0xbd397604	-0.045278564
53	0xbe28b26d	-0.16474314
54	0xbcd6a10c	-0.02619984
55	0x3d88493a	0.06654592
56	0xbdb7b03c	-0.08969161
57	0x3c5afe73	0.0133663295
58	0x3d940c84	0.0722895
59	0xbd9f2122	-0.077699915
60	0xbdbe766b	-0.0929993
61	0xbe7d5d89	-0.24742712
62	0xbe2690b2	-0.16266134
63	0x3d1ea62d	0.038732696
64	0x3e2c8961	0.16849281
65	0x3dcaab48	0.098959506
66	0x3e402115	0.1876262
67	0x3e499841	0.19686987
68	0xbd4141ff	-0.04718208
69	0x3bd94c44	0.006631406
70	0x3d9d54a3	0.07682159
71	0x3cf3aa7c	0.02974438
72	0xbd18f691	-0.03734452
73	0xbc96acfc	-0.018393032
74	0x3e194936	0.14969334
75	0xbd8b98d5	-0.0681626
76	0x3e205715	0.15658219
77	0xbcc32f1e	-0.023826178
78	0xbe2d663e	-0.16933534
79	0x3db30060	0.08740306
80	0x3d4f5a4c	0.050623223
81	0xbe03e532	-0.128804
82	0xba723cb5	-0.00092406134
83	0x3cd6f32e	0.026239004
84	0xbc1ed46d	-0.009694201
85	0x3c8171d6	0.015801352
86	0x3b6e74cc	0.0036385534
87	0x3b96fc40	0.0046077073
88	0xbdeb5da8	-0.11492473
89	0xbca5ff29	-0.020263271
90	0x3d04fe67	0.03246918
91	0x3dcfb3ea	0.10141738
92	0x3ca840a8	0.020538643
93	0x3dc79d6c	0.09746823
94	0x3d96a245	0.07355169
95	0xbd5e9ae5	-0.054346938
96	0x3c9c568d	0.01908424
97	0xbe0542fe	-0.13013837
98	0xbd701232	-0.058611102
99	0x3dee06fc	0.11622426
100	0xbda0fc4f	-0.07860624
101	0x3c810133	0.015747642
102	0xbcca0672	-0.024661276
103	0xbd114abd	-0.035471667
104	0xbcdb7bbd	-0.026792401
105	0xbd0f5ca0	-0.035000443
106	0xbdea2956	-0.114336655
107	0xbd917d64	-0.071039945
108	0xbc59b78f	-0.013288393
109	0xbdb5125a	-0.08841391
110	0xbc13a281	-0.009010912
111	0xbe891e5c	-0.26780975
112	0xbe0df2b0	-0.13862109
113	0xbe1ac026	-0.15112361
114	0x3dcf3e2f	0.101192825
115	0xbc894050	-0.0167543
116	0xbdb8d9dc	-0.090259284
117	0xbc79f046	-0.01525504
118	0xbd51ca56	-0.051218353
119	0x3c1aea20	0.009455234
120	0x3dd4b36e	0.10385786
121	0x3d30fd7d	0.043210495
122	0xbd238ddf	-0.03993022
123	0xbda28732	-0.07935943
124	0x3dac7aa9	0.08421833
125	0xbd8138b7	-0.063096456
126	0xbe167da0	-0.1469636
127	0xbdf02ee1	-0.117276914
128	0x3c5f5578	0.013631217
129	0xbd27ab0f	-0.04093462
130	0xbe55fca5	-0.20897157
131	0xbe0b1a12	-0.13584164
132	0x3c29e121	0.010368616
133	0xbe8364d6	-0.2566287
134	0xbcbd6372	-0.023118708
135	0x3d2c08dd	0.04200064
136	0x3db03ee1	0.08605743
137	0xbd0acc48	-0.033886224
138	0xbce2a945	-0.027668605
139	0x3de6f976	0.1127805
140	0xbdda734f	-0.106665246
141	0x3d95f330	0.07321775
142	0x3d11b47e	0.03557252
143	0xbd497d62	-0.04919184
144	0x3e469509	0.1939279
145	0xbe754681	-0.23952676
146	0x3d69624b	0.056978505
147	0xbca23c2d	-0.019804085
148	0xbd310a25	-0.043222565
149	0xbd372c01	-0.0447197
150	0xbccdadf6	-0.025107365
151	0x3dee585a	0.116379455
152	0xbe093876	-0.13400444
153	0xbbc500b1	-0.0060120453
154	0xbe0b7e80	-0.13622475
155	0x3db0f181	0.08639813
156	0x39880fa9	0.0002595161
157	0xbb1e09e8	-0.0024114791
158	0xbdce4179	-0.10071082
159	0x3b9cac6f	0.004781298
160	0xbdcfe6ea	-0.10151465
161	0xbd88bdff	-0.06676864
162	0xbe7371f2	-0.23773935
163	0xbdbce324	-0.09223011
164	0x3cb4d244	0.022072919
165	0xbdbbd17c	-0.09170815
166	0x3d978132	0.07397689
167	0x3def668a	0.1168948
168	0x3e260887	0.1621419
169	0x3cabfed1	0.02099553
170	0x3e3066ad	0.17226668
171	0xbb616bc1	-0.0034396502
172	0x3c3b9939	0.011450105
173	0xbd3ec565	-0.04657497
174	0x3c72c6f8	0.014817946
175	0xbd5320b6	-0.051544867
176	0x3dd07c90	0.101800084
177	0x3e33afd7	0.17547546
178	0x3da76033	0.081726454
179	0x3dd85f4c	0.105650514
180	0xbca058ae	-0.019573536
181	0xbd86a350	-0.06574118
182	0xbcb9192b	-0.022595009
183	0xbe21d55f	-0.15804051
184	0x3cce6f6f	0.02519962
185	0x3d4e4c03	0.05036546
186	0x3db0061b	0.085949145
187	0xbe1bf04e	-0.15228388
188	0xbdf14105	-0.117799796
189	0xbe096664	-0.13417965
190	0xbe3e06d3	-0.1855729
191	0x3d8fa738	0.07014316
192	0xbd9a1cea	-0.07525046
193	0x3cbea561	0.023272218
194	0xbe1c7ff2	-0.15283182
195	0xbd0c124f	-0.034197148
196	0x3d4c88ba	0.04993508
197	0xbe58884e	-0.21145746
198	0x3c373d33	0.011184025
199	0xbe39d26a	-0.18146673
200	0xbcfff214	-0.031243362
201	0xbcf5ea20	-0.030018866
202	0x3de63e75	0.112423815
203	0xbc79d089	-0.015247473
204	0xbe01e7c4	-0.12686068
205	0xbdafe602	-0.085887924
206	0xbe4853c6	-0.19563207
207	0xbcce77dd	-0.02520364
208	0xbe27b59c	-0.16377872
209	0xbc96f67d	-0.018428082
210	0x3d0802a9	0.033205662
211	0xbdf0ab83	-0.11751463
212	0xbe26a86a	-0.16275182
213	0x3e0c9186	0.13727388
214	0xbdffa3ee	-0.12482439
215	0xbd052ad3	-0.032511543
216	0x3e1d7044	0.15374857
217	0xbbc2e8dc	-0.005948169
218	0xbe8ed81d	-0.27899256
219	0x3c1c2895	0.00953116
220	0xbe86cf83	-0.26330194
221	0xbda437ee	-0.0801848
222	0x3dcde849	0.100540705
223	0x3e1a5b2d	0.15073843
224	0xbd452e6f	-0.048139986
225	0xbc87da34	-0.01658354
226	0x3e07b1a1	0.13251354
227	0xbe241cc6	-0.16026601
228	0x3c457fce	0.012054397
229	0xbddacd34	-0.10683671
230	0x3bef9e9d	0.0073126093
231	0xbda96c89	-0.082726546
232	0xbe00c50c	-0.12575167
233	0x3e28cf09	0.16485228
234	0xbe56ea2f	-0.20987771
235	0xbe1bd2a7	-0.15217076
236	0x3d1178bc	0.035515532
237	0xbb9ea31e	-0.0048412224
238	0x3d26ca2e	0.040720157
239	0x3dbfb559	0.09360761
240	0xbde59d06	-0.112115905
241	0xbc3586d0	-0.011079505
242	0x3e259944	0.16171747
243	0xbe29002f	-0.16503976
244	0x3ce1a34b	0.027543684
245	0xbcd97641	-0.026545646
246	0x3d896a10	0.06709683
247	0xbd8d6860	-0.069046736
248	0x3e101fd0	0.14074636
249	0x3cd1add9	0.025595592
250	0x3d563d0b	0.05230431
251	0x3d402d4c	0.0469182
252	0xbe34b969	-0.17648853
253	0x3da7ec5a	0.08199377
254	0xbd997e46	-0.07494788
255	0xbdbd8b62	-0.09255101

conv_enc2.bias f4 [16]
0	0x3d7c509f	0.061600324
1	0xbdacf587	-0.08445268
2	0x3db743f8	0.08948511
3	0x3d40dce2	0.04708565
4	0xbd0876ea	-0.03331653
5	0x3d844fbd	0.06460521
6	0xbdb4f7c2	-0.088363186
7	0xbd3e123c	-0.04640411
8	0xbd75a0d9	-0.05996785
9	0x3d9efb86	0.07762818
10	0xbd918ef9	-0.07107348
11	0x3dd5d798	0.10441512
12	0xbcd1d317	-0.02561335
13	0x3df6c733	0.12049713
14	0x3cf067bb	0.029346338
15	0x3d096627	0.033544686

dense_encmean.weight f4 [8, 400]
0	0xbc927f9a	-0.01788311
1	0xbcecc9fb	-0.028904906
2	0x3ded2163	0.11578634
3	0x3e8bfaba	0.27339727
4	0x3ed751fb	0.42054734
5	0x3dce6269	0.10077364
6	0xbdc2224d	-0.094791986
7	0xbc6d9c5b	-0.01450261
8	0x3d5d19c6	0.053979658
9	0x3bf11e1f	0.007358327
10	0x3ca35656	0.01993863
11	0xbd061395	-0.03273352
12	0xbd3fc650	-0.046819985
13	0xbdd5554a	-0.10416658
14	0x3d798853	0.060921025
15	0x3d015343	0.031573545
16	0x3cfacd7f	0.030615566
17	0xbd7697a6	-0.060203217
18	0xbd899b5a	-0.06719084
19	0x3da2927c	0.07938096
20	0xbe95cf21	-0.2925959
21	0xbe05d715	-0.13070329
22	0xbd2d15f5	-0.042257268
23	0x3eaa4e4a	0.33262855
24	0x3ec65fe3	0.3874503
25	0x3c822ea6	0.015891384
26	0xbe88fb88	-0.26754403
27	0xbe2bc7bb	-0.1677541
28	0x3d692212	0.056917258
29	0x3dbbb15a	0.091646865
30	0xbe192f63	-0.14959483
31	0xbe8272e6	-0.25478286
32	0x3a9b0028	0.0011825608
33	0xbc57485c	-0.01313981
34	0xbc17801f	-0.009246855
35	0x3dc2cf31	0.09512175
36	0x3d3b18f1	0.045678083
37	0x3cb310a5	0.021858523
38	0xbd5dd0f5	-0.054154355
39	0x3cd52422	0.026018206
40	0x3d9deaf6	0.07710831
41	0xbd7799f3	-0.06044955
42	0xbd17809e	-0.036987893
43	0xbc5badf6	-0.013408175
44	0x3be24f9e	0.0069064638
45	0xbc152928	-0.009104051
46	0xbdcf718c	-0.10129079
47	0xbcbb68b8	-0.022877082
48	0x3b8f896d	0.004380396
49	0x3c911127	0.017708374
50	0x3d3293b2	0.043597884
51	0xbd03e3e7	-0.032199766
52	0x3dc2c7f0	0.09510791
53	0xbd104733	-0.03522415
54	0x3dd8dfe9	0.105895825
55	0xbcfe29d3	-0.031025803
56	0x3c518b6a	0.012789587
57	0xbceb1efd	-0.0287013
58	0xbdfdb251	-0.12387527
59	0x3cecb97e	0.028897043
60	0xbc05bc03	-0.008162501
61	0x3d86d0ae	0.06582771
62	0xbda00833	-0.07814064
63	0xbdb29b87	-0.08721071
64	0xbd2899f2	-0.04116244
65	0xbb922ee2	-0.0044611553
66	0xbd1d7a75	-0.038446862
67	0xbe185059	-0.148744
68	0xbd6b22b1	-0.05740613
69	0x3df7fae1	0.12108398
70	0x3da7876f	0.08180129
71	0xbe39ad0c	-0.18132418
72	0xbe97250e	-0.29520458
73	0xbc512aec	-0.012766581
74	0x3e7a8126	0.24463329
75	0x3d926e2e	0.07149921
76	0x3de30598	0.11085051
77	0xbc0f0f2f	-0.008731647
78	0xbdf0d4de	-0.11759351
79	0xbd9b0ae0	-0.075704336
80	0x3cf5f9ab	0.030026278
81	0xbc5c6629	-0.013452091
82	0xbcac9d16	-0.021070998
83	0xbdb8ac16	-0.09017198
84	0x3b67ce86	0.00353709
85	0x3d8f09da	0.06984301
86	0xbccbfdcd	-0.024901295
87	0x3974ce31	0.00023346466
88	0xbdeebbf9	-0.11656947
89	0x3dc54888	0.09632975
90	0xbd77ac0f	-0.060466822
91	0xbc934986	-0.017979395
92	0xbe2e34d2	-0.17012337
93	0x3cbf7f1e	0.023376044
94	0x3e67f1a4	0.22650772
95	0xbdb964f4	-0.090524584
96	0xbe5d8efb	-0.21636574
97	0xbe8c2477	-0.2737157
98	0x3dd774fb	0.10520359
99	0x3ead6d9c	0.33872688
100	0x3ced80b2	0.02899203
101	0x3d2da33e	0.042392008
102	0xbb64175c	-0.0034803962
103	0xbd2e113c	-0.042496905
104	0xbbfeea65	-0.007779407
105	0xbcdfb976	-0.027310114
106	0x3d24e579	0.040257905
107	0xbcba8090	-0.022766382
108	0x3cb1a2c9	0.021684067
109	0xbc37b9f3	-0.011213767
110	0x3ab57780	0.0013844818
111	0x3cd96b3f	0.026540397
112	0xbd446dfe	-0.04795646
113	0x3c8ef507	0.017450823
114	0xbd1e8991	-0.038705412
115	0x3d0288ec	0.03186886
116	0x3cd5fe65	0.026122281
117	0x3d538825	0.05164351
118	0x3c7a8207	0.01528979
119	0xbd263a84	-0.04058315
120	0x3b058dc6	0.0020378693
121	0xbd1b4870	-0.03791088
122	0xbcf6209c	-0.030044846
123	0x3d2fab74	0.04288812
124	0x3d42d4af	0.047566112
125	0x3d81f3f7	0.06345361
126	0x3ea08f59	0.31359366
127	0x3cc1687b	0.02360939
128	0xbe601ff7	-0.21887194
129	0xbd919050	-0.071076035
130	0x3ddef907	0.10887342
131	0x3e177437	0.14790426
132	0xbd66027b	-0.05615471
133	0x3983fc0c	0.00025174057
134	0xbdbea9df	-0.09309744
135	0x3de4cfb4	0.11172429
136	0x3e0ec625	0.13942774
137	0x3e756e19	0.2396778
138	0xbd557d72	-0.052121587
139	0xbde2a5e2	-0.11066796
140	0x3c4a460e	0.012345804
141	0xbd83ae40	-0.0642972
142	0x3d371fbe	0.044708006
143	0x3d90e237	0.07074397
144	0xbc868c72	-0.016424391
145	0xbcb04b5b	-0.021520307
146	0x3e08452d	0.13307638
147	0x3d274c44	0.040844217
148	0xbd0ee171	-0.034882966
149	0xbdbcf888	-0.09227091
150	0x3d5a08aa	0.05323092
151	0xbe73eb00	-0.23820114
152	0xbe4845e5	-0.19557913
153	0xbe6f5c70	-0.23375106
154	0x3e345482	0.17610362
155	0xbb81fe01	-0.003967047
156	0xbe804617	-0.25053474
157	0x3da26ad7	0.07930534
158	0x3c74c814	0.0149402805
159	0x3ba3ef18	0.0050028674
160	0x3da8f2af	0.08249413
161	0xbdeed60d	-0.11661921
162	0x3d8140e8	0.06311208
163	0xbd92f850	-0.07176268
164	0x3d35d77d	0.04439496
165	0xbc4876c5	-0.012235348
166	0xbced2308	-0.028947368
167	0x3c2187f5	0.009859075
168	0xbd66cc90	-0.05634743
169	0xbc8a669f	-0.016894637
170	0x3d5dc6f3	0.05414481
171	0xbd11a677	-0.035559144
172	0xbd0f1d1b	-0.034939867
173	0x3ceaaa82	0.028645758
174	0x3d938c4a	0.072044924
175	0x3b92cd33	0.004480028
176	0x3d121e21	0.035673264
177	0xbd59a951	-0.05313999
178	0x3de973cb	0.11399039
179	0x3ed8f577	0.42374775
180	0xbd8881c4	-0.06665376
181	0xbd806757	-0.062697105
182	0xbdd49730	-0.10380399
183	0x3ea96851	0.330874
184	0x3e4ae385	0.19813354
185	0x3d98c668	0.07459718
186	0x3ce36697	0.02775888
187	0xbc63f30b	-0.013912926
188	0xbdff466d	-0.124646045
189	0x3d8b9561	0.06815601
190	0x3d1b182a	0.03786484
191	0xbc3aecac	-0.011408966
192	0xbbe10bfd	-0.006867884
193	0xbdcf56fb	-0.10124012
194	0xbca3b4cf	-0.019983677
195	0xbd98af73	-0.07455339
196	0x3c4e57fb	0.012594218
197	0xbd157b19	-0.03649435
198	0xbd0dd77e	-0.034629337
199	0xbc1a0168	-0.009399749
200	0x3b027c9d	0.00199107
201	0xbe381fda	-0.179809
202	0x3d04e6ea	0.03244678
203	0x3e2aab3c	0.16666883
204	0x3e97f606	0.29679888
205	0xbd77168c	-0.060324237
206	0xbe1dcb97	-0.15409695
207	0xbd0e7c95	-0.03478678
208	0xbdea254f	-0.11432897
209	0x3cf879a2	0.030331437
210	0x3db3d8a7	0.087815575
211	0xbdb7113a	-0.089388326
212	0x3c8dc382	0.01730514
213	0xbdce9c76	-0.10088436
214	0x3c1a59ba	0.009420807
215	0xbd0f4025	-0.034973282
216	0xbd89a4a7	-0.06720858
217	0x3d4cbdae	0.04998558
218	0xbd4d8c4f	-0.050182637
219	0xbbb95717	-0.005656134
220	0x3c34bd73	0.011031496
221	0xbdaf1351	-0.08548606
222	0xbd306ffe	-0.043075554
223	0x3de3e0f0	0.11126888
224	0x3e7aee1c	0.24504894
225	0xbe30cd23	-0.17265753
226	0xbe90d68f	-0.28288695
227	0xbdd50a77	-0.10402387
228	0xbe11a4c0	-0.14223003
229	0x3e18e358	0.14930475
230	0xba4e6ac9	-0.00078741886
231	0xbe28c64a	-0.16481891
232	0xbc97f06d	-0.018547261
233	0xbdfee3cf	-0.12445795
234	0x3d7142f9	0.05890176
235	0x3bfc2015	0.007694254
236	0xbdad366f	-0.08457648
237	0x3cde846e	0.027162757
238	0xbd887dfa	-0.06664653
239	0x3ca29324	0.019845553
240	0x3e216a8f	0.15763305
241	0xbd9beafe	-0.076131806
242	0x3c227cc0	0.009917438
243	0xbe2b0853	-0.16702394
244	0xbc531107	-0.012882478
245	0x3d477d6c	0.048703596
246	0xbce58cce	-0.028021242
247	0xbcdf58aa	-0.027263958
248	0xbe6653cf	-0.22492908
249	0x3cb3fcde	0.021971162
250	0xbc639a59	-0.01389178
251	0xbd9cb891	-0.07652391
252	0x3e14ce82	0.14531901
253	0x3d6665e2	0.056249507
254	0x3e5e8f3f	0.21734332
255	0x3c4e006f	0.012573346

dense_encmean.bias f4 [8]
0	0x3cb7e05d	0.022445852
1	0xbd2dfefe	-0.042479508
2	0xbc567fae	-0.013091965
3	0xbc9f585d	-0.019451315
4	0x3c70ebe5	0.014704679
5	0x3d6aed67	0.05735531
6	0x3d64a547	0.055821683
7	0x3d0bde3a	0.03414748

dense_encvar.weight f4 [8, 400]
0	0x3d8cd60d	0.068767644
1	0xbc93ca8d	-0.01804092
2	0xbc18a214	-0.009315986
3	0x3e43fc53	0.19139223
4	0x3dde3eb4	0.108518034
5	0xbce49b09	-0.027905958
6	0xbd50858d	-0.050908614
7	0xbc8f1ce6	-0.017469835
8	0x3e074dcb	0.1321327
9	0x3dad6517	0.08466547
10	0x39ae33b8	0.000332264
11	0x3c70f38d	0.0147065045
12	0xbbc5bf0e	-0.0060347384
13	0x3dc224eb	0.09479698
14	0x3da71d2b	0.0815986
15	0x3d124a89	0.035715614
16	0x3c63c752	0.013902502
17	0xbc07e255	-0.008293708
18	0x3db0e8a4	0.08638123
19	0x3cac9469	0.021066861
20	0xbd0263c2	-0.031833418
21	0x3da344b1	0.07972086
22	0x3dfd434a	0.1236635
23	0x3d19b394	0.037524775
24	0x3ddae9ef	0.106891505
25	0x3e761828	0.24032652
26	0x3df338f0	0.11876094
27	0x3d661a54	0.056177452
28	0x3d2686f2	0.040656038
29	0xbc561eba	-0.013068849
30	0x3d30ca8d	0.043161917
31	0x3d30e261	0.04318464
32	0x3d14a1a7	0.036286976
33	0x3c69f0b0	0.014278576
34	0xb954473d	-0.00020244434
35	0x3e0e5d04	0.1390267
36	0x3e1d86ca	0.15383449
37	0xbbfb49e1	-0.007668719
38	0xbc82be38	-0.015959844
39	0x3e1b6cff	0.15178297
40	0x3e0c4815	0.13699372
41	0x3d8c2807	0.06843572
42	0x3c1d1920	0.00958851
43	0x3cb82253	0.022477305
44	0x3d617c18	0.055049986
45	0x3df3b5da	0.1189992
46	0x3e36a76e	0.17837307
47	0xbd554672	-0.052069135
48	0xbd72ecb8	-0.059307784
49	0xbd448065	-0.04797401
50	0x3c8d981a	0.017284442
51	0xbcb8118d	-0.022469306
52	0xbc662ee8	-0.014049269
53	0xbd8e6f2a	-0.069547966
54	0x3b04bec3	0.0020255304
55	0x3d750ad2	0.059824772
56	0xbbf24b97	-0.007394265
57	0xbd708569	-0.05872098
58	0xbcb180d5	-0.021667877
59	0xbd46cea5	-0.048536915
60	0x3d9cbfd5	0.076537766
61	0x3cb7f621	0.02245623
62	0xbc3e542d	-0.011616749
63	0x3c1b7abd	0.009489712
64	0x3da23da8	0.07921916
65	0x3d929d8f	0.07158958
66	0x3cc39a9e	0.023877438
67	0x3d58f272	0.05296559
68	0xbd206f40	-0.039168596
69	0x3d139591	0.03603131
70	0x3d6fe04b	0.05856351
71	0x3be7b229	0.007070799
72	0x3d7895fc	0.06068991
73	0xbda1cf46	-0.079008624
74	0x3ca1b287	0.019738449
75	0x3c2f46e1	0.010698051
76	0x3bfc3bdf	0.007697567
77	0xbe0a6550	-0.1351521
78	0xbd972516	-0.073801205
79	0xbd3b813e	-0.04577755
80	0x3c7a9cc5	0.015296166
81	0xbbdbeb14	-0.006711373
82	0xbd4a218f	-0.04934841
83	0x3cf40e0d	0.029791856
84	0xbd5d3d80	-0.05401373
85	0x3c285a56	0.010275444
86	0x3d2cc1d1	0.042177025
87	0xbd58ac03	-0.05289842
88	0x3dab7db9	0.08373589
89	0x3d811e49	0.063046046
90	0xbd0e315d	-0.034715045
91	0xbd3f6d98	-0.046735376
92	0x3d945812	0.072433606
93	0x3ce411df	0.027840553
94	0xbc3f0094	-0.011657853
95	0xbd18fb52	-0.037349053
96	0xbd20114b	-0.03907899
97	0xbd6a2afd	-0.057169903
98	0x3a97c1b2	0.0011578111
99	0x3d460e81	0.048353676
100	0x3d16555f	0.03670251
101	0x3d101e57	0.035185184
102	0x3d899347	0.06717544
103	0x3924520d	0.00015670825
104	0x3c93d999	0.018048095
105	0xbd0ac359	-0.033877704
106	0x3c385bd6	0.011252364
107	0xbd0d4807	-0.03449252
108	0xbc90797b	-0.017636051
109	0xbc8c7a67	-0.01714821
110	0x3ccb0b81	0.024785759
111	0x3c3d1947	0.011541671
112	0x3c3bbd65	0.011458729
113	0xbcc22cb1	-0.023702951
114	0x3d4bd380	0.04976225
115	0x3caf702b	0.02141579
116	0x3d02a764	0.031897917
117	0x3bad392e	0.0052863574
118	0x3c3a9819	0.011388802
119	0x3cd9c417	0.02658276
120	0xbd2497d2	-0.04018385
121	0xbd4e95c8	-0.05043581
122	0x3c591ec6	0.013251966
123	0x3d548173	0.051881265
124	0xbcb03bed	-0.02151295
125	0xbd913e07	-0.07091909
126	0x3787decd	1.6197004e-05
127	0xbbb119d0	-0.0054046884
128	0x3d56c3b0	0.052432716
129	0x3c34fec0	0.011047065
130	0xbc2f83aa	-0.0107125435
131	0x3e18abe8	0.14909327
132	0xbd2a262c	-0.04154031
133	0x3d0c099b	0.034188848
134	0xbcd6b98c	-0.026211523
135	0xbc5b71c8	-0.013393827
136	0x3d2161e2	0.03939999
137	0x3e03e057	0.12878548
138	0x3ce94c8a	0.02847888
139	0xbc64bb1f	-0.013960629
140	0xbcf60359	-0.030030893
141	0x3c5ad05c	0.013355341
142	0x3ba8d49c	0.005152298
143	0x3c9e0559	0.01928966
144	0xbd3173b1	-0.043323223
145	0xbcb8294b	-0.022480628
146	0xbbc539b5	-0.006018842
147	0xbd82dd90	-0.06389916
148	0x3c06183f	0.008184492
149	0xbd482787	-0.04886582
150	0x3e69dd72	0.22838381
151	0x3e4a5e3b	0.19762509
152	0x3d25a7d9	0.040443275
153	0x3c500520	0.012696534
154	0x3d1c23ec	0.038120195
155	0x3c091534	0.008366872
156	0x3da5739e	0.08078693
157	0x3e0d120f	0.1377642
158	0x3df94fb4	0.12173405
159	0x3e0ae849	0.13565172
160	0x3c9c5999	0.019085692
161	0x3dd61dc9	0.104549
162	0x3d65ba1c	0.05608569
163	0x3cdbf9e1	0.02685255
164	0x3d9c2f9b	0.076262675
165	0x3de06053	0.109558724
166	0x3d51d5ff	0.051229473
167	0xbbb311bd	-0.005464761
168	0xbcca02e8	-0.024659589
169	0xbc6d227e	-0.014473556
170	0x3de0f9e3	0.10985162
171	0xba9b5f52	-0.0011853969
172	0x3d315830	0.043296993
173	0x3dc91065	0.0981758
174	0x3d9f7433	0.07785835
175	0x3dc89e07	0.09795766
176	0x3df14962	0.11781575
177	0x3d093e5f	0.033506747
178	0x3e2174a8	0.15767157
179	0x3db72b32	0.08943786
180	0x3dca872c	0.09889063
181	0x3c9c0fc2	0.019050483
182	0x3bce2e46	0.0062921373
183	0x3df86f68	0.12130624
184	0x3e2cd613	0.16878538
185	0x3ca47488	0.020075098
186	0x3d98c4d0	0.07459414
187	0xbd1c82f5	-0.038210828
188	0x3ddd3dad	0.10802779
189	0x3da670e9	0.08127005
190	0x3dd0774c	0.10179004
191	0x3d83ea65	0.064411916
192	0x3cd1baec	0.025601827
193	0x3d8e3e83	0.06945517
194	0x3d8b0ea1	0.067898996
195	0x3d8c45f7	0.06849282
196	0x3d139fb6	0.036040984
197	0x3d16ad4d	0.036786366
198	0x3bba2b61	0.0056814407
199	0x3d831fc9	0.06402547
200	0x3db32942	0.08748104
201	0x3d00f3c5	0.031482477
202	0xbd6c6e53	-0.0577224
203	0x3e15a7b1	0.1461475
204	0x3da817e0	0.08207679
205	0x3d12bc53	0.03582413
206	0x3ce5c76d	0.028049195
207	0xbcf42883	-0.029804474
208	0x3d238b2b	0.039927643
209	0xbb82bc18	-0.0039897077
210	0x3c19dfb8	0.009391718
211	0x3d899e09	0.06719596
212	0xbc85e5e4	-0.016344972
213	0x3debb93a	0.115099385
214	0x3b82b1aa	0.0039884644
215	0x3d4f2b8f	0.05057865
216	0x3c71ec06	0.014765745
217	0xbd86dfac	-0.06585631
218	0xbc8a409b	-0.01687651
219	0x3d4c10dc	0.049820766
220	0x3ce2f70f	0.027705697
221	0xbcd76e4f	-0.026297716
222	0x3c64dd58	0.013968788
223	0x3cd1312f	0.025536148
224	0x3da284e7	0.07935505
225	0x38c92026	9.590415e-05
226	0xbcb7346a	-0.02236386
227	0xbd055722	-0.0325538
228	0xbd9ef535	-0.07761613
229	0xbded55e3	-0.11588647
230	0xbc87313b	-0.016502967
231	0xbcf12ff8	-0.029441819
232	0xbd396ef1	-0.045271818
233	0xbdb3d60b	-0.0878106
234	0xbddf7534	-0.109110266
235	0xbc98366e	-0.018580642
236	0x3d0f4797	0.034980383
237	0xbdac1994	-0.08403316
238	0xbd7413b4	-0.059589103
239	0xbd5e6176	-0.054292165
240	0x3d5b4b1f	0.053538438
241	0xbce9c21f	-0.028534947
242	0xbd22db0c	-0.03975968
243	0xbd4fb435	-0.05070897
244	0xbdc1326d	-0.09433446
245	0x3dd8ce80	0.10586262
246	0xbd58483d	-0.052803267
247	0xbd0b1165	-0.033952136
248	0xbdcbec4a	-0.09957178
249	0xbe005926	-0.12534007
250	0x3dac10d9	0.08401651
251	0x3b8c2958	0.0042773895
252	0x3db381ef	0.08765017
253	0x3e4929bb	0.19644825
254	0x3cce7282	0.025201086
255	0x3c2fc2e7	0.010727621

dense_encvar.bias f4 [8]
0	0xbe0960e8	-0.13415873
1	0x3c9ef51d	0.019403988
2	0x3da54b85	0.08071045
3	0xbd90913b	-0.070589505
4	0xbe245e83	-0.16051678
5	0xbdeea678	-0.11652845
6	0x3d696649	0.056982312
7	0xbe0aa356	-0.1353887

dense_dec.weight f4 [400, 8]
0	0x3e08fd3e	0.13377854
1	0x3aff7ed9	0.001949276
2	0x3c16b57b	0.009198542
3	0xbb946fec	-0.0045299437
4	0xbe8552a1	-0.26039603
5	0xbf485f63	-0.7827055
6	0x3b9b78a5	0.0047446066
7	0x3e44c69e	0.19216391
8	0x3dd82e08	0.10555655
9	0x3a1dcc28	0.00060194964
10	0x3c3de2e7	0.011589742
11	0x3cb0ff69	0.021606164
12	0xbeaf2384	-0.34206784
13	0xbf34a109	-0.7055822
14	0x3b7d1ddc	0.0038622534
15	0x3ee227db	0.44171032
16	0xbea4ea3e	-0.32209963
17	0x3c05eaf2	0.008173691
18	0x3b9f8216	0.0048678024
19	0xbc252cc9	-0.010081478
20	0xbdc83e52	-0.09777512
21	0x3f2581d5	0.6465123
22	0xbbddac0a	-0.0067648934
23	0x3e581607	0.21102153
24	0xbea49a3f	-0.3214893
25	0xbb03c6d5	-0.0020107527
26	0x3b708c19	0.0036704598
27	0xbc95faa6	-0.018307995
28	0xbf3f9b67	-0.748465
29	0x3e93fb6e	0.28902763
30	0xbbdc7192	-0.006727406
31	0xbb06b683	-0.0020555563
32	0xbef96e6e	-0.48717064
33	0x3bb366ac	0.005474886
34	0xbace7f1c	-0.0015754434
35	0x3cf4fe49	0.029906409
36	0x3f76e397	0.96441025
37	0x3f23b62c	0.6394985
38	0xbbc5c4f2	-0.0060354406
39	0xbdd6286d	-0.10456929
40	0x3e0a6f39	0.1351899
41	0xbb5c3077	-0.0033598223
42	0xbb49e5d5	-0.0030807157
43	0xbe0f8c28	-0.14018309
44	0xbdb3cb0d	-0.08778963
45	0x3d7d8fc6	0.06190469
46	0x3a4c9b18	0.0007805093
47	0xbf06299e	-0.5240725
48	0x3ef20d09	0.4727557
49	0xb9ad3d30	-0.0003304272
50	0x3bf87afc	0.0075830203
51	0xbdf1ec8e	-0.11812697
52	0xbe4625b4	-0.1935032
53	0x3e601a3d	0.21885009
54	0xbca7b354	-0.020471253
55	0xbf44d6f3	-0.76890486
56	0x3e14b4aa	0.14522043
57	0xbc0769c2	-0.008264961
58	0x3c31e61e	0.010858087
59	0xbd1aa56a	-0.037755407
60	0xbeedf4dc	-0.46475875
61	0xbefa6fe0	-0.4891348
62	0xbbce3cc1	-0.0062938635
63	0xbf01c1f0	-0.5068655
64	0x3ec86724	0.3914119
65	0xbca91622	-0.020640437
66	0x3c3af200	0.011410236
67	0xb9a9e232	-0.0003240272
68	0xbe5dab68	-0.21647418
69	0x3efe6c1b	0.49691853
70	0xbb8e9543	-0.0043512895
71	0xbcd7f0b7	-0.026359899
72	0x3f18bf18	0.59666586
73	0xbb468ac4	-0.0030295113
74	0x3cac6476	0.021043997
75	0x3c714da9	0.014727988
76	0xbf470221	-0.77737623
77	0x3ea3c967	0.31989595
78	0xbbcb4863	-0.0062036975
79	0xbe11640a	-0.14198318
80	0x3f018c07	0.5060429
81	0x3c12b0b8	0.008953266
82	0xbc78d6b7	-0.015187911
83	0xbd2f9fa0	-0.04287684
84	0x3dc23584	0.094828635
85	0x3cb7f323	0.022454804
86	0xbc136e2e	-0.008998437
87	0x3e648668	0.22316897
88	0x3e42250f	0.18959449
89	0xbb0bfd64	-0.002136075
90	0x3a9db54c	0.001203218
91	0x3e8a1598	0.269696
92	0x3e288550	0.16457105
93	0xbe908367	-0.28225252
94	0xbc7ef0bf	-0.015560328
95	0xbe242081	-0.16028024
96	0xbd7442e9	-0.059634123
97	0x3c75385a	0.014967049
98	0x3b989860	0.0046568364
99	0xbd62a3cd	-0.055331994
100	0xbb780cc0	-0.0037849396
101	0x3e1e328b	0.15448968
102	0x3ba7fc95	0.0051265457
103	0xbe70d47d	-0.23518558
104	0x3daff543	0.08591702
105	0xbb9277a6	-0.0044698296
106	0x3c00dad9	0.007864677
107	0xbe7f36fc	-0.24923319
108	0xbf38d687	-0.7220234
109	0x3ea8546f	0.32876918
110	0x3c318051	0.010833816
111	0x3dd49466	0.10379867
112	0xbec2c893	-0.3804365
113	0xbbb9db60	-0.0056719035
114	0xb9a2149a	-0.00030914397
115	0xbd1554d9	-0.03645787
116	0x3e97d5ab	0.29655203
117	0xbdea75d9	-0.11448259
118	0xbc445995	-0.011984249
119	0xbd2b4485	-0.041813392
120	0x3f97cd61	1.1859552
121	0x3aa2850b	0.0012399269
122	0xbc95e909	-0.018299596
123	0x3e412966	0.18863449
124	0xbefad44f	-0.48990104
125	0xbeac58d7	-0.3366153
126	0x3b244467	0.0025065185
127	0xbe2dd35a	-0.16975155
128	0x3f90df98	1.1318235
129	0xbb379fe4	-0.0028018886
130	0x3a1c08cd	0.0005952239
131	0x3d43a224	0.04776205
132	0xbe758dcd	-0.23979874
133	0xbe143e23	-0.14476828
134	0x3bf09b1a	0.0073427083
135	0xbeb4cab0	-0.35310888
136	0xbe3f035e	-0.18653628
137	0xbbac3621	-0.005255476
138	0x3ca62300	0.020280361
139	0xbe3cabf0	-0.18424964
140	0xbf90602a	-1.1279347
141	0xbe42f8ca	-0.19040218
142	0xbb499384	-0.0030758092
143	0xbebf2878	-0.37335563
144	0x3eb74888	0.35797524
145	0xba1b5cf7	-0.00059266336
146	0xbc7f4bdb	-0.01558205
147	0x3cf51d2c	0.029921137
148	0xbe2a63c3	-0.16639619
149	0xbe870d27	-0.26377222
150	0xba05611f	-0.00050880195
151	0xbe9d34d7	-0.30704376
152	0xbf7a73bb	-0.9783284
153	0xbc44d755	-0.01201423
154	0x3c02ae7d	0.007976172
155	0xbd087e14	-0.033323362
156	0x3f3ff7e5	0.7498763
157	0x3de1f178	0.11032385
158	0xbb6dd381	-0.0036289396
159	0x3bd8bdd3	0.0066144257
160	0x3e5c25e8	0.21498835
161	0x3a9078c6	0.0011022321
162	0x3c3124b2	0.0108119715
163	0x3de28acf	0.11061632
164	0x3e5f7d07	0.21825038
165	0x3fb4a48f	1.4112719
166	0xbb8d305e	-0.0043087443
167	0x3f37115f	0.7151088
168	0xbf5a97bf	-0.85387796
169	0x3c4799f2	0.0121826995
170	0x3c90748a	0.017633695
171	0x3e0e66b5	0.13906367
172	0xbe02e991	-0.12784411
173	0x3f6b667e	0.91953266
174	0xbbfb144c	-0.0076623317
175	0xbf0c8ffc	-0.549072
176	0xbd8a7f32	-0.06762542
177	0x3c3d98ff	0.011572122
178	0xbbf1790d	-0.0073691667
179	0x3e5d6264	0.21619564
180	0xbed54e89	-0.4166148
181	0xbe246e80	-0.16057777
182	0x3c014afe	0.007891415
183	0xbf363dbd	-0.71187955
184	0xbefdec92	-0.4959455
185	0x3b9471d1	0.0045301695
186	0xbaab7a04	-0.0013082628
187	0xbe650025	-0.22363336
188	0xbeb8b80d	-0.3607792
189	0x3bd46f75	0.0064830133
190	0x3c0b2096	0.008491656
191	0xbe851e8d	-0.2599987
192	0xbeae9dcd	-0.34104767
193	0xbc3db123	-0.011577877
194	0x3a032aa3	0.0005003607
195	0xbe0d5f34	-0.13805848
196	0x3e891941	0.2677708
197	0x3f4eb9dc	0.8075235
198	0xbc236271	-0.009972201
199	0x3e6312b3	0.22175102
200	0x3dc5f9cc	0.096667856
201	0xbb894fde	-0.004190429
202	0xbb649a86	-0.0034882142
203	0xbee89daa	-0.45432788
204	0x3f00a577	0.5025248
205	0xbed754cd	-0.42056885
206	0x3a9a089f	0.0011751837
207	0xbf0e3e56	-0.5556387
208	0xbd9d80a1	-0.0769055
209	0xb85a4dbc	-5.2047646e-05
210	0x39e0cd55	0.00042877594
211	0x39f8d81d	0.00047463263
212	0xbe4eb0f1	-0.20184685
213	0xbdca0057	-0.09863346
214	0xbad821e6	-0.0016489595
215	0xbd718671	-0.058966104
216	0x3f428643	0.7598612
217	0x3c50155a	0.012700403
218	0xbc36776b	-0.01113687
219	0x3cff32c8	0.031152144
220	0x3e9cf656	0.3065669
221	0xbcc00c41	-0.023443343
222	0x3c219531	0.00986223
223	0x3d2a49be	0.041574232
224	0xbe0e3ad1	-0.13889624
225	0xbbcb7b1f	-0.0062097455
226	0xbc1197eb	-0.008886318
227	0x3d324076	0.043518506
228	0x3f44b121	0.7683278
229	0x3dc20648	0.09473854
230	0xbbcb32d7	-0.006201129
231	0xbe8e286b	-0.2776521
232	0xbeec84d7	-0.461951
233	0xbb71249f	-0.003679551
234	0xbc153260	-0.009106249
235	0xbd37955b	-0.04482017
236	0xbe35d7d4	-0.17758113
237	0xbef1014b	-0.470713
238	0x3abb2f4b	0.0014281062
239	0xbe306e69	-0.17229618
240	0xbe5f8732	-0.21828917
241	0x3a99b453	0.0011726714
242	0x3b8687b1	0.004105531
243	0xbc561e8a	-0.0130688045
244	0x3fa3c1f9	1.2793571
245	0xbddc8a70	-0.10768592
246	0xbc529203	-0.012852195
247	0x3e91824c	0.2841972
248	0x3f6e8e59	0.93185955
249	0x3c6322c2	0.013863267
250	0xbbca9d94	-0.0061833356
251	0x3e63d95f	0.22250889
252	0x3e454f6e	0.19268581
253	0x3f359da8	0.7094369
254	0x3bf025eb	0.007328739
255	0xbd93a585	-0.07209305

dense_dec.bias f4 [400]
0	0x3e66d286	0.22541246
1	0x3e00c2b2	0.1257427
2	0xbf5db59a	-0.86605227
3	0xbd1b2a71	-0.037882272
4	0x3e35a1d8	0.1773752
5	0x3e046474	0.12928945
6	0x3ecce184	0.40015805
7	0x3ddf6550	0.10907996
8	0xbf0109c0	-0.504055
9	0xbe6f9eae	-0.23400375
10	0x3e227f7e	0.15868947
11	0xba8eb1cd	-0.0010886729
12	0xbd5c95f0	-0.05385393
13	0xbedc43de	-0.4302053
14	0xbe7bed8e	-0.24602339
15	0xbdec0598	-0.115245044
16	0x3d8b67fc	0.06806943
17	0xbe364c39	-0.17802514
18	0x3f0611da	0.5237099
19	0xbf221ede	-0.6332835
20	0x3e0cdbc8	0.13755715
21	0xbecc5d88	-0.3991511
22	0x3f22a9a6	0.6354011
23	0x3eddbf8a	0.43310195
24	0x3f7290bf	0.94752115
25	0x3f14aa8d	0.5807274
26	0x3b75bc85	0.00374964
27	0xbf309c02	-0.6898805
28	0xbe43003e	-0.19043061
29	0x3f5b9161	0.85768706
30	0xbed81f0c	-0.42211187
31	0xbf54b039	-0.83081394
32	0xbe2667d3	-0.16250543
33	0xbe3130f7	-0.17303835
34	0x3d9b410c	0.07580766
35	0xbf55883f	-0.8341102
36	0xbd8d4783	-0.068984054
37	0x3df1ddf7	0.118099146
38	0xbebf204b	-0.37329325
39	0x3e814286	0.25246066
40	0xbed884ca	-0.4228881
41	0xbf23521e	-0.63797176
42	0xbf3621ea	-0.711455
43	0xbe46d7a2	-0.19418195
44	0x3f2b0eae	0.66819274
45	0x3e0c3317	0.13691364
46	0xbf0a6bd3	-0.54070777
47	0xbf1a265e	-0.60214794
48	0xbf3f6255	-0.7475942
49	0x3f2a0b75	0.6642373
50	0xbe7a86b7	-0.24465452
51	0xbde85531	-0.11344374
52	0x3d4c345f	0.049854632
53	0x3e622221	0.22083332
54	0xbe69c1e7	-0.22827874
55	0xbd5b6235	-0.053560454
56	0xbe2b5cee	-0.16734669
57	0xbf351c15	-0.70745975
58	0x3e983951	0.2973123
59	0x3e110c22	0.14164785
60	0x3e8132bd	0.25234023
61	0xbeebd3b5	-0.46059957
62	0x3e4208e0	0.18948698
63	0x3eadc70a	0.33940917
64	0xbecc63a1	-0.3991976
65	0xbe2928fd	-0.16519542
66	0xbe8a73d2	-0.2704149
67	0xbe39975e	-0.18124148
68	0xbca5f20a	-0.020257015
69	0xbe4d1530	-0.20027614
70	0x3f063af7	0.52433723
71	0xbed12e9b	-0.4085587
72	0x3ebba34c	0.36648023
73	0xbca77f0b	-0.020446321
74	0x3e95da82	0.2926827
75	0x3fa0bb7d	1.2557217
76	0x3df8a292	0.12140383
77	0x3ef6940c	0.48159826
78	0xbd47d575	-0.048787553
79	0x3e1ede6a	0.15514532
80	0x3ec8d39b	0.39223942
81	0x3dd1adf6	0.102382585
82	0x3ee0f5f9	0.43937662
83	0x3e96f322	0.2948237
84	0xbe898f29	-0.26867035
85	0x3edb7727	0.42864344
86	0x3ed108e4	0.40827096
87	0xbd73f935	-0.059563834
88	0xba7cb529	-0.0009640032
89	0xbe84f2ad	-0.25966397
90	0x3e82454c	0.25443494
91	0x3e04f419	0.12983741
92	0x3ddae62c	0.10688433
93	0x3e10d8a1	0.14145137
94	0xbe923594	-0.28556502
95	0x3db06676	0.08613293
96	0x3dcd3437	0.10019725
97	0xbe33dd11	-0.17564799
98	0xbc5ee25a	-0.013603771
99	0x3da29ece	0.07940446
100	0xbf09163b	-0.53549546
101	0xbe0acc2e	-0.13554451
102	0xbe946913	-0.28986415
103	0x3f2dd472	0.6790229
104	0x3f5612a7	0.8362221
105	0xbdb1cb10	-0.08681309
106	0x3f0efdd4	0.5585606
107	0x3e7a21f7	0.24427019
108	0x3ee8442d	0.45364514
109	0x3f2825a0	0.6568241
110	0xbebae5f1	-0.36503556
111	0xbf2ab67f	-0.66684717
112	0xbe4d4e54	-0.20049411
113	0xbeb95772	-0.36199528
114	0xbf18e5ae	-0.59725463
115	0x3e8fbc6b	0.2807344
116	0xbeacec9c	-0.3377427
117	0xbe01ed26	-0.12688121
118	0x3f91c072	1.1386855
119	0x3e52d01e	0.20587203
120	0xbc689544	-0.014195744
121	0x3eab4e52	0.3345819
122	0xbd09d8d8	-0.033654064
123	0x3f498466	0.7871765
124	0x3edde651	0.4333978
125	0xbf0205ac	-0.50789905
126	0xbf1c513f	-0.6106147
127	0x3d9c8dbc	0.07644221
128	0xbe3cb125	-0.1842695
129	0xbed664a8	-0.4187367
130	0x3e9e9115	0.30970064
131	0xbef82b76	-0.48470658
132	0xbf2a3c1c	-0.6649797
133	0xbe501d1d	-0.20323606
134	0xbe7b7283	-0.24555402
135	0x3e7a70c5	0.2445708
136	0xbf49b9c8	-0.78799105
137	0xbf6ea31a	-0.93217623
138	0xbd79fa03	-0.061029445
139	0xbd81197f	-0.06303691
140	0x3e5d7ad2	0.21628883
141	0x3e05a2ab	0.13050334
142	0xbe988879	-0.2979162
143	0xbd6f4644	-0.05841662
144	0x3e31b069	0.17352451
145	0x3ee35de0	0.44407558
146	0xbe9090b7	-0.2823541
147	0x3eab92ed	0.33510533
148	0xbeb4ab35	-0.3528687
149	0x3f4c379d	0.7977236
150	0x3b2cd688	0.0026372988
151	0xbf375666	-0.7161621
152	0x3df1221a	0.117740825
153	0x3dfabdff	0.1224327
154	0xbea59104	-0.323372
155	0xbee58cbc	-0.44833934
156	0xbf5cfbe0	-0.8632183
157	0xbece455f	-0.402873
158	0x3f01c752	0.50694764
159	0xbdf3f1a3	-0.11911323
160	0xbebde05e	-0.3708524
161	0x3e075c0e	0.1321871
162	0xbeacf87b	-0.33783326
163	0xb941afad	-0.00018471359
164	0xbf20836e	-0.62700546
165	0x3f0635c2	0.5242578
166	0x3ec579c5	0.38569465
167	0x3e18f1a3	0.14935927
168	0xbe862bab	-0.2620519
169	0xbe0a8795	-0.13528283
170	0x3f0b38e9	0.54383713
171	0x3ef8df4f	0.4860787
172	0x3f05f292	0.5232326
173	0xbef2a11c	-0.47388542
174	0x3f12cbf1	0.5734244
175	0x3ec9b531	0.3939605
176	0x3ec5866b	0.38579115
177	0x3e855f92	0.26049477
178	0x3e0c26d4	0.13686687
179	0x3f230b64	0.63689256
180	0xbf200e10	-0.6252146
181	0x3eb76bea	0.3582452
182	0xbe0d6bf2	-0.13810709
183	0xbf949b05	-1.1609808
184	0xbd9cbba7	-0.07652979
185	0xbf173bdb	-0.5907571
186	0x3e447e1f	0.19188736
187	0xbf289aba	-0.65861094
188	0xbe6eacb0	-0.23308063
189	0xbe001f66	-0.12511978
190	0xbd3ad34c	-0.045611665
191	0x3f1f52d2	0.6223575
192	0xbda6e501	-0.08149148
193	0xbdd26f07	-0.10275083
194	0x3e8768ea	0.2644723
195	0x3d7d63de	0.06186282
196	0x3ccd861b	0.02508836
197	0xbea362e0	-0.31911373
198	0x3ea1a7ae	0.31573242
199	0xbf2ab069	-0.6667543
200	0x3ef7e2be	0.48415178
201	0xbea888ad	-0.32916775
202	0xbce0689c	-0.027393632
203	0x3f0f199c	0.5589845
204	0x3f610ebd	0.87913114
205	0xbe8bf6ba	-0.27336675
206	0x3e6a5320	0.22883272
207	0xbed80c7a	-0.4219702
208	0x3e5903de	0.21192881
209	0x3e895ff4	0.2683102
210	0x3e375d37	0.17906652
211	0xbe49a67f	-0.1969242
212	0xbedd1577	-0.4318044
213	0x3f49284f	0.7857713
214	0xbef86b60	-0.4851942
215	0x3e15013e	0.14551255
216	0xbd80e0f8	-0.062929094
217	0x3ec71156	0.38880414
218	0xbf19c90b	-0.6007239
219	0xbe7b2e5a	-0.245294
220	0xbf3f0451	-0.7461596
221	0xbf1f1168	-0.62135935
222	0xbe16d04f	-0.14727901
223	0x3ec4fd07	0.38474295
224	0xbf1c7b7d	-0.6112593
225	0x3f3e616a	0.7436739
226	0x3e777fa6	0.24169788
227	0x3eb50d91	0.35361913
228	0x3e51df28	0.20495284
229	0xbec10e7c	-0.37706363
230	0x3f06f132	0.52711785
231	0x3e3ce0a2	0.18445066
232	0x3ea68afa	0.32527906
233	0x3db33055	0.08749453
234	0xbed72b32	-0.42025143
235	0x3f16c40f	0.5889291
236	0x3e8a4995	0.27009264
237	0xbcc466a1	-0.023974719
238	0x3daf1704	0.08549312
239	0xbeb77ef4	-0.35839045
240	0x3f9da128	1.2314806
241	0x3e88f59e	0.2674989
242	0x3f1412d6	0.5784124
243	0x3e006b0c	0.12540835
244	0xbd1c0621	-0.038091782
245	0x3fd71f84	1.6806493
246	0x3dfdbe07	0.123897605
247	0x3e855deb	0.26048216
248	0xbd23f074	-0.040024236
249	0xbec43388	-0.38320565
250	0x3f1ce898	0.6129241
251	0x3eb2eaa9	0.34944656
252	0x3ece86fd	0.40337363
253	0x3de9c69b	0.11414834
254	0xbeb23776	-0.34807938
255	0x3e834ebf	0.25646016

conv_dec1.weight f4 [16, 8, 3, 3]
0	0x3d8d69f0	0.069049716
1	0xbde912fa	-0.113805726
2	0x3eebb20f	0.46034285
3	0xbf0398b5	-0.5140489
4	0x3f4de356	0.8042501
5	0xbf9aa34f	-1.2081088
6	0xbe6ff599	-0.23433532
7	0x3e262caf	0.16227983
8	0xbf310056	-0.6914114
9	0xbee369b3	-0.4441658
10	0xbecd3637	-0.40080425
11	0x3e89d09e	0.26916975
12	0x3f06744c	0.52521205
13	0xbeba94e5	-0.36441723
14	0xbe2a9358	-0.1665777
15	0x3e388db6	0.18022808
16	0xbe0ed7d9	-0.13949527
17	0x3e13115e	0.14362094
18	0x3d751fd5	0.05984481
19	0xbf0af19a	-0.54274905
20	0x3f8d30d3	1.1030525
21	0xbf5e4991	-0.86831003
22	0xbe85d87d	-0.2614173
23	0xbe3d13b8	-0.18464553
24	0x3ef5390b	0.47895083
25	0xbdc1f9bb	-0.094714604
26	0x3f807ea8	1.0038652
27	0xbe9c1cfc	-0.30490863
28	0xbe07ac7c	-0.13249391
29	0x3ec7e013	0.39038143
30	0x3c93c691	0.01803902
31	0x3ca40c8c	0.020025514
32	0x3e85d71d	0.2614068
33	0x3ec0847c	0.37601078
34	0x3e75af04	0.23992544
35	0x3d4c6bb9	0.04990742
36	0xbeb8159c	-0.35953987
37	0xbf04b09a	-0.5183197
38	0x3d4aadc0	0.049482107
39	0xbe996f2d	-0.29967633
40	0xbf11ca27	-0.56949085
41	0xbc824c6f	-0.015905587
42	0x3e8566b7	0.26054928
43	0x3d41ced5	0.04731639
44	0x3c547a24	0.012968574
45	0x3edadbc0	0.4274578
46	0x3e45336f	0.19257902
47	0xbd9bca24	-0.07606915
48	0x3d634f22	0.05549539
49	0xbf31f4be	-0.6951407
50	0x3d92b21e	0.071628794
51	0x3ec33ed8	0.38133883
52	0x3e9d8274	0.3076359
53	0xbe9fec2c	-0.31234872
54	0xbdfbb774	-0.1229085
55	0xbe575c83	-0.21031384
56	0x3e8deb03	0.27718362
57	0x3eb671ea	0.35633785
58	0xbec7e041	-0.3903828
59	0x3e86a301	0.26296237
60	0xbebcbb93	-0.36861858
61	0xbefae003	-0.48999032
62	0x3ddde37c	0.10834405
63	0xbee0d585	-0.43912902
64	0xbe8ce49e	-0.2751817
65	0xbf120c10	-0.57049656
66	0x3d773298	0.060350984
67	0xbe77e202	-0.24207309
68	0x3e7dc46e	0.24781963
69	0x3bc1791b	0.0059043295
70	0xbda6c457	-0.081429176
71	0x3df4be0d	0.11950312
72	0x3d783715	0.060599405
73	0xbeded580	-0.43522263
74	0xbe52032a	-0.2050902
75	0x3e8c7fc6	0.27441233
76	0xbe4a0301	-0.19727708
77	0xbfb4492e	-1.4084833
78	0x3df2ce15	0.11855713
79	0x3db8a647	0.0901609
80	0xbece4695	-0.40288225
81	0x3edd1137	0.43177196
82	0x3f514713	0.81749076
83	0x3f24260f	0.6412057
84	0x3e801bd1	0.25021222
85	0x3e31daed	0.1736867
86	0xbe839863	-0.257022
87	0x3e60a412	0.21937588
88	0x3e74ff33	0.23925476
89	0xbe5e3359	-0.21699275
90	0x3d1618c9	0.03664473
91	0xb9c35fde	-0.00037264725
92	0x3ef5f80c	0.48040807
93	0xbf04ab8c	-0.5182426
94	0x3e29287f	0.16519354
95	0x3ea1678c	0.31524312
96	0x3f4c9934	0.7992127
97	0x3f6b4df3	0.91915816
98	0x3f64bed7	0.893537
99	0xbdfe506b	-0.12417682
100	0x3f6252ef	0.88407797
101	0x3e33a08f	0.17541717
102	0x3f1d3043	0.61401767
103	0x3ecf84b0	0.4053092
104	0xbf0e419d	-0.5556887
105	0x3f9e78bd	1.2380596
106	0x3f547181	0.82985693
107	0x3e2696b9	0.16268434
108	0x3ecb5a5b	0.39717373
109	0x3f822ab5	1.0169283
110	0x3f6f0301	0.9336396
111	0x3f093737	0.53599876
112	0x3f3af04b	0.7302291
113	0x3cc389ae	0.023869362
114	0x3f58f5d0	0.8475008
115	0x3f338536	0.7012514
116	0x3ec872c4	0.3915006
117	0xbbae24d9	-0.005314451
118	0xbe9ed989	-0.3102534
119	0xbd6a9ef5	-0.0572805
120	0x3df41ae6	0.11919193
121	0xbda7be90	-0.08190644
122	0x3dd3b855	0.10337893
123	0xbe50974d	-0.20370217
124	0xbea09ce7	-0.31369707
125	0xbeb6fa4e	-0.35737842
126	0xbebdbdac	-0.3705877
127	0x3dd3224c	0.10309276
128	0x3dfae738	0.12251133
129	0x3e64abc3	0.22331147
130	0x3d984dda	0.07436724
131	0x3bc88284	0.0061190743
132	0xbea5a0d3	-0.32349262
133	0xbee0afaa	-0.4388402
134	0x3cf391fb	0.029732695
135	0x3e77c393	0.241957
136	0x3f4d5a9e	0.80216396
137	0x3e9878af	0.29779574
138	0x3efc5212	0.49281365
139	0x3f09de9f	0.5385532
140	0xbe7633c3	-0.24043183
141	0x3f3f2910	0.7467203
142	0x3e9ab6d8	0.30217624
143	0x3eddad78	0.4329641
144	0xbd10ce16	-0.03535279
145	0x3e147add	0.14499994
146	0x3ddbc7eb	0.10731491
147	0xbb5fc488	-0.0034144241
148	0xbeb4f231	-0.35341027
149	0xbe18ddc1	-0.14928342
150	0xbe3f7f9d	-0.18701024
151	0xbe2548d3	-0.16141061
152	0xbde33283	-0.11093619
153	0xbf1a17c6	-0.60192525
154	0xbe79a118	-0.24377859
155	0xbd41968d	-0.047262717
156	0xbeb6e66a	-0.35722667
157	0xbe581c34	-0.21104509
158	0xbea120aa	-0.31470233
159	0xbf213557	-0.62972015
160	0xbc437aa1	-0.0119310925
161	0xbf18bd35	-0.59663707
162	0xbed2c1e7	-0.4116356
163	0xbef4a6d7	-0.4778354
164	0xbe2447a9	-0.16042961
165	0x3ea98f76	0.33117265
166	0xbe1c2d43	-0.15251641
167	0xbe7e2be2	-0.24821427
168	0x3d0d4109	0.03448585
169	0x3f33d9a8	0.7025399
170	0x3ca4e504	0.020128734
171	0xbf2e5a41	-0.68106467
172	0xbe21077b	-0.1572551
173	0x3d466a47	0.048441198
174	0xbe79afcb	-0.24383466
175	0xbe3ba263	-0.18323664
176	0x3f048706	0.5176853
177	0x3f6935bc	0.9109762
178	0x3f72502d	0.9465359
179	0x3ea8c848	0.32965302
180	0xbf041143	-0.5158884
181	0xbe37f07d	-0.17962833
182	0xbec4f672	-0.38469273
183	0xbea561e5	-0.3230125
184	0xbeae55f9	-0.34049967
185	0xbec06a4b	-0.37581095
186	0xbd5cca53	-0.05390389
187	0x3e2e27a1	0.17007305
188	0xbe434bb6	-0.1907185
189	0x3cd3e081	0.025863888
190	0xbdee8b7c	-0.11647698
191	0x3e0d8fbd	0.13824363
192	0xbd09aff7	-0.03361508
193	0xbf7276b9	-0.94712406
194	0xbe509a1d	-0.2037129
195	0xbf373cf4	-0.7157738
196	0xbf578e7c	-0.8420179
197	0xbec3cdcb	-0.38242945
198	0xbec0226e	-0.37526268
199	0xbe503835	-0.20333941
200	0xbdb4f0fe	-0.08835028
201	0xbf6c0f60	-0.9221096
202	0x3ee204ca	0.4414428
203	0xbbbe9d8d	-0.0058171214
204	0x3de43802	0.11143495
205	0xbf9934b8	-1.1969213
206	0xbd97eaa2	-0.074177995
207	0xbe900b7b	-0.2813376
208	0xbe381c93	-0.1797965
209	0xbe9d64cd	-0.30740967
210	0xbe0331ed	-0.12812014
211	0xbe4dcdd1	-0.20098044
212	0xbe8c8523	-0.27445325
213	0x3f84fbbb	1.0389322
214	0x3eafe0ae	0.34351104
215	0x3ea28cea	0.31748134
216	0xbdd137e4	-0.102157384
217	0xbd4c3501	-0.049855236
218	0xbe320d28	-0.17387831
219	0x3ef1cf7d	0.47228613
220	0xbdb3e45e	-0.08783792
221	0xbe8d5ee3	-0.27611455
222	0x3d80a424	0.06281307
223	0xbd97f47c	-0.074196786
224	0xbf4273d9	-0.7595802
225	0x3d7677aa	0.060172714
226	0xbe834fdf	-0.25646874
227	0xbea58a33	-0.32332
228	0x3c6c0cda	0.014407361
229	0xbeaca951	-0.33722928
230	0xbe9439c8	-0.28950334
231	0xbeed0500	-0.46292877
232	0xbe89093d	-0.2676486
233	0xbef69182	-0.4815789
234	0xbfa40d3d	-1.281654
235	0xbf0b05f1	-0.5430594
236	0x3ea90aea	0.3301614
237	0xbe2eb42d	-0.17060919
238	0xbec6ecad	-0.38852444
239	0xbc39fff9	-0.011352533
240	0xbe4b2019	-0.19836463
241	0x3ca55cd0	0.020185858
242	0x3e42386a	0.18966833
243	0xbe73ba72	-0.23801592
244	0xbd711a91	-0.058863226
245	0xbebcb27e	-0.3685493
246	0xbe4dc748	-0.20095551
247	0xbe33f502	-0.17573932
248	0xbe8e9e95	-0.27855363
249	0xbe871ce3	-0.26389226
250	0xbeba79d6	-0.36421078
251	0xbe240edd	-0.16021295
252	0x3ec31053	0.38098392
253	0x3e4bf27e	0.19916722
254	0x3e25cfa1	0.16192485
255	0x3e9aff4d	0.30272904

conv_dec1.bias f4 [8]
0	0x3e5ebc93	0.21751623
1	0xbe5de761	-0.21670295
2	0x3eaacb90	0.3335843
3	0x3d2b1fb8	0.041778296
4	0xbdf2b2e9	-0.11850531
5	0x3ebd8727	0.37017176
6	0x3d2f78fa	0.04283998
7	0x3e27f054	0.16400272
