expreiment/LWM_expt/best_parameters/controller_best.pth (torch, 21207 bytes, 5 tensors)

fc1.weight f4 [200, 18]
00000000: 6bc9 983c a675 8f3c d93f babe d3a0 ea3c
00000010: 8cf3 0dbf d5d1 0bbd cbb8 a7be 83b4 403c
00000020: 5bb4 58bc 5da2 813d 286e ae3b be73 b13c
00000030: f7c2 c03c 6068 6abd b436 223c 7f9a 33bd
00000040: 4246 fc3d af6f a03d 8b79 88bd e8d4 a63d
00000050: 54e9 923e 7099 28bd ec06 333e 65f8 25bd
00000060: b80e 7d3e 1aa6 013e c73b f2bc 3abe 51bd
00000070: 8e1f ff3d f061 8d3d 0902 96bd 759f 8abd
00000080: ba52 f8bd 03f7 4abc ffc6 243d 2961 93bc
00000090: 36f5 023b a856 603e bd6f 0ebf a9e1 6dbd
000000a0: e15b 30bf 28f7 283d 277c f3be d0b8 593d
000000b0: ca0c a73c eddf 9ebc e378 213d bddf 613d
000000c0: 9df7 093e 94c0 273b 3e78 083e f657 79bd
000000d0: fa16 e03d 9988 153e ddc4 ef3c f53b e03d
000000e0: ef05 013d 2395 d3bc 7fb8 27be 4dd7 efbc
000000f0: 415b 7cbe 7483 0abd 7d14 cebd ab75 a73d
00000100: 4820 ce3d 72b1 3a3d 1290 6c3a 3f99 47bd
00000110: 8ffd 743d f718 82bd da1a 103d 45f7 103d
00000120: b5c6 abbc 63f2 f73d 3d46 af3e ece5 01be
00000130: 8ec8 d6bd 3921 4e3d 315e 39bd 9f3f c33d
00000140: 60b8 f9bd 925e 5f3d 04ed 9c3d 1c62 ae3d
00000150: 0c89 3c3d 70a1 6bbd b11d d43c 65b0 debd
00000160: 1a4f d93d 2650 01bd 6873 ca3c cdd4 a2be
00000170: 4abb 9cbe 5928 96bd 9752 a0be 26c2 003e
00000180: 7b47 72bd 2be0 db3c 07b2 8fbd 6d78 293e
00000190: 7dea d63d 600b db3c 72bd e8be fc5c 62bc
000001a0: b0a5 7e3c 5059 28be 2501 e73d 5071 01bd
000001b0: 9a0e a33d ea08 483e 23ce 203f 3273 bf3d
000001c0: 3db1 9bbe a320 cf3d fa98 91be c4f3 493e
000001d0: 039a 75bd 7dd0 393e 8d27 abbd 5c0d b0bc
000001e0: e41d 57bd c430 b9bd 1eca ccbd a84b 5abd
000001f0: 4a5c a03d 8779 18be f75a 593b b79c e7bd
00000200: fcf9 52bd 6b0d 6dbd 51d8 5bbd 35eb 88bd
00000210: fff1 35bd 5958 b8bc 8f30 c13d ecda 2bbe
00000220: 022f 0bbe 4fba 9c3c 6fda 00bd 512e a33d
00000230: a01b 8cbd d813 683d 31dd 4fbd b5f6 bd3d
00000240: f4ac 88bd f3ce 5abf e9bb 9c3d 7c6d 14bf
00000250: 80e2 86bd 2187 0bbe 9372 72bd 65e6 18bd
00000260: 915c 113e 6e14 1c3e de9f 7d3c 05dc 623e
00000270: 941e 043e dbed dcbb f339 e13c ac46 85be
00000280: 3df4 aabd a0b2 bdbe 0592 fcbd 6f6e 143e
00000290: 35ca 81be e21c 733e c852 053e 57e9 013e
000002a0: 75ab 113e 63d0 f4bc 1725 9e3d 8963 57bd
000002b0: 601b 90bd 8a56 06be cc5e 833e bbda acbc
000002c0: 7df7 11bc f287 783c 4baf a9bd 6203 5e3b
000002d0: c417 0d3c 121b ed3d 1ff6 233d 2014 72bc
000002e0: 0325 7a3d 6fcc 54bd 21e2 1c3c 264c 29bd
000002f0: 4d99 2abd b618 80bc d53a acbc b003 a9bc
00000300: 8900 a53d 3b50 973c 2138 adbb 25f8 1a3d
00000310: 61e2 1e3d a988 00bd 1457 aabd 1e13 683e
00000320: 917d 093f 0254 d63e 2c89 26bf 4ec8 b9bd
00000330: 6f89 36be c6c6 1b3d f907 a73c d0e9 5d3d
00000340: 1fc2 a23d 6920 9cbd 7336 e93d 5f5d 13bc
00000350: 0236 aabc d9da 7e3d 1da0 c7bc bb7d 683d
00000360: d21a 843d 9fdf a53e c768 77bc 60a8 cebd
00000370: ac6b 9e3d 4043 73bd f32c 2ebe 9f8e 9dbd
00000380: 71a1 b8bb 768e b4bc d94b a6bc 6ee9 dbbc
00000390: 6a31 223e 1c69 2ebb 20f1 07bc 16e6 7d3d
000003a0: a761 133d 1d3a 6e3d e363 16bd 0625 67be
000003b0: a318 c3be 6760 993d 8fd8 bdbe 89c6 89bd
000003c0: b31b 333e 83eb 11be 653e 0cbe fdd1 c9bd
000003d0: 2f59 c0bd 4143 10be 2fdb b63e 291b 81be
000003e0: 6e8e c63d f916 753e 0445 0b3e eb07 4d3e
000003f0: da02 aabc 208d b73d 29c8 22be bcc2 e53d
0.018650731 0.017512154 -0.36376837 0.02864114 -0.5544975 -0.03413566 -0.32758173 0.011761787
-0.013226594 0.063297965 0.0053231902 0.021661635 0.023530466 -0.057228446 0.009900738 -0.04384851
0.12318088 0.07833802 -0.066638075 0.081460774 0.2869364 -0.041161954 0.17483109 -0.04052009
0.24712646 0.12661019 -0.02956952 -0.051206805 0.124571905 0.06903446 -0.07324607 -0.06768695
-0.12125154 -0.012387994 0.04022884 -0.017990666 0.0019982583 0.21908057 -0.5563925 -0.058076534
-0.68890196 0.04125133 -0.47555658 0.053154767 0.02039184 -0.019393886 0.039421927 0.055145014
0.13473363 0.0025596963 0.13327119 -0.0608749 0.109418824 0.14602889 0.029268676 0.10948936
0.0314998 -0.02582795 -0.16378973 -0.029277468 -0.24644186 -0.03381677 -0.100625016 0.0817674
0.10064751 0.04557938 0.00090241537 -0.04873013 0.059812125 -0.06352418 0.035181858 0.035392065
-0.020968774 0.121067785 0.34233275 -0.12685364 -0.104874715 0.050324652 -0.045255844 0.09533619
-0.1219337 0.05453355 0.07662395 0.08514807 0.046029136 -0.057527006 0.025893064 -0.10873488
0.106107906 -0.031570576 0.024713233 -0.3180298 -0.3061164 -0.073319145 -0.3131301 0.12574062
-0.0591502 0.02684029 -0.07016378 0.16549845 0.10493944 0.026738822 -0.45457035 -0.0138161145
0.015542433 -0.1644032 0.11279515 -0.031602204 0.079617694 0.1953465 0.6281454 0.09348144
-0.3040866 0.10113647 -0.28437024 0.19721895 -0.05996133 0.18145938 -0.08357153 -0.021490745
-0.05251874 -0.090425044 -0.09999488 -0.053294808 0.07830103 -0.14890109 0.0033165792 -0.11309188
-0.051507935 -0.057874124 -0.053673092 -0.06685487 -0.04442024 -0.022503065 0.0943309 -0.16782731
-0.13592151 0.019131808 -0.031458315 0.079678185 -0.068412066 0.05665955 -0.050748054 0.09275571
-0.06673613 -0.8547203 0.076530285 -0.5797956 -0.0658617 -0.13625766 -0.059191298 -0.037329096
0.14195468 0.15242168 0.01548001 0.22154243 0.1290229 -0.006742222 0.027493453 -0.2603048
-0.08347366 -0.37050343 -0.123325385 0.14495252 -0.25349584 0.23741487 0.1301986 0.12686668
0.14225562 -0.029884523 0.07721918 -0.05258516 -0.07036471 -0.1311895 0.25658262 -0.021100393
-0.008909103 0.015169131 -0.082853876 0.0033876528 0.008611623 0.11577429 0.04002964 -0.014775306
0.061070453 -0.051952776 0.009575398 -0.041332386 -0.041650105 -0.015636783 -0.021024147 -0.020631641
0.08056743 0.018470874 -0.005286232 0.037834305 0.03879011 -0.03138033 -0.0831739 0.22663543
0.53707224 0.41860968 -0.6505306 -0.09071408 -0.17825864 0.038031362 0.020389544 0.05417806
0.07947182 -0.07623369 0.113873385 -0.008994429 -0.020777706 0.06222043 -0.02436834 0.05676053
0.06450428 0.32397172 -0.015100664 -0.10090709 0.077353805 -0.059390306 -0.17009334 -0.076932184
-0.0056344797 -0.022040587 -0.020299839 -0.026844706 0.15839162 -0.0026612943 -0.008297235 0.061987005
0.0359818 0.05816089 -0.036716353 -0.22572717 -0.38104734 0.074890904 -0.37079284 -0.06727321
0.17491035 -0.14249997 -0.13695677 -0.09854505 -0.093920104 -0.14088155 0.357141 -0.25216034
0.09695135 0.23934545 0.13600546 0.20022552 -0.020753313 0.08962464 -0.15896668 0.11218783

fc1.bias f4 [200]
00000000: 8d50 05be 35a5 b8bd bf47 8bbe ac62 38bc
00000010: a31e dfbc 04f1 1fbe 904d 34be 3e39 02be
00000020: f8b9 773d fdc3 943d 3ecd c9bb aa94 943d
00000030: 5402 a6bd 7f3b 7c3e 0dac 2abe aef9 e83d
00000040: 8882 eabc e8ae adbc fa95 debd c498 11be
00000050: 04ce 00ba b5ba 0f3c 3090 173e 325d 90be
00000060: 997a c8bc 7a66 cfbd b0bf 15bf 8632 8ebc
00000070: 09f0 41be 0fdb 80bd c1a6 8f3d b3c8 b2bc
00000080: f3e7 05be 5e3b 83be 5682 c2bd 6d74 d7be
00000090: 6b2b c7bc edfd 64be 9922 a1be 59de 04be
000000a0: cd98 8dbe 3076 66be a604 033e 1633 5bbe
000000b0: 5529 90bd 1b4f bcbe c4f5 86be 82a9 82bd
000000c0: 77b9 c3bd 8360 1ebc 4dbe cfbd 284a 213e
000000d0: b429 27be a6d9 0fbe cba0 16bd 4834 2bbe
000000e0: 3086 69bc c7c5 33be 825d 2abe ad54 233c
000000f0: ba37 4abe 316c f8bd de02 183e 5df0 1ebb
00000100: d2a7 89bd 6b11 86bd 444b 34bd 9aae 90bd
00000110: 9e3f 903c dd14 1abd f474 08be e8d4 0ebf
00000120: 0dae 86be 7f5e 2fbf 7673 fdbe bcce 493d
00000130: eed7 99bd 0fec 26bf b636 f5bd db9c 0e3c
00000140: 3962 e53c 5905 03be cebf 7cbd ea97 ceba
00000150: 8c65 62be d05a d9bd 6d30 1bbe e47b 07be
00000160: 1abf 56be 8102 fcbd 921a 33be 39b7 f1be
00000170: 76e2 bebe ce0f 87be bdc6 713a 4fe0 5f3d
00000180: 2b1a a3be d068 85bd 6ade 9639 7b65 82be
00000190: 8205 3dbe 82b0 3d3e c114 5ebe 566b 3dbe
000001a0: 92bf 4fbd daf3 9abe 983f 24be d3d7 3f3e
000001b0: ed2e e6bd 3e82 1f3d 820f 613d cf92 46be
000001c0: 4ebe 08bf a426 2cbf b455 64bc fecf bcbd
000001d0: 71f0 123d e4cc aabc 8369 0f3e aac1 34bd
000001e0: 1082 9c3c 1009 21be 1afe 26be ee05 a1be
000001f0: 31b1 06be 543a 49bd b198 19bc 0f9d 88bd
00000200: 68b6 863d b8b7 b0be 74d3 01bd 9f8b 9dbe
00000210: d64f 46be d7d0 2dbd deee 62bd 7d0c 39be
00000220: d7a6 5cbd e40f b7bd 1da6 c0be 9f29 12be
00000230: 2f30 4e3e ac80 79be cbd8 7cbe 5a5c 94bd
00000240: 91fd 9db9 4c60 a6be 0084 1dbe 7567 85be
00000250: ccc5 b3bd f3a4 1dbd c4bd f93c c4b1 8dbc
00000260: 270d ef3c 1d85 823c b8af 1abe 160f a3bd
00000270: 72df 75be a9df d2bd daee e7bc ee73 56be
00000280: 0821 dfbd 1c4b eeb8 5c0b b8be 741c 70be
00000290: 23af 6fbe dd8b 56bd d8c7 69bb 4316 9c3b
000002a0: c8f9 88be f62b e1bc 9b05 9cbe 6dc4 51bb
000002b0: 8d0d 21be c055 56be 328a e4be e6c3 79bd
000002c0: 7081 8ebe 7731 62be 363f 5bbd 8619 c0be
000002d0: eccf bb3c 41f2 2dbd a51c 57bd fbdd 56be
000002e0: 4aa0 313e d4f2 a1be 2d13 15be e77e c3bd
000002f0: 55b5 70be 064c 38be 4508 94be 7695 77bd
00000300: afd0 9dbe 330b 4fbc 209f 41be 6991 093e
00000310: 1367 f0bd 4e2e adbe 208f 1fbe a355 853d
-0.13019009 -0.09015886 -0.27203175 -0.011253994 -0.027236288 -0.15619284 -0.17607713 -0.12717149
0.060480088 0.07263944 -0.0061585 0.07254918 -0.08105913 0.24632071 -0.16667195 0.113757476
-0.028626695 -0.021201566 -0.108684495 -0.14218432 -0.0004913511 0.008772542 0.14801097 -0.28196102
-0.024472522 -0.10126968 -0.58495617 -0.017358076 -0.18939222 -0.06291782 0.07014228 -0.021824216
-0.13076763 -0.2563123 -0.09497516 -0.42081013 -0.024312695 -0.2236249 -0.31471708 -0.12975444
-0.2765564 -0.22506022 0.12794742 -0.21406206 -0.070391335 -0.36779103 -0.2635938 -0.06379987
-0.09556859 -0.009666565 -0.10143719 0.15750945 -0.16324502 -0.1404787 -0.036774438 -0.16719162
-0.014253184 -0.17555915 -0.16637233 0.009968919 -0.1974782 -0.12130011 0.14844844 -0.0024252154
-0.06721462 -0.06546291 -0.04401709 -0.070645526 0.01760846 -0.037617553 -0.13325864 -0.5579362
-0.26304665 -0.68503565 -0.49502152 0.049269423 -0.075118884 -0.65203947 -0.11973326 0.008704389
0.028000938 -0.12795009 -0.061706357 -0.0015761827 -0.2210905 -0.10613024 -0.15155192 -0.13230854
-0.20971337 -0.12305165 -0.17490605 -0.472101 -0.3728215 -0.26379246 0.0009223035 0.054657277
-0.31855902 -0.06514132 0.0002877594 -0.25468048 -0.18459132 0.18524364 -0.21687604 -0.18497977
-0.050719805 -0.3026417 -0.16039884 0.18734674 -0.11239419 0.038942568 0.05494643 -0.1939194
-0.5341538 -0.6724646 -0.013936449 -0.09219359 0.035873834 -0.020849653 0.14005093 -0.044130005
0.019104987 -0.15726113 -0.1630787 -0.31449836 -0.1315353 -0.04912789 -0.009374783 -0.066705815
0.0657776 -0.34515166 -0.031695798 -0.30770585 -0.19366392 -0.042435493 -0.055403583 -0.1807117
-0.05387005 -0.08938578 -0.37626734 -0.1427369 0.20135568 -0.2436549 -0.24692075 -0.07244177
-0.00030134295 -0.32495344 -0.15382385 -0.26055494 -0.08777961 -0.038487386 0.030485995 -0.01729668
0.029181076 0.015932614 -0.15106094 -0.07961862 -0.24011019 -0.10296566 -0.028312135 -0.20942661
-0.10894972 -0.000113627146 -0.35946167 -0.23448354 -0.23406653 -0.052379478 -0.0035672095 0.004763396
-0.26753068 -0.027486783 -0.30473027 -0.0032007948 -0.15727825 -0.20931149 -0.44636685 -0.06097784
-0.27833128 -0.22089182 -0.05352708 -0.37519473 0.022926293 -0.04246736 -0.052517552 -0.20983116
0.17346302 -0.31630576 -0.14558096 -0.09545689 -0.23506673 -0.1799775 -0.2891256 -0.06044527
-0.30823275 -0.012636947 -0.18908358 0.13434376 -0.1173841 -0.3382439 -0.15581942 0.065104745

fc2a.weight f4 [4, 200]
00000000: 798e d13d 0f97 0dbd 74eb ff3d a182 30bd
00000010: 7fc4 93bd 7e1d 87bd c751 ddbd 1ccb 823d
00000020: 711c 44be 7138 e93c b051 253d 3987 05bc
00000030: 2c5e 5d3b 3d78 463d 9179 e7bc d42f 033d
00000040: 650f a7bb 7864 66bd 5a5b a33c fe82 833d
00000050: 6049 86be 80a4 b9bc 9a11 bebd c6a9 843d
00000060: f733 d03d 3f65 2c3d e6fc ee3c 5f7d b1bd
00000070: ac16 d53d d05f 1a3e e066 94bd f153 e3bc
00000080: e538 91bc 00db 543d 4aaa 8bbc 77e7 033e
00000090: 4184 99bc 03ec 8f3d bc6e 8b3c fe8b 623d
000000a0: e4bc a23d 918e e43c 707f 1e3e 107f 0a3e
000000b0: 2533 c6bc 4ba6 9e3d 036f b63c fc1c db3c
000000c0: 7134 f63c f6cb 69be f8da 9ebd 5db3 543d
000000d0: 17e4 94b9 5c1e ba3d 3a4e 8d3c ec07 82bd
000000e0: 9c1b 9b3c dd76 09bd 8459 6abe 5115 9fbc
000000f0: 0e7c 32bd 4283 c23d cca5 c6bb 4a02 1d3e
00000100: 9936 03bd aff2 3dbd 0035 b33b 2681 50bc
00000110: 8891 f4bc 9461 b1bd ada7 903d f98a d83c
00000120: 8d50 1dbd aabc 403d e7b2 903d b891 0b3e
00000130: 82d9 8f3d c57d 56bd aa64 1b3d f74d 88bd
00000140: 6fdc 4b3e 33bf 183d a7d5 44be e420 20bd
00000150: 820f 193e ad75 2d3c 263d 1bbd f1fc ad3c
00000160: 2c90 b0bd 4dda bf3d 6829 21be 4292 eb3c
00000170: c439 bebd 397f cc3d b702 753c b44f 80bd
00000180: 582a a6be 9f16 833c 2db0 8a3d a62d b9be
00000190: bdfa 583d 83e1 923d 61cd c6bc 904a 343e
000001a0: a374 0cbd d344 94bc 6c5c 683c 3227 143d
000001b0: eb17 14be a457 463c d022 abbd 1115 1f3d
000001c0: 87a8 6b3d 7119 a03d 3540 013d 09c3 d93d
000001d0: e1b5 5dbd 9517 8bbc 2aef a93c 2584 8d3c
000001e0: eb12 26be 1a05 053e a0eb 1ebc 1759 12bd
000001f0: 1829 23be d3aa a73d ab09 bf3c 5333 78bd
00000200: 21a2 97bc 4462 b4bc da76 ed3d b991 093d
00000210: 0ae2 0d3e 7ce8 c3bd 48fb 413d c4b1 553d
00000220: 2bdc 59bd b4aa b13c b444 4c3d 2235 7e3d
00000230: bf43 69bd c1c4 b93d 627c 67bb 663d 5f3a
00000240: f65c ae3c 0588 debd 40bc 763a 8362 c8bd
00000250: 0e01 b9bc 93bc 693d 0ccd 57bd b9a3 17bd
00000260: 378e d53c 3559 10bb 155a e23d dc4e a6b9
00000270: ddae 8dbe 6513 903d d329 4fbc 3d46 4e3d
00000280: a976 ae3d 2e8c 01be b981 7b3d 952a 173d
00000290: 1fa1 25bc fdfa 22be 55fd ae3c 2b4f 0a3d
000002a0: 040a ad3b 0f59 1f3d 5b14 083c 5565 23be
000002b0: 2984 e63c 066e 08be 1cd9 033d 52b0 783b
000002c0: 1c9c d33d e97c c8ba 5f2b 2bbc 1300 d03d
000002d0: 4fd3 f2bd 9b8d f8bd 9123 31be 6ea3 793d
000002e0: d172 7abd 1ceb d73d 08a4 f43d b5e6 dcba
000002f0: a70d 323e 8728 0fbe 3b04 a03d e67f de3d
00000300: 0d75 bc3d 5e4c 15bd 48e4 c5bc d24a cc3d
00000310: efba 323e 96a6 5ebd f347 e6bc 3311 933d
00000320: e058 013d ff7c 2ebc dc45 87bd 3529 d4bc
00000330: 0f07 c3bb 4230 113e 798c 05be 8f3e 34bc
00000340: 85b9 a63e 96a3 6a3d 7fe8 053d afb8 02be
00000350: 1e30 92bc 4d9e 0e3e 4de5 583d 80f4 373e
00000360: b304 053c de90 c83c bcf1 bf3d 748e c6bc
00000370: 5f5e 8b3d 5ee8 643d 8632 7f39 c7f2 ffbd
00000380: fdc0 bf3c 44ff a73c b235 84be 082c 783c
00000390: ca18 27bd aa23 4f3d d6d5 24bc 7d13 cfbc
000003a0: cbff c7bc 0615 24be 745d 3cbd 0447 94be
000003b0: 89ed bd3d cde7 8b39 6361 42bd 248b ecbc
000003c0: 6ac0 55be 367c 4c3c 9a10 f83d febc eabc
000003d0: d345 23bd 0ebf 89be 0bf7 d1bc a523 053c
000003e0: d687 6b3d df14 833e 06ce b1bd 8a23 383e
000003f0: 4e6b 64bd 0895 813d abe7 b03d e3b2 d5bc
0.10232253 -0.03456789 0.12496081 -0.043093327 -0.07215213 -0.06597422 -0.108066134 0.06386396
-0.19151475 0.028469296 0.040361106 -0.008149915 0.0033778055 0.048454512 -0.02825621 0.032028034
-0.0050982707 -0.05624816 0.01994102 0.06421469 -0.26227856 -0.022661448 -0.09280701 0.06477694
0.101661615 0.042088743 0.029173326 -0.08666491 0.10404715 0.15075612 -0.07246184 -0.027749987
-0.017727325 0.051966667 -0.017048974 0.12881266 -0.018739821 0.070274375 0.017020576 0.05530929
0.07946184 0.027900012 0.15478301 0.13525033 -0.02419431 0.077465616 0.022269731 0.02674722
0.030054303 -0.22831711 -0.07756609 0.051928867 -0.000283987 0.09087822 0.017249215 -0.06349167
0.018934064 -0.033560622 -0.2288571 -0.019419344 -0.04357534 0.09497692 -0.006062245 0.15332904
-0.03203449 -0.04637402 0.0054689646 -0.012726104 -0.029854551 -0.0866119 0.070632316 0.026433455
-0.038406897 0.047054924 0.07065373 0.13629806 0.07023908 -0.052366037 0.037937798 -0.066554956
0.19908307 0.037291717 -0.19222127 -0.039093867 0.14947322 0.010587138 -0.037900113 0.021238776
-0.086212486 0.093678094 -0.15738451 0.028756265 -0.09288362 0.09985203 0.014954261 -0.06265202
-0.3245418 0.016001998 0.06771884 -0.3616764 0.052973498 0.07171919 -0.024267854 0.17606568
-0.03429092 -0.018099224 0.014182191 0.036170192 -0.14462249 0.012105856 -0.08356249 0.03883845
0.057533767 0.078173526 0.031555373 0.10632903 -0.05412853 -0.016979018 0.020743925 0.017274925
-0.16218154 0.12990227 -0.009699732 -0.035729494 -0.15933645 0.08186879 0.02332004 -0.06059582
-0.018509926 -0.022019513 0.11594935 0.033586238 0.13855758 -0.09565827 0.04735878 0.052171484
-0.053188484 0.021687843 0.049870208 0.06206239 -0.056949373 0.09070731 -0.003532194 0.0008515924
0.021284562 -0.108657874 0.0009412207 -0.097844146 -0.02258351 0.057064604 -0.052685782 -0.037021372
0.02606879 -0.0022025828 0.11052338 -0.00031720742 -0.27672473 0.07034949 -0.012644249 0.050359953
0.085187264 -0.1265113 0.06140301 0.036905844 -0.010109215 -0.15916057 0.021361033 0.033766907
0.005280735 0.038903292 0.008305634 -0.15956624 0.02813919 -0.1332322 0.032189474 0.0037946892
0.1033251 -0.0015296015 -0.010447352 0.10156264 -0.1185671 -0.12136384 -0.17298724 0.060946874
-0.061144654 0.105428904 0.11945349 -0.0016853424 0.1738802 -0.13980304 0.07813307 0.108642384
0.09202013 -0.036449783 -0.024156705 0.09975208 0.17454122 -0.054358087 -0.02811048 0.07181015
0.0315789 -0.010649919 -0.066051215 -0.025898555 -0.005951769 0.14178565 -0.13041867 -0.011001243
0.32563415 0.057284914 0.03269243 -0.12765764 -0.01784521 0.13927574 0.052953053 0.17964363
0.008118796 0.02448314 0.09372279 -0.024237849 0.06805109 0.055885665 0.00024337517 -0.12497478
0.023407454 0.020507462 -0.25822216 0.015147217 -0.040795125 0.05057112 -0.010060748 -0.025277847
-0.024413964 -0.16023645 -0.04598756 -0.2896043 0.09273822 0.0002668485 -0.047456156 -0.028874941
-0.20874181 0.012480786 0.121125415 -0.028654572 -0.03986151 -0.26903576 -0.025630495 0.008126174
0.05750259 0.2560186 -0.08681874 0.17982307 -0.055766396 0.063272536 0.08637937 -0.026086276

fc2a.bias f4 [4]
00000000: 54ff c0bd e038 ae3e 168d 53be acdb b8bd
-0.094237 0.34027767 -0.20659289 -0.09026274

fc2c.weight f4 [1, 200]
00000000: 0a77 40bd f451 273d 38ca a3bd e481 b13c
00000010: a84b 03bc 4c58 b93d 65f1 cdbc bc2f 95bb
00000020: 9212 3b3d 75d0 bc3c cc12 a23a dce7 633e
00000030: 0eed 513d 985f b7bb 407c 92bc 42e8 33bd
00000040: 3163 513c a695 bdba 07b7 32bd 95a0 2dbc
00000050: 9206 9e3d adc7 25bc 1028 503e 2834 95bc
00000060: f288 0a3d 6be0 3dbd 3542 8ebd 72fd 34bc
00000070: 46c8 143b 8a03 373d 55d7 303c c357 5dbc
00000080: 8353 873c c566 003e 6d15 5cbb 3883 103c
00000090: e7b0 f4bc 6704 25bc 22f6 98bc 40e0 81bc
000000a0: c8fe 633e 18da 55bd 7902 e23c c1c3 293d
000000b0: 7bd6 903a 87a1 28bd 5ef8 39bd 57dd 9b39
000000c0: 2c11 923b 9e81 f23c ba08 83bd 82b8 8b3d
000000d0: ad9b 823c 1a29 b23c b59e 42bc da3b 85bd
000000e0: 8752 253c 4415 81bd 3784 6cbe 85b0 e339
000000f0: 5f92 96bd c9cd 7dbd 1fd3 cdba b6a2 05be
00000100: 1cec 0b3c 23f9 823c feb2 d53c 14b9 caba
00000110: a7c5 02bd d410 94bc e224 573e cd6b 9ebd
00000120: fbe8 46be e9dd 1d3d 5385 8fbd baeb 8e3c
00000130: 4691 2abd fb21 7dbd e582 03be 059c 803d
00000140: 1223 82bd 2b52 0fbd 8aa6 de3d 93b4 c6ba
00000150: a323 793c b212 cfbc 9c44 16bc 1689 ea3b
00000160: 56ee 5e3b 8a3a d6bb 2e02 6b3d a9a1 c73d
00000170: dbea 043e 0880 5dbd 6d47 1fbc 1f34 dabc
00000180: 000f fdbd 8227 ac3a 68e9 803c 5da7 48bd
00000190: 8626 993b 1da3 9abc 465c 45bc 8218 d1bd
000001a0: 83b7 f3bb bdc1 afbd f60f 2c3c 16d9 433d
000001b0: 7e43 25be 32e3 843b fc67 403d 50fd aa3c
000001c0: fe82 63bd 4a54 33bd ee1a ba3d 2da6 1abe
000001d0: 0ca3 103c 3f7c e7ba 9b5f 8d3c 42e1 db3b
000001e0: 0864 56bd 6d3c 1fbe 89e3 13bd 37eb ee3c
000001f0: 90cd bcbd 71c2 17bd dd12 51bc f6ad 09bc
00000200: 2bd5 b4bd 0d16 44ba aad0 86bd 7077 00be
00000210: 6ea1 bfbd 17af 4eb9 15a7 26bb 118f c73b
00000220: 502b 2e3d 0ec0 0d3b e869 023d 5681 793c
00000230: 4b01 3fbc b711 853d d132 a7bd 4fc0 a13c
00000240: 268f 62bb 3eb2 e33c 96db 403d 61f9 eb3d
00000250: 7c9b d2ba a87c 3a3c 8b22 103a 0a9e a13b
00000260: ecf3 603a 1a0f e93c 652c 463b 3ca3 fd3b
00000270: 3032 a1bc b211 87bc 6eac 073d 213c b2bc
00000280: 5ccf 9c3c 80ee 9c3b 1749 84bc bdbc 163d
00000290: bc02 19be 1048 d03d bd83 833b b98d 9b3b
000002a0: e93d 24bd c816 fc3c 38ce 00bd 1c4d 67bc
000002b0: 2f8a cd3d 8ee2 9b3c 9bb5 8ebd 3e38 823e
000002c0: 91bd a6bd 90f8 083c 819f af3c eab4 f3bc
000002d0: e46d dc3c 711a 223d ec8a bfbd a813 903a
000002e0: 2c78 9c3c ba4c c8bc 857b 883d df65 a33c
000002f0: 1fa4 85bd 4e7e 75bd cbf6 2a3c 3260 45bd
00000300: 0fef 61bd 0b4f 393c f027 debc 4607 273e
00000310: a879 223d c7c1 82bd 4bfe 4f3c 46f9 26bb
-0.046988524 0.04084964 -0.079975545 0.021668382 -0.008013643 0.090500444 -0.02513952 -0.0045528095
0.045672007 0.023048619 0.0012365221 0.22256416 0.051251464 -0.0055961125 -0.017881513 -0.04392267
0.012779997 -0.0014464154 -0.04363158 -0.010597368 0.07716097 -0.010118407 0.20327783 -0.018213347
0.033822007 -0.0463566 -0.06946222 -0.011046754 0.002270238 0.04468111 0.010793527 -0.013509694
0.016519314 0.12539203 -0.0033582107 0.0088203475 -0.02986951 -0.01007185 -0.018672053 -0.015854001
0.2226516 -0.052209944 0.02758907 0.04144645 0.0011050248 -0.04116967 -0.045402877 0.00029728815
0.0044576135 0.029602822 -0.06398149 0.068223014 0.015943373 0.021748114 -0.011878659 -0.065055564
0.010090477 -0.06302884 -0.23097311 0.0004342833 -0.07352137 -0.06196383 -0.0015703178 -0.1305035
0.00854018 0.015987938 0.026086327 -0.0015466535 -0.031926777 -0.01807443 0.21010163 -0.07735405
-0.19424812 0.03854171 -0.070078515 0.017446388 -0.04164245 -0.061799984 -0.12842901 0.06279758
-0.063543454 -0.03499047 0.108716086 -0.0015160016 0.01520625 -0.02527747 -0.009171631 0.007157455
0.003401657 -0.00653774 0.057375126 0.09747631 0.12980215 -0.05407718 -0.009721619 -0.026636181
-0.12356377 0.0013134333 0.015736297 -0.048987735 0.004673782 -0.018876607 -0.0120459255 -0.102097526
-0.007437648 -0.085818745 0.010501852 0.04781445 -0.16139027 0.004055404 0.046974167 0.020872742
-0.055544846 -0.043781556 0.09087168 -0.15102454 0.008827936 -0.001766093 0.017257502 0.0067102024
-0.05234149 -0.15550394 -0.036105666 0.029164894 -0.092188954 -0.03705067 -0.012760845 -0.008403292
-0.08829721 -0.00074800925 -0.06582768 -0.12545562 -0.09356962 -0.00019710917 -0.0025429178 0.006090053
0.042521775 0.0021629366 0.03183928 0.01522859 -0.011658023 0.064975195 -0.08163989 0.01974502
-0.0034570186 0.027794953 0.047084413 0.115221746 -0.0016068066 0.011382259 0.00054983114 0.00493217
0.0008581269 0.028449584 0.0030238864 0.0077404063 -0.019677252 -0.01648793 0.033123426 -0.021757187
0.019141845 0.0047891736 -0.016148133 0.03680109 -0.1494245 0.10169995 0.004013507 0.0047471193
-0.040098105 0.030772582 -0.031446666 -0.014117505 0.10036122 0.019028928 -0.06968232 0.25433534
-0.08141626 0.008360043 0.021438362 -0.029749352 0.026907869 0.039575998 -0.09352669 0.0010992186
0.019100271 -0.024450649 0.066641845 0.019946037 -0.06525444 -0.059934907 0.010434817 -0.048187442
-0.055159625 0.011310349 -0.027118653 0.16311368 0.0396668 -0.06384616 0.0126949055 -0.0025478168
