expreiment/LWM_expt/best_parameters/vae_best.pth (torch, 55227 bytes, 14 tensors)

conv_enc1.weight f4 [8, 3, 3, 3]
0	0x3e5b6597	0.21425472
1	0xbd00a24d	-0.031404782
2	0xbe13328f	-0.14374755
3	0xbcd618ea	-0.026134927
4	0xbecf2054	-0.40454352
5	0xbe761563	-0.24031596
6	0x3e45fe7f	0.19335364
7	0x3db23ffb	0.087036096
8	0x3d0d7e5d	0.034544338
9	0x3c1a08d4	0.009401519
10	0x3d5fc7e6	0.054633997
11	0x3c1ac3c0	0.0094460845
12	0x3dc17fbf	0.09448194
13	0xbde8cd48	-0.11367279
14	0xbe170c34	-0.14750749
15	0x3dc8db3c	0.09807441
16	0xbd40cf06	-0.047072433
17	0xbe47c4cc	-0.19508666
18	0x3d533535	0.051564414
19	0x3d0b615d	0.0340284
20	0xbd02c576	-0.031926595
21	0x3e38448b	0.17994897
22	0xbe9b8154	-0.30372107
23	0xbeb1134e	-0.3458504
24	0x3dd3d15b	0.10342666
25	0x3debd799	0.11515731
26	0x3d7f06cb	0.062262338
27	0xbe97a5dd	-0.2961873
28	0x3e07b8c9	0.13254084
29	0xbe2b6507	-0.16737758
30	0xbdcbe220	-0.09955239
31	0x3d3ade03	0.045621883
32	0x3db2e404	0.08734897
33	0xbe02e9a1	-0.12784435
34	0xbe05d9a5	-0.13071306
35	0xbdc8b05a	-0.097992614
36	0x3d972d1a	0.07381649
37	0xbdc38ffc	-0.09548947
38	0xbe8e8a1e	-0.2783975
39	0xbd3d4e3f	-0.0462172
40	0x3e1e9aae	0.15488693
41	0xbe3c8d49	-0.18413271
42	0xbd420fae	-0.047378235
43	0x3dabf865	0.08396987
44	0xbddc5ce5	-0.10759906
45	0xbe97f84d	-0.29681626
46	0xbd27855b	-0.040898662
47	0x3da26be3	0.07930734
48	0x3c961616	0.018321078
49	0xbba6dc89	-0.005092208
50	0xbcdd1915	-0.0269895
51	0x3d414796	0.04718741
52	0xbe89c9fa	-0.26911908
53	0xbe10eab4	-0.14152032
54	0xbd967cac	-0.07347998
55	0x3df5beb6	0.11999266
56	0x3d1da406	0.038486503
57	0xbe3b3c7a	-0.18284789
58	0xbd1e1d31	-0.038602058
59	0xbc954486	-0.018221151
60	0x3c2b2980	0.010446906
61	0x3dd554f0	0.10416591
62	0x3dfd56a0	0.12370038
63	0xbd82765f	-0.06370234
64	0xbdd21f45	-0.102598704
65	0x3e80c792	0.2515226
66	0xbe1044c7	-0.14088736
67	0x3e6d236e	0.23158047
68	0xbd7a59b0	-0.06112069
69	0xbb90c328	-0.0044177957
70	0xbe2932e6	-0.16523322
71	0xbdac7b90	-0.08422005
72	0x3dc8c898	0.09803885
73	0x3dc182b1	0.094487555
74	0x3deeda01	0.11662675
75	0xbabb76c7	-0.0014302366
76	0x3e3b1e5c	0.182733
77	0xbb49b352	-0.003077705
78	0x3e14f6ba	0.14547244
79	0xbdc2c7ea	-0.09510787
80	0xbb096bd0	-0.0020968802
81	0x3e0ed7bb	0.13949482
82	0x3d8a1c24	0.06743649
83	0xbe6d8c03	-0.23197941
84	0x3e65d9f4	0.22446424
85	0x3e416da9	0.18889488
86	0x3e3a08fb	0.18167488
87	0xbe5c04ed	-0.21486254
88	0xbe9ba186	-0.3039667
89	0x3cac798c	0.021054052
90	0xbe1dbabb	-0.15403263
91	0xbe7c895d	-0.24661775
92	0xbda3c883	-0.07997229
93	0x3e72023d	0.23633666
94	0x3d1c26ae	0.038122825
95	0xbc242521	-0.010018618
96	0xbdc5aeee	-0.09652506
97	0xbdd557bc	-0.10417125
98	0x3c52f3d1	0.012875513
99	0x3d2d8939	0.042367194
100	0x3e3e0408	0.18556225
101	0xbe786238	-0.24256217
102	0x3c6f304a	0.014598915
103	0x3e1649c5	0.14676578
104	0xbddaf2db	-0.10690852
105	0xbe093ee7	-0.13402902
106	0x3b57c459	0.0032923429
107	0xbdf7b804	-0.12095645
108	0x3e6b0da2	0.2295442
109	0x3e550cc0	0.20805645
110	0xbc48322c	-0.012218993
111	0xbd1a8346	-0.03772285
112	0x3e1a1114	0.15045577
113	0xbd195f8f	-0.037444647
114	0x3c15ea29	0.009150066
115	0xbe1f6750	-0.15566754
116	0x3bc5608d	0.0060234726
117	0x3e86b8ee	0.26312965
118	0x3e17ed26	0.14836559
119	0xbe0448c8	-0.12918389
120	0x3e0cb273	0.13739948
121	0x3e49c85e	0.1970534
122	0x3e91d8ad	0.28485623
123	0xbda1b0c4	-0.078950435
124	0xbe56f4df	-0.20991848
125	0x3cb7264f	0.022357134
126	0x3e4ef780	0.20211601
127	0x3b8e31a8	0.0043394156
128	0x3aeb536b	0.0017953938
129	0x3db89834	0.090134054
130	0x3cbcacf0	0.023031682
131	0x3e0bebee	0.13664219
132	0x3ce909c9	0.028447049
133	0xbdecc0f3	-0.1156024
134	0xbcf3924a	-0.029732842
135	0x3db1db06	0.086843535
136	0x3e962422	0.29324442
137	0xbd88dffc	-0.06683347
138	0x3d4e8b13	0.0504256
139	0x3e3aa4e7	0.18226968
140	0x3bdc7572	0.0067278678
141	0xbd07013b	-0.032960158
142	0x3e1d38ba	0.1535367
143	0xbdff3d29	-0.12462837
144	0x3c78fb93	0.015196699
145	0xba6431d6	-0.0008704936
146	0xbe2bae2c	-0.1676566
147	0xbe2a5f10	-0.16637826
148	0x3ebbe72f	0.36699817
149	0x3c2122ff	0.009835004
150	0x3d92de0d	0.07171259
151	0x3e658f3c	0.22417921
152	0x3d362e5c	0.044477805
153	0xbe3d40e3	-0.18481784
154	0x3d9f0b89	0.07765872
155	0x3d60193e	0.054711573
156	0xbe371703	-0.17879872
157	0x3e476173	0.19470768
158	0x3e9d1918	0.30683208
159	0x3dd99ccd	0.106256105
160	0xbe0173c6	-0.1264182
161	0xbd04e242	-0.03244234
162	0xbd23346f	-0.039844926
163	0x3e044fa4	0.12921005
164	0xbed4f577	-0.41593525
165	0x3e85c4d1	0.26126722
166	0x3e1fabd8	0.15592897
167	0x3e2e4793	0.17019491
168	0xbda37292	-0.07980837
169	0xbe44a68f	-0.19204162
170	0x3dadcf5a	0.08486815
171	0xbd2a50e9	-0.04158107
172	0xbdcb2294	-0.09918705
173	0xbd5cd8f2	-0.053917833
174	0x3e7d6e13	0.24749021
175	0x3e602737	0.2188996
176	0xbe155186	-0.1458188
177	0xbe75eecf	-0.2401688
178	0xbe233f30	-0.15942073
179	0xbc8e5a31	-0.017376991
180	0xbe14e086	-0.14538774
181	0xbc03bef5	-0.008041133
182	0xbe98d8f6	-0.29853028
183	0x3e606aac	0.21915692
184	0x3cf6dc7c	0.030134432
185	0xbd9b6bb3	-0.07588901
186	0x3dc6bcfe	0.09704016
187	0xbdf3e266	-0.119084165
188	0x3ce9c82c	0.028537832
189	0x3e14245f	0.14467
190	0xbe11378d	-0.14181347
191	0xbce4c6a6	-0.027926754
192	0x3e06a0b0	0.13147235
193	0x3d87a888	0.06623942
194	0x3e2c6768	0.16836321
195	0x3e59def5	0.21276458
196	0x3e3eaefe	0.18621442
197	0x3e4b4b3c	0.19852918
198	0xbe529456	-0.20564398
199	0x3e22a84c	0.15884513
200	0xbc193f69	-0.009353497
201	0xbe0a1757	-0.13485466
202	0xbe6090fd	-0.21930309
203	0x3dbb1573	0.091349505
204	0x3e71a256	0.23597082
205	0x3de8fd11	0.113763936
206	0x3eb132ae	0.34608978
207	0xbe6318a9	-0.22177376
208	0x3d9442ab	0.072392784
209	0x3d11e7e9	0.035621557
210	0x3d515e08	0.051115066
211	0xbe4e6189	-0.20154394
212	0x3d533c67	0.051571276
213	0xbd03a3db	-0.032138687
214	0xbd8c5ce2	-0.068536535
215	0x3e51941d	0.20466657

conv_enc1.bias f4 [8]
0	0xbca5bb4c	-0.020230912
1	0x3dd0e852	0.102005616
2	0xbcbd9e36	-0.02314673
3	0xbd8af2fe	-0.06784628
4	0xbb317f47	-0.002708392
5	0xbd86dcb8	-0.065850675
6	0xbdd3ebeb	-0.10347732
7	0xb99b04ba	-0.00029567425

conv_enc2.weight f4 [16, 8, 3, 3]
0	0xbdb00997	-0.08595579
1	0xbe588338	-0.21143806
2	0xbe097fc3	-0.13427643
3	0xbc875c38	-0.016523466
4	0x3dcb61d5	0.09930769
5	0xbe098bdf	-0.13432263
6	0x3d7ea344	0.06216742
7	0xbc56540b	-0.013081561
8	0x3ca7f8cc	0.020504378
9	0xbc719b6a	-0.014746526
10	0xbcb0db89	-0.021589058
11	0x3db77a2a	0.08958848
12	0x3cfb05b3	0.030642366
13	0xbd2bb5a8	-0.041921288
14	0xbdab4357	-0.083624534
15	0x3b3bd97b	0.0028663564
16	0xbcd44824	-0.025913306
17	0xbde0cce1	-0.109765776
18	0x3cacacc1	0.02107847
19	0xbdd5d0b9	-0.10440201
20	0xbc972dfe	-0.018454548
21	0x3d6ce743	0.057837736
22	0x3d907b52	0.070547715
23	0x3d4ae83e	0.04953789
24	0xbd9bf0d6	-0.07614295
25	0x3cb4e7a4	0.022083111
26	0xbd37dd68	-0.044888884
27	0x3cbb6eab	0.022879919
28	0x3bfd4386	0.0077289967
29	0xbb18b7f4	-0.0023303004
30	0xbbec4e50	-0.007211484
31	0xbd4eb1da	-0.05046258
32	0x3e0e8c55	0.1392072
33	0xbe16a33b	-0.14710705
34	0xbd3a373a	-0.045462824
35	0xbd47335b	-0.04863296
36	0x3d50cdd9	0.05097756
37	0xbcb4074a	-0.021976132
38	0x3e3b5646	0.1829463
39	0xbe122d7c	-0.14275163
40	0x3e097a8a	0.13425651
41	0x3e22f3fe	0.15913388
42	0xbdb31c9b	-0.087456904
43	0xbacb16f0	-0.0015494507
44	0xbdf8727b	-0.121312104
45	0xbd558e70	-0.052137792
46	0xbc1e22aa	-0.009651819
47	0x3d03d4e1	0.03218544
48	0x3cbdc83c	0.023166768
49	0x3e2023c6	0.15638646
50	0xbd0c2379	-0.034213517
51	0xbd12b6e5	-0.035818953
52	0xbd060db3	-0.03272791
53	0xbe188ae0	-0.14896727
54	0xbd0404d2	-0.03223116
55	0xbcd18ef9	-0.02558087
56	0xbe04bafe	-0.12961957
57	0x3d17ce7b	0.03706215
58	0xbe924cdc	-0.28574264
59	0x3c1d8eb9	0.009616547
60	0xbdd58f39	-0.10427708
61	0x3c7cdf79	0.015434139
62	0xbe5565e1	-0.20839645
63	0xbe164e90	-0.14678407
64	0x3d95bb30	0.07311094
65	0xbdd892bb	-0.105748616
66	0x3d32700b	0.043563884
67	0xbd8984ad	-0.06714759
68	0x3d7bb54d	0.0614522
69	0xbd9dec12	-0.077110425
70	0x3d677b79	0.056514237
71	0xbdb5de95	-0.08880345
72	0xbd73d8af	-0.059532817
73	0xbd352290	-0.044222414
74	0x3e0c8d53	0.13725786
75	0x3d6dbd24	0.058041707
76	0x3dc12111	0.09430135
77	0x3de495ae	0.11161362
78	0xbd884df7	-0.066554956
79	0x3dfc69d9	0.12324876
80	0x3d884c40	0.066551685
81	0xbc01c58b	-0.007920633
82	0x3dcc8e71	0.09988106
83	0xbdb755ef	-0.089519374
84	0xbd7ee102	-0.062226303
85	0xbd9b9071	-0.075959094
86	0x3d8f1d5c	0.06988022
87	0x3dcb754f	0.09934484
88	0x3d91c9dd	0.071185805
89	0xbd387e52	-0.045042343
90	0xbd3aa9f1	-0.045572225
91	0x3df8d963	0.12150838
92	0x3da6be15	0.08141724
93	0x3daa01ec	0.08301148
94	0x3e1b94cc	0.1519348
95	0x3e32d221	0.1746297
96	0x3dc9f777	0.09861653
97	0xbd41aa9e	-0.047281854
98	0x3e161803	0.14657597
99	0xbd3ec94d	-0.046578694
100	0xbd5c1b8f	-0.05373722
101	0x3c0f1769	0.008733609
102	0x3d0d79d9	0.03454003
103	0x3c879fbe	0.016555663
104	0x3d5e7cb9	0.054318164
105	0xbcaa61a9	-0.020798521
106	0x3e32f8ab	0.17477672
107	0x3c6cb525	0.014447485
108	0xbad47d5e	-0.0016211679
109	0x3dce9bc9	0.100883074
110	0x3e377454	0.1791547
111	0x3d595459	0.053058956
112	0x3e16688a	0.14688316
113	0x3e82ac7a	0.25522214
114	0x3e0fe770	0.1405313
115	0xbc84f9a8	-0.016232327
116	0x3d795ca6	0.060879372
117	0xb9660519	-0.00021936408
118	0x3e85961e	0.26091093
119	0x3df6e8a3	0.12056091
120	0x3bf0cee7	0.0073488834
121	0x3e4c4949	0.19949831
122	0x3e0d3dc7	0.13793097
123	0xbc9d8cd9	-0.0192322
124	0x3ddc2747	0.10749679
125	0xbd345d7a	-0.04403446
126	0x3db5e34b	0.08881243
127	0x3de85faa	0.113463715
128	0xbd56d10c	-0.052445456
129	0xbe1b6d72	-0.15178469
130	0x3e0ac7e0	0.13552809
131	0xbd8f9b1d	-0.070120074
132	0x3dcc2dfb	0.099697076
133	0x3d161e7c	0.036650166
134	0x3db0d329	0.086340256
135	0x3c08fc8f	0.008360996
136	0x3e159dc7	0.14610969
137	0x3e4f86ba	0.20266238
138	0x3e17cf76	0.14825234
139	0x3e1598c6	0.1460906
140	0x3db009d3	0.08595624
141	0xbcac8723	-0.021060532
142	0xbd2da2db	-0.04239164
143	0xbd4ad9ac	-0.049523994
144	0xbd3ee068	-0.04660073
145	0xbd43d606	-0.04781153
146	0x3c5b3ec7	0.0133816665
147	0x3d74fd61	0.059811953
148	0x3dd39cb2	0.10332622
149	0xbdaef7c9	-0.08543355
150	0x3d0b285f	0.033974048
151	0xbbfd931c	-0.007738484
152	0x3dc4a447	0.09601646
153	0x3d0d027e	0.034426205
154	0xbd86f5ca	-0.06589849
155	0x3d8b7a2f	0.06810414
156	0x3d41d430	0.0473215
157	0x3d2a25a4	0.041539803
158	0xbdfed0db	-0.1244218
159	0x3d270328	0.040774494
160	0xbd90e95f	-0.07075762
161	0x3da00dc5	0.07815126
162	0xbd983d55	-0.07433573
163	0xbdd059c9	-0.10173375
164	0x3d869dee	0.065730914
165	0xbd43b80a	-0.047782935
166	0xbdcf5a07	-0.10124593
167	0x3dce3e63	0.10070493
168	0x3d50f79b	0.051017385
169	0x3db75606	0.089519545
170	0xbe028cf3	-0.1274908
171	0xbdd5acd8	-0.10433358
172	0x3cf38c97	0.029730124
173	0xbb1b5ec2	-0.0023707603
174	0x3d7e1c38	0.06203863
175	0x3c574e3f	0.013141214
176	0xbdea1892	-0.11430468
177	0x3cd91ba3	0.026502436
178	0xbdeb5aef	-0.114919536
179	0x3d85189f	0.06498837
180	0xbb67d588	-0.0035375077
181	0x3c86c428	0.016450956
182	0xbd93464c	-0.071911424
183	0x3db5c2a0	0.088750124
184	0xbab9aed9	-0.0014166489
185	0x3c79d288	0.0152479485
186	0xbd28f803	-0.041252147
187	0xbd0abc9d	-0.033871282
188	0x3db88555	0.09009806
189	0xbdca808d	-0.098878
190	0x3d95e307	0.07318693
191	0xbd37706d	-0.044784952
192	0x3d5c1688	0.053732425
193	0xbdf8d424	-0.121498376
194	0x3de0acc9	0.10970456
195	0xbdbdaa62	-0.092610136
196	0xbd3411bc	-0.043962225
197	0xbd636f82	-0.055526264
198	0xbd61515c	-0.05500923
199	0x3d94db71	0.072684176
200	0xbcdaa801	-0.026691439
201	0xbd6aac3f	-0.057293173
202	0xbd5f9e63	-0.05459441
203	0xbdc9d43f	-0.09854936
204	0xbcb328a6	-0.021869969
205	0xbc43834a	-0.011933157
206	0x3caaee04	0.020865448
207	0xbd1605aa	-0.036626495
208	0xbdee60d5	-0.11639563
209	0x3ce3f439	0.027826415
210	0x3c290fcf	0.0103187105
211	0xbd9d4fb0	-0.07681215
212	0x3d91dbc7	0.07121997
213	0x3cd94127	0.026520325
214	0xbbf6e9c6	-0.007535192
215	0xbdc667af	-0.09687745
216	0xbdfd4dbf	-0.123683445
217	0x3dfcb008	0.12338263
218	0xbe6111a7	-0.2197939
219	0x3dc0177d	0.0937948
220	0xbe0373c2	-0.12837127
221	0xbe3e5413	-0.1858676
222	0xbe017df7	-0.12645708
223	0xbcb2d2d2	-0.021829043
224	0x3e3542c4	0.1770125
225	0xbd37f4d4	-0.04491122
226	0x3d2c6faf	0.042098697
227	0x3d8e47a1	0.06947256
228	0x3e5ced5a	0.21574917
229	0xbdb6085e	-0.08888315
230	0x3e53ff58	0.20702875
231	0xbe2eb7bc	-0.17062277
232	0xbe3c5aaa	-0.1839396
233	0xbe30c558	-0.1726278
234	0x3cd1061f	0.025515614
235	0x3d838e39	0.06423611
236	0x3e598438	0.21241844
237	0x3d770bcf	0.060313996
238	0x3e0067ae	0.1253955
239	0x3c851c70	0.016248912
240	0x3cec0484	0.028810747
241	0xbde2e195	-0.110781826
242	0x3dec8769	0.11549265
243	0xbdecb6b5	-0.11558286
244	0x3dac1a7d	0.0840349
245	0xbcb6f452	-0.022333298
246	0x3dc1d664	0.0946472
247	0x3dac0da3	0.084010385
248	0xbafffaf3	-0.0019529745
249	0xbc76a072	-0.015052902
250	0xbc6b76f7	-0.014371625
251	0xbe873d13	-0.26413783
252	0xbe14eed8	-0.14544237
253	0x3d016423	0.03158964
254	0x3e00a749	0.12563814
255	0x3d6b1673	0.057394456

conv_enc2.bias f4 [16]
0	0xbcb089cc	-0.021550082
1	0xbc4be3a6	-0.012444412
2	0xbdfaffa1	-0.122557886
3	0xbda0284e	-0.078201875
4	0x3c578687	0.013154632
5	0x3d8090e2	0.06277634
6	0x3cbeaf1a	0.023276854
7	0xbd844d6c	-0.064600796
8	0xbe0e0b42	-0.13871482
9	0x3d7501e2	0.05981625
10	0xbe343b32	-0.17600706
11	0xbc77d2cb	-0.015125941
12	0x3e4292a3	0.1900125
13	0x3e69e209	0.22840132
14	0xbc733094	-0.014843125
15	0xbdb150bb	-0.08657976

dense_encmean.weight f4 [8, 400]
0	0xbe0b9866	-0.13632354
1	0xbd34f08b	-0.044174712
2	0x3dcc163a	0.09965177
3	0x3beabd53	0.0071636825
4	0xbe9d996d	-0.30781117
5	0xbceeda8e	-0.02915695
6	0xbcae38bb	-0.021267286
7	0x3d96949d	0.073525645
8	0xb995c48e	-0.0002856594
9	0xbdff5a2c	-0.12468371
10	0xbdcd9f97	-0.10040205
11	0x3d0e6617	0.03476533
12	0x3b101443	0.0021984733
13	0xbcb45071	-0.022011014
14	0x3d84c4f9	0.06482882
15	0x3cc1722d	0.023614014
16	0xbd42efc1	-0.04759193
17	0x3d31ae44	0.043379083
18	0xbd80b0bd	-0.0628371
19	0xbc888f7e	-0.016669985
20	0x3d392498	0.045200914
21	0xbc9b382f	-0.018947689
22	0xbc02ebe9	-0.007990816
23	0xbc423664	-0.011853788
24	0xbd49d600	-0.049276352
25	0xbcd12e4f	-0.025534777
26	0x3c41be37	0.011825136
27	0x3d9463d8	0.07245606
28	0x3cae4d03	0.021276956
29	0xbdb8b5e2	-0.090190664
30	0x3d74d1ed	0.059770513
31	0x3d6d6c68	0.057964712
32	0x3cbc5d21	0.022993626
33	0xbc05c322	-0.008164199
34	0xbd1b027c	-0.037844166
35	0xbc12c047	-0.008956975
36	0xbd6dccc6	-0.058056615
37	0xbd32b4ae	-0.04362934
38	0x3d14cc42	0.036327608
39	0xb9e62668	-0.00043897633
40	0xbc9cca4e	-0.019139435
41	0xbcf0385f	-0.029323755
42	0x3cbc1887	0.022960914
43	0xbc0a38b2	-0.008436369
44	0xbcb0999e	-0.021557625
45	0x3d93fda2	0.07226111
46	0x3e192071	0.14953782
47	0x3e005fe9	0.12536587
48	0x3d48eb4a	0.049052514
49	0xbce2c4fa	-0.027681816
50	0x3cbdd24d	0.023171568
51	0x3c72c6a9	0.014817872
52	0x3d3212bd	0.0434749
53	0xbd3dbfb0	-0.046325386
54	0x3c621040	0.01379782
55	0x3ba4fff3	0.0050353943
56	0x3c40c740	0.011766255
57	0xbcebdf00	-0.028792858
58	0xbd03e598	-0.03220138
59	0x3d0836ef	0.033255514
60	0xbd5b67c4	-0.053565755
61	0x3b8f2285	0.0043681287
62	0xbcf06bb2	-0.029348228
63	0xbd0c15a9	-0.034200344
64	0xbc4c6f5c	-0.012477722
65	0xbd04dfb2	-0.032439895
66	0x3d00ed00	0.03147602
67	0x3c5668ed	0.01308654
68	0xbd1cffab	-0.03832976
69	0x3c8ac183	0.016937977
70	0x3d4851e8	0.048906237
71	0x3d080db8	0.03321621
72	0xbcd2a210	-0.025712043
73	0xbce635d7	-0.028101845
74	0x3d1c6fa0	0.03819239
75	0xbdc425b6	-0.09577505
76	0xbd2339d6	-0.03985008
77	0x3c096005	0.008384709
78	0xbd7cf618	-0.06175813
79	0xbe692a37	-0.2277001
80	0xbc5ea634	-0.013589431
81	0x3d0cc7a6	0.034370087
82	0x3dedf916	0.11619775
83	0xbd37d4cc	-0.044880673
84	0xbeb9b218	-0.36268687
85	0x3ce9a714	0.028522052
86	0xbc62c37d	-0.013840553
87	0xbcf3c2fc	-0.029756062
88	0x3d858d7d	0.065211274
89	0x3cdc15c7	0.026865853
90	0xbd735ada	-0.059412815
91	0xbc0795e9	-0.008275487
92	0xbb562a29	-0.0032678938
93	0xbd395419	-0.045246217
94	0xbd11afa4	-0.035567895
95	0xbd26a576	-0.04068514
96	0xbd61c8a5	-0.05512299
97	0xbd3a08a0	-0.04541838
98	0xbcafade6	-0.021445226
99	0x3c758522	0.014985355
100	0x3d11af71	0.035567705
101	0xbc4873a9	-0.012234607
102	0x3d10a8bc	0.035317168
103	0xbcb5beb5	-0.022185663
104	0x3cb6cebb	0.022315374
105	0x3c807ca0	0.015684426
106	0xbd3da659	-0.04630122
107	0xbd14bd5d	-0.036313403
108	0xbc9f27a3	-0.01942808
109	0xbbd1b7e7	-0.0064000967
110	0xbd8160ae	-0.06317268
111	0xbdedea4c	-0.11616954
112	0xbdbac599	-0.0911972
113	0x3c8e8970	0.01739952
114	0x3d209cfe	0.03921222
115	0xbd5efaca	-0.05443839
116	0xbe01558e	-0.12630293
117	0xbe538427	-0.20655881
118	0xbd8ba660	-0.06818843
119	0x3d3c61d1	0.045991722
120	0xbdb9c4fb	-0.09070774
121	0xbd760764	-0.060065642
122	0xbc480d04	-0.012210134
123	0x3c024db0	0.007953092
124	0xbd1d1d2d	-0.038357902
125	0xbdb1a4df	-0.08674025
126	0xbbe51aae	-0.006991706
127	0x3d828c21	0.06374384
128	0xbc87d373	-0.016580319
129	0xbe199cb7	-0.15001188
130	0xbd478abd	-0.048716296
131	0x3d504462	0.050846465
132	0x3e1edeb7	0.15514646
133	0xbdd3fe37	-0.10351222
134	0xbd0017b4	-0.031272605
135	0xbd53bff1	-0.05169672
136	0x3d29b994	0.041436747
137	0x3dee9bde	0.11650823
138	0x3dac9a34	0.084278494
139	0x3c755e8b	0.014976154
140	0x3d3ddb93	0.04635198
141	0x3d56d730	0.052451313
142	0x3d3c48a4	0.045967713
143	0xbcd6df9b	-0.02622967
144	0xbccfa7f9	-0.02534865
145	0x3dedf9ee	0.11619936
146	0x3aa6e575	0.0012733178
147	0xbce47c7c	-0.02789139
148	0x3d382d9b	0.044965368
149	0x3dac3c6e	0.084099635
150	0x3e0f9801	0.14022829
151	0x3cd9138d	0.02649858
152	0xbd265616	-0.04060944
153	0x3c95eaad	0.018300379
154	0x3e044bdc	0.12919563
155	0x3db68115	0.08911339
156	0x3d368608	0.044561416
157	0x3d47d6f5	0.048788983
158	0x3dcb49a5	0.09926156
159	0x3e06c544	0.13161188
160	0xbdaa1e0d	-0.08306513
161	0xbdc3e6af	-0.09565484
162	0x3d1f603d	0.03891014
163	0x3c94881c	0.018131308
164	0x3d83cd2b	0.06435617
165	0xbd3c2af2	-0.045939393
166	0xbbee60bd	-0.0072747157
167	0xbd60e3fa	-0.054904915
168	0xbc76eca9	-0.015071073
169	0x3dce70e9	0.1008013
170	0xbd6ca4ce	-0.057774357
171	0xbda6b266	-0.081394956
172	0xbd313ce3	-0.043270957
173	0x3c7ebfd8	0.015548669
174	0x3d627464	0.05528678
175	0xbdbb1f86	-0.09136872
176	0xbdfe96f2	-0.12431134
177	0xbd284fd0	-0.04109174
178	0x3dbff7bd	0.09373424
179	0xbe28b724	-0.16476113
180	0xbddb18b5	-0.10698072
181	0xbd9e9f3f	-0.077452175
182	0xbd7c6efe	-0.061629288
183	0xbd8d21d5	-0.068912186
184	0xbd26a365	-0.04068317
185	0x3cb81eda	0.022475649
186	0x3d75cc3e	0.060009234
187	0x3da80a3a	0.082050756
188	0xbb746813	-0.0037293478
189	0x3cedb909	0.029018896
190	0x3e221edf	0.15832089
191	0xbd176809	-0.03696445
192	0x3cf57b39	0.029965984
193	0x3b83acdd	0.0040184096
194	0xbb812e61	-0.0039422964
195	0x3dc94cb0	0.0982908
196	0x3b8889a9	0.004166801
197	0x3d047035	0.03233357
198	0xbd07eb46	-0.03318336
199	0x3ca76bc4	0.020437129
200	0xbcbaa571	-0.022783967
201	0xbc281ec9	-0.010261246
202	0xbce7b328	-0.02828367
203	0xbd5461b4	-0.05185099
204	0xbd9ec045	-0.07751516
205	0x3d629ccb	0.05532531
206	0x3dd505f5	0.10401527
207	0x3b92536e	0.004465512
208	0xbd8e64a3	-0.06952789
209	0xbda36111	-0.07977498
210	0xbc0208fc	-0.007936712
211	0xbda08357	-0.07837551
212	0xbba660ce	-0.005077458
213	0xbd4d309f	-0.050095197
214	0x3af86b0a	0.0018952799
215	0xbdc9b6a5	-0.0984929
216	0x3c485be7	0.0122289425
217	0xba4f4ad3	-0.0007907573
218	0xbd87fac5	-0.06639627
219	0xbd3542c0	-0.04425311
220	0x3e19349e	0.14961478
221	0x3e609663	0.21932368
222	0x3e2b6fdc	0.1674189
223	0xbc6fa1be	-0.014625965
224	0xbd67cf00	-0.056593895
225	0x3d0edb80	0.0348773
226	0xbe01296f	-0.12613462
227	0x3d933198	0.07187194
228	0x3d83def6	0.06439011
229	0xbd6d1026	-0.05787673
230	0x3cd87f9f	0.026428042
231	0x3cf7a11c	0.03022819
232	0x3e237046	0.15960798
233	0x3d8efdf1	0.06982029
234	0xbb80556e	-0.003916434
235	0x3e0d997b	0.1382808
236	0x3db3d31b	0.087804995
237	0x3d6032cf	0.054735955
238	0xbcf2315b	-0.02956455
239	0xbcdaa35e	-0.026689228
240	0x3d19c49a	0.03754101
241	0x3cd1fa55	0.025632063
242	0x3ce139e6	0.027493428
243	0xbd9e4935	-0.07728807
244	0x3ce374d4	0.027765669
245	0x3dd6275a	0.104567245
246	0x3abec7f4	0.001455544
247	0xbd02f9c2	-0.03197647
248	0x3d07b7ec	0.033134386
249	0x3bdb2d9b	0.006688786
250	0xbb1e20ab	-0.0024128358
251	0xbcd8751a	-0.026423026
252	0x3e203187	0.15643893
253	0xbd307522	-0.043080457
254	0xbc9132e9	-0.017724471
255	0x3b716e5e	0.0036839466

dense_encmean.bias f4 [8]
0	0xbc92a6b6	-0.01790176
1	0xbcd45050	-0.025917202
2	0xbcc06263	-0.023484414
3	0x3cb086ea	0.021548707
4	0x3ccd01fa	0.025025357
5	0x3d0c143f	0.034198996
6	0x3c35db5d	0.011099664
7	0x3d0ff6f0	0.035147607

dense_encvar.weight f4 [8, 400]
0	0x3d31ae60	0.043379188
1	0x3c20c302	0.0098121185
2	0x3d28f2a2	0.041247018
3	0x3d578723	0.05261911
4	0x3d8fc7d5	0.07020537
5	0x3c8ab235	0.016930679
6	0x3d75b9b8	0.05999157
7	0x3da00fb2	0.07815494
8	0x3c8de77c	0.017322294
9	0x3de1e8df	0.11030745
10	0x3d6066a8	0.0547854
11	0x3d92fc5b	0.07177039
12	0x3c71f95a	0.014768923
13	0xbc1a0656	-0.009400925
14	0x3d983347	0.074316554
15	0xbb22f378	-0.0024864357
16	0x3d8cbded	0.06872163
17	0x3cc46363	0.023973173
18	0x3ba03989	0.004889671
19	0xbc0e72f9	-0.008694404
20	0x3c993735	0.018703083
21	0x3d96d819	0.07365436
22	0x3d0ef8e5	0.034905333
23	0x3b09b4d4	0.0021012323
24	0x3d0c0c82	0.034191616
25	0x3ba21bfa	0.0049471827
26	0x3d116275	0.035494287
27	0xbd01f9b4	-0.031732276
28	0x3cd1a2d9	0.025590347
29	0xbd165590	-0.036702693
30	0xbd0f799f	-0.035028096
31	0x3c3d4521	0.011552126
32	0x3d3bb2cf	0.045824822
33	0x3a8092a2	0.0009809325
34	0xbcbe3d69	-0.023222642
35	0xbcb0a286	-0.021561872
36	0x3a332e10	0.0006835172
37	0xbab04bfb	-0.0013450378
38	0x3987b83d	0.00025886475
39	0x3cb1b9d2	0.021695051
40	0xbd00ee44	-0.031477228
41	0xbccac846	-0.024753701
42	0x3c74bf50	0.014938191
43	0xbc9ebdd4	-0.019377626
44	0xb88978b6	-6.555153e-05
45	0xbd622d18	-0.055218786
46	0xbc87870a	-0.016543884
47	0xbd8bc064	-0.06823805
48	0xbd00e84d	-0.03147154
49	0x3c997f4c	0.018737458
50	0x3d0961e7	0.033540633
51	0x3d043d7d	0.032285202
52	0x3d076c9f	0.033062574
53	0x3d2bb5a5	0.041921277
54	0x3d46b123	0.048508774
55	0x3bc8545a	0.006113571
56	0x3d04dbef	0.032436308
57	0xbd2717f2	-0.04079432
58	0xbc531680	-0.012883782
59	0x3d088e5a	0.033338882
60	0x3afcf29b	0.0019298376
61	0xbcc0f2e5	-0.023553321
62	0xbcdf68ed	-0.027271712
63	0xbcec8be4	-0.028875299
64	0x3d5a5d02	0.053311355
65	0xbcedcc4c	-0.02902808
66	0x3d280918	0.041024297
67	0x3cbec74a	0.023288388
68	0xbd1f53ca	-0.038898267
69	0x3d35b247	0.04435947
70	0xbd1713b2	-0.036884017
71	0xbd452fbb	-0.048141222
72	0x3d1f7b4d	0.03893595
73	0xbd3d5042	-0.046219118
74	0xbd21753a	-0.039418437
75	0xbb016dd3	-0.0019749298
76	0x3c4dfe5a	0.012572849
77	0x3cc6e21e	0.024277743
78	0x3d72df8e	0.05929523
79	0x3ca4b7cb	0.02010717
80	0x3d1572e0	0.036486506
81	0x3cb601e9	0.022217708
82	0x3d237686	0.039907955
83	0x3cf66a7e	0.030080076
84	0x3d83d575	0.06437198
85	0x3cd5a66a	0.026080329
86	0x3c9208ea	0.017826516
87	0x3d72fcfc	0.059323296
88	0x3cf62cf2	0.030050728
89	0x3dd63ccd	0.104608156
90	0x3cbd678f	0.02312067
91	0x3db30710	0.087415814
92	0x3d5685c3	0.05237366
93	0x3d1bd863	0.03804816
94	0x3d7b2afb	0.061320286
95	0x3c16f8d6	0.009214601
96	0x3d9e4ad7	0.07729118
97	0x3d23aa25	0.039957184
98	0x3d168b44	0.036753908
99	0x3c1a9b68	0.009436466
100	0x3d903dd7	0.07043045
101	0x3d8aa744	0.06770185
102	0x3d8be655	0.06831042
103	0x3c8bafce	0.017051604
104	0xbbbc076a	-0.0057381885
105	0xbcb80249	-0.022462027
106	0x3d4c1b7c	0.0498309
107	0x3d0f5b0e	0.034998946
108	0xbc043e47	-0.008071489
109	0xbc12a018	-0.008949302
110	0x3bba2eb5	0.0056818374
111	0xbc9f3d7e	-0.019438501
112	0x3cb01b28	0.021497324
113	0x3c171416	0.009221097
114	0xbd15a0e6	-0.036530398
115	0x3d4a25c4	0.049352422
116	0x3ce34aa9	0.027745562
117	0xbc9ea204	-0.019364364
118	0x3c603f31	0.013686941
119	0xbc7c0b61	-0.015383572
120	0x3c886858	0.016651317
121	0x3c09d0b3	0.008411574
122	0xbc232d2d	-0.009959501
123	0x3d23013e	0.039796107
124	0x3c7cf7ed	0.0154399695
125	0x3d071b3f	0.03298497
126	0x3d94cab9	0.07265229
127	0xbc277e57	-0.010222993
128	0x3d86bbc4	0.06578782
129	0xbbd9f310	-0.0066512898
130	0x3d84d854	0.06486574
131	0x3d051c6d	0.032497812
132	0x3d92b492	0.07163347
133	0xbb108209	-0.0022050163
134	0x3d0f45fd	0.034978855
135	0xbbf283d5	-0.0074009695
136	0x3d642245	0.055696744
137	0xbc4a8196	-0.012359997
138	0x3c79e3f7	0.015252105
139	0x3d4a9ea0	0.049467683
140	0x3d5c2b41	0.053752188
141	0x3d8b7b4b	0.06810626
142	0x3d97bbe5	0.07408885
143	0x3aaa29dd	0.0012982447
144	0x3c0966bf	0.008386313
145	0xbc2deb59	-0.010615193
146	0xbd44142e	-0.047870807
147	0x3d1725b2	0.036901183
148	0xbce14f86	-0.02750374
149	0x3cf0e318	0.029405162
150	0x3d7c0f27	0.061537888
151	0x3c9d7c0a	0.019224185
152	0x3c9b0f85	0.018928299
153	0x3d36c7db	0.04462419
154	0xbd3908ed	-0.045174528
155	0xbcde29f5	-0.027119616
156	0x3db24a25	0.08705548
157	0x3d5deab7	0.05417892
158	0xb9980c99	-0.00029001085
159	0x3d096921	0.033547524
160	0xbc0ea5c0	-0.00870651
161	0x3d9b331d	0.075781085
162	0xbb9d19ef	-0.0047943513
163	0x3bfeaed1	0.0077723046
164	0x3d441963	0.047875773
165	0x3d2611c2	0.04054428
166	0x3d9b0fe1	0.07571388
167	0xbcd654b9	-0.026163446
168	0xbb8e3c80	-0.0043407083
169	0x3b512fb8	0.0031919312
170	0x3ce6a9df	0.028157173
171	0x3cd6a953	0.026203787
172	0x3d0850fa	0.03328035
173	0x3d4b111e	0.04957687
174	0x3d68be6b	0.05682222
175	0x3cd0e20e	0.025498416
176	0xbba86d5f	-0.005139991
177	0xbd338a55	-0.043833096
178	0x3d2095af	0.03920525
179	0xbc0f8632	-0.008760022
180	0x3d93e0d9	0.07220621
181	0x3cc2be8f	0.023772506
182	0x3d91b45f	0.07114481
183	0x3dbb7140	0.0915246
184	0x3d2fb8db	0.0429009
185	0x3d35d308	0.04439071
186	0xba2fa64a	-0.0006700499
187	0x3d41aef2	0.04728598
188	0x3d143a5a	0.03618846
189	0x3dbd20ec	0.09234795
190	0x3cfea473	0.031084275
191	0x3ca3ab02	0.019979004
192	0xbbb2d90c	-0.005458003
193	0x3d6045f8	0.054754227
194	0x3d70bb6f	0.0587725
195	0x3d8cf9cf	0.06883585
196	0xbc7db1d7	-0.015484295
197	0xbc278f15	-0.0102269845
198	0x3d11699d	0.03550111
199	0x3d88276f	0.06648146
200	0x3d9dcb71	0.07704819
201	0xbce1620e	-0.027512576
202	0x3b1f577f	0.0024313626
203	0xbd1ada0a	-0.037805595
204	0xbbd28715	-0.0064247944
205	0xbc629512	-0.013829486
206	0x3d53c230	0.051698864
207	0x3dbb2277	0.09137433
208	0x3bfcece7	0.0077186706
209	0x3dbe017b	0.09277626
210	0x3da74c87	0.08168893
211	0x3d73162b	0.059347313
212	0xbbba45b7	-0.00568458
213	0x3da0ec30	0.07857549
214	0x3c9495df	0.01813787
215	0x3c897dd4	0.016783632
216	0xbd934a3d	-0.07191894
217	0x3c83c979	0.01608728
218	0x3d371ad3	0.044703316
219	0x3add385b	0.0016877757
220	0xbdb1a576	-0.08674137
221	0xbd9bcdb2	-0.07607593
222	0xbd7c94d9	-0.06166539
223	0xbc8a71dd	-0.016899997
224	0x3bb21e8c	0.0054357704
225	0x3d0651b9	0.03279278
226	0x3c58ca1f	0.013231783
227	0xbd1ff44b	-0.039051335
228	0x3d19cf2b	0.037551086
229	0x3cbf5be3	0.023359245
230	0x3d08b359	0.033374164
231	0x3d2c9982	0.042138584
232	0x3c5111dd	0.012760607
233	0x3d190374	0.03735681
234	0x3b1d484c	0.002399939
235	0x3d02624c	0.031832024
236	0x3d3ffb77	0.046870675
237	0x3da2ed95	0.079554714
238	0x3d60642a	0.054783024
239	0x3d87e2be	0.066350445
240	0x3af691f9	0.0018811814
241	0x3ce34d12	0.02774671
242	0x3c986a59	0.018605398
243	0x3cac8cf4	0.021063305
244	0x3d2a5159	0.041581485
245	0x3a14268f	0.00056514976
246	0x3d333a5a	0.04375682
247	0x3cf0f9fc	0.029416077
248	0x3d35839a	0.04431496
249	0x3d3997d0	0.045310795
250	0xbc09061e	-0.008363275
251	0x3cebeb39	0.028798686
252	0x3a0b83f9	0.00053220947
253	0x3d6b5b4c	0.057460114
254	0x3d2dfd04	0.042477623
255	0x3d4c57e0	0.04988849

dense_encvar.bias f4 [8]
0	0x3cc5fd9e	0.024168786
1	0xbe338b6c	-0.17533654
2	0xbe2ec5de	-0.17067668
3	0xbde1e9b4	-0.110309035
4	0xbe0e7355	-0.13911183
5	0x3c3fef3a	0.011714751
6	0xbe39c2ea	-0.1814076
7	0x3c22e948	0.009943314

dense_dec.weight f4 [400, 8]
0	0xbcb4a10f	-0.022049455
1	0x3da43256	0.08017413
2	0xbf25cc70	-0.6476507
3	0xbd6e2607	-0.058141734
4	0x3f91c704	1.138886
5	0xbc62b90a	-0.013838062
6	0xbdfb4cca	-0.12270506
7	0x3b5ce878	0.0033707898
8	0x3c20c12b	0.00981168
9	0xbc075a6c	-0.008261304
10	0x3ee625fe	0.4495086
11	0xbe29f8f5	-0.16598876
12	0xbee15642	-0.44011122
13	0xbc1acdaa	-0.009448448
14	0xbf129cf4	-0.5727074
15	0x3d19a841	0.037513975
16	0x3c6396e9	0.01389096
17	0x3d804a3b	0.06264158
18	0xbe826ed7	-0.2547519
19	0xbdac65f5	-0.08417884
20	0x3c0088f3	0.007845151
21	0x3c819151	0.015816363
22	0xbe82d224	-0.2555095
23	0x3d153063	0.0364231
24	0x3d60964e	0.05483084
25	0x3ebcd855	0.36883798
26	0x3e992bcf	0.29916236
27	0x3eb77d46	0.35837764
28	0xbd21117e	-0.039323322
29	0x3d218795	0.03943594
30	0x3f3beeca	0.7341124
31	0xbd056ef3	-0.032576513
32	0x3d958f9e	0.073027834
33	0xbe3d879f	-0.18508767
34	0xbe5c3b6f	-0.21507047
35	0xbee39deb	-0.4445642
36	0xbe9ed17a	-0.31019193
37	0x3dc1075a	0.0942523
38	0xbe729d3d	-0.23692794
39	0x3daf6f11	0.08566106
40	0xbcb03ea7	-0.02151425
41	0x3e4363e4	0.19081074
42	0xbe9522dc	-0.29128158
43	0x3f3be3dc	0.7339456
44	0xbeb826a1	-0.35966972
45	0xbc869444	-0.01642812
46	0xbe929bc3	-0.28634462
47	0x3c84be27	0.016203953
48	0x3c20ee13	0.009822386
49	0xbdad706c	-0.084687084
50	0xbe5a6f55	-0.21331532
51	0xbcaa38ba	-0.020779002
52	0x3ee004cb	0.43753657
53	0x3ca7ea44	0.020497449
54	0x3e00ed69	0.12590565
55	0xbbfe8c3c	-0.007768182
56	0xbc4f5266	-0.012653923
57	0x3d3d5487	0.04622319
58	0xb94a208b	-0.00019276344
59	0xbd1b40f7	-0.037903752
60	0x3e0a5c09	0.13511671
61	0xbc590d1e	-0.013247756
62	0xbea00302	-0.31252295
63	0x3b929fa0	0.004474595
64	0x3bebcd79	0.007196125
65	0xbd0e009e	-0.034668557
66	0xbee11ac8	-0.43965745
67	0x3df94093	0.1217052
68	0x3df82056	0.121155426
69	0x3cab3870	0.020900935
70	0x3e9e17b1	0.3087745
71	0x3cd0669e	0.025439557
72	0x3b1ece40	0.0024231821
73	0xbba4675d	-0.0050172047
74	0x3e4516a5	0.1924692
75	0xbda163cd	-0.078803636
76	0xbe2734f4	-0.16328794
77	0x3b9e3396	0.004827927
78	0x3ea79344	0.32729542
79	0x3c9610f9	0.01831864
80	0xbcb3ed0a	-0.021963615
81	0x3e5bc607	0.2146226
82	0xbeb3b14c	-0.35096204
83	0xbedee398	-0.43533015
84	0xbd0f9981	-0.035058502
85	0xbcb62738	-0.022235498
86	0xbf88a40f	-1.0675067
87	0x3cd8add9	0.026450085
88	0x3cf1145a	0.02942865
89	0x3e1b8354	0.15186816
90	0xbe3a8dbb	-0.18218128
91	0xbe994ee8	-0.29943013
92	0xbe9809da	-0.29695016
93	0x3cd5d361	0.02610177
94	0x3e0a04eb	0.13478439
95	0xbd0460d2	-0.032318898
96	0x3c9b18ee	0.018932786
97	0xbdb788c9	-0.089616366
98	0xbe8deed9	-0.2772129
99	0x3e55bb03	0.2087212
100	0xbeb5a449	-0.35476902
101	0x3cacca11	0.021092447
102	0x3ee251c0	0.44202995
103	0xbcd5f850	-0.026119381
104	0xbc3206f0	-0.010865912
105	0x3e14edaf	0.14543794
106	0xbe732283	-0.23743634
107	0x3e6541e7	0.22388421
108	0xbbf4ce1a	-0.0074708583
109	0x3c85bd68	0.016325668
110	0x3f30a20e	0.68997276
111	0x3cd0edc5	0.025504002
112	0x3b1322ff	0.002245128
113	0xbee7b67d	-0.45256415
114	0xbe071744	-0.13192469
115	0x3e512d86	0.20427522
116	0x3da45400	0.08023834
117	0xbc818ff7	-0.015815718
118	0x3ef08bae	0.46981567
119	0x3c40c2f7	0.011765233
120	0x3b1b41ad	0.002369027
121	0xbe510233	-0.20410995
122	0xbdcb37b8	-0.09922737
123	0x3f7705f3	0.9649345
124	0xbed7c323	-0.42141065
125	0x3c1f5d2d	0.009726805
126	0xbea728ee	-0.32648414
127	0x3bb9fcca	0.0056758868
128	0x39c5e940	0.00037748553
129	0x3f18ed76	0.59737337
130	0x3e2697be	0.16268823
131	0x3dfc524f	0.123203866
132	0xbde8636d	-0.11347089
133	0xbcd88fba	-0.026435722
134	0xbedb1713	-0.42791042
135	0x3b6e5c9f	0.0036371124
136	0xbc8b7435	-0.017023185
137	0x3e318f7f	0.17339896
138	0xbe4c1b54	-0.199323
139	0x3ecfbdd9	0.4057453
140	0x3df44cb3	0.11928692
141	0xbd007ede	-0.03137099
142	0x3e5ad6fd	0.21371074
143	0x3c56aed1	0.013103203
144	0xbd9170ed	-0.07101617
145	0x3eb5b167	0.3548691
146	0xbe8ade19	-0.27122572
147	0xbec1c281	-0.37843707
148	0xbf28576a	-0.65758383
149	0xbd86b8cf	-0.06578218
150	0x3e66016f	0.22461484
151	0x3d4a8607	0.049444225
152	0xbcf5ba8a	-0.029996175
153	0x3eea3afc	0.45748127
154	0xbcd038be	-0.025417682
155	0xbef2eb28	-0.47445035
156	0xbed5cfae	-0.4176001
157	0xbc85db2b	-0.016339859
158	0x3d8e6291	0.06952394
159	0xbbcc933c	-0.0062431376
160	0x3c42f2bb	0.011898692
161	0x3f02ba31	0.51065356
162	0x3f50603b	0.81396836
163	0xbe5d97bc	-0.21639913
164	0xbe626b06	-0.22111139
165	0x3b43104d	0.0029764355
166	0xbe8dd289	-0.27699688
167	0xbc159e8d	-0.00913204
168	0xbc9e186e	-0.019298758
169	0x3f1d801b	0.615236
170	0x3df8193a	0.121141866
171	0x3dbbf49b	0.09177514
172	0x3dd58dac	0.104274124
173	0xbd079053	-0.033096623
174	0xbe94029a	-0.28908235
175	0x3c458797	0.012056253
176	0xbbe4d23c	-0.0069830697
177	0x3d5c1277	0.053728547
178	0x3e05f309	0.13080992
179	0x3e45d2ce	0.19318697
180	0x3e829185	0.25501648
181	0xbd014ef2	-0.03156943
182	0xbeceeff5	-0.40417448
183	0x3c9bd83d	0.019024009
184	0x3d0322aa	0.03201548
185	0x3f29e5b1	0.66366106
186	0x3e2ea272	0.17054155
187	0x3cb44309	0.022004621
188	0x3ef9357c	0.48673618
189	0x3d2ed72c	0.042685673
190	0xbe2ca423	-0.16859488
191	0xbc9f5233	-0.019448375
192	0xbd0237b8	-0.03179142
193	0x3f1a3e6e	0.6025151
194	0xbe8b798b	-0.27241167
195	0xbe0533ce	-0.13008043
196	0x3dcacfdb	0.099029265
197	0xbcedcc8b	-0.029028198
198	0x3d8c0f4e	0.06838857
199	0x3cc6ebed	0.02428242
200	0x3c8e3eaa	0.017363865
201	0x3ee47205	0.4461824
202	0x3c0e5a44	0.008688513
203	0x3ec36e7c	0.3817023
204	0xbf82f766	-1.023175
205	0x3c588012	0.013214128
206	0x3eb91dc4	0.36155522
207	0x3b4b4393	0.003101562
208	0xbc343cf6	-0.011000862
209	0xbe648b96	-0.22318873
210	0x3f5137c0	0.8172569
211	0xbd97270e	-0.07380496
212	0xbe7d19c7	-0.24716865
213	0xbb9a0e6c	-0.0047014263
214	0xbec7741e	-0.38955778
215	0x3c3d8fda	0.011569941
216	0xbc817ae3	-0.015805667
217	0x3d520648	0.05127552
218	0xbb999d9d	-0.0046879784
219	0x3e0cdca2	0.1375604
220	0x3e3e733a	0.18598643
221	0xbc0b708d	-0.008510721
222	0xbf9d7130	-1.2300167
223	0x3b394e99	0.0028275608
224	0x3d039191	0.032121245
225	0x3f3eff1f	0.74608034
226	0x3efb9b7f	0.49142072
227	0x3e3387ae	0.17532226
228	0xbed8a060	-0.42309856
229	0x3d05f9d1	0.032708947
230	0xbf6a94ad	-0.9163311
231	0xbcbe9101	-0.023262503
232	0x3d013167	0.031541254
233	0x3f5fc868	0.8741517
234	0xbe2bda94	-0.167826
235	0x3e947fd3	0.29003772
236	0x3e8f9bfc	0.28048694
237	0x3cd3fd00	0.025877476
238	0xbf816ca4	-1.011128
239	0xbcde1f20	-0.027114451
240	0xbc97cb92	-0.018529687
241	0xbf840ed4	-1.0317025
242	0xbe85a409	-0.2610171
243	0x3dae0edc	0.08498928
244	0xbf3b65b2	-0.7320205
245	0xbd23ae0a	-0.0399609
246	0x3eeda2df	0.46413323
247	0x3ce7ff48	0.02831997
248	0x3cad361f	0.021143971
249	0xbddf7762	-0.10911442
250	0x3f3703a8	0.71489954
251	0xbd3c4dc5	-0.045972604
252	0xbce08dea	-0.02741142
253	0x3ce210a2	0.027595822
254	0xbf07beac	-0.5302532
255	0xbc0ce35f	-0.008599131

dense_dec.bias f4 [400]
0	0xbe906eed	-0.2820963
1	0x3ea01e11	0.3127294
2	0x3e9987f5	0.2998654
3	0xbdc7a332	-0.09747924
4	0x3f11e54b	0.569905
5	0x3e91924f	0.28431937
6	0xbeb23054	-0.34802496
7	0x3d565938	0.05233118
8	0xbecbc751	-0.39800504
9	0x3e6748c0	0.22586346
10	0xbea5d222	-0.3238688
11	0x3f0dafcc	0.5534637
12	0x3e3ebf85	0.18627746
13	0xbd14d081	-0.036331657
14	0x3cdd4358	0.027009651
15	0x3e244de3	0.16045336
16	0x3e01d985	0.12680633
17	0x3dc4e0c8	0.09613186
18	0x3f43208b	0.7622153
19	0x3e612d35	0.21989901
20	0x3e226475	0.15858634
21	0xbe890855	-0.2676417
22	0x3e6c5e0d	0.23082753
23	0x3db7f0bc	0.08981463
24	0xbe90bba2	-0.28268152
25	0x3ebb0734	0.36528933
26	0x3ebd296d	0.36945668
27	0x3e820022	0.25390726
28	0x3dde826e	0.10864721
29	0x3f7efd60	0.9960537
30	0xbf20c488	-0.6279988
31	0xbecee542	-0.40409285
32	0xbe411350	-0.18855023
33	0xbe2c4fe3	-0.1682735
34	0xbeebb344	-0.46035206
35	0xbf1b360a	-0.6062933
36	0xbeade9d2	-0.33967453
37	0xbef1fcab	-0.47263083
38	0xbef705ef	-0.48246714
39	0x3c5c75d6	0.013455829
40	0xbe132772	-0.14370516
41	0xbe961ad0	-0.2931733
42	0xbee62bce	-0.44955295
43	0xbf2a82e7	-0.6660599
44	0x3f364df9	0.71212727
45	0x3e2a3874	0.16623098
46	0x3f217b4b	0.63078755
47	0xbf0ca8ae	-0.54944885
48	0x3eb5a4c0	0.35477257
49	0x3e11032c	0.14161366
50	0x3f40b267	0.7527222
51	0x3e382d6d	0.17986079
52	0x3e2288b8	0.15872467
53	0x3f64743c	0.8923986
54	0x3fbc628a	1.4717572
55	0xbf1da300	-0.61576843
56	0xbf42c23d	-0.76077634
57	0xbe54d327	-0.20783673
58	0x3cb405a0	0.021975338
59	0x3f8d0f74	1.1020341
60	0xbe18135d	-0.14851137
61	0xbe806b1b	-0.25081715
62	0xbee24515	-0.4419333
63	0xbee7596d	-0.45185414
64	0x3f421d49	0.75825936
65	0x3ec18503	0.37796792
66	0xbf14258e	-0.57869804
67	0xbf53f3fc	-0.82794166
68	0x3f04813f	0.51759714
69	0x3f674665	0.9034179
70	0xbd88a1d3	-0.066714905
71	0xbe9ca9b9	-0.30598238
72	0x3e9ad3c6	0.30239695
73	0xbf381f0f	-0.7192239
74	0x3fb1faa6	1.3904617
75	0xbf1b1408	-0.6057744
76	0x3eeb6598	0.45975947
77	0x3e923cd1	0.28562024
78	0x3f27acca	0.6549803
79	0x3f95c71d	1.170139
80	0x3f3b7726	0.7322868
81	0x3c8d0bb7	0.0172175
82	0xbd1a952d	-0.03773992
83	0x3ef106ff	0.4707565
84	0x3d934424	0.07190731
85	0xbd6ff24c	-0.05858068
86	0x3e1ad47e	0.15120122
87	0xbc89edca	-0.01683702
88	0xbd26fdd0	-0.0407694
89	0xbd4f4c70	-0.050610006
90	0xbee054ac	-0.438146
91	0xbee4677e	-0.44610208
92	0xbf079fee	-0.5297841
93	0x3eb3817a	0.3505972
94	0xbcb9560b	-0.022624036
95	0x3e3a10e0	0.181705
96	0xbecbcc80	-0.3980446
97	0xbd42f72f	-0.047599014
98	0x3e6c9005	0.23101814
99	0x3e1e9ec2	0.15490249
100	0x3ddc034b	0.107428156
101	0xbf0402b9	-0.51566654
102	0xbe9667c6	-0.29376048
103	0xbec4f610	-0.3846898
104	0x3f1e4f44	0.618397
105	0x3eac6cc6	0.33676738
106	0x3d9fb8a0	0.07798886
107	0xbec9d2ba	-0.39418584
108	0x3e6411ba	0.22272387
109	0x3e2135e7	0.15743218
110	0xbdd51699	-0.10404701
111	0xbc961eec	-0.018325292
112	0x3d7e54e1	0.062092666
113	0xbedabce3	-0.42722234
114	0x3e36e8b5	0.17862208
115	0xbe74f4c9	-0.23921503
116	0xbf156e41	-0.5837136
117	0xbe08e680	-0.13369179
118	0xbf17bb9e	-0.59270656
119	0xbebe8102	-0.372078
120	0xbf362fe5	-0.7116683
121	0x3d7eb3e1	0.062183265
122	0xbdcbed82	-0.099574104
123	0xbe9f3980	-0.31098557
124	0xbdd61a5a	-0.10454245
125	0xbe90b93d	-0.28266326
126	0x3efc9ed7	0.49339935
127	0xbcfdc252	-0.030976448
128	0x3e870bbd	0.26376143
129	0x3e83c80a	0.25738555
130	0xbf6a337d	-0.91484815
131	0xbf1a0c96	-0.60175455
132	0xbe167788	-0.14694035
133	0x3eca7e08	0.3954928
134	0x3f3bb437	0.7332186
135	0xbf68c828	-0.90930414
136	0xbec83303	-0.3910142
137	0xbe4a464d	-0.1975338
138	0xbee8b662	-0.45451647
139	0x3f3c629a	0.73587954
140	0xbec18a61	-0.37800887
141	0xbd907157	-0.07052868
142	0x3e393401	0.18086244
143	0xbe38b233	-0.18036728
144	0x3f47b5c6	0.7801174
145	0x3f38a2de	0.72123516
146	0x3e5a8792	0.21340778
147	0x3e9a8cf7	0.30185673
148	0x3f577542	0.84163296
149	0x3fdf633a	1.7452157
150	0x3da6ccc1	0.081445225
151	0xbf2a1982	-0.6644517
152	0xbf039948	-0.51405764
153	0xbc214876	-0.009843936
154	0xbc504e3f	-0.012713968
155	0xbf06a867	-0.5260071
156	0xbdce876e	-0.10084425
157	0xbf2731e0	-0.6531048
158	0x3e4c7ddc	0.19969887
159	0xbe5351f8	-0.20636737
160	0xbe6aa54b	-0.22914617
161	0xbe9f645c	-0.31131256
162	0xbf1dea7b	-0.61685914
163	0xbdaf555b	-0.08561202
164	0xbf3f4a63	-0.7472288
165	0x3c95b932	0.018276785
166	0x3dcb36dd	0.09922574
167	0xbbba8abf	-0.0056928094
168	0x3e8a4238	0.27003646
169	0x3e841745	0.25799003
170	0x3fa70fed	1.3051735
171	0x3e98120f	0.29701278
172	0xbd397ab3	-0.04528303
173	0x3f72ccd1	0.94843775
174	0x3f3b03c4	0.7305262
175	0xbe590326	-0.21192607
176	0x3f639a0c	0.8890693
177	0x3e39fa01	0.18161775
178	0xbd828a36	-0.06374018
179	0xbdc9a1de	-0.09845327
180	0xbf2928f7	-0.6607813
181	0xbf359faa	-0.70946753
182	0xbf2a5182	-0.6653062
183	0xbe72fe5d	-0.23729844
184	0xbf165eb5	-0.5873826
185	0xbdfa2586	-0.12214188
186	0xbe00d595	-0.12581475
187	0xbf0ade70	-0.5424566
188	0xbf13bd32	-0.57710564
189	0xbd3ac10d	-0.045594264
190	0x3efba1a8	0.4914677
191	0xbe152b3d	-0.14567275
192	0xbdc5d18c	-0.096591085
193	0x3e870ea4	0.26378357
194	0xbe9594b9	-0.2921503
195	0x3f2cda2b	0.675204
196	0x3f59bb4e	0.8505143
197	0x3f0fdcfd	0.56196576
198	0x3e06e9cd	0.13175125
199	0x3f39666b	0.724219
200	0x3f8ca360	1.0987358
201	0x3f33ed1b	0.7028367
202	0xbe032f04	-0.12810904
203	0x3e6b0ac3	0.22953324
204	0x3d5034e6	0.050831698
205	0x3f1ad2ff	0.60478204
206	0xbdb54a70	-0.088520885
207	0x3cae7c5e	0.021299537
208	0x3f08ed36	0.53486955
209	0xbe97c3e2	-0.29641634
210	0xbda16ff5	-0.07882682
211	0x3bd86932	0.006604337
212	0xbf13684a	-0.5758101
213	0xbe7e96cb	-0.2486221
214	0x3e9de6cb	0.30840144
215	0xbbfd9d5c	-0.007739706
216	0x3ed1a603	0.4094697
217	0xbf114170	-0.56740475
218	0x3e9466b1	0.28984597
219	0xbe1ba72f	-0.15200494
220	0xbf3f9ba3	-0.7484686
221	0xbec06693	-0.37578258
222	0xbf0ea9e6	-0.55727994
223	0x3e8c0c43	0.27353105
224	0xbeddda9f	-0.43330857
225	0x3f34aae0	0.70573235
226	0x3da25e0e	0.07928096
227	0x3e21c32a	0.15797105
228	0xbf0575a1	-0.5213261
229	0xbeb797c8	-0.35857987
230	0x3e2c1b9e	0.1680741
231	0xbe99386d	-0.29925862
232	0xbebbab0c	-0.36653936
233	0xbe91afe8	-0.28454518
234	0xbee46589	-0.44608715
235	0xbf2313ec	-0.63702273
236	0xbe5f5637	-0.21810232
237	0xbeb58620	-0.35453892
238	0xbe852aaf	-0.26009127
239	0x3d0cae3d	0.034345854
240	0xbde78fbb	-0.11306711
241	0xbf07605f	-0.52881426
242	0x3d9579a2	0.0729859
243	0xbd882f25	-0.06649617
244	0x3e9c15c9	0.3048537
245	0x3d8616e0	0.06547332
246	0x3e0bba2e	0.1364524
247	0xbe8433f1	-0.25820878
248	0x3f00a78d	0.5025566
249	0x3f4802c6	0.7812923
250	0x3f145e82	0.5795671
251	0xbd16a1bb	-0.036775332
252	0x3dba2ad2	0.090901986
253	0x3ed29de3	0.41136083
254	0x3f21b43e	0.6316565
255	0x3f976e46	1.1830528

conv_dec1.weight f4 [16, 8, 3, 3]
0	0x3d886b8f	0.0666114
1	0x3d39cacc	0.045359418
2	0x3e680702	0.22658923
3	0xbd1831a5	-0.03715672
4	0x3e6fc619	0.23415412
5	0xbde4d900	-0.11174202
6	0xbe71b56c	-0.23604363
7	0xbd2d7509	-0.04234794
8	0xbdd1726f	-0.102269046
9	0xbe5cfc28	-0.21580565
10	0xbf03aa37	-0.514316
11	0xbf17629d	-0.59134847
12	0xbe063698	-0.13106763
13	0x3eeefd03	0.46677408
14	0xbef04053	-0.46924075
15	0xbf134e17	-0.5754103
16	0xbdec2503	-0.11530497
17	0xbe17b0f7	-0.148136
18	0xbed74233	-0.42042693
19	0x3ed1db16	0.40987462
20	0xbe8b500b	-0.27209505
21	0xbcc27fbd	-0.023742551
22	0xbeabc341	-0.33547404
23	0xbf13b742	-0.57701504
24	0x3ecaa03a	0.39575368
25	0x3e6392bf	0.22223948
26	0xbe6d62e8	-0.23182261
27	0xbeac6bf1	-0.33676103
28	0xbe8a4e04	-0.27012646
29	0xbf253121	-0.6452809
30	0xbee29068	-0.44250798
31	0xbd99e45a	-0.07514258
32	0xbda72a05	-0.081623115
33	0xbda59235	-0.080845274
34	0xbdc73d13	-0.09728446
35	0xbf18fd8d	-0.5976189
36	0xbd680ba6	-0.056651734
37	0xbf1d25db	-0.6138589
38	0x3e32ce01	0.17461397
39	0x3eb08a4d	0.34480515
40	0x3e112293	0.14173345
41	0xbeb521d1	-0.35377362
42	0x3e81c33d	0.25344267
43	0xbe73be4c	-0.23803061
44	0xbc70801b	-0.01467898
45	0xbe88b3d8	-0.2669971
46	0xbf009e99	-0.50242
47	0x3e6728bd	0.22574134
48	0xbe5844e5	-0.21120031
49	0xbd9ced1b	-0.07662412
50	0x3d130c76	0.035900556
51	0xbd44df9d	-0.048064817
52	0xbe707617	-0.23482548
53	0xbe0a6af9	-0.1351737
54	0xbea5f3b9	-0.32412508
55	0xbea29631	-0.31755212
56	0xbe8f1da2	-0.27952296
57	0xbe138ac5	-0.14408405
58	0x3c852b15	0.016255895
59	0xbe5d310e	-0.21600744
60	0xbea7156b	-0.32633528
61	0xbef1db0a	-0.47237426
62	0xbe0ca36c	-0.13734215
63	0x3d4c189f	0.049828168
64	0x3ea35cd5	0.31906763
65	0xbd568046	-0.052368425
66	0xbe97724f	-0.29579398
67	0xbf0003be	-0.5000571
68	0xbd3d7bef	-0.04626077
69	0x3eb58e2d	0.35460034
70	0x3d4a0e8c	0.04933028
71	0xbdb5f6c9	-0.08884961
72	0x3f75d7e1	0.9603253
73	0x3ede8f51	0.43468717
74	0x3ee74d74	0.4517628
75	0x3f1fc208	0.62405443
76	0x3e783d81	0.24242212
77	0x3e4e4214	0.20142394
78	0x3ee9146f	0.45523402
79	0x3f513824	0.8172629
80	0x3f2a19f6	0.66445863
81	0x3e222d9c	0.15837711
82	0x3f2997bd	0.6624716
83	0x3ec243f5	0.37942472
84	0xbdac8518	-0.08423823
85	0x3ed0b10a	0.4076007
86	0x3f240e4f	0.64084333
87	0x3e735e8a	0.23766533
88	0x3f1a246d	0.6021183
89	0x3e0f2210	0.13977838
90	0x3e3336b2	0.17501333
91	0xbf31cfdb	-0.6945779
92	0xbbfa3668	-0.0076358803
93	0x3e25c071	0.16186692
94	0x3f0be53a	0.54646647
95	0x3e934398	0.28762507
96	0xbdc9c4f2	-0.098520175
97	0xbe51d2de	-0.20490596
98	0x3f35e478	0.7105174
99	0x3ee39320	0.44448185
100	0x3f80ec71	1.0072156
101	0x3eb39cec	0.3508066
102	0x3ee46945	0.44611564
103	0x3e93e3f9	0.28884867
104	0x3dd94b7e	0.10610102
105	0x3e2b5699	0.16732253
106	0xbdc8e4a9	-0.098092385
107	0x3efe5317	0.49672768
108	0x3e0b2918	0.13589895
109	0x3e0f84dc	0.14015526
110	0x3e20a114	0.15686446
111	0x3eb5e00a	0.3552249
112	0x3f6e0e2e	0.92990386
113	0x3f06d003	0.5266115
114	0x3e1012d5	0.14069684
115	0x3e96ee51	0.29478696
116	0xbdd99d83	-0.10625746
117	0x3f5c246f	0.85993093
118	0x3f00a85f	0.50256914
119	0x3ee9517f	0.4556999
120	0x3f0e8dfe	0.5568541
121	0xbe6467fe	-0.22305295
122	0x3e84d7fa	0.25946027
123	0x3e2f1371	0.1709726
124	0xbcd0d093	-0.025490081
125	0x3e8a62c3	0.27028474
126	0xbcc4a910	-0.024006397
127	0xbf1b4b4b	-0.6066176
128	0xbe1e2d32	-0.15446928
129	0x3e9ae81a	0.30255204
130	0xbde28999	-0.11061401
131	0x3b188176	0.0023270524
132	0x3df3776c	0.11888012
133	0x3eb109ad	0.34577695
134	0x3f178e7c	0.5920179
135	0xbda3fcba	-0.08007188
136	0xbdf0ef07	-0.11764341
137	0x3da10aaa	0.07863362
138	0x3e88a5ed	0.2668909
139	0x3f2e379b	0.680536
140	0x3f2a1c01	0.6644898
141	0x3dbc9744	0.09208539
142	0x3ee29ba8	0.4425938
143	0x3ea02f46	0.31286067
144	0x3e0a8568	0.13527453
145	0x3f78a33f	0.97124094
146	0x3fdafc1c	1.7108188
147	0x3ebbcab2	0.36678082
148	0x3ebd4f31	0.3697448
149	0x3f131b01	0.5746308
150	0x3da14aeb	0.078756176
151	0x3d8b7750	0.068098664
152	0x3f1471e5	0.5798629
153	0x3e3f5569	0.18684925
154	0x3d3e9c1c	0.046535596
155	0x3ee377e6	0.44427413
156	0xbeebad2e	-0.46030563
157	0x3ec634f8	0.38712287
158	0x3e8febdf	0.28109643
159	0x3dfc14b5	0.12308637
160	0x3e665c1a	0.22496071
161	0xbef28f46	-0.47374934
162	0xbedb2566	-0.4280197
163	0x3e61a916	0.22037157
164	0xbcbefecf	-0.023314862
165	0xbeb627ff	-0.3557739
166	0x3ef8d9b5	0.48603597
167	0xbe6b0383	-0.22950558
168	0xbf08a556	-0.5337728
169	0xbe322661	-0.17397453
170	0xbf03f393	-0.5154354
171	0xbe4b7e86	-0.19872484
172	0x3e9146b8	0.28374267
173	0x3f3da271	0.7407599
174	0xbd911437	-0.07083934
175	0x3e26e78d	0.16299267
176	0x3ecca6f0	0.39971113
177	0x3c58e4ce	0.013238145
178	0x3e27d117	0.16388355
179	0x3f2af41a	0.6677872
180	0xbdf1d5f8	-0.118083894
181	0x3ed3075a	0.41216546
182	0x3e0ac499	0.13551559
183	0xbdc408ea	-0.09572013
184	0x3ee1e64c	0.44121015
185	0x3f1c9195	0.6115964
186	0x3e82ce5b	0.25548062
187	0xbd422b51	-0.04740459
188	0x3be0b8bc	0.0068579596
189	0x3e280c8a	0.16411033
190	0x3f43fbaf	0.76555914
191	0x3f0babb8	0.54558897
192	0x3eba882a	0.3643201
193	0xbd83fba8	-0.06444484
194	0x3f24d1ee	0.6438283
195	0x3e291c01	0.16514589
196	0xbd88f2df	-0.06686949
197	0x3ebed293	0.3727003
198	0xbe1a356e	-0.15059444
199	0xbed1a38d	-0.40945092
200	0xbe162638	-0.14663017
201	0xbe50fd12	-0.20409039
202	0x3db76bfb	0.089561425
203	0x3d27eef1	0.040999357
204	0x3eaf9dad	0.34299985
205	0x3d836470	0.06415641
206	0x3ec6e7db	0.38848767
207	0xbde0d2fe	-0.109777436
208	0x3d808105	0.062746085
209	0x3f8164c3	1.0108875
210	0xbe9674de	-0.29386038
211	0x3eaa17de	0.33221334
212	0x3ef252a1	0.47328666
213	0x3dd4d90e	0.103929624
214	0x3ee7c7c0	0.45269585
215	0x3f04f3a3	0.5193426
216	0x3d61c1a3	0.055116307
217	0xbecf510e	-0.40491527
218	0x3ec0d246	0.37660426
219	0xbdeb8957	-0.11500805
220	0xbd81180a	-0.06303413
221	0xbe8967a8	-0.26836896
222	0xbeb46be3	-0.3523856
223	0xbd9cdd25	-0.076593675
224	0x3d44ac9f	0.048016187
225	0x3e60eda2	0.2196565
226	0xbf49a6fc	-0.7877042
227	0x3f1c8ef4	0.6115563
228	0x3f172aee	0.5904988
229	0xbf0de6ec	-0.55430484
230	0x3e35cfd9	0.17755069
231	0x3ef00b17	0.4688346
232	0xbe5b76c4	-0.21432024
233	0x3e80a285	0.25123993
234	0x3e97f6d7	0.2968051
235	0xbe10bd2e	-0.14134666
236	0x3e6dd4a0	0.23225641
237	0x3e247dbd	0.1606359
238	0xbeb945b7	-0.36186
239	0xbdf99ed0	-0.12188494
240	0x3da93a79	0.08263106
241	0x3e787690	0.24263978
242	0xbd03388a	-0.03203634
243	0x3eb2bf98	0.349118
244	0xbf03e65c	-0.51523376
245	0x3eeac2a2	0.45851618
246	0x3e8d8c0f	0.2764592
247	0xbeddddbc	-0.43333232
248	0x3c9d34d0	0.019190222
249	0x3e36adb6	0.17839703
250	0x3e4f7b0c	0.20261782
251	0x3e8c808d	0.27441826
252	0x3e13fd72	0.1445215
253	0xbc6dcc46	-0.014514035
254	0x3e67c832	0.22634962
255	0xbe25d7ee	-0.16195652

conv_dec1.bias f4 [8]
0	0x3e4f4177	0.20239817
1	0xbe18fd3b	-0.1494035
2	0x3e9c4b02	0.30525976
3	0xbd029f62	-0.03189028
4	0x3ee50d93	0.4473692
5	0x3e55759d	0.20845647
6	0x3eb7befa	0.3588789
7	0x3f25378b	0.64537877
