whole_expt/only7_env/controller_best.pth (torch, 21207 bytes, 5 tensors)

fc1.weight f4 [200, 18]
00000000: 8f59 583a 0ec6 ee3c e222 753c 3c93 af3b
00000010: 3bf9 0abd af06 253c 3267 d33c a248 38bc
00000020: ca35 403c 4112 c5bb 065e 8bbd a6db a83c
00000030: a9e9 dd3a 25c7 933c 26e6 09bc 2f75 c23b
00000040: 5987 26bd f0a5 81bb 2451 7ebe 5cc6 4b3c
00000050: d5f1 673b 1073 223e 382a 1fbf d8dc 9f3e
00000060: e3d1 91bc 296c a63d 44ff b7bd ae71 e8bb
00000070: b9b4 f6be 4886 fc3c c72d c83d 8ac8 093e
00000080: a5c3 8bbc 8ed2 b8bd a043 913e c3b4 0bbe
00000090: ab03 6bbc bc00 acbc 5e62 cbbc 0d0f 463c
000000a0: 9df1 7d3c e89d bdbb 6a9d f8bb 2aaa c03c
000000b0: addf 68bc 6a35 103d 59a5 983c 5e65 65bc
000000c0: a2b1 24bc 0da5 88ba e47d 803c c75f 903c
000000d0: b1f5 37bb dff7 c73c 65e2 06bf 5f0a 243d
000000e0: 6ef4 ea3b db3f 2f3d eb4b 01be 9895 16bf
000000f0: c229 e83b 2c65 cabe 67bc 62bc 35ee 2abc
00000100: 204e 01bc 87aa 5eb8 cff0 1cbd f82e d9bc
00000110: e58b abbd f200 d93d b5c1 8f3d 694a 283b
00000120: d92f 70bb 9569 e1bc 8252 e1bc 12fe 94b9
00000130: 399c 703b 6e5f 29bb 81c5 e1bc 9cba b43c
00000140: ebf9 f0bc b1df d63b 2754 2e3d 9477 c9bc
00000150: ec72 fe3b c794 52bc fa09 b13a 003e 2d3b
00000160: f490 ef3c b10a 3eba c0b3 dbb9 4708 2e3d
00000170: c2ac 82bc e94a a43b 3ba1 0b3d 57bb 7dbb
00000180: 52a6 3c3d d026 51bc b70c f93b aba7 803c
00000190: d0f7 d8bc 23d6 143c c47d 95ba 0107 143d
000001a0: 668e 223c 3a2a a73c dc07 7ebc bddb 803c
000001b0: 4cfc 8b3b 2d4c 033c 3c52 e73c 9a3c a63a
000001c0: f21a 2dbc 10e0 33bc 5a69 f93c 4670 f0ba
000001d0: 4d8e 8fbb 9058 993c 7eb3 adbc e1f8 acbc
000001e0: 8214 493c 22d4 34bd b5bf 56bc c9f5 ac3b
000001f0: ca7e aebc 26c3 8b39 1ce2 d53d 1b43 97bd
00000200: 25bd bcbc ba5d 5b3d 725c ef3c 3357 9cbb
00000210: 44cc 3cbc eae0 ee3b e3ac 25bd e5d8 ddbb
00000220: 72d3 553d 6b33 ffbc fef5 d3bc 1345 9bbd
00000230: f271 83bc 5dc4 8b3a 288a 6d3d 2078 8b3a
00000240: b0c4 61bb 4d2c 8cbc c23d 18bc 570c e23b
00000250: e002 313b 304a 07bb 0ccf 4a3b cdfb c13c
00000260: 9f2c 673a e22e bf3c 06aa 26bc 205d 01bc
00000270: 0af4 563a a7bc 3dbb 2512 3b3b fe46 5e3c
00000280: 1dab 6a3b 657c f63c 058f 843c 598b a33c
00000290: 3aa5 1fbc 64d6 1b3d 2c61 a03c 0ec8 d93c
000002a0: 55b4 ecbb 6992 f1bb 3f0f 913a 7bc9 aa3c
000002b0: 9bfc 113d 8158 b53c 6669 ebbc 76f6 793d
000002c0: f9f3 5ebb dba9 4dbc a7e2 cfbc 9590 9c3c
000002d0: 22b3 a93b b876 c8bb c9d6 9fbc 5e76 eabc
000002e0: f316 7ebc 9dda dd3b 2a98 4fbb dbea babc
000002f0: 21a3 0ebc 39d0 10bc 52f9 b8bc a6d7 c03c
00000300: 75af 71bc 3fb3 763c 3e33 803a b49d 3c3c
00000310: 0276 1b3c 4038 0dbd 174d 81bd 180d 943d
00000320: 644f 5dbd 9e2b 85be 6bf9 0b3d 71fe 80bd
00000330: 160b 3f3d 5a57 4bbe 322f b43d 4b23 f0bc
00000340: ea5f 343d 7005 92bd a0a1 9d3c cf20 ec3d
00000350: a339 a93d f3e0 76bd 7190 993d 111c c03c
00000360: 99b7 813a 1f62 fbbc 4417 83ba fc23 7dbc
00000370: a2f5 633c faa4 78bc 8934 a8bb e06d 1d3c
00000380: 214d 88bc 6ce1 873c 991b ce3c 3cbf f1bc
00000390: 7b3f 4ebb 9d83 25bd 25c8 81ba 79de 25bb
000003a0: 9bc9 ce3c 4a20 403c 687b d8bd ae80 6cbd
000003b0: 6b07 263d cc85 d7bd 4c10 ae3d d67d 5abe
000003c0: f1c6 873d ab62 62bd 188d 233d 0db7 273c
000003d0: 1bd0 8cbc 66fb 883c fe76 5ebd 75a0 07bc
000003e0: ac59 883c b952 1e3d 19b8 e2bd 1e16 323d
000003f0: 38fe 2fbc ff03 0c3d 5147 a43c 02df 96bc
0.00082530914 0.029147174 0.01496193 0.005358128 -0.03392909 0.010072394 0.025806043 -0.011247786
0.011731574 -0.006014139 -0.06805043 0.020612549 0.0016930598 0.018039295 -0.008416688 0.0059343795
-0.04065642 -0.003956549 -0.2483564 0.012437429 0.0035391946 0.15864205 -0.62173796 0.31223178
-0.017800277 0.08126099 -0.08984235 -0.00709363 -0.48184755 0.030825749 0.09774356 0.13455406
-0.017061064 -0.09024535 0.28371906 -0.13643174 -0.014344136 -0.020996444 -0.024827179 0.012088549
0.0154995 -0.005786646 -0.0075871246 0.02351864 -0.014213485 0.03520719 0.018633531 -0.014001219
-0.010052117 -0.0010425166 0.01568503 0.017623795 -0.0028070027 0.024410186 -0.526892 0.040048953
0.0071702516 0.042785507 -0.12626617 -0.5882201 0.007085056 -0.39530313 -0.013838864 -0.01043277
-0.007892162 -5.308774e-05 -0.03831559 -0.026511654 -0.08376292 0.105958834 0.070193686 0.0025679118
-0.0036649613 -0.027516166 -0.027505163 -0.00028418057 0.003671421 -0.0025844234 -0.027559998 0.022061639
-0.029416045 0.006557428 0.042560723 -0.024593152 0.0077651646 -0.012852854 0.0013507002 0.002643466
0.029243924 -0.0007249518 -0.0004190486 0.042488363 -0.015951518 0.005013813 0.03408931 -0.00387164
0.046057053 -0.012765601 0.0076003927 0.01570495 -0.026485354 0.009084257 -0.0011405279 0.036139492
0.009921646 0.020405877 -0.0155048035 0.01572978 0.0042720195 0.008013767 0.028237455 0.0012682856
-0.010565506 -0.010978714 0.030445743 -0.0018344007 -0.0043809772 0.018718988 -0.021203753 -0.021114768
0.012272956 -0.044147618 -0.01310723 0.0052783233 -0.021300692 0.00026657543 0.104435176 -0.07385846
-0.02303941 0.05355618 0.029218886 -0.004771137 -0.01152331 0.0072899954 -0.04044808 -0.0067702406
0.052203603 -0.031152448 -0.025874134 -0.07581534 -0.016045544 0.0010663379 0.057993084 0.0010640658
-0.003444951 -0.017110968 -0.009292068 0.0068984437 0.002700977 -0.0020643584 0.0030946163 0.023679638
0.00088186 0.023337785 -0.010172373 -0.007895738 0.0008199817 -0.0028951557 0.002854475 0.013566731
0.0035807558 0.030088613 0.016181478 0.019963907 -0.009743983 0.038046256 0.019577585 0.026584651
-0.0072236457 -0.00737219 0.0011067166 0.020848026 0.035641294 0.022136929 -0.028736781 0.06102606
-0.003401993 -0.012552704 -0.025376631 0.01911191 0.005178825 -0.006117668 -0.019511597 -0.028620895
-0.015508401 0.0067704455 -0.003167639 -0.022817066 -0.008705885 -0.008838707 -0.022579823 0.02354033
-0.014751305 0.015057384 0.0009780896 0.011512209 0.0094885845 -0.034477472 -0.06313532 0.0722906
-0.05403079 -0.2600984 0.03417341 -0.06298531 0.04664143 -0.1985754 0.08798064 -0.029313704
0.044036783 -0.07129943 0.019242108 0.11529695 0.082629465 -0.060273122 0.07498253 0.023450883
0.0009896635 -0.030686436 -0.001000144 -0.015450474 0.013913544 -0.015176052 -0.005133216 0.009608716
-0.01663834 0.016586982 0.025159644 -0.029510133 -0.0031470943 -0.04040872 -0.0009901567 -0.0025309606
0.025242617 0.011726448 -0.10570413 -0.057739906 0.040534418 -0.105235666 0.08499202 -0.21337065
0.06629742 -0.05526988 0.03992948 0.010236514 -0.017189076 0.016721439 -0.0543127 -0.008278002
0.016644321 0.03865311 -0.1107027 0.043478124 -0.010741763 0.0341835 0.020053538 -0.018416885

fc1.bias f4 [200]
00000000: 585d ab3c 1574 c73c 060c b03c b2b7 b7be
00000010: e19c 19bc fed5 dfba 12f5 15bb 36b8 0dbe
00000020: 93c1 a93c f809 c3bc 730f 8dbc 75ee 0cbe
00000030: 7674 46bc 5b68 82bd 1808 02bd d92e 9ebe
00000040: fdb2 98be 2382 99be 600c b0bd 5966 28be
00000050: 17c6 7dbc d4e6 ecbe a407 8c3c 7822 8cbb
00000060: 2eab bdbb 155d 873c 1328 42bf cdd0 f0bd
00000070: f8b2 223c a0e4 f1be 0b7b 753b 96b7 cbbc
00000080: ff91 d93a b465 80bc 5b3b 83be 53ac e4ba
00000090: ea8f 1bbe 833a 883c 4077 4bbc a3dd 96be
000000a0: ec15 99bc 8fd6 10bc fa17 6dbd 899f 08bf
000000b0: 0368 923c ad92 f3ba 2431 84bd 31dd 2b3c
000000c0: d655 c1be 233d 9bbb a685 14bb f9f5 60be
000000d0: 6f88 85bd fd6f 4abe de64 dcbb 3dab b03b
000000e0: e148 eabc 3d63 2c3c 534c b8bc 1372 10be
000000f0: a03d 3cbe 5c22 033d 92f6 963c 5a62 513c
00000100: 58b6 7dbe bd54 f9bb adb9 923c 90fe e4bb
00000110: 434b 3abe 473b 3fbc 6cd0 afbe 9bbd 003c
00000120: cad8 8dbe 3b35 bebe 0b3d abbc fb53 623c
00000130: 2f57 db3c 96c9 f53a 76f3 24be ce6c 27bc
00000140: 03dd a8be 1ad0 063c 1899 a4bd ee85 d0ba
00000150: 2694 873c 258e 01bf 7d78 e3bd e105 dcbe
00000160: 7580 293a 70cb c3bd a13a 9cbe c24f 9c3b
00000170: 74c7 46bc f126 55be 774e 0bbe e0e2 28bc
00000180: cb86 273d ca95 1e3c 9165 0cbf 4ddf 143c
00000190: c384 45bc 2fbc b0be f78e b939 1235 78bd
000001a0: 2813 03bf 1b3a 05bf 54d0 733c 3130 09bc
000001b0: c6cd b4ba 0bbd 11be dce6 abbb 74f1 373c
000001c0: 8c1f d2bb 2944 ba3a b188 3cbc 3912 99be
000001d0: 8193 0b3d b8b4 673c ff98 86be c686 f5be
000001e0: f264 0fbf 82c2 f5be c153 f13b ecd2 97bb
000001f0: 99e0 d5bc 5964 efbb 7b4f 93be acc8 75bc
00000200: 986f 3cbd cb68 babe 27f0 afbe cf8e 69bc
00000210: c73d 43be 19a2 9dbe 948f 1abe 65f7 383b
00000220: 9feb d43c ea7c 223c f8ec 1bbe 9a3d 01bc
00000230: a7a6 2ebe 9154 88be e975 38bc eece 3ebf
00000240: c50d 383c 6ee6 8a3c 875d dabb c345 81bc
00000250: 57d7 75be 0ea2 c6bb ca6b 9ebb 2b70 8dbd
00000260: 56cd 55bc 467d 593c 1dcc 053b 1e9a 91bc
00000270: fb78 393d 3e34 9abe a56d 4bbc 9e8d 9bbd
00000280: 119d eebd 2706 e13b a93e 02be 9ec6 b03b
00000290: 86b5 5e3b 5841 ddbe f540 07bc e62e b4bd
000002a0: 7ba2 323c 8761 7cbc 355b 34bf 4efc 8ebe
000002b0: c260 563c 8c52 8cbc 2f61 2cbe 2b2a 463e
000002c0: 5af7 793b 72cb 25bd aa63 02bf 37b7 10be
000002d0: 558e 46be 7787 05be 3f96 393c b14c 41bc
000002e0: fae6 d8bc 9756 7d3a 3ded e3bb 0a8a 12bd
000002f0: 29cd f9bd 630d f13c 6d99 cf3b 62fe 7c3c
00000300: 2feb a7be c770 753c a2a3 b4be 01a1 4ebe
00000310: 335c ec3b eac3 d73b f310 2abe 2cb5 d1bd
0.020918533 0.024347344 0.021490108 -0.35882336 -0.009375782 -0.0017077324 -0.002288167 -0.13839802
0.020722186 -0.023808464 -0.01721928 -0.13762839 -0.012112727 -0.063675605 -0.031746 -0.30895117
-0.29824057 -0.299821 -0.0859611 -0.16445293 -0.015489123 -0.46269858 0.017093487 -0.00427657
-0.0057882285 0.016523877 -0.758424 -0.117585756 0.009930365 -0.4724474 0.0037457373 -0.024867814
0.0016599296 -0.015673496 -0.25631222 -0.0017446376 -0.15191618 0.016629463 -0.012418568 -0.2946597
-0.018687211 -0.008840217 -0.057884194 -0.5336843 0.017871862 -0.0018583142 -0.06454685 0.010489748
-0.377608 -0.0047375127 -0.0022662668 -0.21968831 -0.06520163 -0.19769283 -0.0067258915 0.005391507
-0.028599204 0.010521707 -0.022497332 -0.14106016 -0.18382883 0.03201519 0.01842812 0.0127797965
-0.2477659 -0.0076089785 0.017910803 -0.006988354 -0.18192773 -0.011671848 -0.343387 0.0078577055
-0.2770446 -0.37149987 -0.020903131 0.013813968 0.02677497 0.0018752094 -0.16108498 -0.010218812
-0.3298112 0.008228326 -0.08037013 -0.0015909055 0.016550135 -0.5060752 -0.11106966 -0.42973235
0.000646598 -0.09560287 -0.3051348 0.00477025 -0.012132514 -0.20815636 -0.1360415 -0.010307997
0.040900033 0.009679267 -0.5484248 0.009086442 -0.012055579 -0.34518573 0.00035392467 -0.060597487
-0.51201105 -0.52041787 0.014881212 -0.008373306 -0.0013794235 -0.1423227 -0.0052460264 0.0112270005
-0.006412452 0.0014210987 -0.011507199 -0.29896715 0.034076218 0.014142208 -0.26288602 -0.47954386
-0.56013405 -0.4799996 0.0073647206 -0.004633298 -0.026108073 -0.0073056635 -0.28771576 -0.015001457
-0.04600486 -0.36408076 -0.3436291 -0.01425524 -0.19066535 -0.30787733 -0.15093833 0.002822363
0.02599126 0.009917477 -0.15227115 -0.007888222 -0.1705576 -0.2662702 -0.011258581 -0.745345
0.011233752 0.01695558 -0.0066639814 -0.015780335 -0.24007927 -0.006061799 -0.004834627 -0.0690616
-0.013049444 0.013274496 0.002041585 -0.017773684 0.04528139 -0.30117983 -0.012416278 -0.07595371
-0.11651052 0.0068671885 -0.12719215 0.0053947708 0.0033982708 -0.43213916 -0.008255233 -0.08798008
0.010902996 -0.015404112 -0.7045167 -0.27926868 0.013084592 -0.017129205 -0.16833948 0.19352023
0.0038141818 -0.040477224 -0.50933325 -0.14132391 -0.19390233 -0.13039957 0.011327325 -0.01179807
-0.026477326 0.0009664087 -0.0069557712 -0.035776176 -0.12197334 0.029425329 0.0063354285 0.015441509
-0.32796618 0.0149805015 -0.35281092 -0.20178606 0.0072131394 0.006584634 -0.16608028 -0.10239634

fc2a.weight f4 [4, 200]
00000000: 8e39 22bc 329d 3b3d 94dc cdba 79fd 963d
00000010: 2437 843c 98ca bfbb c5ed 98bc f0a8 60bc
00000020: 9594 2d3d f31f b4bc a1c8 dbba c610 9cbc
00000030: 4ee2 bc3b 26b9 093d c36b 323b 47e7 3bbe
00000040: c2f4 c13c fb6d b6bc 6649 1bb9 01bf 8d3e
00000050: de38 6b3c 2c3d 05be baaa ce3c 8428 fdbb
00000060: f9fc 043c 7851 843b 3456 b03e 33e1 893c
00000070: ac97 e03c 87ca 5dbe b877 fcbc 963d 123d
00000080: 46c8 d13b 0542 243d f769 863d 611c dbbc
00000090: 8e7b c43d 1236 283d 247e fd3c af32 d6ba
000000a0: bc93 cd3b eace b73c 59ec 48bc f88d 8e3e
000000b0: 14c8 7cbc 8971 b23b d224 a63e d4fa 983c
000000c0: 1b8f 2b3d a729 cfbc 84ef c23c 6857 e0bd
000000d0: f5bc 94bc 8223 b3bc af20 d9bb 902b 803c
000000e0: 4aeb bdbb 1e2e adbc f507 f73c 3149 90bc
000000f0: 82cd a03d 8229 dc3b 386b 82bc c75a a73c
00000100: 74e3 e73c 3e83 553b 5cf6 193d 4028 ccbc
00000110: c79f a3ba 5e60 eabd 7fd4 823d 6e64 eb3b
00000120: 6d95 783b f50e 6c3e 81b8 063d a8f0 2d3c
00000130: fa01 9dba c9fb 1ebd b24e afbd 24c8 f53b
00000140: 54c3 3f3d 6d2c 92bc 5606 ea3c 68d1 b13c
00000150: abc6 943c 5791 edbc a7bf b53b 465b a43d
00000160: f365 b73c 6465 a33c 22d1 7f3d 84f9 25bc
00000170: 4614 593c 4862 1e3d 1657 123e 8dcd c13c
00000180: 9ac3 033d 8824 e4bc 82fa 393e fac2 96bc
00000190: 73fa 263d 6848 9a3d 5b04 423c be87 9cbd
000001a0: 5334 273d ce5a 6c3d c828 d3bc 4f0f 57bb
000001b0: 270d 543c d5fb 073c 44ec 14bc 8775 75bd
000001c0: 2063 8a3c 82f5 c33a 611f f23c ff0e 2a3d
000001d0: ce56 60bc b877 c13c fbcf 09be 86e0 ad3d
000001e0: d019 17be f0f1 333d 1a93 5c3c 2acd e4bc
000001f0: c417 d13b b69b 04bc bfb0 363d abf2 aebc
00000200: 4169 3bbd 977f 5b3b 0c9d 1fbe 53e2 25b8
00000210: 1bb2 a33d 420c 263e 4dd1 77bc 23da a9ba
00000220: 2e9b 8cba 0ac9 8f3b 697e f03c adb7 27bc
00000230: 8a7c 143e d6f7 b9bd fde7 03bd f8ce e2be
00000240: a7e0 943c 7184 7b3c 288d 883c 2f61 903b
00000250: f579 b53c 797c cfba 50e8 2e3d 2c24 923d
00000260: 38fa 963b 62a2 4d3c cefe f2bc 1189 b83c
00000270: 834f 12bc 69a3 133d 254a a3bb 958b 13bb
00000280: 5a9f 15bd d962 a73c d445 08bc d0e2 65bc
00000290: 3445 5bbc fb04 b23c 5681 00bc 34a0 8ebc
000002a0: 65a7 443c dfe6 563d 5d8f 953e ab86 6b3d
000002b0: 8d20 a73b 7cfd 17bd eaa0 91bd 76a7 b63d
000002c0: 090b a63b 538d 443c 0803 9a3d 64e3 5f3d
000002d0: 4482 533a 4158 78bd 4424 4abb fe37 8fbb
000002e0: b57a c43c 7864 42bd 2a72 50bd 8afb 0b3d
000002f0: 8964 9bba 9f07 bb3b c76c 9abb 0879 89bc
00000300: 043f d9bb 4c5c 5bbe f63a bfbb 1786 34be
00000310: f22d 593b c315 cfba cdbb 133d d6f0 eabd
00000320: d76f ccba b3d6 9fbc 57cb 273c b9f7 693b
00000330: 8e8a 833c dfb9 1a3c 3b7c a9bc 37f6 ebbc
00000340: 20b0 323d 0e24 48bb 2970 32bc 6124 69bc
00000350: fa74 51bb c2b6 213d a67e ce3b d98f 12bd
00000360: f929 02bc 2c78 97bd 3616 b73c d4e0 5c3d
00000370: 0034 5f3c 4742 bb3d c22d 053d 7f10 59bb
00000380: 99b8 4b3b 6653 b03c 4ed0 d03c eb9e 803c
00000390: cf86 db3c 025c 84be d7bb 01bd 27d4 793c
000003a0: d813 6b3c d87a 0c3d ff67 b2bd d798 fcbc
000003b0: 676c f5bc db18 133c bdc2 3e3c de12 0f3d
000003c0: 28a3 2639 28b5 7b3c c44d b0bc 4153 edbd
000003d0: f7ea bcbb 1ef5 ba3c 1d29 9f3c ab42 e93c
000003e0: d8dc 813d a0f5 85bb 9d73 6c3c 40ef 16bd
000003f0: 4d9b bdbc 8ce8 a1bc 0046 0abb 2369 783c
-0.009901417 0.04580421 -0.0015705996 0.07372565 0.016139574 -0.0058530085 -0.018668065 -0.013712153
0.042378027 -0.02198789 -0.0016768166 -0.019050967 0.0057642823 0.033623837 0.0027224876 -0.18349944
0.02367628 -0.02226924 -0.00014809295 0.27684787 0.01435682 -0.13011616 0.025227893 -0.007725777
0.008116954 0.004038032 0.34440768 0.016831016 0.027416073 -0.2165929 -0.030818805 0.035703264
0.0064020483 0.040102024 0.0656318 -0.02674693 0.09593879 0.04106719 0.030943938 -0.0016342009
0.006273715 0.022437532 -0.012263381 0.2784269 -0.015428562 0.0054456634 0.32449967 0.018674292
0.041884523 -0.025288416 0.02379585 -0.109541714 -0.018156508 -0.021867517 -0.0066262106 0.015645772
-0.005795871 -0.021140154 0.030155161 -0.017613025 0.078516975 0.0067188153 -0.015920267 0.020429028
0.0283067 0.0032579447 0.037588462 -0.024921536 -0.001248353 -0.11444162 0.06388187 0.007183603
0.0037930862 0.2305258 0.0328908 0.010616459 -0.0011978738 -0.03881434 -0.08559932 0.0075006653
0.04681714 -0.01784345 0.028567474 0.021706298 0.018161139 -0.028999968 0.0055465284 0.080252215
0.02238748 0.019945808 0.062455304 -0.01013029 0.0132494625 0.038667947 0.14291033 0.023657585
0.032168962 -0.02784945 0.18161967 -0.018403519 0.04076619 0.07533342 0.011841859 -0.07643078
0.040821385 0.057703786 -0.025776282 -0.003281552 0.012942589 0.0082997875 -0.009089533 -0.059926536
0.01689297 0.0014950486 0.029555978 0.041518208 -0.013692571 0.023616657 -0.13458245 0.0849009
-0.1475594 0.0439319 0.013462806 -0.027929861 0.006381007 -0.008093765 0.044602152 -0.021355947
-0.045754675 0.0033492798 -0.15587252 -3.9549846e-05 0.07992955 0.16215613 -0.015125585 -0.0012958687
-0.00107274 0.0043879794 0.029357152 -0.010236663 0.14500633 -0.09080474 -0.032203663 -0.4429853
0.018173529 0.015351401 0.016668871 0.0044061164 0.02215288 -0.0015829942 0.04270202 0.071358055
0.004607465 0.012550922 -0.029662516 0.022526296 -0.00893009 0.036044512 -0.004983204 -0.0022513617
-0.036528923 0.020432876 -0.00831743 -0.014031127 -0.0133831985 0.02173089 -0.007843336 -0.017410375
0.012002801 0.05246627 0.2921094 0.057501476 0.005100316 -0.037106976 -0.0711077 0.089186594
0.0050672335 0.011996585 0.075201094 0.054660216 0.00080684223 -0.06063104 -0.003084437 -0.0043706885
0.023984293 -0.047459096 -0.050890125 0.034175433 -0.0011855523 0.0057076956 -0.0047126743 -0.016781345
-0.0066298265 -0.21421927 -0.005835886 -0.17629276 0.0033138958 -0.0015799332 0.036067773 -0.11471717
-0.0015597296 -0.019511556 0.010241351 0.0035700633 0.016057279 0.009443729 -0.02068912 -0.028803928
0.043624997 -0.0030539068 -0.010890999 -0.014229865 -0.0031960593 0.039480932 0.0063017188 -0.035781715
-0.007944577 -0.07395968 0.022349458 0.05392535 0.013623238 0.09143501 0.03251434 -0.0033121405
0.003108537 0.021524142 0.025489952 0.015700778 0.02679768 -0.25851446 -0.03167328 0.015248335
0.014347993 0.03429684 -0.08711242 -0.030834598 -0.029958917 0.008978094 0.011643109 0.034930103
0.00015891774 0.015363015 -0.021521457 -0.11588145 -0.0057653147 0.02282196 0.019428784 0.028474173
0.06340951 -0.0040881187 0.014431861 -0.03684926 -0.023145342 -0.019764207 -0.0021098852 0.015161785

fc2a.bias f4 [4]
00000000: bf51 4f3d 008d b23d ce35 abbd 60cc 313e
0.05061507 0.087183 -0.08359872 0.17363119

fc2c.weight f4 [1, 200]
00000000: a2c9 8a3b b561 593e cd21 aa3b fdf4 68bc
00000010: f5bc 2f3a d3cf 823c b85e e13b e182 5cbc
00000020: a0cc 6e3b 8f49 38bc 2f51 513b e73e e93c
00000030: 9422 733b 7e87 4b3d e130 593c dce8 2dbd
00000040: c886 e7bd e12a 2e3e 7d4c f63d 2fec 32bc
00000050: d03e e2ba 9c6e e6bd 478f 323b cff4 9db9
00000060: 714e c03b 6f3c e0bb f2f7 12bd 0e79 dfbc
00000070: 10ad a2bb 497c 22bd a681 5aba d481 9f3b
00000080: 3990 44bb d214 843b 50dc 5f3d ec02 533b
00000090: bd37 2d3e f439 753d e80b 043b a4a7 05bd
000000a0: 4bc9 d3bb 0915 b03b f700 22bc 8c9b d03d
000000b0: 571e 083b 277f 863b 7041 413d 95d1 29bb
000000c0: 6369 1fbd ed05 6e3c 1edf 8939 64d4 a2bb
000000d0: e103 cebc d35f 21bc 3f15 9f3b 2645 8ebb
000000e0: f2d1 3a3c 7eaa afbb 4a30 8bbb 74cb b23d
000000f0: b71d a63d 8dbc abbb 9b7e 59bc d2fd 3d3b
00000100: 5430 823b 6eff a13b 7c3c 83bc 97dc f63b
00000110: e57b 37be d050 ec3d 5b05 7cbd ec60 983b
00000120: 805b 7dbd 25ce 513e 4710 723b dbe4 783a
00000130: 670b 82ba df61 8bba 4a06 ee3d 236b e53a
00000140: c2e4 b2bc b925 1c3b cc96 b5bd 5947 153b
00000150: 82bf a7bb 9ad9 933d 6ddb 03bd 24cf 03be
00000160: 3af1 1fbc 042e 8cbc 5879 b7bd a01b 053b
00000170: 395e c93b b9f7 a3bd c50c d73d e84e 9b3b
00000180: 487d e6bb e495 b7bb 412b bb3c ea69 b43b
00000190: e4b9 5d3b fa80 853c b4b7 b9ba 75a5 a23d
000001a0: c557 d83c 1562 8abe 3ba2 cdb9 6471 0fbc
000001b0: 83be 643c fe64 493d 2c73 d03a 79f1 103b
000001c0: ca69 093b c235 90b8 0122 263a 090d 71bd
000001d0: b34e efb9 8549 6c3c c9cc 5c3e e989 5abe
000001e0: c520 193d 9452 6cbd 6817 8bbb bf18 27b9
000001f0: 4ced 043b d1e6 723b b2c4 efbd db88 d63b
00000200: e3af 813e 63ff 103e d66b b43c e3e3 6e39
00000210: 3e4d 0b3d 223e 84bd 78b6 99bc bab5 9739
00000220: ef07 98bb e79e 1eb9 aac9 2b3d 3f23 d03b
00000230: 283d 80bd aebf aabd 8b25 43bb 77c6 03bd
00000240: 83b9 4fbb b62e ff39 b932 fa3b e479 593b
00000250: 1416 24bd 629a 96bb eb3b f83b d47a 4f3c
00000260: b8c0 553c dff0 07bb f263 e8ba c0c8 7c3b
00000270: 60ce b1bb eee2 203e 1a4c 06bb cda0 d53b
00000280: 9cae 913d 369c 443b 5677 d43d db50 013b
00000290: 125b bcba 03c6 9f3c 1bab eebb 78a9 7cbd
000002a0: c22e 0eb9 a7c0 e73a ed7b 50bd 5b52 3dbe
000002b0: 7e4d 653a d2f2 26bc a550 dc3d 37e3 d0be
000002c0: 6aac 403b 8717 80bc 7c63 acbc efad 62bd
000002d0: 6c8c 61be 067b 0dbd 95bd 053c b9d8 9b3b
000002e0: 81e9 a63b 4cf1 e4ba 99f2 07ba 964d 8a3c
000002f0: 7a70 9bbd be85 cbbb 13d0 983b ba58 463b
00000300: f0da 053d a53d 173e 0187 0fbe acb1 a4bd
00000310: 2199 fdb9 f8fc e13a f3b3 723c 4f95 873d
0.0042354623 0.21228679 0.0051920176 -0.014218566 0.0006703877 0.015968239 0.0068777464 -0.013458938
0.0036437884 -0.0112480065 0.0031939258 0.028472377 0.0037099468 0.049689762 0.013256283 -0.0424584
-0.11305004 0.17008545 0.12026308 -0.010920568 -0.0017261151 -0.11251566 0.0027246044 -0.0003012777
0.005868726 -0.0068431417 -0.03588099 -0.027279403 -0.0049644783 -0.03966931 -0.0008335359 0.0048677716
-0.002999319 0.0040308023 0.054653466 0.0032197786 0.16915794 0.05986972 0.0020148698 -0.032630578
-0.006463205 0.0053736013 -0.009887925 0.10185918 0.0020770037 0.004104513 0.047181547 -0.0025912274
-0.038918864 0.01452778 0.00026296912 -0.0049691666 -0.025148334 -0.009849506 0.0048548277 -0.004341739
0.011402594 -0.0053609004 -0.0042477 0.08730212 0.081111364 -0.005240983 -0.013274814 0.00289904
0.0039730463 0.0049437797 -0.016020052 0.0075336206 -0.17918356 0.11538851 -0.061528545 0.004650226
-0.06185484 0.20488794 0.0036935972 0.00094945513 -0.0009921611 -0.0010634026 0.11622293 0.0017503243
-0.021837596 0.0023826195 -0.08866653 0.0022778122 -0.005119265 0.072192386 -0.032191683 -0.12871987
-0.009762103 -0.017111786 -0.08958691 0.0020310655 0.0061452654 -0.08006234 0.105004825 0.004739631
-0.0070339777 -0.005602585 0.022847774 0.00550579 0.0033832723 0.016296852 -0.0014169128 0.07941715
0.02640904 -0.27027956 -0.00039221518 -0.008755062 0.013961437 0.04916858 0.0015903465 0.0022116585
0.0020967596 -6.876468e-05 0.00063374644 -0.058850322 -0.00045644268 0.014421825 0.21562494 -0.21341671
0.037384767 -0.05769594 -0.0042447336 -0.0001593558 0.0020283042 0.0037063847 -0.117074385 0.006547076
0.25329503 0.14159922 0.022024076 0.00022782343 0.03400921 -0.064571634 -0.018763766 0.0002893636
-0.0046396176 -0.0001512725 0.04194037 0.006351858 -0.06261665 -0.08337341 -0.0029777016 -0.032171693
-0.0031696267 0.00048672192 0.007635441 0.0033184225 -0.040060118 -0.0045960406 0.007575502 0.012663562
0.013046436 -0.0020742936 -0.0017729981 0.0038571805 -0.005426213 0.15711567 -0.0020492137 0.006519413
0.07113382 0.0030000336 0.10374324 0.0019732032 -0.0014370403 0.019503599 -0.007283581 -0.061685055
-0.00013559594 0.0017681316 -0.050899435 -0.18488447 0.0008747204 -0.010189729 0.10757569 -0.4079835
0.0029399642 -0.015636219 -0.021043532 -0.055341657 -0.22026223 -0.034541152 0.008162876 0.00475606
0.005093754 -0.0017466932 -0.0005185991 0.016882699 -0.075898126 -0.0062110117 0.0046634763 0.0030265287
0.0326795 0.1476961 -0.14016344 -0.08041701 -0.0004837001 0.0017241528 0.014813411 0.06620275
