whole_expt/only7_env/controller_last.pth (torch, 21207 bytes, 5 tensors)

fc1.weight f4 [200, 18]
0.012706165 0.024099132 -0.00955419 0.015096176 -0.041825518 0.020311328 0.021395555 0.0060488028
-0.000583835 -0.008842006 -0.042203844 -0.0058707176 -0.0063429675 0.0074200584 -0.006135893 0.0068146368
-0.0279107 0.02216614 -0.27938768 0.023043113 -0.008820766 0.17692004 -0.6080333 0.32220736
0.0044187927 0.07209831 -0.0903263 0.008180448 -0.50479466 0.014693639 0.099920675 0.103963256
-0.056054693 -0.10096412 0.2494145 -0.12473474 -0.012547797 -0.00085968856 0.0013727066 -0.016198087
0.015022921 -0.013554837 -0.025132552 0.012182516 0.005672307 0.015501826 0.0071227252 0.015974056
0.012902461 0.0057495805 0.015272832 0.0085056815 -0.012873132 0.0064938455 -0.5460238 0.039227508
0.013308635 0.006071497 -0.15246393 -0.6184765 -0.015562498 -0.40409786 -0.019800039 -0.028799465
0.038198035 0.029786708 -0.008360204 -0.028552756 -0.09419494 0.08633303 0.040950295 0.013197157
-0.006329441 -0.0035640774 -0.015981643 -0.0011486093 0.0351337 -0.011327885 -0.0142319165 0.011170329
0.0038049666 0.008251844 0.018991824 -0.000873083 0.025095252 0.007484489 0.013401682 0.02302571
0.00103041 0.011960232 0.0014438715 0.035779856 -0.017303053 -0.013645221 0.0133745065 -0.010893739
0.005961023 -0.0031845511 -0.021658113 0.025196116 -0.02101258 0.021263622 -0.0054417374 0.01578292
0.0023702874 0.021067403 -0.02151277 0.04921446 0.022963878 0.0018419938 0.0018730526 0.0043101427
-0.027243331 0.0011579748 0.024031514 -0.016410891 -0.024689784 -0.010723597 -0.027858416 0.013686735
-0.0021255706 -0.029782472 0.0040656016 0.002475733 0.00487154 0.025656173 0.07494222 -0.09896535
-0.03988462 0.029998608 0.049983624 0.0059905527 -0.019771753 0.0024276648 -0.0024224815 -0.010185783
0.04165823 -0.003748641 -0.042664602 -0.049168505 -0.021319708 -0.0075121704 0.055412006 -0.01238796
0.0032968647 0.0062461863 -0.0116738705 -0.020944491 0.0029861405 -0.016649462 -0.02429063 0.010124192
0.010082191 0.0103533 -0.012477716 0.023486046 0.01129826 0.00010569604 0.017718308 0.013685114
-0.018364968 0.018000517 -0.013393005 0.00969235 -0.00557826 0.025166871 0.042794466 -0.0063082576
0.021168794 0.0072099217 0.02172011 0.018946305 0.035280626 -0.0032764669 -0.013894452 0.048691165
-0.0154893305 -0.024646712 -0.024045337 -0.0020370989 -0.0014801404 -0.023921682 -0.0013059948 -0.011119366
-0.02033879 0.020492228 -0.021258939 0.0061273896 0.039797023 -0.0080342535 0.010702905 -0.0053120963
0.0031978718 0.0071426765 -0.005301101 0.007994099 -0.009184157 -0.05515877 -0.06349379 0.07751261
-0.038763806 -0.21336134 0.025030795 -0.048396226 0.020485146 -0.19616437 0.057382327 -0.0029419593
0.04842845 -0.05980347 0.015460095 0.09763686 0.101310976 -0.07243243 0.0380561 0.029813115
0.003084081 0.0035259796 0.01833331 -0.02590648 -0.008828676 -0.015543467 -0.031024326 -0.0072851344
0.010197487 -0.00031968663 0.0104612475 0.034688633 -0.0029677805 -0.020674238 0.026489208 -0.0021580982
0.032173887 -0.006484 -0.09477683 -0.058611665 0.07447635 -0.09329276 0.05156216 -0.18887034
0.024527336 -0.046888057 0.02705615 0.008136554 -0.00019532087 0.024055041 -0.040192805 -0.025036495
0.0115488535 0.0073391474 -0.100349605 -0.010030079 -0.0020760463 -0.026168043 0.02544635 0.01492005
00000000: 852d 503c 8b6b c53c 2d89 1cbc f455 773c
00000010: 3c51 2bbd f163 a63c bb45 af3c 0935 c63b
00000020: 810c 19ba 10de 10bc f0dd 2cbd 265f c0bb
00000030: abd8 cfbb f623 f33b 9a0f c9bb 514d df3b
00000040: fba4 e4bc c495 b53c e70b 8fbe e9c4 bc3c
00000050: f984 10bc 872a 353e 12a8 1bbf 5df8 a43e
00000060: 85cb 903b 47a8 933d fffc b8bd 4907 063c
00000070: 393a 01bf 97bd 703c 36a3 cc3d b0ea d43d
00000080: 9b99 65bd 47c6 cebd 8466 7f3e ed74 ffbd
00000090: 4695 4dbc b95c 61ba 64ec b33a dab1 84bc
000000a0: b322 763c 1b15 5ebc c8e2 cdbc 2d99 473c
000000b0: c3de b93b 5ffb 7d3c c065 e93b 06dc 823c
000000c0: d864 533c fa66 bc3b e63a 7a3c 6a5b 0b3c
000000d0: d4e9 52bc 53ca d43b 37c8 0bbf 06ad 203d
000000e0: 760c 5a3c 69f3 c63b 811f 1cbe 7a54 1ebf
000000f0: d9f9 7ebc eae5 cebe b133 a2bc dbec ebbc
00000100: 8b75 1c3d 4103 f43c 3df9 08bc 78e7 e9bc
00000110: 47e9 c0bd 5fcf b03d 7fbb 273d e338 583c
00000120: 3367 cfbb 4c93 69bb efeb 82bc ef8c 96ba
00000130: 5be8 0f3d 9898 39bc fc2c 69bc c103 373c
00000140: bf5c 793b be32 073c be94 9b3c 9cdf 64ba
00000150: 8f94 cd3c 7240 f53b ba92 5b3c 6aa0 bc3c
00000160: d30e 873a d9f4 433c 4a40 bd3a e68d 123d
00000170: 22bf 8dbc 3490 5fbc bf20 5b3c a77b 32bc
00000180: af54 c33b e7b3 50bb 5b6c b1bc 1668 ce3c
00000190: 9322 acbc 0c31 ae3c 9a50 b2bb 2f4b 813c
000001a0: d356 1b3b 8c95 ac3c 8c3b b0bc 1a95 493d
000001b0: be1e bc3c 0e6f f13a 3781 f53a 193c 8d3b
000001c0: 682d dfbc 30c7 973a bddd c43c 2270 86bc
000001d0: 3b42 cabc 07b2 2fbc 5537 e4bc 543e 603c
000001e0: 284d 0bbb 5ffa f3bc bd38 853b e83f 223b
000001f0: 70a1 9f3b e52c d23c 4e7b 993d 58ae cabd
00000200: 0e5e 23bd a4bf f53c a1bb 4c3d 664c c43b
00000210: 5ff8 a1bc 7519 1f3b 7fc2 1ebb 45e2 26bc
00000220: d2a1 2a3d c2ab 75bb 14c1 2ebd ea64 49bd
00000230: aba6 aebc a728 f6bb b3f7 623d dff6 4abc
00000240: 3610 583b cfac cc3b c343 3fbc c893 abbc
00000250: 20b3 433b 7464 88bc 25fd c6bc f0df 253c
00000260: c62f 253c e3a0 293c 566f 4cbc cf65 c03c
00000270: 561c 393c 21a9 dd38 fc25 913c 8737 603c
00000280: 2172 96bc d275 933c 566e 5bbc aacc 1e3c
00000290: d6c9 b6bb c12a ce3c 4049 2f3d 80b5 cebb
000002a0: 2e6a ad3c 3541 ec3b 5fee b13c 4835 9b3c
000002b0: 6b82 103d feb9 56bb 8ea5 63bc 6370 473d
000002c0: f6c6 7dbc e7e7 c9bc bafa c4bc d980 05bb
000002d0: 4501 c2ba 67f7 c3bc ea2d abba 002e 36bc
000002e0: 899d a6bc 51df a73c 3a27 aebc 45c8 c83b
000002f0: 3402 233d 1aa2 03bc 3d5b 2f3c 1811 aebb
00000300: 6393 513b 1d0d ea3b dcb4 adbb aef9 023c
00000310: 2579 16bc 2aee 61bd 0809 82bd eebe 9e3d
00000320: ccc6 1ebd 657b 5abe 620d cd3c 1f3b 46bd
00000330: 77d0 a73c 50df 48be bb09 6b3d e3cd 40bb
00000340: e95c 463d 7cf4 74bd 574c 7d3c d6f5 c73d
00000350: 217c cf3d 7457 94bd b7e0 1b3d a23a f43c
00000360: 4b1e 4a3b 1f14 673b bd2f 963c d439 d4bc
00000370: 27a6 10bc 07aa 7ebc ba26 febc 23b8 eebb
00000380: 5c13 273c 9d9b a7b9 a765 2b3c ab15 0e3d
00000390: 187f 42bb 055d a9bc e5ff d83c e16e 0dbb
000003a0: c4c8 033d bc77 d4bb 5b1a c2bd c912 70bd
000003b0: 0e87 983d 4610 bfbd d832 533d 3a67 41be
000003c0: 8ded c83c b10d 40bd dca4 dd3c 2e4f 053c
000003d0: 0ccf 4cb9 140f c53c 36a1 24bd 5619 cdbc
000003e0: 6737 3d3c 3b7d f03b 1884 cdbd 3355 24bc
000003f0: 470e 08bb 5d5e d6bc dd74 d03c 3a73 743c

fc1.bias f4 [200]
-0.0049920827 0.025194583 -0.0019524959 -0.34358332 0.008606267 0.007265236 -0.0011011268 -0.078340605
-0.00480152 -0.01581504 -0.0139979655 -0.133217 -0.0071816794 -0.07426058 -0.03066609 -0.32628107
-0.28784096 -0.3126213 -0.09331672 -0.1302246 -0.011264623 -0.481944 -0.01958281 -0.0151773095
0.003216532 -0.005010361 -0.7645268 -0.1050901 0.013030408 -0.50306565 0.007724484 0.0077774725
-0.005786187 0.0009006903 -0.27294627 -0.004120921 -0.135563 0.002571804 -0.0018413643 -0.28461146
0.0053221374 0.004208693 -0.05474955 -0.52369547 -0.0076178666 -0.0070602065 -0.014032564 -0.013314585
-0.36765736 -0.009178227 0.005979596 -0.25266817 -0.05305717 -0.17802912 -0.00965956 -0.0028115078
-0.011826695 -0.010681486 -0.009638121 -0.14158292 -0.18188113 0.0009331108 -0.020853413 -0.008418159
-0.22913961 -0.009551317 0.010035375 -0.0017595055 -0.16868322 -0.035303358 -0.33420846 -0.02966881
-0.26572648 -0.3929109 -0.0075810165 -0.008792887 0.0028968195 -0.01289771 -0.16221306 0.0041745226
-0.33597448 -0.00421699 -0.08164289 -0.0037802244 0.0016195549 -0.5253572 -0.08849969 -0.4298415
-0.013586505 -0.0689116 -0.30216035 -0.023615094 0.00013487374 -0.2421688 -0.11835326 0.004967859
0.006282223 0.013171218 -0.56088424 0.00033248964 -0.0045446893 -0.35522348 -0.016554872 -0.08433667
-0.516919 -0.55045 0.00092956284 -0.020706637 -0.006862572 -0.12746397 -0.008954393 -0.013338872
0.0018486392 -0.009871622 0.0038301244 -0.29809344 0.00023986453 -0.0024117744 -0.28801137 -0.49291825
-0.5898651 -0.47535217 -0.0030569811 -0.017956238 -0.0016103681 -0.012049275 -0.2849856 0.008610361
-0.06460622 -0.36556572 -0.36033595 0.0062203505 -0.17208287 -0.29919994 -0.14055212 -0.009883325
0.0054734047 -0.00160788 -0.14920926 0.008519645 -0.1428766 -0.27925384 -0.00025294564 -0.7830906
0.013701636 0.0015076938 -0.012369281 0.015032035 -0.22267233 -0.0020103597 -0.021417249 -0.081738226
-0.0059383903 0.008285585 -0.020793052 0.013398828 0.004738958 -0.30792356 0.007599448 -0.06540987
-0.12129782 -0.008137761 -0.13017073 0.00122754 0.0047402987 -0.43611136 -0.00047758318 -0.07753239
0.0027996295 -0.010398893 -0.7100517 -0.28298032 0.0025996757 -0.009108711 -0.17683262 0.25467506
0.0013173117 -0.04181286 -0.5001018 -0.122698516 -0.20187631 -0.12703133 -0.0017824357 -0.013353729
-0.017264938 -0.005000005 0.008783156 -0.0240596 -0.11620374 -0.0149296895 -0.0014778603 -0.011587304
-0.3730781 0.030728562 -0.37295833 -0.17512819 0.0011427773 -0.018786885 -0.15729003 -0.105562635
00000000: a094 a3bb df64 ce3c e4ea ffba 27ea afbe
00000010: 4d01 0d3c 3811 ee3b af53 90ba 0a71 a0bd
00000020: 1256 9dbb 8b8e 81bc b957 65bc 0a6a 08be
00000030: 4b54 ebbb ee15 98bd 7437 fbbc 500e a7be
00000040: e45f 93be e60f a0be d61c bfbd 9959 05be
00000050: 418f 38bc 5dc1 f6be 216c a0bc 40aa 78bc
00000060: 74cc 523b f42d a4bb 07b8 43bf 7a39 d7bd
00000070: 7e7d 553c e9c8 00bf ab1d fd3b 2bda fe3b
00000080: 0e9a bdbb 4e1c 6c3a 9dbf 8bbe ca08 87bb
00000090: 07d1 0abe b68b 283b ef59 f1ba 98b8 91be
000000a0: 5365 ae3b 13e9 893b 1041 60bd e810 06bf
000000b0: 4c9f f9bb 4e59 e7bb d7e8 65bc 6b25 5abc
000000c0: 963d bcbe 4660 16bc 7df0 c33b b95d 81be
000000d0: 7a52 59bd 444d 36be 2243 1ebc 4641 38bb
000000e0: c1c4 41bc 6601 2fbc 36e9 1dbc 1dfb 10be
000000f0: 0c3f 3abe 019c 743a c7d4 aabc 51ec 09bc
00000100: 93a3 6abe 217d 1cbc 6a6b 243c 359f e6ba
00000110: 4bbb 2cbe 419a 10bd 5f1d abbe 010c f3bc
00000120: 4d0d 88be 9e2b c9be 2d6a f8bb 0b10 10bc
00000130: 91d8 3d3b eb50 53bc 2e1b 26be 6fca 883b
00000140: d904 acbe ad2e 8abb 6334 a7bd a4bd 77bb
00000150: 3f47 d43a cf7d 06bf 533f b5bd 2f14 dcbe
00000160: ef99 5ebc 8621 8dbd c3b4 9abe 7174 c1bc
00000170: e56c 0d39 19fb 77be 3263 f2bd 6cc9 a23b
00000180: 1bdb cd3b 18cc 573c 1c96 0fbf 0152 ae39
00000190: 9eeb 94bb dadf b5be 159e 87bc b4b8 acbd
000001a0: ce54 04bf 4bea 0cbf e8ad 733a f7a0 a9bc
000001b0: 6ddf e0bb ea85 02be 72b5 12bc 498b 5abc
000001c0: 0a4e f23a 95bc 21bc d302 7b3b b49f 98be
000001d0: 2584 7b39 dc0e 1ebb 3a76 93be c85f fcbe
000001e0: 6601 17bf 5c61 f3be a257 48bb f618 93bc
000001f0: fd12 d3ba 536a 45bc a2e9 91be 7912 0d3c
00000200: 4450 84bd 6e2b bbbe f47d b8be 15d4 cb3b
00000210: 7e36 30be bc30 99be e5ec 0fbe abed 21bc
00000220: 3f5a b33b 80bf d2ba 50ca 18be fb95 0b3c
00000230: 3e4e 12be 5cfa 8ebe ca9d 84b9 a078 48bf
00000240: d47c 603c cf9d c53a 86a8 4abc ed48 763c
00000250: 3704 64be 3dc0 03bb 3a73 afbc 5f66 a7bd
00000260: d496 c2bb 43c0 073c 3156 aabc c286 5b3c
00000270: 4349 9b3b 28a8 9dbe ca04 f93b 9cf5 85bd
00000280: fe6a f8bd 3e54 05bc 7a4b 05be 68e5 a03a
00000290: 8254 9b3b fd49 dfbe 2164 fab9 4dc9 9ebd
000002a0: fd79 373b 1e60 2abc f3c5 35bf cce2 90be
000002b0: 525f 2a3b b43c 15bc 9c13 35be c564 823e
000002c0: a5a9 ac3a f643 2bbd ac06 00bf 5c49 fbbd
000002d0: aab8 4ebe 8014 02be 9ea0 e9ba 99c9 5abc
000002e0: 336f 8dbc 15d7 a3bb 3ae7 0f3c a318 c5bc
000002f0: 3afc edbd a89b 74bc c3b4 c1ba add8 3dbc
00000300: 1804 bfbe 77ba fb3c 65f4 bebe ce54 33be
00000310: 3ec9 953a f4e6 99bc a310 21be 3931 d8bd

fc2a.weight f4 [4, 200]
-0.006128658 0.04742583 -0.0024089443 0.08426313 0.010642297 -0.011005986 -0.013343405 -0.021118859
0.0359932 -0.016582116 -0.015681487 -0.027966574 0.0039000874 0.032874394 0.00042653794 -0.20881808
0.01992102 -0.035524875 0.012681188 0.26775828 0.017275535 -0.12191106 0.028904863 -0.024011977
-0.002719018 0.006671484 0.33068147 0.012405703 0.033075523 -0.22273014 -0.011099714 0.03681104
0.021907678 0.039636992 0.057987258 -0.03599685 0.09238989 0.036028877 0.0125599345 -0.013349189
-0.004400308 0.009266141 -0.017873302 0.2725566 -0.0143847745 0.0046716724 0.31328043 0.029998131
0.036359496 -0.030447496 0.01805877 -0.11966608 -0.02253229 -0.03202781 -0.008639482 0.030062359
-0.001298571 -0.021698853 0.03051733 -0.007182426 0.066764146 0.0028320653 -0.006911262 0.021750646
0.032866653 -0.007911491 0.041074183 -0.033610217 0.0038763105 -0.09212789 0.062001273 0.011224328
-0.014920189 0.24492323 0.03225509 0.018136732 -0.0040912386 -0.049872864 -0.08146592 0.018803414
0.027954973 -0.00531128 0.020422705 0.012942972 0.020726034 -0.015488048 0.022213656 0.073166035
0.020587204 0.0107152555 0.06354556 -0.009714941 0.0016710558 0.020093031 0.12535253 0.010331113
0.036591012 -0.023291634 0.18523297 -0.015448338 0.027627178 0.083369546 0.0014026548 -0.050566964
0.04263567 0.051488243 -0.026602391 0.007180129 0.005674981 0.009426131 0.0018408376 -0.047648545
0.014702002 0.012381675 0.017688446 0.022280008 -0.014667104 0.015409012 -0.13600501 0.08521248
-0.15812697 0.011948579 0.015285099 -0.018275226 0.009354443 -0.0135543775 0.027664043 -0.0163463
-0.04589253 0.002456363 -0.1732212 -0.0015727679 0.07139005 0.1511989 -0.028407328 0.0088699255
-0.0067007425 0.0054269 0.03710467 -0.019307982 0.16946036 -0.09969019 -0.029921267 -0.4647144
0.018013688 0.012429261 0.0077783125 -0.0012158618 0.0051550763 0.006796085 0.03774485 0.05136358
0.0032286139 0.025846118 -0.023373421 0.029018559 -0.0048616757 0.039718796 -0.0007810983 0.0066519114
-0.027555788 0.0052484055 0.009129591 0.00019051794 -0.0007658077 0.0024552257 -0.006323588 -0.017902477
0.0138147045 0.042238317 0.2790045 0.055966355 0.020262072 -0.041859847 -0.07913739 0.11339807
0.008346609 0.008488908 0.07490282 0.03609519 0.009778527 -0.053974602 2.1366295e-05 -0.016566446
0.0154542355 -0.03128748 -0.045214813 0.0413922 -0.007157882 0.00869116 0.005804246 -0.014564995
-0.0074763875 -0.21589333 -0.0049300436 -0.18093915 -0.008917077 0.00029329763 0.030696232 -0.10819847
-0.00033296098 -0.019043667 0.008724234 -0.005510975 0.016900886 0.018048558 -0.015787967 -0.0347628
0.052824605 -0.008569256 -0.0239964 -0.020655869 -0.002782021 0.024209162 -0.015998168 -0.031360835
0.0061311238 -0.075151384 0.005402875 0.08257274 -0.0029636153 0.09107297 0.021232126 -0.007789405
0.0077259867 0.009421098 0.04157736 0.009110379 0.028455602 -0.28255957 -0.032252204 0.022717139
0.0022441496 0.04342014 -0.08987108 -0.025194447 -0.034847066 0.028030774 0.018529274 0.035953317
0.013492124 0.019186497 -0.038690113 -0.13315573 -0.000850618 0.005604237 0.053250995 0.018055758
0.06464767 -0.022359215 0.022957975 -0.04046923 -0.011883362 -0.039822765 -0.004872895 0.016780382
00000000: e9d2 c8bb 9641 423d 61df 1dbb 2692 ac3d
00000010: 075d 2e3c 7352 34bc 4c9e 5abc 7501 adbc
00000020: 9b6d 133d 38d7 87bc 7676 80bc 281a e5bc
00000030: 9c98 7f3b 4da7 063d f4a0 df39 68d4 55be
00000040: 6831 a33c 8882 11bd c2c4 4f3c 9d17 893e
00000050: 6c85 8d3c 81ac f9bd e4c9 ec3c c4b4 c4bc
00000060: 8d31 32bb 779c da3b 154f a93e 4a41 4b3c
00000070: 337a 073d 5f13 64be 93db 35bc 2cc7 163d
00000080: bb77 b33c 665a 223d 0c84 6d3d 6f71 13bd
00000090: e936 bd3d 0493 133d 2fc8 4d3c 8fb6 5abc
000000a0: 7530 90bb 03d1 173c 086b 92bc 8a8c 8b3e
000000b0: 1eae 6bbc d414 993b 4b66 a03e a4be f53c
000000c0: b2ed 143d 076d f9bc fcef 933c 7d13 f5bd
000000d0: a395 b8bc 982f 03bd 9d8c 0dbc 5645 f63c
000000e0: d034 aaba cbc1 b1bc 7bff f93c 8e5a ebbb
000000f0: a4bb 883d 2c9a 393b de77 e2bb 692e b23c
00000100: 2f9f 063d 339f 01bc 673d 283d deaa 09bd
00000110: b309 7e3b 8cad bcbd 0cf5 7d3d 3ee6 373c
00000120: cf73 74bc 28cd 7a3e ea1d 043d 7c93 943c
00000130: cc0f 86bb 7d47 4cbd 9bd7 a6bd 9e09 9a3c
00000140: d401 e53c 3f0a aebb 844d a73c c20e 543c
00000150: a5c9 a93c 95c1 7dbc 6af9 b53c 13d8 953d
00000160: 7fa6 a83c 0a8f 2f3c 2d24 823d 6a2b 1fbc
00000170: 5407 db3a 249a a43c 6a5c 003e d443 293c
00000180: 75e0 153d 19ce bebc b6ad 3d3e 071b 7dbc
00000190: 6452 e23c a7bd aa3d 49d9 b73a 4e1f 4fbd
000001a0: bea2 2e3d 56e5 523d 42ed d9bc 4a47 eb3b
000001b0: 31f5 b93b 0f70 1a3c 4348 f13a 1f2b 43bd
000001c0: aae0 703c 82dc 4a3c 5ce7 903c 9084 b63c
000001d0: 4b4e 70bc 1576 7c3c e644 0bbe e183 ae3d
000001e0: 09ec 21be f9c3 433c 5a6e 7a3c edb5 95bc
000001f0: 6143 193c 2e13 5ebc b49f e23c ade8 85bc
00000200: cef9 3bbd effa 203b e660 31be 5525 ceba
00000210: f234 923d e2d3 1a3e 7cb6 e8bc 2a53 113c
00000220: e791 dbbb 23d4 b13b 11fb 173d c62b 9ebc
00000230: 0487 2d3e 5f2a ccbd 721d f5bc 0cef edbe
00000240: 7191 933c 19a4 4b3c 37e1 fe3b 8d5d 9fba
00000250: eaeb a83b b1b1 de3b 589a 1a3d 9e62 523d
00000260: 2797 533b 3dbb d33c 9e79 bfbc 54b8 ed3c
00000270: b14e 9fbb 2db0 223d 9fc2 4cba 47f8 d93b
00000280: adbc e1bc d1fa ab3b 4894 153c c5c5 4739
00000290: 7cc0 48ba dae7 203b 1a36 cfbb 37a8 92bc
000002a0: 1257 623c 1602 2d3d aed9 8e3e fa3c 653d
000002b0: a5fc a53c 3b75 2bbd c912 a2bd 3f3d e83d
000002c0: 37c0 083c 1015 0b3c a666 993d 8dd8 133d
000002d0: 1d36 203c 7914 5dbd c53b b337 5bb6 87bc
000002e0: c333 7d3c 4d27 00bd 2b33 39bd de8a 293d
000002f0: ab8c eabb 5e65 0e3c 8b31 be3b 04a2 6ebc
00000300: 7cfc f4bb 2413 5dbe 348c a1bb 1d48 39be
00000310: ef18 12bc bec5 9939 aa76 fb3c 2997 ddbd
00000320: 4491 aeb9 7701 9cbc 17f0 0e3c 6995 b4bb
00000330: ba73 8a3c 92da 933c c455 81bc 7063 0ebd
00000340: 9d5e 583d 1166 0cbc 1994 c4bc 7f36 a9bc
00000350: 9152 36bb 4b52 c63c 970e 83bc 3874 00bd
00000360: 98e7 c83b f8e8 99bd 9a0a b13b e61b a93d
00000370: 3739 42bb 7784 ba3d ffee ad3c 443e ffbb
00000380: 462a fd3b f35a 1a3c 064d 2a3d b343 153c
00000390: b91b e93c a6ab 90be e31a 04bd 4b19 ba3c
000003a0: 9512 133b 51d9 313d 540e b8bd 9664 cebc
000003b0: ccbb 0ebd cba0 e53c b4ca 973c c943 133d
000003c0: 120e 5d3c 002d 9d3c 8679 1ebd fa59 08be
000003d0: 02fc 5eba bfa3 b73b b71d 5a3d abe9 933c
000003e0: ff65 843d ac2a b7bc 5d12 bc3c 10c3 25bd
000003f0: 6fb2 42bc 321d 23bd ceac 9fbb 0377 893c

fc2a.bias f4 [4]
0.0630385 0.10749252 -0.10190378 0.16145106
00000000: 541a 813d 0a25 dc3d eeb2 d0bd 6d53 253e

fc2c.weight f4 [1, 200]
-5.2508818e-05 0.20502524 -0.00033606772 -0.013611008 0.009668817 0.01213729 0.009790331 -0.010946812
0.004070966 -0.015228081 -0.008698725 0.02987134 -0.0020116884 0.031220183 -0.010902045 -0.052734934
-0.10094729 0.18399198 0.13098413 -0.005070896 -0.009088238 -0.117961474 -0.0061018835 -0.011537145
0.011122157 -0.012640323 -0.039258204 -0.028611114 0.002369528 -0.043990593 0.008130456 0.012604726
-0.003751513 0.009372905 0.04474119 0.008654644 0.19082111 0.05383854 0.0009211765 -0.017992001
-0.0011363416 0.009960185 -0.010821739 0.09609979 0.0014478697 -0.010445159 0.055288073 -0.011873964
-0.02837804 -0.0009880292 0.008748765 -0.01657947 -0.028053228 -0.015094636 0.001119591 0.0010610187
-0.0016563975 -0.013035217 -0.014356152 0.06906805 0.08977945 -0.0038057277 -0.0121432 -0.006808882
-0.0045053107 -0.008463481 0.0033568693 0.0049166395 -0.19852208 0.10498521 -0.047773402 -0.021237178
-0.06931399 0.20652314 0.004243835 0.0040679118 0.0019825173 -0.012715233 0.11781818 -0.0010938927
-0.036945924 -0.0028982488 -0.1022719 0.007458475 -0.004176575 0.07784646 -0.014996105 -0.12681007
-0.011855843 -0.0068460754 -0.09560647 -0.014806827 0.007201504 -0.086775854 0.10093515 0.009242229
-0.0007466175 0.00963992 0.039254308 0.0055851643 -0.00014846951 -0.00059355446 -0.012464651 0.069001004
0.03876428 -0.30680496 0.0066908817 -0.0146381 0.0027842955 0.0485123 -0.009596311 -0.008650778
0.002884124 -0.0069209877 0.008055349 -0.05694824 -0.0004429457 0.0053845127 0.21210565 -0.24291293
0.041797653 -0.050924525 -0.005345265 -0.01890941 -0.007095228 -0.0044325013 -0.13402525 0.017321056
0.26774365 0.1557445 0.021262255 0.0044280216 0.038211126 -0.067532286 -0.034061737 -0.006379128
0.0045452816 -0.0057208743 0.03909548 0.013970228 -0.06134999 -0.09073185 -0.008139544 -0.03811869
0.009828114 -0.00030039143 -0.0074736024 0.008183585 -0.044466186 -0.011163891 -0.0035969086 0.00067946623
0.008720248 -0.0018629614 -0.014916407 0.007788991 0.0011731813 0.17065674 0.013088909 0.005209679
0.06792047 -0.005713081 0.09724804 -0.002674965 0.012498534 0.046873625 -0.0013473332 -0.05949401
-0.0004218465 -0.009379308 -0.056870382 -0.21489213 0.0057342243 -0.00871667 0.108755045 -0.4293532
0.004600925 -0.019249467 -0.026971187 -0.052772906 -0.20630333 -0.030755257 0.002607569 -0.0059011164
-0.012733007 -0.0048965006 0.0055353898 0.009927457 -0.08559476 -0.006936058 0.0058912057 -0.0040634754
0.02469457 0.15525755 -0.1484344 -0.075673096 0.009677118 -0.009571895 0.013055567 0.068856984
00000000: ea3c 5cb8 23f2 513e 3f32 b0b9 b500 5fbc
00000010: f569 1e3c 7cdb 463c a067 203c 425a 33bc
00000020: bd65 853b 337f 79bc 1985 0ebc beb4 f43c
00000030: 88d6 03bb 78c1 ff3c 7e9e 32bc 9600 58bd
00000040: 74bd cebd 6568 3c3e b420 063e c229 a6bb
00000050: d5e6 14bc c995 f1bd 4ff2 c7bb 4b06 3dbc
00000060: b539 363c 5b19 4fbc 36cd 20bd db61 eabc
00000070: 154a 1b3b 7b2f 34bd 9b35 053c 0d84 4e3c
00000080: f2db 75bb d090 193c 8a42 373d 35cc 0d3c
00000090: 9c66 433e cd85 5c3d 1c7b 713a f663 93bc
000000a0: 4cf1 94ba 0b30 233c aa4d 31bc f7cf c43d
000000b0: 72c6 bd3a 2c22 2bbc bf75 623d 048b 42bc
000000c0: 1079 e8bc c280 81ba fb56 0f3c abd1 87bc
000000d0: e2cf e5bc 7e4f 77bc 3dbf 923a e111 8b3a
000000e0: 7a1b d9ba aa91 55bc 1136 6bbc 8d73 8d3d
000000f0: 4ade b73d 8469 79bb 46f4 46bc 0b1d dfbb
00000100: 49a1 93bb 6aaa 0abc ecfe 5b3b c31b a13b
00000110: 5f49 4bbe 7c02 d73d 0bae 43bd 97f9 adbc
00000120: 7ef4 8dbd cd7a 533e de0f 8b3b 1e4c 853b
00000130: 1fed 013b 8d53 50bc a84a f13d f360 8fba
00000140: 9c54 17bd 8cf0 3dbb ee73 d1bd 3966 f43b
00000150: a7db 88bb f76d 9f3d 39b2 75bc 80da 01be
00000160: 023f 42bc 0b55 e0bb 53cd c3bd 5598 72bc
00000170: 98fa eb3b 8ab7 b1bd 17b7 ce3d b86c 173c
00000180: a7b8 43ba c1f0 1d3c 20c9 203d c103 b73b
00000190: 7bae 1bb9 c498 1bba 8938 4cbc 6650 8d3d
000001a0: 4bc7 1e3d 8a15 9dbe 2f3f db3b a4d4 6fbc
000001b0: ba78 363b d5b4 463d d839 1dbc febb 0dbc
000001c0: 9203 3d3b 74c9 e2bb 95fa 033c 8f42 69bd
000001d0: 2a3b e8b9 9170 b03b 3932 593e 2bbe 78be
000001e0: 0434 2b3d 3c96 50bd 5527 afbb e8e7 9abc
000001f0: 167f e8bb 843e 91bb ea3d 09be e3e4 8d3c
00000200: b215 893e 7c7b 1f3e 2e2e ae3c f018 913b
00000210: 4583 1c3d 5e4e 8abd 5284 0bbd 0108 d1bb
00000220: 96f0 943b 2c76 bbbb 9522 203d 62e3 643c
00000230: 214a 7bbd 9fd1 b9bd b95b 05bc 5822 1cbd
00000240: 1906 213c db7d 9db9 1fe5 f4bb 7114 063c
00000250: 2d22 36bd c1e8 36bc 1dba 6bbb 351e 323a
00000260: 5fdf 0e3c 9d2e f4ba f263 74bc cb3a ff3b
00000270: 6fc5 993a a4c0 2e3e dd72 563c f4b5 aa3b
00000280: e319 8b3d cc34 bbbb fb29 c73d 774e 2fbb
00000290: a7c6 4c3c 8ffe 3f3d 0099 b0ba feaf 73bd
000002a0: 472b ddb9 abab 19bc ebf0 68bd af0c 5cbe
000002b0: 29e6 bb3b 5dd0 0ebc f7ba de3d 2fd4 dbbe
000002c0: 5bc3 963b 0fb1 9dbc aef2 dcbc 6728 58bd
000002d0: 2e41 53be 73f2 fbbc c0e3 2a3b 275e c1bb
000002e0: 1a9e 50bc d372 a0bb 3762 b53b c6a6 223c
000002f0: 4e4c afbd df47 e3bb 040b c13b e726 85bb
00000300: 444c ca3c d6fb 1e3e 30ff 17be 7ffa 9abd
00000310: c68c 1e3c 70d3 1cbc 04e7 553c e404 8d3d
