whole_expt/only7_env/vae_best.pth (torch, 55227 bytes, 14 tensors)

conv_enc1.weight f4 [8, 3, 3, 3]
-0.3162568 -0.077193275 0.20427805 -0.26249948 0.05051992 -0.21198471 -0.10594954 0.1128004
0.08616952 -0.17215915 0.070112705 0.20571299 -0.30298564 0.17335859 -0.099349715 -0.14239211
0.07196384 0.090280816 -0.20370473 -0.036494914 0.054759044 -0.1334404 0.07535331 0.046427228
-0.135502 -0.044380665 -0.16380826 0.11653153 -0.25191873 0.015931861 0.12390888 0.17074347
0.08666881 -0.112865284 -0.18967003 0.01279141 0.0052731712 -0.16458184 -0.14608029 0.29147434
0.09565972 0.13934183 -0.16815883 -0.18111613 -0.2517516 -0.07847036 -0.21168116 0.1850153
0.213194 0.15327996 -0.10378022 -0.17688158 -0.0044173975 -0.13625792 0.1874795 -0.13263994
-0.10643387 0.21444154 0.06719682 0.18400832 0.22185013 0.16923307 -0.1676983 0.010589698
0.09295325 -0.074474 0.2427763 -0.15964787 -0.10944176 0.1188277 -0.1725086 0.1899213
0.15097877 0.17732586 0.15730616 0.2239274 -0.03342745 0.04737435 0.20265326 -0.1905053
0.19995576 -0.15399392 0.094006926 0.059859894 0.24114528 -0.016984588 -0.08560711 0.12357786
-0.15215522 0.10858395 0.11005528 0.16160181 -0.0075590513 0.08956564 -0.2826097 -0.21792732
0.21903253 0.17589742 -0.1325918 -0.028338034 -0.15379903 0.09871266 -0.10324962 0.2117651
0.17173252 0.1996172 0.15915163 -0.04267793 -0.0004103643 0.28196663 0.22996001 -0.023648
-0.07729537 0.013940845 0.06947831 0.05314386 -0.07929104 0.14976075 0.1755082 0.16716956
-0.16578352 -0.2744123 0.2230949 -0.09098324 -0.06377347 0.18355627 0.018952971 -0.018938309
0.05533747 -0.007591483 0.017775374 -0.111149855 -0.04468716 0.052077424 -0.063606806 -0.009507069
-0.41817024 -0.03673705 0.060875926 0.14869729 -0.0125329625 -0.23130263 -0.16018064 -0.20930855
0.030757312 -0.14138837 0.11230922 -0.056029007 0.07184419 0.11895505 -0.10487703 -0.16984618
-0.19515984 0.055421438 -0.04585381 -0.22299707 -0.08239301 0.19461349 0.004158352 0.009369317
0.081622586 0.11170351 -0.1614916 0.06886068 -0.16699049 0.1053939 -0.057085898 -0.10327134
-0.30735704 0.063646995 -0.2265627 -0.21047184 -0.18994556 -0.15472242 -0.024705796 -0.046868302
-0.055544242 -0.2424259 0.10651813 -0.15659381 -0.24152358 -0.10775826 -0.0699331 -0.0064457105
0.23855783 -0.07588357 -0.054444037 0.12802437 0.11527993 -0.13045174 -0.034769896 -0.042702544
-0.08551701 -0.022161145 0.18153185 -0.259123 -0.12542723 0.047160428 -0.058363803 0.016971098
0.11241413 -0.044496384 -0.12689659 0.08386752 -0.07623094 -0.06482284 0.19077742 0.022738485
0.060653184 -0.118393175 -0.13378885 -0.17458606 0.08629184 -0.07796386 -0.21371962 0.25000522
00000000: 69ec a1be 8217 9ebd 442e 513e 5566 86be
00000010: faed 4e3d 8512 59be 13fc d8bd e503 e73d
00000020: a579 b03d 7d4a 30be 4097 8f3d 6da6 523e
00000030: ef20 9bbe ea84 313e dd77 cbbd 3dcf 11be
00000040: c761 933d 26e5 b83d f997 50be b17b 15bd
00000050: 054b 603d 9aa4 08be d652 9a3d 7a2a 3e3d
00000060: 09c1 0abe 80c8 35bd 5abd 27be 15a8 ee3d
00000070: 7efb 80be 8983 823c f0c3 fd3d 60d7 2e3e
00000080: 6b7f b13d ea25 e7bd dc38 42be 1093 513c
00000090: 91ca ac3b 2488 28be 1296 15be 203c 953e
000000a0: 3ee9 c33d a0af 0e3e d431 2cbe 8276 39be
000000b0: 96e5 80be 11b5 a0bd f2c2 58be a774 3d3e
000000c0: 874f 5a3e 6cf5 1c3e b98a d4bd 7220 35be
000000d0: d1bf 90bb 3287 0bbe a0fa 3f3e c4d2 07be
000000e0: 00fa d9bd 9096 5b3e 7d9e 893d ad6c 3c3e
000000f0: ae2c 633e 6f4b 2d3e 1ab9 2bbe 6a80 2d3c
00000100: 465e be3d d385 98bd 5a9a 783e bb7a 23be
00000110: 0023 e0bd f05b f33d 18a6 30be bb7a 423e
00000120: 2e9a 1a3e e994 353e de14 213e 394d 653e
00000130: 39eb 08bd 9b0b 423d 5684 4f3e d213 43be
00000140: 34c1 4c3e 95b0 1dbe b486 c03d a62f 753d
00000150: caee 763e 4323 8bbc c852 afbd 6416 fd3d
00000160: 94ce 1bbe 4361 de3d aa64 e13d f27a 253e
00000170: ebb1 f7bb 316e b73d 38b2 90be 5728 5fbe
00000180: 104a 603e 741e 343e 25c6 07be 2a25 e8bc
00000190: 7e7d 1dbe dd29 ca3d 8974 d3bd f3d8 583e
000001a0: a6da 2f3e 7468 4c3e a5f8 223e 0ecf 2ebd
000001b0: 2a26 d7b9 ee5d 903e a37a 6b3e 73b9 c1bc
000001c0: 094d 9ebd 2468 643c a54a 8e3d 60ad 593d
000001d0: 5763 a2bd e25a 193e 6cb8 333e 7f2e 2b3e
000001e0: 28c3 29be c57f 8cbe fd72 643e 6c55 babd
000001f0: aa9b 82bd 2df6 3b3e 4343 9b3c 8324 9bbc
00000200: 8ba9 623d fac1 f8bb a99d 913c 89a2 e3bd
00000210: e209 37bd 234f 553d 4944 82bd 8ac3 1bbc
00000220: 691a d6be 9779 16bd 0959 793d 1a44 183e
00000230: 0e57 4dbc 99da 6cbe 6506 24be fb54 56be
00000240: c2f6 fb3c 1dc8 10be 6002 e63d ac7e 65bd
00000250: 0c23 933d b59e f33d c5c9 d6bd 28ec 2dbe
00000260: fbd7 47be 9701 633d 34d1 3bbd 5859 64be
00000270: abbd a8bd c248 473e c942 883b c481 193c
00000280: be29 a73d cfc4 e43d 0e5e 25be d406 8d3d
00000290: 8eff 2abe c2d8 d73d e7d2 69bd ed7f d3bd
000002a0: e75d 9dbe 5b59 823d 0d00 68be ee85 57be
000002b0: 1781 42be 8e6f 1ebe cf63 cabc faf8 3fbd
000002c0: 5c82 63bd 7f3e 78be 2d26 da3d 215a 20be
000002d0: f551 77be 5db0 dcbd 1639 8fbd 8a36 d3bb
000002e0: 8148 743e d868 9bbd b600 5fbd d218 033e
000002f0: e217 ec3d 2495 05be e16a 0ebd dde8 2ebd
00000300: 8b23 afbd 4a8b b5bc 7ce3 393e c5ab 84be
00000310: ff6f 00be 4b2b 413d e20e 6fbd f906 8b3c
00000320: 6139 e63d d741 36bd 2ef1 01be bcc2 ab3d
00000330: f81e 9cbd d6c1 84bd 285b 433e 0f46 ba3c
00000340: 796f 783d 1f78 f2bd f2ff 08be b0c6 32be
00000350: c7b9 b03d 84ab 9fbd 51d9 5abe af00 803e

conv_enc1.bias f4 [8]
-0.04112193 -0.02421838 -0.014188073 -0.108327545 -0.06125533 0.05703845 0.17378695 -0.11531375
00000000: 786f 28bd a065 c6bc 1775 68bc d5da ddbd
00000010: dee6 7abd 26a1 693d 35f5 313e 9e29 ecbd

conv_enc2.weight f4 [16, 8, 3, 3]
-0.11051716 0.14830966 -0.04193289 0.002037885 -0.10867313 -0.048691593 0.04431448 0.03594487
0.20001315 -0.041436177 -0.057700936 0.016220396 -0.084721625 -0.067238025 0.16364588 -0.12852404
0.053360242 -0.06595049 -0.058171112 -0.10469661 0.08259674 -0.044243544 -0.053993423 0.11522385
-0.15072136 -0.14663555 0.0038979133 -0.2005122 -0.14031444 0.16604331 -0.15816799 -0.14787903
0.15374622 -0.22602847 -0.10327932 0.035771135 -0.10521878 0.01135899 -0.008833463 -0.05134195
0.09352898 -0.015173893 0.07628396 0.11190236 0.2104292 -0.15781139 -0.061691813 -0.166567
0.052395742 0.021399984 0.12917952 -0.04655825 -0.03702922 -0.15815444 -0.019976864 0.06562959
-0.087273955 0.0201786 0.064721674 -0.07350322 -0.088211685 -0.233916 -0.1385727 0.036479194
0.16858952 0.09673025 0.18241936 0.1983274 -0.041364267 0.0012103678 0.079914026 0.028458169
-0.03734452 -0.018393032 0.14969334 -0.0681626 0.15658219 -0.023826178 -0.18131144 0.08740306
0.050623223 -0.12046111 0.0056968806 0.028191866 -0.011376688 0.013780172 0.0055147456 0.0046077073
-0.12372547 -0.019246845 0.03349845 0.10187304 0.022193106 0.09848159 0.074153066 -0.05282656
0.016993765 -0.13150628 -0.057519827 0.115804315 -0.0788397 0.01749863 -0.028773654 -0.04155408
-0.037399042 -0.05004099 -0.14516124 -0.071039945 -0.014578361 -0.09085541 0.013608205 -0.26059875
-0.1328998 -0.14950664 0.1010145 -0.015899342 -0.08896214 -0.01525504 -0.051218353 0.0077252965
0.10349501 0.04462802 -0.038421128 -0.07935943 0.08174543 -0.06255122 -0.1469636 -0.117276914
0.012843093 -0.06642096 -0.2222734 -0.13662907 0.010368616 -0.2566287 -0.023906896 0.04200064
0.08605743 -0.033886224 -0.027668605 0.1127805 -0.106665246 0.07321775 0.03557252 -0.04919184
0.19613642 -0.2360595 0.041380066 -0.017588792 -0.037216783 -0.059922352 -0.02314635 0.11550684
-0.13400444 -0.0013858412 -0.1400752 0.09189275 0.0035719613 -0.0058454946 -0.09475198 -0.00041088028
-0.11503112 -0.06896668 -0.23903354 -0.09563776 0.026821835 -0.093377255 0.07014144 0.1177876
0.15989508 0.021019215 0.1720279 -0.0059657064 0.008981226 -0.04586755 0.013512013 -0.05556382
0.101439655 0.17668255 0.085203916 0.10728087 -0.015609705 -0.06325504 -0.015954891 -0.15466341
0.027024629 0.056380544 0.08797351 -0.1524198 -0.1184109 -0.13460824 -0.18236592 0.07686756
-0.069063134 0.029118823 -0.15298337 -0.03769286 0.050164934 -0.21199733 0.010884494 -0.17805687
-0.029204018 -0.026212111 0.11492193 -0.016446313 -0.11750649 -0.08792354 -0.19123422 -0.022117708
-0.16377872 -0.02365943 0.03463091 -0.11751463 -0.16259216 0.13985884 -0.12482439 -0.032500077
0.16271771 0.0037734713 -0.27678758 0.018441623 -0.25801736 -0.0801848 0.10001093 0.14731637
-0.044381298 -0.0066319807 0.13336934 -0.16256538 0.011499295 -0.10722686 0.008554863 -0.08108688
-0.12271946 0.16693597 -0.2117749 -0.15205821 0.04039179 -0.007917288 0.038197707 0.092721395
-0.11403654 -0.015121149 0.15979633 -0.16683865 0.027026748 -0.02460753 0.065792695 -0.07096014
0.13858692 0.024841731 0.049938634 0.047318947 -0.16469091 0.08853511 -0.06471097 -0.08769267
00000000: d256 e2bd 7dde 173e d2c1 2bbd 098e 053b
00000010: 0590 debd d670 47bd 1a83 353d ee3a 133d
00000020: 3fd0 4c3e fbb8 29bd d157 6cbd a3e0 843c
00000030: 8882 adbd 17b4 89bd c992 273e ce9b 03be
00000040: 4590 5a3d 0d11 87bd d544 6ebd 2d6b d6bd
00000050: 7b28 a93d b838 35bd 3528 5dbd 7bfa eb3d
00000060: b356 1abe a127 16be 2274 7f3b 1253 4dbe
00000070: 97ae 0fbe 4207 2a3e caf6 21be 9a6d 17be
00000080: a66f 1d3e 0274 67be 1c84 d3bd c184 123d
00000090: f27c d7bd 0f1b 3a3c 3bba 10bc f04b 52bd
000000a0: 1f8c bf3d ec9b 78bc c43a 9c3d 112d e53d
000000b0: c17a 573e 4f99 21be 8eb0 7cbd 8a90 2abe
000000c0: eb9c 563d 054f af3c a347 043e ddb3 3ebd
000000d0: f4ab 17bd 3df3 21be 85a6 a3bc ce68 863d
000000e0: b0bc b2bd 974d a53c cc8c 843d db88 96bd
000000f0: 54a8 b4bd ad87 6fbe 00e6 0dbe 356b 153d
00000100: bba2 2c3e 821a c63d 24cc 3a3e 5716 4b3e
00000110: 946d 29bd 34a5 9e3a f7a9 a33d 1b21 e93c
00000120: 91f6 18bd fcac 96bc 3649 193e d598 8bbd
00000130: 1557 203e 1e2f c3bc b5a9 39be 6000 b33d
00000140: 4c5a 4f3d 50b4 f6bd e6ac ba3b a1f2 e63c
00000150: 4a65 3abc 3bc6 613c 0ab5 b43b 40fc 963b
00000160: c763 fdbd 8fab 9dbc ac35 093d d0a2 d03d
00000170: 51ce b53c b7b0 c93d 90dd 973d aa60 58bd
00000180: 8236 8b3c 95a9 06be e999 6bbd d02a ed3d
00000190: b576 a1bd 4959 8f3c bab6 ebbc 9c34 2abd
000001a0: bd2f 19bd c8f7 4cbd 26a5 14be 647d 91bd
000001b0: 14da 6ebc 6712 babd f3f4 5e3c 336d 85be
000001c0: e316 08be 4518 19be b1e0 ce3d 563f 82bc
000001d0: c831 b6bd 46f0 79bc 56ca 51bd 7c24 fd3b
000001e0: 31f5 d33d dfcb 363d 795f 1dbd 3287 a2bd
000001f0: 266a a73d db1a 80bd a07d 16be e12e f0bd
00000200: d66b 523c b607 88bd a39b 63be 7ee8 0bbe
00000210: 21e1 293c d664 83be 65d8 c3bc dd08 2c3d
00000220: e13e b03d 48cc 0abd 45a9 e2bc 76f9 e63d
00000230: 4f73 dabd 30f3 953d 7eb4 113d 627d 49bd
00000240: fcd7 483e 95b9 71be 257e 293d 5f16 90bc
00000250: a070 18bd 2471 75bd 6a9d bdbc da8e ec3d
00000260: 7638 09be 1da5 b5ba e06f 0fbe 4432 bc3d
00000270: 9117 6a3b 908b bfbb 530d c2bd 6b6b d7b9
00000280: 7095 ebbd 673e 8dbd 35c5 74be bbdd c3bd
00000290: 77b9 db3c 933c bfbd 51a6 8f3d a03a f13d
000002a0: 89bb 233e 7d30 ac3c 1528 303e f97b c3bb
000002b0: fe25 133c 9ddf 3bbd 7d61 5d3c e396 63bd
000002c0: 98bf cf3d 45ec 343e 647f ae3d 13b6 db3d
000002d0: d9bf 7fbc dc8b 81bd d5b3 82bc 1660 1ebe
000002e0: c162 dd3c 49ef 663d 752b b43d f013 1cbe
000002f0: 6a81 f2bd bed6 09be 22be 3abe bd6c 9d3d
00000300: f970 8dbd 998a ee3c aca7 1cbe d463 1abd
00000310: bf79 4d3d d415 59be e054 323c 8a54 36be
00000320: 443d efbc c8ba d6bc 305c eb3d 6bba 86bc
00000330: 3ea7 f0bd 4211 b4bd e7d2 43be 3230 b5bc
00000340: 9cb5 27be 6cd1 c1bc 24d9 0d3d 83ab f0bd
00000350: 8f7e 26be 2837 0f3e eea3 ffbd cd1e 05bd
00000360: 799f 263e 584c 773b 1ab7 8dbe e312 973c
00000370: da1a 84be ee37 a4bd 88d2 cc3d 1ada 163e
00000380: 2ac9 35bd 1651 d9bb f991 083e 8a77 26be
00000390: 8a67 3c3c c299 dbbd b229 0c3c e110 a6bd
000003a0: 5754 fbbd 43f1 2a3e 85db 58be 26b5 1bbe
000003b0: dd71 253d 83b7 01bc 3375 1c3d b7e4 bd3d
000003c0: fd8b e9bd b2be 77bc a6a1 233e c0d7 2abe
000003d0: 3367 dd3c bb95 c9bc 52be 863d 8d53 91bd
000003e0: bbe9 0d3e e380 cb3c 748c 4c3d 83d1 413d
000003f0: bca4 28be e551 b53d 2f87 84bd 3798 b3bd

conv_enc2.bias f4 [16]
0.06253237 -0.08300009 0.09077136 0.045455568 -0.03331653 0.06582679 -0.0855312 -0.052043255
-0.057516422 0.07357634 -0.07120215 0.10093907 -0.027421564 0.121390484 0.025514621 0.035355967
00000000: f910 803d f4fb a9bd 56e6 b93d 9e2f 3a3d
00000010: ea76 08bd 32d0 863d fb2a afbd 4f2b 55bd
00000020: 5796 6bbd 31af 963d 6fd2 91bd 25b9 ce3d
00000030: 30a3 e0bc 939b f83d 0a04 d13c 6bd1 103d

dense_encmean.weight f4 [8, 400]
-0.016487887 -0.024902834 0.12160841 0.25346264 0.41416672 0.09906948 -0.09454337 -0.013027381
0.058755007 0.011418738 0.01873485 -0.030665234 -0.044315282 -0.09987091 0.065503165 0.029270725
0.031338885 -0.05916083 -0.062620685 0.08363005 -0.27634972 -0.12482574 -0.046177745 0.32713872
0.37839335 0.015084407 -0.25854847 -0.16614036 0.060544983 0.10643561 -0.13874024 -0.24463333
0.0011825608 -0.01313981 -0.009246855 0.086497456 0.035137508 0.021858523 -0.054154355 0.026018206
0.07001596 -0.06270047 -0.03829431 -0.0106705995 0.009273835 -0.0026786688 -0.094779745 -0.022877082
0.004380396 0.017708374 0.035904583 -0.032833602 0.0915154 -0.030956386 0.10447479 -0.033419877
0.015235971 -0.030491166 -0.12331898 0.03096859 -0.004568944 0.05873151 -0.07695175 -0.08634251
-0.0381886 0.008168679 -0.043551426 -0.1442375 -0.058420274 0.121417075 0.07477012 -0.18018052
-0.28837574 -0.00934437 0.23801617 0.06535462 0.11147076 -0.00889753 -0.1129547 -0.07198997
0.02708899 -0.0131371 -0.021782527 -0.08661 0.0077071637 0.06483691 -0.020780621 0.0038611994
-0.11807983 0.09647471 -0.04435241 -0.010011507 -0.16819614 0.022034671 0.22396336 -0.08997834
-0.21089354 -0.26626143 0.10632692 0.32619613 0.02899203 0.042392008 -0.0034803962 -0.042496905
-0.007779407 -0.027310114 0.040257905 -0.022766382 0.021684067 -0.011213767 0.0013844818 0.026540397
-0.04795646 0.017450823 -0.038705412 0.03186886 0.026122281 0.05164351 0.01528979 -0.04058315
0.0020378693 -0.03791088 -0.030044846 0.04288812 0.047566112 0.060418922 0.31144667 0.02948683
-0.21384358 -0.07020829 0.10212209 0.14461803 -0.047838073 -0.0016256545 -0.092492305 0.113284014
0.13727908 0.22861795 -0.052332554 -0.10985431 0.015750293 -0.055134427 0.048030093 0.06858038
-0.021257866 -0.016508752 0.12720896 0.04202526 -0.031497706 -0.09219604 0.03551336 -0.23097268
-0.19701323 -0.2245085 0.1775153 -0.003967047 -0.24214394 0.08158593 0.014012893 -0.0003711025
0.08249413 -0.11176367 0.060173344 -0.08175966 0.03986478 -0.017918183 -0.03442469 0.006556555
-0.055995926 -0.005730205 0.05414481 -0.036686476 -0.040216424 0.037871957 0.075718455 0.0011628476
0.04249212 -0.041179404 0.09662107 0.41728967 -0.06665376 -0.062697105 -0.10380399 0.330874
0.19813354 0.07459718 0.02775888 -0.013912926 -0.124646045 0.06815601 0.033223666 -0.012029059
-0.008409858 -0.097960494 -0.015800761 -0.07455339 0.012594218 -0.03649435 -0.034629337 -0.009399749
0.004131658 -0.186626 0.044733297 0.16757356 0.2782966 -0.06279656 -0.15432358 -0.035328325
-0.112189285 0.032357074 0.082962885 -0.09171591 0.023608282 -0.10189865 0.010780571 -0.028345905
-0.070570685 0.05613702 -0.05087097 0.0036817277 0.009099784 -0.08970803 -0.037423212 0.114494525
0.23637165 -0.16802852 -0.27530405 -0.09723183 -0.14168438 0.1485873 -0.0030425922 -0.16225453
-0.018424358 -0.12160781 0.05979261 0.006378411 -0.08492564 0.025011905 -0.06392003 0.02167942
0.153128 -0.07940909 0.008774096 -0.16445452 -0.00966081 0.052065637 -0.029080307 -0.025074525
-0.22261818 0.026428847 -0.014949548 -0.076184295 0.15781733 0.038486987 0.21158557 0.012573346
00000000: 9b11 87bc 0701 ccbc d40d f93d dbc5 813e
00000010: a90d d43e f1e4 ca3d f49f c1bd cc70 55bc
00000020: 17a9 703d a915 3b3c d479 993c a835 fbbc
00000030: f183 35bd 1f89 ccbd 8626 863d 29c9 ef3c
00000040: 345d 003d a052 72bd 463f 80bd 3b46 ab3d
00000050: b67d 8dbe a3a4 ffbd e024 3dbd ba7e a73e
00000060: c6bc c13e 9724 773c 7760 84be b320 2abe
00000070: 04fe 773d eafa d93d ec11 0ebe 2981 7abe
00000080: 2800 9b3a 5c48 57bc 1f80 17bc 9425 b13d
00000090: 59ec 0f3d a510 b33c f5d0 5dbd 2224 d53c
000000a0: 8764 8f3d 1b69 80bd 7fda 1cbd bdd3 2ebc
000000b0: 49f1 173c 9b8c 2fbb e21b c2bd b868 bbbc
000000c0: 6d89 8f3b 2711 913c af10 133d 877c 06bd
000000d0: 6d6c bb3d 3f98 fdbc e1f6 d53d 48e3 08bd
000000e0: 4ba0 793c 9cc8 f9bc a98e fcbd d7b1 fd3c
000000f0: 15b7 95bb 7490 703d e198 9dbd 58d4 b0bd
00000100: a66b 1cbd ecd5 053c fb62 32bd ffb2 13be
00000110: 194a 6fbd 84a9 f83d 1421 993d 3e81 38be
00000120: fca5 93be 2119 19bc 83ba 733e a5d8 853d
00000130: c84a e43d f2c6 11bc cb54 e7bd 7a6f 93bd
00000140: bbe9 dd3c fe3c 57bc 4571 b2bc 9560 b1bd
00000150: 608c fc3b 37c9 843d 1f3c aabc 2d0c 7d3b
00000160: d7d3 f1bd 8894 c53d dfaa 35bd 4e07 24bc
00000170: 9c3b 2cbe 0e82 b43c a756 653e 9046 b8bd
00000180: 7af4 57be 6b53 88be eec1 d93d 2e03 a73e
00000190: b280 ed3c 3ea3 2d3d 5c17 64bb 3c11 2ebd
000001a0: 65ea febb 76b9 dfbc 79e5 243d 9080 babc
000001b0: c9a2 b13c f3b9 37bc 8077 b53a 3f6b d93c
000001c0: fe6d 44bd 07f5 8e3c 9189 1ebd ec88 023d
000001d0: 65fe d53c 2588 533d 0782 7a3c 843a 26bd
000001e0: c68d 053b 7048 1bbd 9c20 f6bc 74ab 2f3d
000001f0: afd4 423d d579 773d f075 9f3e 5d8e f13c
00000200: d0f9 5abe 5dc9 8fbd 6325 d13d c016 143e
00000210: dbf1 43bd ea13 d5ba 9b6c bdbd 7301 e83d
00000220: e392 0c3e d31a 6a3e a95a 56bd 4cfb e0bd
00000230: c206 813c a3d4 61bd 34bb 443d df73 8c3d
00000240: fa24 aebc 5d3d 87bc 1143 023e ae22 2c3d
00000250: bd03 01bd 47d1 bcbd 7576 113d 1a84 6cbe
00000260: d6bd 49be 8ee5 65be 92c6 353e 01fe 81bb
00000270: 95f4 77be 8616 a73d 5596 653c 8990 c2b9
00000280: aff2 a83d 5ae4 e4bd 5378 763d 9c71 a7bd
00000290: 4049 233d 27c9 92bc e700 0dbd 5fd8 d63b
000002a0: fc5b 65bd 72c4 bbbb f3c6 5d3d 8f44 16bd
000002b0: fab9 24bd a01f 1b3d 4712 9b3d b16a 983a
000002c0: 380c 2e3d bcab 28bd 44e1 c53d fea6 d53e
000002d0: c481 88bd 5767 80bd 3097 d4bd 5168 a93e
000002e0: 85e3 4a3e 68c6 983d 9766 e33c 0bf3 63bc
000002f0: 6d46 ffbd 6195 8b3d 8a15 083d 8815 45bc
00000300: 80c9 09bc 839f c8bd 9970 81bc 73af 98bd
00000310: fb57 4e3c 197b 15bd 7ed7 0dbd 6801 1abc
00000320: dc62 873b e31a 3fbe 433a 373d 6798 2b3e
00000330: e47c 8e3e 7c9b 80bd 0007 1ebe 6fb4 10bd
00000340: 7fc3 e5bd da88 043d 72e8 a93d 8dd5 bbbd
00000350: 2866 c13c 3db0 d0bd fea0 303c ac35 e8bc
00000360: 5d87 90bd efef 653d 145e 50bd 2449 713b
00000370: 4317 153c d8b8 b7bd 1549 19bd 1b7c ea3d
00000380: 690b 723e ab0f 2cbe a7f4 8cbe 7b21 c7bd
00000390: b615 11be 4527 183e 3a66 47bb 0d26 26be
000003a0: aeee 96bc 840d f9bd 19e9 743d fd01 d13b
000003b0: 7eed adbd c4e5 cc3c 81e8 82bd 0a99 b13c
000003c0: 96cd 1c3e 3ca1 a2bd 3ac1 0f3c c466 28be
000003d0: 6048 1ebc c742 553d d339 eebc 1769 cdbc
000003e0: 05f6 63be 4f81 d83c f3ee 74bc 8306 9cbd
000003f0: de9a 213e 88a4 1d3d e3a9 583e 6f00 4e3c

dense_encmean.bias f4 [8]
0.023363577 -0.040901378 -0.01352249 -0.023336416 0.013253757 0.060234774 0.05475583 0.035274174
00000000: f964 bf3c 3488 27bd 6f8d 5dbc 032c bfbc
00000010: 4926 593c bdb8 763d a647 603d a77b 103d

dense_encvar.weight f4 [8, 400]
0.06558972 -0.02389873 -0.0155043015 0.18480667 0.09727767 -0.023078747 -0.052547902 -0.018752733
0.122526035 0.07220228 0.0063533164 0.014277319 -0.009231014 0.085258886 0.06897185 0.039392304
0.0129890265 -0.009538728 0.077446446 0.008485656 -0.026368294 0.056620616 0.10788524 0.051158443
0.10988711 0.22139904 0.10921519 0.058967136 0.035946272 -0.01753063 0.051861677 0.05117233
0.036286976 0.014278576 -0.00020244434 0.117002614 0.1336854 -0.007668719 -0.015959844 0.15178297
0.13177806 0.06104787 0.007145326 0.0294756 0.057941854 0.11806756 0.17738107 -0.052069135
-0.059307784 -0.04797401 0.0108494535 -0.029320758 -0.011289746 -0.07413421 0.00079102983 0.06226047
-0.011859019 -0.050797574 -0.024567211 -0.053424995 0.07741719 0.03136066 -0.010741054 0.010783354
0.06729159 0.062446486 0.02593799 0.049682096 -0.036739577 0.026787274 0.06260651 0.007947815
0.053205103 -0.08555972 0.0075484063 0.004851726 0.008561894 -0.13381308 -0.078151815 -0.05449984
0.014762633 -0.008832019 -0.043187264 0.025502393 -0.06256762 0.014954707 0.04040713 -0.055054344
0.078279965 0.0526465 -0.026902448 -0.05951936 0.044250682 0.028515203 -0.016168967 -0.027083654
-0.04883095 -0.076073326 -0.0016549126 0.046648294 0.03670251 0.035185184 0.06717544 0.00015670825
0.018048095 -0.033877704 0.011252364 -0.03449252 -0.017636051 -0.01714821 0.024785759 0.011541671
0.011458729 -0.023702951 0.04976225 0.02141579 0.031897917 0.0052863574 0.011388802 0.02658276
-0.04018385 -0.05043581 0.013251966 0.051881265 -0.02151295 -0.07965704 -0.012018527 -0.0057355086
0.049112972 0.012212448 -0.015606051 0.14442392 -0.03920215 0.03972994 -0.028919384 -0.021741126
0.029050477 0.11880798 0.025885567 -0.0113328835 -0.029332975 0.0040270323 0.0076912614 0.013964845
-0.04110671 -0.019407049 -0.018632734 -0.05590093 0.0114926705 -0.0525395 0.2286055 0.18923584
0.044184774 0.013862694 0.034391064 0.008366872 0.08322431 0.14566697 0.106091335 0.12760259
0.019085692 0.10965222 0.054538157 0.021533988 0.07595947 0.10979016 0.042359587 -0.0034866394
-0.028315688 -0.028196594 0.10985162 -0.0018707237 0.034609377 0.09149344 0.082296945 0.091760665
0.10807463 0.027641032 0.15009129 0.07782246 0.09889063 0.019050483 0.0062921373 0.12130624
0.16878538 0.020075098 0.07459414 -0.038210828 0.10802779 0.08127005 0.10076082 0.059739806
0.029127583 0.06195362 0.055447735 0.06849282 0.036040984 0.036786366 0.0056814407 0.06402547
0.07355931 0.029883604 -0.06448981 0.14122671 0.07079007 0.04249088 0.01818843 -0.027183557
0.033763617 -0.010030977 0.005707519 0.058207195 -0.024535658 0.10665865 -0.0056774383 0.04507882
0.0126231 -0.06781276 -0.022005385 0.045403697 0.021467125 -0.025899434 0.009181068 0.02380446
0.06534054 0.0028681124 -0.0249673 -0.02777061 -0.077861905 -0.11346114 -0.02149051 -0.035560608
-0.0423036 -0.089386426 -0.10611964 -0.018841116 0.031009948 -0.08154286 -0.06257552 -0.054728497
0.051875114 -0.030386493 -0.03566427 -0.049880393 -0.09592697 0.10500236 -0.05124314 -0.030689284
-0.09594298 -0.12595733 0.079869874 -0.004346108 0.08053152 0.18961532 0.013425362 0.010727621
00000000: e753 863d 45c7 c3bc c105 7ebc f63d 3d3e
00000010: 8439 c73d a40f bdbc 783c 57bd 559f 99bc
00000020: eeee fa3d cade 933d 7b2f d03b 6beb 693c
00000030: ae3d 17bc 369c ae3d 1d41 8d3d d359 213d
00000040: edcf 543c 5348 1cbc 3e9c 9e3d 6c07 0b3c
00000050: 5202 d8bc 05eb 673d f0f2 dc3d 848b 513d
00000060: 7e0c e13d 6eb6 623e 37ac df3d 8687 713d
00000070: 663c 133d 659c 8fbc e96c 543d 149a 513d
00000080: a7a1 143d b0f0 693c 3d47 54b9 119f ef3d
00000090: d3e4 083e e149 fbbb 38be 82bc ff6c 1b3e
000000a0: d4f0 063e 550d 7a3d 5723 ea3b d076 f13c
000000b0: 7054 6d3d 68cd f13d 62a3 353e 7246 55bd
000000c0: b8ec 72bd 6580 44bd e8c1 313c 1632 f0bc
000000d0: a0f8 38bc add3 97bd 1d5d 4f3a d604 7f3d
000000e0: 554c 42bc 1e11 50bd 2d41 c9bc 2bd4 5abd
000000f0: e78c 9e3d 0974 003d 3ffb 2fbc aaac 303c
00000100: 2cd0 893d e3c7 7f3d e87b d43c 747f 4b3d
00000110: 3d7c 16bd fc70 db3c d837 803d 8d37 023c
00000120: 98ed 593d ef39 afbd 9f58 f73b 3afb 9e3b
00000130: 3047 0c3c 4c06 09be 0f0e a0bd 393b 5fbd
00000140: f8de 713c 2cb4 10bc 21e5 30bd 65ea d03c
00000150: 7423 80bd 9604 753c f281 253d aa80 61bd
00000160: 3f51 a03d dba3 573d 8662 dcbc 93ca 73bd
00000170: 3440 353d b798 e93c c874 84bc 8ade ddbc
00000180: f602 48bd 55cc 9bbd a7e9 d8ba 4812 3f3d
00000190: 5f55 163d 571e 103d 4793 893d 0d52 2439
000001a0: 99d9 933c 59c3 0abd d65b 383c 0748 0dbd
000001b0: 7b79 90bc 677a 8cbc 810b cb3c 4719 3d3c
000001c0: 65bd 3b3c b12c c2bc 80d3 4b3d 2b70 af3c
000001d0: 64a7 023d 2e39 ad3b 1998 3a3c 17c4 d93c
000001e0: d297 24bd c895 4ebd c61e 593c 7381 543d
000001f0: ed3b b0bc 3b23 a3bd 5be9 44bc eff0 bbbb
00000200: af2a 493d b816 483c 86b0 7fbc dde3 133e
00000210: 6f92 20bd ddbb 223d 58e8 ecbc 721a b2bc
00000220: 44fb ed3c 9951 f33d f80d d43c 8fad 39bc
00000230: b54b f0bc 32f5 833b fa06 fc3b cecc 643c
00000240: 825f 28bd 88fb 9ebc ada3 98bc 60f8 64bd
00000250: c14b 3c3c a933 57bd 8f17 6a3e 0ac7 413e
00000260: 18fb 343d 5a20 633c a5dd 0c3d 3415 093c
00000270: 8271 aa3d b929 153e 6a46 d93d 41aa 023e
00000280: 9959 9c3c 5891 e03d 6763 5f3d 0c68 b03c
00000290: a390 9b3d aad9 e03d 3f81 2d3d 1a80 64bb
000002a0: 4df6 e7bc 8bfc e6bc e3f9 e03d 1233 f5ba
000002b0: 90c2 0d3d ea60 bb3d 4d8b a83d 04ed bb3d
000002c0: 3b56 dd3d 726f e23c 88b1 193e 6261 9f3d
000002d0: 2c87 ca3d c20f 9c3c 462e ce3b 686f f83d
000002e0: 13d6 2c3e 8874 a43c d0c4 983d f582 1cbd
000002f0: ad3d dd3d e970 a63d b05b ce3d bab1 743d
00000300: f89c ee3c 14c3 7d3d 2a1d 633d f745 8c3d
00000310: b69f 133d 4dad 163d 612b ba3b c91f 833d
00000320: 43a6 963d 76ce f43c 3c13 84bd bc9d 103e
00000330: 62fa 903d eb0a 2e3d e7ff 943c 0db0 debc
00000340: b84b 0a3d f858 24bc 2406 bb3b ab6a 6e3d
00000350: 01ff c8bc da6f da3d ce09 babb 92a4 383d
00000360: 1ed1 4e3c 6be1 8abd a344 b4bc 3af9 393d
00000370: d3db af3c 0d2b d4bc 316c 163c 9201 c33c
00000380: 43d1 853d f1f6 3b3b 3988 ccbc 317f e3bc
00000390: 1076 9fbd 505e e8bd de0c b0bc 00a8 11bd
000003a0: 8a46 2dbd 3b10 b7bd 4155 d9bd af58 9abc
000003b0: 9308 fe3c f1ff a6bd 9827 80bd fd2a 60bd
000003c0: 007b 543d 18ed f8bc b314 12bd 624f 4cbd
000003d0: 5c75 c4bd 7a0b d73d 54e4 51bd 1868 fbbc
000003e0: c17d c4bd f5fa 00be d192 a33d cc69 8ebb
000003f0: b6ed a43d 852a 423e 0df6 5b3c e7c2 2f3c

dense_encvar.bias f4 [8]
-0.12892704 0.019347088 0.07885899 -0.06470994 -0.15282361 -0.10952352 0.055483617 -0.13125427
00000000: 7305 04be c97d 9e3c d280 a13d a586 84bd
00000010: cb7d 1cbe de4d e0bd ca42 633d 8567 06be

dense_dec.weight f4 [400, 8]
0.12745424 0.002569937 0.0058861817 0.01130551 -0.2602056 -0.7820827 0.00654963 0.20342149
0.12614296 0.0046552173 0.021358795 0.026537133 -0.33128193 -0.70243 -0.0046956907 0.4525778
-0.31868458 0.007941712 -0.0016335413 -0.001448814 -0.07978336 0.65121764 -0.0018627979 0.21011917
-0.33966222 0.0016134738 -0.0049596108 -0.010485641 -0.7609735 0.28782994 -0.004568427 -0.0005790615
-0.51043713 0.0003836321 8.3952895e-05 0.034182925 0.974077 0.62562644 0.0036643962 -0.107701905
0.1591774 0.0013065716 -0.005755973 -0.13338795 -0.10084561 0.0624931 0.012970578 -0.5096443
0.463268 -0.014617078 -0.002638393 -0.13406952 -0.20073007 0.25130352 -0.019693036 -0.7841247
0.15108112 0.00090425496 0.0058057397 -0.048700184 -0.45502886 -0.5097837 -0.0058752536 -0.49123082
0.38133016 -0.00735771 0.008480307 0.019417774 -0.21918419 0.5153855 -0.0013173243 -0.045848034
0.5790951 -0.003709058 0.010221708 -0.012886852 -0.7529633 0.34416664 0.0055444688 -0.14562814
0.5130597 0.0100687295 -0.0023301805 -0.031858824 0.083384275 0.03281241 -0.0028131842 0.22410728
0.18483001 0.019762656 0.0007948192 0.28139913 0.18322651 -0.3032336 -0.0066516832 -0.16038923
-0.03559031 0.003270749 -0.0067914743 -0.047571167 0.0002916424 0.16892952 0.0017836894 -0.2504284
0.08560708 0.035081025 0.009069867 -0.23923612 -0.75182235 0.344537 -0.01567029 0.07904219
-0.4142652 0.003297393 0.006568121 -0.058794208 0.30735543 -0.109576374 -0.002134995 -0.02326027
1.2004073 0.0070552835 -0.009708463 0.19329247 -0.48265618 -0.3506394 0.007433251 -0.14149705
1.1206644 -0.0020844485 0.0023374974 0.06863962 -0.24599431 -0.1539438 -0.006456266 -0.33751756
-0.18156399 0.008321345 -0.00053201447 -0.16588108 -1.1216925 -0.13148622 -0.0030035716 -0.36690316
0.35584766 0.006348862 0.0012134592 0.033680394 -0.17352454 -0.2858886 0.008677347 -0.30155373
-1.0005196 -0.009386893 -0.0012078002 -0.042913135 0.7275173 0.13880038 -0.0010203249 0.001007755
0.22622007 0.006253678 0.014818617 0.12022541 0.22870749 1.4126287 -0.008610029 0.6941044
-0.8549678 -0.010761323 0.01248629 0.13581547 -0.109499626 0.89498174 -0.009742916 -0.5542537
-0.09504958 -0.0031395734 -0.0143011855 0.21952908 -0.41755736 -0.18200493 0.0024482016 -0.7072688
-0.47225267 0.0081985835 -0.0022112601 -0.23319879 -0.32834798 -0.008345873 0.0027478551 -0.26139653
-0.35394242 -0.009946839 -0.001149866 -0.13830213 0.2842502 0.7898016 0.00096403423 0.199245
0.081962384 -0.007833843 -0.009273722 -0.47950193 0.4896207 -0.43095967 0.010477249 -0.58305246
-0.07150103 -0.00051374186 0.0070218444 -0.013571973 -0.20899783 -0.07807637 0.0003499565 -0.076755345
0.75814515 -0.01298173 0.011590381 0.037638076 0.3054749 -0.021252327 0.014888791 0.026445016
-0.12537223 0.00052267866 -0.01287471 0.040126387 0.74491465 0.083907835 -0.0040973276 -0.29305953
-0.46323773 0.009519319 0.007937424 -0.042582415 -0.19778633 -0.48461795 -8.748635e-05 -0.18612619
-0.22586219 0.003198349 0.013354216 0.0077043544 1.2705389 -0.12068726 0.0034475715 0.31317398
0.92546695 0.00020279258 -0.019301374 0.20365493 0.18759076 0.6824715 0.0076677515 -0.07023451
00000000: 5d83 023e 636c 283b dfe0 c03b bf3a 393c
00000010: ab39 85be 9236 48bf 479e d63b b94d 503e
00000020: 9f2b 013e cb8a 983b a4f8 ae3c 6764 d93c
00000030: c99d a9be 74d2 33bf 4fde 99bb 47b8 e73e
00000040: a02a a3be f41d 023c 8d1c d6ba 21e6 bdba
00000050: 7565 a3bd 33b6 263f 2029 f4ba 7b29 573e
00000060: 35e8 adbe 327b d33a 3b84 a2bb f7cb 2bbc
00000070: 29cf 42bf 725e 933e beb2 95bb 29cc 17ba
00000080: 02ac 02bf 3b22 c939 de0f b038 6503 0c3d
00000090: 1c5d 793f 0e29 203f 5e26 703b d192 dcbd
000000a0: 66ff 223e 4541 ab3a 9a9c bcbb da96 08be
000000b0: 2588 cebd c4f8 7f3d 8c82 543c 0d78 02bf
000000c0: 7731 ed3e 787c 6fbc e4e8 2cbb 8549 09be
000000d0: 2f8c 4dbe dbaa 803e 4a53 a1bc 65bc 48bf
000000e0: 02b5 1a3e 860b 6d3a 133e be3b d879 47bd
000000f0: 8bf9 e8be 2f81 02bf 3385 c0bb 9b82 fbbe
00000100: b53d c33e f218 f1bb fcf0 0a3c 0612 9f3c
00000110: d271 60be 4ef0 033f 12aa acba 26cb 3bbd
00000120: 943f 143f ab13 73bb f378 273c 6023 53bc
00000130: 34c2 40bf 9c36 b03e 60ae b53b 8b1f 15be
00000140: e157 033f 50f7 243c f1b5 18bb 667e 02bd
00000150: 60c5 aa3d 4e66 063d 665d 38bb 617c 653e
00000160: 1444 3d3e 4be5 a13c 6a5b 503a 8c13 903e
00000170: bb9f 3b3e 6f41 9bbe 5df6 d9bb 133d 24be
00000180: 25c7 11bd 105a 563b 048b debb fcd9 42bd
00000190: 95e7 9839 dcfb 2c3e afca e93a 2738 80be
000001a0: c452 af3d 1fb1 0f3d c899 143c 50fa 74be
000001b0: 6e77 40bf 2767 b03e fb5e 80bc dfe0 a13d
000001c0: 911a d4be 1319 583b 6439 d73b 32d2 70bd
000001d0: b15d 9d3e 9469 e0bd 46eb 0bbb 528c bebc
000001e0: f2a6 993f 0230 e73b 3f10 1fbc 76ee 453e
000001f0: b61e f7be 0287 b3be a192 f33b 9ae4 10be
00000200: ee71 8f3f 3e9b 08bb b330 193b ee92 8c3d
00000210: efe5 7bbe 72a3 1dbe 168f d3bb 1acf acbe
00000220: e9eb 39be 4056 083c e376 0bba bbdc 29be
00000230: 9f93 8fbf 53a4 06be 92d7 44bb bbda bbbe
00000240: aa31 b63e 1d0a d03b ef0c 9f3a 74f4 093d
00000250: 6bb0 31be fe5f 92be 6e2b 0e3c 4065 9abe
00000260: 0711 80bf 7ccb 19bc 0d4f 9eba afc5 2fbd
00000270: 933e 3a3f b021 0e3e 6cbc 85ba a616 843a
00000280: 3ca6 673e a7eb cc3b c9c9 723c bd38 f63d
00000290: 4c32 6a3e 04d1 b43f 1411 0dbc d3b0 313f
000002a0: 2bdf 5abf 4350 30bc 4c93 4c3c 3613 0b3e
000002b0: 5741 e0bd 861d 653f c0a0 1fbc 92e3 0dbf
000002c0: 5ba9 c2bd 4dc1 4dbb 854f 6abc 3bcc 603e
000002d0: 14ca d5be 805f 3abe 0272 203b 910f 35bf
000002e0: 1acb f1be 5a53 063c caea 10bb aacb 6ebe
000002f0: 3a1d a8be 21bd 08bc 5c15 343b c4d5 85be
00000300: f137 b5be 11f8 22bc 1ab7 96ba 139f 0dbe
00000310: 3e89 913e 7030 4a3f 3eb7 7c3a e206 4c3e
00000320: e5db a73d 8559 00bc cff0 17bc 4781 f5be
00000330: 90af fa3e bfa6 dcbe c4a8 2b3c ed42 15bf
00000340: 226f 92bd a2ac 06ba 8017 e63b fb5c 5ebc
00000350: 8703 56be 81e6 9fbd 5e7a b739 e831 9dbd
00000360: cd15 423f 52b1 54bc 95e5 3d3c 622a 1a3d
00000370: 3567 9c3e 5c19 aebc 1ef0 733c 38a3 d83c
00000380: 9461 00be 5f04 093a 73f0 52bc 915b 243d
00000390: bab2 3e3f dfd7 ab3d e042 86bb e60b 96be
000003a0: 7f2d edbe ebf6 1b3c f80b 023c e66a 2ebd
000003b0: 8088 4abe d81f f8be e078 b7b8 dd97 3ebe
000003c0: 6b48 67be 649b 513b a4cb 5a3c cf74 fc3b
000003d0: 05a1 a23f e22a f7bd a7f0 613b 5758 a03e
000003e0: 67eb 6c3f b8a4 5439 ea1d 9ebc eb8a 503e
000003f0: cb17 403e 74b6 2e3f c341 fb3b 1cd7 8fbd

dense_dec.bias f4 [400]
0.2089558 0.11640588 -0.8575652 -0.023523591 0.16427283 0.1173607 0.41390848 0.107118964
-0.47739023 -0.21169396 0.15780641 0.017571192 -0.051947013 -0.42146417 -0.2243185 -0.115258515
0.07078483 -0.16845843 0.5120411 -0.5945736 0.18402615 -0.38161272 0.6387 0.43117452
0.9320574 0.5538168 0.0067620026 -0.6726834 -0.16351935 0.85312724 -0.40711465 -0.828021
-0.15652551 -0.1696298 0.08766975 -0.8231942 -0.071850516 0.12213921 -0.37329325 0.25536433
-0.41361332 -0.61045694 -0.68614274 -0.18844812 0.67642796 0.13559496 -0.48763952 -0.5978285
-0.7101115 0.6681182 -0.25805455 -0.12145504 0.0414837 0.22600213 -0.2411051 -0.035397768
-0.15459932 -0.7016125 0.29064536 0.14918067 0.23740919 -0.44791657 0.18394536 0.35000706
-0.3894721 -0.1500255 -0.28166637 -0.17033683 -0.030564407 -0.20680454 0.5605292 -0.39006352
0.38059112 -0.020280506 0.30392668 1.2493317 0.11412019 0.48951122 -0.056384414 0.1982062
0.3757039 0.09900199 0.43812478 0.30436713 -0.27070516 0.43420964 0.40061802 -0.07782936
-0.020984909 -0.24820744 0.2335715 0.14703915 0.13279319 0.13946843 -0.28716525 0.07582947
0.09283564 -0.17698741 -0.0018881982 0.049906656 -0.5313617 -0.12913582 -0.3092232 0.6727871
0.8362834 -0.101347394 0.5474074 0.26216823 0.44280076 0.6227369 -0.3350345 -0.655261
-0.22333176 -0.3831717 -0.62287635 0.2818425 -0.34430188 -0.13430665 1.1357946 0.21027614
-0.023039717 0.3456831 -0.02320736 0.78390956 0.417528 -0.48187053 -0.59972996 0.07770085
-0.16639894 -0.405693 0.2975679 -0.47772762 -0.64544916 -0.20852615 -0.20438208 0.25747162
-0.7663751 -0.8908918 -0.051106296 -0.060979117 0.22414137 0.13302508 -0.29903963 -0.029468114
0.18126942 0.45195034 -0.26787278 0.3273302 -0.3438373 0.769408 0.0131406365 -0.6964163
0.13152942 0.11125861 -0.31415132 -0.45016152 -0.85272866 -0.37649864 0.50634557 -0.09847427
-0.3728592 0.14100426 -0.31036702 0.025836492 -0.6213862 0.5176445 0.39172816 0.15455565
-0.23677264 -0.14528194 0.5402071 0.46942607 0.50164706 -0.45716497 0.5901158 0.38544676
0.37363246 0.23853754 0.121311925 0.6249645 -0.61160845 0.35927013 -0.14773563 -1.1447146
-0.08237703 -0.5906703 0.19666325 -0.6567631 -0.22185865 -0.121392414 -0.016684435 0.6274965
-0.053466544 -0.10478794 0.26893547 0.06876122 0.06324684 -0.32707086 0.34344748 -0.6411878
0.4722209 -0.3163034 -0.04253736 0.5674092 0.8548165 -0.2726672 0.24360634 -0.4247434
0.2096898 0.27581546 0.17681941 -0.1855975 -0.40921363 0.7660071 -0.44934604 0.14519866
-0.05139005 0.39724502 -0.56122416 -0.23109059 -0.7413832 -0.6154056 -0.14294766 0.38321653
-0.6048155 0.74697924 0.23759063 0.35120627 0.21945563 -0.37383547 0.5525081 0.18432929
0.34651747 0.09376036 -0.4063023 0.56369907 0.27239868 -0.016773563 0.0907737 -0.34204617
1.2085408 0.24477057 0.607661 0.13158491 -0.033241164 1.6716547 0.11593235 0.25692114
-0.05113229 -0.39074376 0.61105806 0.35161743 0.38526914 0.11114481 -0.32538244 0.2624491
00000000: 82f8 553e 3566 ee3d 6589 5bbf 8cb4 c0bc
00000010: 2337 283e cf5a f03d d0eb d33e 3061 db3d
00000020: 7e6c f4be 4dc6 58be 0198 213e 76f1 8f3c
00000030: 64c6 54bd 27ca d7be c0b3 65be a80c ecbd
00000040: a3f7 903d 5e80 2cbe 2015 033f fa35 18bf
00000050: 5a71 3c3e be62 c3be d881 233f e8c2 dc3e
00000060: 509b 6e3f f0c6 0d3f ca93 dd3b fb34 2cbf
00000070: 9e71 27be 8c66 5a3f 5571 d0be 2ff9 53bf
00000080: 3948 20be 6fb3 2dbe 338c b33d dbbc 52bf
00000090: 5d26 93bd 1f24 fa3d 4b20 bfbe 1dbf 823e
000000a0: 20c5 d3be e846 1cbf 0da7 2fbf 8bf8 40be
000000b0: 622a 2d3f 68d9 0a3e e3ab f9be 4a0b 19bf
000000c0: dec9 35bf cb09 2b3f ba1f 84be 6cbd f8bd
000000d0: d0ea 293d 1a6d 673e 41e4 76be 40fd 10bd
000000e0: 494f 1ebe e09c 33bf 78cf 943e d1c2 183e
000000f0: 651b 733e 5255 e5be 2c5c 3c3e 2034 b33e
00000100: e368 c7be 49a0 19be 9336 90be c76c 2ebe
00000110: 3562 fabc 92c4 53be d77e 0f3f 68b6 c7be
00000120: d7dc c23e 4e23 a6bc 479c 9b3e 1aea 9f3f
00000130: d9b7 e93d 37a1 fa3e 58f3 66bd 91f6 4a3e
00000140: 435c c03e 8ec1 ca3d e451 e03e 02d6 9b3e
00000150: de99 8abe ba50 de3e ce1d cd3e 0065 9fbd
00000160: 8be8 abbc 172a 7ebe 5e2d 6f3e 6e91 163e
00000170: f0fa 073e d0d0 0e3e 5307 93be 7b4c 9b3d
00000180: 9d20 be3d 303c 35be 6b7d f7ba ec6a 4c3d
00000190: 5207 08bf 2e3c 04be 8152 9ebe c63b 2c3f
000001a0: ab16 563f 398f cfbd e422 0c3f ea3a 863e
000001b0: c8b6 e23e af6b 1f3f a489 abbe 2fbf 27bf
000001c0: 15b1 64be 152f c4be d374 1fbf a94d 903e
000001d0: 5648 b0be af87 09be b861 913f a152 573e
000001e0: cabd bcbc 60fd b03e 5d1d bebc 4cae 483f
000001f0: 3bc6 d53e bcb7 f6be e787 19bf a021 9f3d
00000200: 7c64 2abe feb6 cfbe d25a 983e b798 f4be
00000210: 283c 25bf e187 55be 8949 51be 52d3 833e
00000220: 2931 44bf 7c11 64bf d654 51bd 3dc5 79bd
00000230: 5185 653e ba37 083e b91b 99be 1d67 f1bc
00000240: b19e 393e 0966 e73e 9f26 89be d397 a73e
00000250: 710b b0be ecf7 443f d34b 573c 5748 32bf
00000260: a6af 063e 8edb e33d 71d8 a0be 927b e6be
00000270: 6d4c 5abf 6ec4 c0be dd9f 013f e1ac c9bd
00000280: 67e7 bebe 6c63 103e 6de8 9ebe 0da7 d33c
00000290: 2a13 1fbf 5a84 043f 9890 c83e d643 1e3e
000002a0: 8774 72be cac4 14be 034b 0a3f 9d58 f03e
000002b0: f16b 003f 8711 eabe d411 173f 4759 c53e
000002c0: c14c bf3e 2f43 743e 6372 f83d acfd 1f3f
000002d0: 5f92 1cbf 41f2 b73e 0248 17be 0286 92bf
000002e0: 4ab5 a8bd 2b36 17bf 1762 493e a021 28bf
000002f0: ea2e 63be 969c f8bd ccad 88bc 9ca3 203f
00000300: bcff 5abd 0f9b d6bd e9b1 893e afd2 8c3d
00000310: 8f87 813d d575 a7be 59d8 af3e e224 24bf
00000320: f0c6 f13e 85f2 a1be a83b 2ebd bb41 113f
00000330: 41d5 5a3f 099b 8bbe f173 793e f877 d9be
00000340: ecb8 563e af37 8d3e 2610 353e 450d 3ebe
00000350: 7384 d1be 0b19 443f af10 e6be f5ae 143e
00000360: 607e 52bd b363 cb3e 63ac 0fbf 03a3 6cbe
00000370: 4acb 3dbf 398b 1dbf df60 12be f534 c43e
00000380: 30d5 1abf 083a 3f3f f54a 733e 4fd1 b33e
00000390: fab8 603e 5d67 bfbe 2c71 0d3f d1c0 3c3e
000003a0: bd6a b13e 6e05 c03d db06 d0be 954e 103f
000003b0: d777 8b3e b668 89bc 90e7 b93d ad20 afbe
000003c0: 77b1 9a3f 23a5 7a3e ac8f 1b3f 32be 063e
000003d0: e327 08bd c8f8 d53f f16d ed3d 2b8b 833e
000003e0: 1870 51bd 910f c8be 4d6e 1c3f 3307 b43e
000003f0: ff41 c53e e49f e33d 8798 a6be ba5f 863e

conv_dec1.weight f4 [16, 8, 3, 3]
0.07614162 -0.10068152 0.4585201 -0.51391226 0.78660154 -1.1947395 -0.23338392 0.17132625
-0.65462434 -0.45556638 -0.40220243 0.26528805 0.50762665 -0.37793055 -0.16635905 0.17784052
-0.14374906 0.13107072 0.06993133 -0.5375872 1.1030349 -0.8656388 -0.2612629 -0.10698191
0.4799896 -0.085104756 0.98077786 -0.310001 -0.1502958 0.37939042 0.011681892 0.024214743
0.2534477 0.3772843 0.23981743 0.0433255 -0.35865495 -0.52277625 0.055048667 -0.29641852
-0.58051103 -0.030069146 0.25390196 0.058955323 0.017879026 0.4175263 0.18390372 -0.0854002
0.054923292 -0.6910977 0.07316527 0.36590087 0.30527833 -0.31665137 -0.1571237 -0.18825184
0.29659358 0.33809435 -0.39649907 0.25807735 -0.375007 -0.5228953 0.120227925 -0.43514013
-0.2807472 -0.5605328 0.06298256 -0.245155 0.24814552 0.005142449 -0.073120214 0.12849973
0.06052423 -0.42826137 -0.21380472 0.28625613 -0.19109206 -1.3942775 0.11387399 0.10436276
-0.37656683 0.4299591 0.8078065 0.64073825 0.25680572 0.1767373 -0.2603403 0.23791018
0.22841562 -0.2129366 0.038652204 0.018820664 0.49310127 -0.53871006 0.18505877 0.31222096
0.8271165 0.9045805 0.89712185 -0.10093228 0.86320627 0.18875276 0.6076044 0.41279444
-0.5376158 1.2322127 0.8253735 0.15432511 0.41229817 1.0178232 0.9267486 0.54059154
0.71848613 0.03026401 0.82325464 0.67805725 0.38261753 -0.00873997 -0.30488825 -0.045360927
0.16203308 -0.08784925 0.100666344 -0.22789624 -0.313884 -0.34227827 -0.38023147 0.123523906
0.14420788 0.20903255 0.081601754 -0.003550553 -0.30919775 -0.44054133 0.028592087 0.2556267
0.81447387 0.2961496 0.49121577 0.52724516 -0.24066253 0.7497655 0.30940577 0.42642078
-0.012247155 0.1395013 0.10166354 -0.010183572 -0.3464515 -0.14576195 -0.19888914 -0.14958516
-0.11740692 -0.5909988 -0.24489439 -0.05963465 -0.3569903 -0.2125117 -0.30020198 -0.62971216
-0.016858472 -0.5977809 -0.40854663 -0.4928079 -0.15524486 0.3191907 -0.1578979 -0.2414185
0.047054414 0.71473265 0.049610388 -0.66327685 -0.13704012 0.05586331 -0.25810695 -0.18994413
0.5018923 0.9155496 0.94430983 0.3151594 -0.51887065 -0.17371011 -0.3813645 -0.30891457
-0.3313791 -0.38658452 -0.05279362 0.17794561 -0.17774089 0.036028694 -0.10851086 0.14512163
-0.0419612 -0.9639303 -0.20823358 -0.6835834 -0.83457917 -0.38994572 -0.3780354 -0.22191367
-0.099368185 -0.9345965 0.44187692 -0.00813422 0.112008035 -1.1560154 -0.05641165 -0.25716078
-0.18066494 -0.27538064 -0.15659133 -0.19940941 -0.27086437 1.0405573 0.33964038 0.31773648
-0.102956876 -0.06393764 -0.1919971 0.4712251 -0.08650073 -0.27371097 0.061266355 -0.06504928
-0.770278 0.05919978 -0.24073343 -0.32197538 0.025777666 -0.3195201 -0.29075044 -0.46598166
-0.27183062 -0.47578532 -1.2846396 -0.5338425 0.3151776 -0.18694231 -0.40031683 -0.004875306
-0.21764292 0.009632134 0.17821208 -0.23227464 -0.05957907 -0.37323308 -0.20168757 -0.17272495
-0.29175064 -0.26437724 -0.38415888 -0.17928016 0.38305914 0.19966775 0.1720916 0.29714155
00000000: 23f0 9b3d 1d32 cebd 26c3 ea3e c18f 03bf
00000010: b85e 493f 39ed 98bf 32fc 6ebe 2670 2f3e
00000020: 7695 27bf ff3f e9be 7aed cdbe d6d3 873e
00000030: d2f3 013f 1d80 c1be 075a 2abe d31b 363e
00000040: f432 13be 6737 063e 2838 8f3d 519f 09bf
00000050: 3f30 8d3f 819a 5dbf 40c4 85be 5519 dbbd
00000060: 32c1 f53e 674b aebd 4214 7b3f 73b8 9ebe
00000070: 24e7 19be 763f c23e 6865 3f3c ff5d c63c
00000080: e6c3 813e 682b c13e b392 753e 1476 313d
00000090: 9fa1 b7be aad4 05bf b67a 613d 2bc4 97be
000000a0: 5f9c 14bf 9253 f6bc 70ff 813e 237b 713d
000000b0: 0977 923c 02c6 d53e 4251 3c3e 4de6 aebd
000000c0: 3ff7 603d c7eb 30bf acd7 953d 5c57 bb3e
000000d0: 714d 9c3e 2120 a2be 09e5 20be 17c5 40be
000000e0: 1ddb 973e b41a ad3e ed01 cbbe b722 843e
000000f0: eb00 c0be 77dc 05bf 0f3a f63d b0ca debe
00000100: 19be 8fbe 147f 0fbf 00fd 803d ea09 7bbe
00000110: dc19 7e3e fd81 a83b 0dc0 95bd 6f95 033e
00000120: 41e8 773d 1345 dbbe a0ef 5abe 2a90 923e
00000130: a3ad 43be af77 b2bf c436 e93d 25bc d53d
00000140: 5ecd c0be 9923 dc3e 68cc 4e3f 6c07 243f
00000150: 0a7c 833e 9ffa 343e 534b 85be ba9e 733e
00000160: c9e5 693e 0d0c 5abe c651 1e3d cb2d 9a3c
00000170: c577 fc3e e7e8 09bf 0c80 3d3e 6ddb 9f3e
00000180: e8bd 533f 9692 673f c7a9 653f 95b5 cebd
00000190: 16fb 5c3f 6748 413e f68b 1b3f cb59 d33e
000001a0: 30a1 09bf 25b9 9d3f ad4b 533f 6707 1e3e
000001b0: bf18 d33e 0848 823f 653f 6d3f 3564 0a3f
000001c0: b5ee 373f 3bec f73c d1c0 523f 2995 2d3f
000001d0: 72e6 c33e 1732 0fbc 501a 9cbe 61cc 39bd
000001e0: 00ec 253e 4fea b3bd 282a ce3d a25d 69be
000001f0: 67b5 a0be 193f afbe b3ad c2be 1afa fc3d
00000200: 3bab 133e a10c 563e d21e a73d 65b0 68bb
00000210: 2b4f 9ebe a28e e1be f439 ea3c 81e1 823e
00000220: 5c81 503f eca0 973e a280 fb3e 8af9 063f
00000230: 3d70 76be a2f0 3f3f 6f6a 9e3e d353 da3e
00000240: 4ba8 48bc 6ed9 0e3e f934 d03d ffd8 26bc
00000250: 1762 b1be 9f42 15be 98a9 4bbe da2c 19be
00000260: 0a73 f0bd b34b 17bf 98c5 7abe 7643 74bd
00000270: 6fc7 b6be ab9c 59be 13b4 99be d134 21bf
00000280: c71a 8abc 2b08 19bf 062d d1be 5151 fcbe
00000290: 82f8 1ebe f76c a33e fdaf 21be 6936 77be
000002a0: 21bc 403d b8f8 363f 4334 4b3d 83cc 29bf
000002b0: 3f54 0cbe edd0 643d 9826 84be b780 42be
000002c0: 047c 003f 7561 6a3f 4abe 713f 935c a13e
000002d0: b5d4 04bf 10e1 31be 3542 c3be 0d2a 9ebe
000002e0: 85aa a9be 68ee c5be 1f3e 58bd 6037 363e
000002f0: b501 36be d392 133d f13a debd c49a 143e
00000300: 82df 2bbd 23c4 76bf 2f3b 55be 52ff 2ebf
00000310: fba6 55bf f7a6 c7be db8d c1be 563d 63be
00000320: 8c81 cbbd b741 6fbf b13d e23e 6445 05bc
00000330: 7864 e53d 50f8 93bf e70f 67bd 94aa 83be
00000340: 3b00 39be b1fe 8cbe 7a59 20be fb31 4cbe
00000350: bcae 8abe fb30 853f 58e5 ad3e 5bae a23e
00000360: 0edb d2bd bdf1 82bd e39a 44be 6b44 f13e
00000370: 4b27 b1bd d823 8cbe 6ef2 7a3d 8f38 85bd
00000380: f030 45bf 787b 723d d382 76be f5d9 a4be
00000390: af2b d33c 2398 a3be 3edd 94be 2695 eebe
000003a0: 622d 8bbe 229a f3be 126f a4bf e7a9 08bf
000003b0: f55e a13e ce6d 3fbe 54f6 ccbe 08c1 9fbb
000003c0: c9dd 5ebe 19d0 1d3c 3a7d 363e 67d9 6dbe
000003d0: 2f09 74bd 6818 bfbe 3087 4ebe cfde 30be
000003e0: 5760 95be 745c 87be 79b0 c4be 3895 37be
000003f0: 5420 c43e b475 4c3e c838 303e f022 983e

conv_dec1.bias f4 [8]
0.22618546 -0.2155481 0.32380304 0.053676344 -0.11398528 0.37157568 0.06057127 0.16795602
00000000: 299d 673e a4b8 5cbe 83c9 a53e badb 5b3d
00000010: 1d71 e9bd 2b3f be3e 9419 783d aafc 2b3e

conv_dec2.weight f4 [8, 3, 3, 3]
1.9426275 -1.9904147 0.30252817 -0.11505591 -0.08719724 0.02180213 1.0617533 -0.35331112
4.4768174e-05 1.8917956 -1.9626904 0.3214057 -0.116854854 -0.08908223 0.013982092 0.9845393
-0.371365 0.16457349 1.5707668 0.15332659 0.052504472 -0.0829313 -0.04260106 -0.003453471
0.93515915 0.22503829 -0.120350264 -3.262787 -0.3797314 0.071813665 -0.750812 0.12296687
0.007386766 -2.475682 -0.079180546 -0.0931959 -3.193156 -0.3810611 0.061449967 -0.69951963
0.15283881 0.011299654 -2.3744037 -0.089660585 -0.09251185 -2.8098075 -0.07001613 0.066859305
-0.7305178 -0.0053637796 0.050600644 -1.8366535 -0.020697603 -0.06495628 0.22601189 -0.08219897
-4.5695686 0.122579195 -0.19523044 -4.156334 0.20299135 0.17836627 -5.098784 0.22323735
-0.12352516 -4.657473 0.06386806 0.5172595 -4.917905 0.21386698 0.03759679 -5.121263
0.006449357 -0.08462663 -4.616211 0.2125333 -0.13085449 -5.670997 0.019192358 0.19890615
-5.2629175 -0.084334224 0.73840725 -0.12275122 -0.28449884 -1.2993706 0.054185793 -2.1432328
-1.5549462 -0.48905787 -0.05927536 0.7089891 -0.14113265 -0.26215768 -1.33599 0.02174994
-2.0875242 -1.6409998 -0.46211374 -0.21618792 0.61585206 -0.048641283 -0.28115427 -1.0331105
-0.060972676 -2.0941043 -1.5999599 -0.75322556 -3.3691113 -3.2281623 -1.3026066 -2.3670552
-1.7169746 -1.0750113 0.7454128 -0.009339105 -0.22856581 -3.1830661 -3.332721 -1.2655344
-2.3085794 -1.9766691 -1.0338484 0.7651557 -0.055133462 -0.20221332 -3.6650777 -3.109067
-1.6327851 -2.1071744 -2.3996263 -1.1404741 0.25506 -0.14942846 -0.35971817 -0.31117722
0.34590307 0.121226944 0.54542464 1.0161351 -0.054556582 -0.7426216 0.66912705 -0.07274786
-0.32173258 0.35101333 0.11586564 0.5308353 0.9736097 -0.053081654 -0.72651404 0.6497478
-0.06801653 -0.21177106 0.08179509 -0.004397719 0.4493025 1.2915585 -0.00023942586 -0.651536
0.44292858 -0.0767632 -1.3580143 0.10357613 -0.7822177 0.8346487 0.12858398 -0.0712554
-0.6848547 0.4283727 -0.5972679 -1.3454052 0.07389542 -0.7300866 0.8185869 0.123730615
-0.068522625 -0.7171607 0.4450563 -0.62997484 -0.30122986 0.10487093 -0.40974623 0.47758266
0.07084749 -0.044933535 0.2452182 0.19406469 0.18244322 0.3349923 -0.44703394 0.019277554
-1.6428251 -0.4079807 -0.88793916 -3.5858643 -0.62599415 0.28273672 0.290882 -0.41966772
0.044879477 -1.7961056 -0.15735504 -0.8405543 -3.5269463 -0.43297994 0.14877799 0.48347518
-0.4961482 -0.059476543 -1.2085897 -0.6009962 -0.5025267 -2.6331825 -0.39508992 0.32685098
00000000: 05a8 f83f e9c5 febf f9e4 9a3e 6fa2 ebbd
00000010: 7794 b2bd 619a b23c 88e7 873f 32e5 b4be
00000020: 76c5 3b38 5c26 f23f 7039 fbbf 4a8f a43e
00000030: 9951 efbd bf70 b6bd 2515 653c c40a 7c3f
00000040: 8e23 bebe f485 283e e30e c93f a501 1d3e
00000050: ee0e 573d e3d7 a9bd 737e 2ebd a153 62bb
00000060: 9766 6f3f 7070 663e 337a f6bd 81d1 50c0
00000070: 276c c2be 0b13 933d 3735 40bf 0ed6 fb3d
00000080: af0c f23b 9371 1ec0 6929 a2bd 7edd bebd
00000090: ab5c 4cc0 711a c3be f6b2 7b3d b813 33bf
000000a0: c781 1c3e 2f22 393c 3bf6 17c0 f89f b7bd
000000b0: da76 bdbd e3d3 33c0 9e64 8fbd 88ed 883d
000000c0: 3703 3bbf a5c2 afbb 9f42 4f3d 7617 ebbf
000000d0: 058e a9bc cc07 85bd a96f 673e ef57 a8bd
000000e0: e839 92c0 cd0a fb3d 7dea 47be b000 85c0
000000f0: f7dc 4f3e a6a5 363e 3d29 a3c0 5598 643e
00000100: c2fa fcbd 050a 95c0 42cd 823d 1e6b 043f
00000110: 7a5f 9dc0 f2ff 5a3e 17ff 193d 63e1 a3c0
00000120: 2155 d33b ba50 adbd 00b8 93c0 54a2 593e
00000130: b8fe 05be cf78 b5c0 4b39 9d3c 0eae 4b3e
00000140: d269 a8c0 6cb7 acbd 4208 3d3f fe64 fbbd
00000150: d5a9 91be c751 a6bf ecf1 5d3d ba2a 09c0
00000160: 7a08 c7bf cb65 fabe b8ca 72bd 4f80 353f
00000170: 1485 10be 8839 86be b801 abbf ee2c b23c
00000180: ff99 05c0 480c d2bf 2c9a ecbe 5e60 5dbe
00000190: 7ba8 1d3f 153c 47bd 74f3 8fbe f73c 84bf
000001a0: 7cbe 79bd ce05 06c0 7ccb ccbf 64d3 40bf
000001b0: 859f 57c0 369a 4ec0 d0bb a6bf d57d 17c0
000001c0: d3c5 dbbf f899 89bf 60d3 3e3f 0c03 19bc
000001d0: 280d 6abe 5bb7 4bc0 4d4b 55c0 08fd a1bf
000001e0: c4bf 13c0 7e03 fdbf 2555 84bf 3ee1 433f
000001f0: a0d3 61bd 0211 4fbe a290 6ac0 f4fa 46c0
00000200: 1aff d0bf f2db 06c0 7a93 19c0 0efb 91bf
00000210: 3997 823e c603 19be fb2c b8be 9f52 9fbe
00000220: 351a b13e d545 f83d f3a0 0b3f b710 823f
00000230: b976 5fbd 731c 3ebf e94b 2b3f d4fc 94bd
00000240: 22ba a4be 05b8 b33e f74a ed3d d2e4 073f
00000250: 7c3e 793f 266c 59bd d3fc 39bf df55 263f
00000260: 404c 8bbd 83da 58be 2f84 a73d be1a 90bb
00000270: fa0a e63e ca51 a53f 640e 7bb9 10cb 26bf
00000280: 89c7 e23e 0636 9dbd 6ad3 adbf b91f d43d
00000290: 6b3f 48bf 8aab 553f 85ab 033e 5aee 91bd
000002a0: a352 2fbf ab53 db3e 8de6 18bf 3d36 acbf
000002b0: 7b56 973d f5e6 3abf e98e 513f 7a66 fd3d
000002c0: 9755 8cbd d897 37bf 6bde e33e 0846 21bf
000002d0: cd3a 9abe 92c6 d63d 42ca d1be b785 f43e
000002e0: 7d18 913d 3a0c 38bd 7b1a 7b3e e5b8 463e
000002f0: 65d2 3a3e 1c84 ab3e a2e1 e4be f6eb 9d3c
00000300: 1848 d2bf d9e2 d0be fb4f 63bf cd7e 65c0
00000310: 2741 20bf dec2 903e 7cee 943e b0de d6be
00000320: 8bd3 373d cae6 e5bf ae21 21be 912e 57bf
00000330: 7db9 61c0 8caf ddbe 4259 183e 0f8a f73e
00000340: 2307 febe ad9d 73bd 11b3 9abf e3da 19bf
00000350: 97a5 00bf 1086 28c0 3a49 cabe 0359 a73e

conv_dec2.bias f4 [3]
-0.11113229 -0.07236394 -0.07851081
00000000: 5399 e3bd 8c33 94bd 47ca a0bd
