whole_experiment/3_7_env/controller_best.pth (torch, 21207 bytes, 5 tensors)

fc1.weight f4 [200, 18]
000000 f1 56 05 3b 29 3a 77 3c e7 2e 83 3c 6f c5 5a 3c
       0.002034601 0.01508955 0.016013576 0.013352736
000010 bf e5 46 bb 34 d0 f8 3b de 70 8a bc c9 f1 c4 3c
       -0.0030349342 0.007593179 -0.016899522 0.024041073
000020 f3 7d 1c 3d 50 bf 5e 3c aa 31 4b bd 9b cb c9 bc
       0.038206052 0.013595417 -0.04960791 -0.02463322
000030 89 46 32 bd e2 ea c5 3c a3 2b fe 3c 7d b8 0a 3c
       -0.0435243 0.024159852 0.031026667 0.008466837
000040 f0 3a de bc 4b 98 16 bd b4 db 1c bd 8c 8e d7 3c
       -0.027127713 -0.03676633 -0.038295463 0.026313089
000050 c4 8d 83 bc 78 27 1f 3c 26 6f 25 3d e2 66 0d 3c
       -0.01605881 0.009714 0.040389203 0.008630486
000060 5e 57 e9 bb 89 d8 84 3d 73 ab 0d 3d f9 6d 5a bc
       -0.0071210107 0.06486613 0.034587335 -0.013331884
000070 c4 d1 99 bd 33 7b a2 bc 07 11 80 bd 0a e6 01 3d
       -0.07510713 -0.019834137 -0.06253248 0.031713523
000080 4b 48 c1 ba 6f 4b 5d 3a d4 50 0a bc e0 b2 21 bc
       -0.0014746276 0.00084417214 -0.0084421225 -0.009869307
000090 46 76 21 3f 9d fb 4a 3e f6 a1 10 bd 32 ec 28 3f
       0.63071096 0.19822545 -0.035310708 0.65985405
0000a0 fa aa 5e be 91 a6 02 bf 83 fd 81 3d ee ef 7f 3d
       -0.2174491 -0.5103541 0.06347182 0.062484674
0000b0 ca 21 55 bd e4 52 a7 3d 1a 0b 0b bd c7 95 cf 3d
       -0.052034177 0.08170107 -0.033946134 0.1013599
0000c0 a5 b9 ea be ba 75 b2 bc 2b 7d 78 3d 02 3a 84 3d
       -0.4584476 -0.021784652 0.060666244 0.064563766
0000d0 c2 06 95 be 75 ce b1 bc 49 fa 15 3b a4 80 c5 bc
       -0.29106718 -0.021704892 0.0022884777 -0.024109192
0000e0 fe 04 82 3d fb 59 0b bc 6c 21 a7 3b c7 e1 9c bc
       0.063486084 -0.00850534 0.0051004197 -0.019150628
0000f0 09 7a ef bb c1 c4 97 3c cf 45 29 bb 65 39 56 3c
       -0.007308249 0.018526437 -0.0025828963 0.013075207
000100 92 97 76 3c 6e 48 20 3d c0 f6 a7 3c 42 57 87 3d
       0.015050786 0.039131574 0.020503402 0.0660844
000110 58 38 db bc 99 5f c5 3c 35 96 06 bd 58 d7 40 bd
       -0.026760265 0.024093436 -0.032858092 -0.047080368
000120 d9 c4 01 bd 84 51 05 3c 4d b9 0f 3c d8 87 5c 3c
       -0.03168187 0.008137111 0.0087722065 0.013460122
000130 cf 9e 1c 3d 87 e4 25 3c 39 48 cd bc 86 95 57 3d
       0.03823739 0.010125286 -0.025058853 0.05263283
000140 86 9b 23 3d 30 12 5a bc bc e4 8e bd 32 26 77 bc
       0.03994324 -0.01331 -0.06977221 -0.01508479
000150 3b b1 60 bd 54 fe 16 3d 99 33 eb 3b c1 f0 39 bc
       -0.05485652 0.03686364 0.007177782 -0.011348904
000160 0b b1 d2 bc dc 44 8f 3b e3 32 16 3c bf d1 ba bc
       -0.025719186 0.0043722223 0.009167406 -0.022805093
000170 7e 71 95 3b fa 00 1f 3c 50 a1 c1 3b 18 42 88 3c
       0.0045606485 0.009704823 0.0059091225 0.016633078
000180 0d 97 9a bb 23 93 46 bd 20 1b b0 bc 6d 78 0e b8
       -0.0047177137 -0.048480164 -0.02149731 -3.3967593e-05
000190 bf 2f 6a 3d e5 2f 56 3c af 2a 07 3d f4 77 21 bd
       0.05717444 0.013072942 0.03299969 -0.039421037
0001a0 e8 c8 6c bb 16 9a 5b bd f9 1a a1 3c 6b b9 2e 3d
       -0.0036130492 -0.053613745 0.019666182 0.042657297
0001b0 53 a3 19 3d 11 4b 4f bd 51 44 1b 3d 8b 06 54 bc
       0.037509274 -0.0506087 0.03790695 -0.012941013
0001c0 de 13 c8 bd 70 cf 9c bc cb 89 65 3d 96 57 3b bd
       -0.09769414 -0.019141883 0.056039613 -0.045737825
0001d0 59 9a 86 bb bf 1e 03 bb 52 0d 69 3d cf 7a fb 3c
       -0.004107755 -0.002000734 0.05689747 0.030698208
0001e0 dd 43 c8 3d 36 ae 37 3b fb ab 3a bd 4a 6c 3d 3c
       0.09778569 0.0028027422 -0.04557417 0.011561463
0001f0 e2 f3 0c bd 2f e5 55 bd 17 b0 c9 bc a9 44 b4 3c
       -0.034412272 -0.05222052 -0.024620099 0.022005396
000200 1f ab a4 bc 12 d1 07 3c 4e 79 82 3d 6a 0e 4f 3c
       -0.020101128 0.008289592 0.06370793 0.012637714
000210 a0 1f a3 bc b2 18 85 3d f1 8f 7f 3b e0 56 45 bb
       -0.01991254 0.06498851 0.0038995708 -0.0030111596
000220 ab 1e a9 bd 55 dd b8 bc 01 2a 08 bd 02 52 20 3d
       -0.082578026 -0.022566477 -0.033243183 0.03914071
000230 63 27 62 bc f1 f0 31 3c d1 09 93 3c 53 58 5d bc
       -0.013803336 0.010860668 0.017949017 -0.013509828
000240 6a ac 93 3d 99 b7 98 3e 70 76 cb bc ff ea 7f 3e
       0.0721062 0.29827574 -0.024836749 0.24991988
000250 6e 9a 7d bd cd 84 9b 3d e9 24 58 3d 8b 8d cc bc
       -0.061914854 0.07593689 0.052769575 -0.024969837
000260 13 18 32 3d 27 d0 1c be 07 89 c2 3c 2d 81 9b bd
       0.04347999 -0.15313779 0.02374698 -0.07592998
000270 e6 6a 64 3e ef 21 08 bd cf 00 b8 bd 36 d5 0e 3b
       0.22306404 -0.033235487 -0.08984529 0.0021794564
000280 dd ed 7c 3e e5 4a a8 ba 9b 52 8d bd 93 a9 7d 3f
       0.24700113 -0.0012839703 -0.06900521 0.99086875
000290 79 12 86 be 70 cb 78 3e ac f3 25 3c 24 72 b0 be
       -0.2618597 0.24296355 0.010128897 -0.34462082
0002a0 4d 87 b4 bc 18 85 97 3c f3 18 d4 3c c8 17 29 bd
       -0.022037173 0.018496081 0.025890803 -0.041282445
0002b0 fe 8e 18 bd 61 5e da 3d b4 bf 18 be 58 06 6c 3d
       -0.037245743 0.106625326 -0.14916879 0.057623237
0002c0 1e b3 38 3d 0a 0b bf bc f6 ae c2 bd d5 f1 a7 bd
       0.045092694 -0.023320694 -0.095060274 -0.08200423
0002d0 0e 4d 40 3c 68 c6 25 bc db 68 4c 3d c8 83 d4 bb
       0.011737121 -0.0101181045 0.049904685 -0.006485436
0002e0 3f ad 8c 3c 02 fd 19 bd 76 db 9a bc 0f 9c c8 3b
       0.017172454 -0.037594803 -0.018903475 0.0061221193
0002f0 0b ca 0d 3c 66 04 0e bd cd 0d 8e 3c 52 ae 15 3d
       0.008654128 -0.034672163 0.017340565 0.036543198
000300 f3 97 1d bc 55 ac dd 3b 54 6c 1f bd f6 6f 97 3d
       -0.009618747 0.0067649283 -0.03892167 0.07394402
000310 2a 34 12 bd 93 aa db bc 6a dd 36 3f 00 7d 1b be
       -0.03569428 -0.026814735 0.714316 -0.15184402
000320 7b 72 b0 3d d0 d0 48 bf e2 6e 93 3e 56 10 ae be
       0.086155854 -0.7844362 0.28795534 -0.33996838
000330 18 fe 9d 3d 93 87 69 3d 3e 7c a7 3d a0 bf ac bd
       0.0771448 0.05701406 0.08177994 -0.08434987
000340 fe 67 83 3b 39 93 53 bd 2f 70 ca be 62 f0 97 3b
       0.0040101996 -0.051654074 -0.39538714 0.00463681
000350 22 c0 98 bd f7 81 b8 bd 28 09 4e 3e 5b c1 1c 3e
       -0.074585214 -0.09009164 0.2012068 0.15308134
000360 07 8d 30 bc ff 0e d2 bb 60 ab 92 3c c7 6b 5a bc
       -0.010775811 -0.006410479 0.017903984 -0.01333136
000370 b4 1c 91 3c 9f f5 7c bc 2c e0 0b 3c e3 b9 25 3c
       0.017713882 -0.01543942 0.008537333 0.01011512
000380 b9 86 9f bc 7f f2 01 bb 22 91 73 3b 89 59 fb 3c
       -0.01947342 -0.0019828377 0.0037165363 0.030682342
000390 2b c6 d0 bb 80 00 81 3d e2 8a cf bc fe 88 43 3d
       -0.0063712797 0.062989235 -0.02533478 0.047738068
0003a0 f6 ec e4 bc b5 7c 19 bd be 06 9c 3e 6b 65 a1 bc
       -0.027945023 -0.037472446 0.30473894 -0.01970168
0003b0 8a b0 4f 3e e5 5b 4a 3e 5d 7f e2 be e2 0a cb 3d
       0.20282188 0.19761617 -0.44237795 0.09914185
0003c0 2b ef 6c 3d 11 9c 4f bd 54 e4 74 3c 08 d8 fe bc
       0.057845276 -0.050685946 0.014947016 -0.031108871
0003d0 33 39 29 3d 0b 06 e1 bd 79 5d 54 3d a6 1b 6b bc
       0.041314315 -0.10987481 0.051846955 -0.014349854
0003e0 85 c8 04 be e0 6c 5e bd b8 93 71 3e bd e7 f9 3d
       -0.12967117 -0.05430305 0.23591506 0.12202404
0003f0 20 8b 8e bc 9f 63 07 3b 99 78 c7 3c 90 cd 2f 3c
       -0.017400324 0.0020658744 0.024349498 0.010730162

fc1.bias f4 [200]
000000 0c 02 a5 bc 7d 68 c3 bc 37 da b6 be 7b da c1 ba
       -0.020142578 -0.023853535 -0.3571336 -0.0014789844
000010 41 d8 96 bc 4e 59 0b 3c 23 27 7e bc 16 ab e7 bc
       -0.018413665 0.008505179 -0.015512261 -0.028279822
000020 73 59 ad be cc 26 26 bf 6d 67 cd bb e3 10 2a be
       -0.33857307 -0.6490295 -0.006268433 -0.16608004
000030 19 d6 c2 ba bc 76 15 be 49 9c 4d 3c 7f 3b 89 bb
       -0.0014864831 -0.14596075 0.012549468 -0.0041880007
000040 87 01 db ba 9d 27 d3 bc 23 92 ee bb 95 a7 bb bc
       -0.0016708829 -0.025775725 -0.0072806044 -0.022907058
000050 dc a3 96 bc 10 f4 17 bf a3 68 50 3c a8 e9 6c bb
       -0.018388681 -0.59356785 0.01272026 -0.0036150012
000060 3d d9 c1 be 9e 97 59 be e7 c7 fe 3a 81 02 22 be
       -0.37861052 -0.21249244 0.0019438238 -0.15821268
000070 01 5e 59 bd 15 fa 1a bc 93 14 ad be 4d ea 28 bd
       -0.053068165 -0.009459038 -0.3380476 -0.04123907
000080 14 f9 1c bd 92 8b 93 3a be 53 6b bc a7 3d 91 3b
       -0.038323477 0.0011256805 -0.014363227 0.0044323984
000090 2b 75 27 bc 73 ac 35 be cc 83 8a be 2d c5 63 bc
       -0.010220806 -0.17741565 -0.27053678 -0.013901991
0000a0 90 de 3b bf 84 53 6b be 51 a0 67 bd 41 e8 51 be
       -0.7338648 -0.22981077 -0.056549374 -0.20498754
0000b0 78 f3 df bd 8b b9 d8 be 60 c9 ff 3b fb 4d 12 bc
       -0.1093511 -0.42329058 0.007805988 -0.008929725
0000c0 a3 ad 48 be 7a a3 84 bc 66 e6 a1 bb ed 2b 96 bc
       -0.19597487 -0.016191233 -0.0049407957 -0.018331492
0000d0 d1 19 39 bf 64 d3 40 be 0b 19 1c bf 05 61 68 3b
       -0.7230502 -0.18830639 -0.6097571 0.0035458219
0000e0 14 06 33 be 58 4b 90 bd bf 56 73 bd d9 4e bb be
       -0.17482787 -0.07045621 -0.0594089 -0.36583593
0000f0 65 a9 30 bc a2 5f a4 bc ac cb d5 bc 62 37 74 be
       -0.010782574 -0.020065133 -0.026098095 -0.23849252
000100 4c f1 b3 bc c4 9e d3 bc 7a c1 c9 be d6 c9 c3 ba
       -0.021965645 -0.025832541 -0.39405423 -0.0014937471
000110 02 68 cd 3a 9a fd 88 be fb 94 f1 bb 97 49 35 bd
       0.0015671256 -0.26755983 -0.007372496 -0.044259634
000120 43 cb ab bb c8 e6 d5 bc 17 ab 8f bc 98 b0 01 be
       -0.0052427365 -0.026111022 -0.017537637 -0.12665021
000130 38 09 2d bc bf 0d 80 ba ee 80 30 be 1d 01 97 ba
       -0.01056128 -0.0009769722 -0.17236683 -0.0011520718
000140 09 e9 dc be 36 b5 95 b9 91 01 cc 3b 1d 97 ae bb
       -0.43146542 -0.00028554507 0.0062257727 -0.0053280727
000150 3e c0 96 be d0 7d c9 be 05 46 59 3b 17 b2 c4 bc
       -0.29443544 -0.393538 0.0033153307 -0.024010701
000160 06 9e 99 bc 51 12 8f bb 6f bf 53 bf 10 2c 09 3b
       -0.01875211 -0.004366197 -0.8271398 0.0020930804
000170 3d a4 87 bc 05 f9 c6 bc 41 23 ad be 08 29 5a bc
       -0.016557807 -0.024288664 -0.3381596 -0.013315447
000180 a8 ab cc bc d3 6e c4 be f5 b4 bb b9 91 48 d9 3b
       -0.024984196 -0.38365802 -0.00035802243 0.006630965
000190 7d 79 c2 be 96 8e 86 bc 6c 25 4a be c1 7b 75 bc
       -0.37983313 -0.016425412 -0.19740838 -0.0149831185
0001a0 f6 ca 44 bc 89 b6 ff be 3d c5 33 bc 81 0b 7c bc
       -0.01201128 -0.4994395 -0.010972318 -0.015383602
0001b0 4a e6 2f b6 f5 40 96 bc 8c 63 c5 3d 96 9c b7 bc
       -2.6211078e-06 -0.01834152 0.09638128 -0.022413533
0001c0 1d e3 85 be 06 03 97 be 55 50 bb bc 57 67 b6 be
       -0.26149836 -0.29494494 -0.022865454 -0.35625717
0001d0 ad 87 8e be c6 87 8f bd ae 54 40 bc 25 85 2b bb
       -0.27837887 -0.070083186 -0.011738939 -0.002617189
0001e0 66 a9 90 ba 31 ad b2 bd cc 49 3e 3b aa 10 f8 be
       -0.0011036813 -0.0872444 0.0029035686 -0.48450214
0001f0 1b e2 08 bd b2 7d 0e bb 2a a1 3e be 14 67 4d 3a
       -0.033418756 -0.00217424 -0.18616167 0.0007835489
000200 9d 7d 8c bc 06 8d a5 bc 03 11 7d bc 0d e8 84 bc
       -0.01714974 -0.020208847 -0.01544595 -0.016223932
000210 6c 21 15 bc 8a 32 23 bc 7d e8 fa be 5a 49 80 be
       -0.009102207 -0.00996078 -0.490055 -0.25055963
000220 4b 7f bd bb dd d6 19 3b cb 98 87 3a 45 c1 cb ba
       -0.005782997 0.0023474016 0.0010345218 -0.001554527
000230 5a df 85 be 11 a0 94 3b 95 17 4e bf 88 f6 da bc
       -0.26146966 0.004535683 -0.80504733 -0.026728883
000240 23 0f 1e bb b2 3f 1f bf 3f 7a 92 ba d5 81 1f bf
       -0.002411791 -0.62206566 -0.0011175348 -0.6230748
000250 00 4c 50 be 63 bc 20 ba d6 6b ac bc c7 1e 95 ba
       -0.20341492 -0.00061315874 -0.021047514 -0.001137697
000260 4b e6 f3 be 20 89 b9 bb cf 88 e4 bd 62 d9 9e bc
       -0.47636637 -0.0056620985 -0.11158907 -0.019390766
000270 f0 57 c7 bb 09 47 46 3c e5 74 25 bf 7a 04 09 be
       -0.006083481 0.012101897 -0.6463149 -0.13380614
000280 d7 e9 fb bd 20 b8 3d be ca bd 19 bd 3f 86 f5 be
       -0.12300461 -0.1852727 -0.037534513 -0.47953984
000290 47 b8 8b bb eb bb 59 3b 1e 38 12 bf aa 1f 5f bc
       -0.004263911 0.003322358 -0.5711688 -0.013618389
0002a0 5b d0 bc be d0 61 54 bb 6e d8 d5 3b a3 0f 34 bc
       -0.36877713 -0.0032406934 0.0065260446 -0.010990056
0002b0 32 7e d8 ba 67 d4 af bc b0 65 97 be 66 c6 72 bc
       -0.0016517101 -0.021463586 -0.2956977 -0.01481781
0002c0 c8 d7 bb 3b d3 a9 f5 bc 00 bf 83 bc 1e 97 9c 3b
       0.0057325102 -0.029988205 -0.016082287 0.0047787568
0002d0 d1 f4 49 3c 7f ca 80 bc eb 4d cc ba 94 03 72 bc
       0.012326435 -0.015721558 -0.0015587186 -0.014771361
0002e0 94 1e a4 bc 0e 67 9a bc e1 10 c9 bb 6d 6c da bc
       -0.020034112 -0.018847968 -0.0061360453 -0.02666303
0002f0 c3 d0 f8 be 82 25 2a bc ab ad 59 be e4 d3 04 bc
       -0.48596773 -0.010384919 -0.21257655 -0.008107159
000300 0b a6 59 bc 96 39 a2 bb 2a 22 ff bb f9 97 1a ba
       -0.013284217 -0.0049507124 -0.007786055 -0.00058972795
000310 26 6c d5 3b fd 74 9a be 5b f4 b9 be cc 1d d6 ba
       0.0065131364 -0.3016738 -0.3631924 -0.0016335784

fc2a.weight f4 [4, 200]
000000 a6 5d 3a 3d 62 85 10 3d ef 3f f6 bc 43 1d fa bc
       0.045499466 0.035283454 -0.030059783 -0.030531531
000010 ee e5 2b 3c b7 c5 8d 3c da dd 67 bd 1e f0 a3 bb
       0.010491831 0.017306192 -0.05660806 -0.0050029894
000020 ee e2 94 3d c9 3d 45 3d d8 a7 4f 3d 60 33 36 be
       0.07269846 0.048154626 0.050697178 -0.17793036
000030 e8 0f 4f 3c b1 e4 8d bd 0a 9c 16 3c 6b 57 f9 3c
       0.01263807 -0.06928385 0.009192476 0.030437192
000040 24 2a e9 3b 9c 78 39 bc d8 d0 45 3c 2e 47 b6 3c
       0.0071156193 -0.011320259 0.012073718 0.022250738
000050 d4 c9 d5 3c 06 ae f3 bd 1d 11 85 3b b3 f2 0d 3d
       0.026097216 -0.11898427 0.004060878 0.034655284
000060 2b dd 03 bd aa a7 82 3e c7 14 e8 bc b3 43 c3 bc
       -0.032193344 0.25518543 -0.02833022 -0.023835992
000070 63 cd 4e 3d 05 a4 b6 bc 38 99 5b bd b3 75 11 be
       0.05048884 -0.022295007 -0.053612918 -0.14205055
000080 5a 3c 8f 3c 4d ab 02 3d 76 9e 8d bc e9 1d e9 bb
       0.017484833 0.031901646 -0.017287474 -0.0071141613
000090 2a ff 83 bc 9b 91 2b bb 6a bb ce bd 0a 88 3b bc
       -0.016112883 -0.0026179317 -0.1009434 -0.011446008
0000a0 e3 9e 90 bd 7d 03 94 3c 58 51 8d 3d b6 b0 12 3d
       -0.07061555 0.01806807 0.06900281 0.035813056
0000b0 11 bc b0 3d 75 b1 b0 3d 8a 5a 1e bd 27 b4 30 3c
       0.08629621 0.08627597 -0.038660564 0.010785139
0000c0 2c 0b 78 bb 5f 49 de bb dc 97 6d 3d d5 fa 32 bd
       -0.0037848456 -0.006783649 0.058006153 -0.043696243
0000d0 4e cb 8f be 16 c3 22 3e 6d 91 de bd 5a 61 c2 3a
       -0.28084797 0.15894732 -0.108675815 0.0014830038
0000e0 f3 b9 1a be e9 7a 91 3b 1d 08 c1 bb fa 11 0f 3e
       -0.15109996 0.004439701 -0.0058908598 0.13971701
0000f0 5c 75 01 bc c6 15 e3 3c 2f ff 1d bc c4 f7 24 3e
       -0.007901516 0.027720343 -0.00964336 0.1611014
000100 0e 28 6a 3c 63 1c d1 3c d3 d1 32 3d d0 90 9d 39
       0.014291776 0.025526231 0.043657135 0.00030053267
000110 fd 4c 0d bd 48 8f 08 be 10 b2 07 bb 85 2d 8b 3c
       -0.03449725 -0.13335907 -0.0020705499 0.016989479
000120 be 19 70 bc 44 e2 47 3c 62 68 4b bd 9c 71 a7 3b
       -0.014654575 0.012199942 -0.049660094 0.005109979
000130 b8 1b a8 3b de 77 c4 bc 62 f6 dd 3d 10 f4 5d bc
       0.0051302575 -0.023982938 0.108380094 -0.013546959
000140 74 69 49 3c 3a e4 0b bd 42 25 9d 3b 3c 57 88 3c
       0.012293208 -0.0341532 0.0047957012 0.01664316
000150 61 0f 37 3d f2 36 68 bc 28 fc 52 3d 4d d1 d7 3a
       0.0446924 -0.014173256 0.051510006 0.0016465575
000160 de 6f a2 3c 0b 98 df 3c 83 7b 63 3e c7 52 c0 3a
       0.019828733 0.02729418 0.22215085 0.0014673107
000170 02 1f 88 3c ab ad 62 3d 73 bc 8f 3d 62 b8 86 3c
       0.016616348 0.055341404 0.07018366 0.016445342
000180 96 36 6f 3c 25 e2 64 bd 59 ab 45 3c fb fe 97 39
       0.014600417 -0.05587973 0.012064778 0.0002899094
000190 a3 04 a3 3d 68 38 91 3c a4 30 b0 bd 3e 72 ae 39
       0.07959869 0.017727092 -0.086030275 0.00033272983
0001a0 86 38 40 3c c6 48 28 3e 33 ea 22 3d d3 70 67 bc
       0.011732226 0.16434011 0.03977413 -0.0141260205
0001b0 10 16 c0 3c b9 6f e7 3c 60 4b eb bc 9c 32 90 bc
       0.02344802 0.028251516 -0.028722465 -0.017602257
0001c0 46 27 d0 bc 70 4c 6f bd e9 10 a0 bc ef 1a ad 3d
       -0.025409352 -0.058422506 -0.019539313 0.08452403
0001d0 be 73 4a bd e8 5e c1 bc 2e cf bd 3c 9f 38 3a 3c
       -0.049426787 -0.023604825 0.02317008 0.011366039
0001e0 b7 98 88 3c 21 a1 dc 3b 5b 15 b2 3c 37 db d6 3d
       0.016674383 0.0067330752 0.021738699 0.10491031
0001f0 8f 3b ea bc 0a cb 79 3d 90 df 23 3d b5 a2 3c bc
       -0.028592853 0.06098465 0.040008128 -0.011513402
000200 35 fb bc 3b 44 79 50 3c d1 5f 09 bd 47 f8 24 bc
       0.005767251 0.0127242245 -0.033538643 -0.01006896
000210 c8 db 6d 3d 3a bb bc bc 79 7a 1d be 1f fb 96 3b
       0.058070928 -0.023038495 -0.15378751 0.0046075727
000220 71 a9 f7 3c 4d 49 e4 3b a6 cd a7 bc 06 a7 9f bc
       0.030232163 0.006966746 -0.020483803 -0.019488823
000230 07 f1 da 3d b5 87 1d 3c c7 fd 3e be fa ae 76 3c
       0.106905036 0.009614875 -0.18651496 0.015056366
000240 60 0b 79 bb ce 77 5f 3e 32 a9 85 3c da 17 80 bc
       -0.0038001165 0.21823046 0.01631603 -0.015636373
000250 2c 62 0d 3d cb aa b4 bc 84 30 ca 3c cd f1 12 bc
       0.034517452 -0.022054097 0.024681337 -0.008968783
000260 49 6d 5b 3d cb 1a 16 3d a5 4b 2c bd 48 40 8d bc
       0.05357102 0.036646646 -0.042064328 -0.017242566
000270 1a d1 4c 3d 89 fc 20 bc 43 ce 18 3e 0f 66 31 bc
       0.050004102 -0.009825834 0.14922433 -0.010827555
000280 1c c1 35 bd 66 e8 ab 3c 54 25 e0 3c 2b ba d5 bc
       -0.044373617 0.02098484 0.02736155 -0.026089748
000290 a3 82 f9 bc 71 bc cb bb e6 b2 c2 3d 35 7a 5f bd
       -0.0304578 -0.0062175323 0.095067784 -0.054559905
0002a0 43 31 99 3d 21 95 c8 bc 33 5f 59 bc 7f a8 87 3d
       0.07480099 -0.024485173 -0.013267326 0.06623935
0002b0 ab c9 a9 bc af 7d 65 38 d1 c3 8d 3c 6a 0a bd bc
       -0.020726046 5.4714907e-05 0.017305287 -0.023076255
0002c0 a7 76 55 3c 8c 93 83 3c d8 dc 35 ba 99 00 95 3c
       0.013028777 0.016061567 -0.00069375103 0.018188762
0002d0 80 34 6f 3c ec 60 f6 3c f7 bf 46 bd af f4 b8 3c
       0.014599919 0.030075513 -0.048522916 0.022577612
0002e0 65 c2 14 3d 07 63 22 3c 77 37 ae 3b 76 58 0c 3d
       0.0363182 0.009911305 0.0053166705 0.03426405
0002f0 34 16 4c 3e e6 1f da bc 18 5e 60 bd 1f ec 64 3c
       0.19930345 -0.026626538 -0.054777235 0.013972311
000300 95 20 56 3c 0e 5f 80 3a 68 67 9d 3c ad 0c ac bb
       0.013069292 0.0009793954 0.019214347 -0.0052505345
000310 bc 58 59 3c 45 e7 b5 3d f6 48 cb bd 92 42 2b bc
       0.013265785 0.08882002 -0.099260256 -0.010452883
000320 05 3d 2f 3d 68 46 b7 3c 04 a2 82 3d c5 79 a1 bc
       0.042782802 0.02237244 0.06378558 -0.019711385
000330 14 fc 01 bc fd 34 0a 3c 48 96 0c bd 7b a7 14 bc
       -0.007933635 0.008435485 -0.034323007 -0.009073134
000340 26 d5 e4 ba 8d 18 8a bc be 5b ea 3c 92 cb 75 bd
       -0.0017458543 -0.01685741 0.0286082 -0.060008593
000350 2f 3d f0 3c 42 97 37 bc 11 00 27 bc 70 f6 22 bc
       0.02932605 -0.011205496 -0.010192887 -0.009946451
000360 c6 e2 a4 3c 8b ed 62 bc 7c 1b 86 3c 95 90 54 3c
       0.020127665 -0.01385058 0.016370527 0.012973924
000370 b3 84 f2 3c bc 85 3e bd 10 fc ff 37 e9 f0 60 3b
       0.029604292 -0.046514258 3.0515745e-05 0.003432328
000380 0b cb 23 3a d0 f2 11 bd 6a c5 72 bd 9d 9c 38 bc
       0.00062482123 -0.035631955 -0.0592703 -0.011267808
000390 f7 62 b5 3c 3a d2 87 bc af 92 c9 3e 0c 53 35 3e
       0.022141917 -0.016579736 0.39369723 0.17707461
0003a0 ee 1b 98 3c cc 40 03 bc 87 9a 26 bc 11 00 9d bc
       0.018568005 -0.008011054 -0.010168678 -0.01916507
0003b0 3e ca d3 3c 6b 2a 0d bd 63 ff 92 3d e8 a1 0e 3d
       0.025853273 -0.03446428 0.071776174 0.034822375
0003c0 7e 36 31 3c f6 b3 36 3e ea b1 bd bb cc 3d 06 bd
       0.010816215 0.17842087 -0.0057890313 -0.032773778
0003d0 68 1e 48 3d 55 54 48 3c 4f 84 39 bd ec 15 41 3a
       0.048857123 0.012227138 -0.045292195 0.00073656323
0003e0 61 c3 aa 3c b5 78 f7 bc 28 4d 75 3b 21 49 f6 bb
       0.020845117 -0.030208925 0.0037430022 -0.007516042
0003f0 f5 a0 14 bd 37 37 af 3d 13 6f 98 bd 2f 44 bb bc
       -0.036286313 0.08555453 -0.07443061 -0.02285966

fc2a.bias f4 [4]
000000 97 2f a9 be 40 ed c4 3d 6a 8a ae 3c ca 5f be 3d
       -0.3304412 0.09615564 0.021306235 0.09295614

fc2c.weight f4 [1, 200]
000000 5a 20 86 3b 45 ec 93 bb c3 b0 be bc 07 98 1d 3c
       0.004093212 -0.0045142495 -0.023277646 0.009618766
000010 6c 65 99 bb 3a 8f 21 bb 10 a0 61 3c da 89 84 bc
       -0.00468128 -0.002465202 0.013771072 -0.016179014
000020 42 1d 0b bd 42 77 14 be 8a 26 f5 3b 1d 2d 6e 3c
       -0.03396345 -0.14498618 0.007481401 0.014537123
000030 ee dc 70 3b a0 3e 81 3e 73 db b7 3b 5e f9 8d 3b
       0.0036752778 0.25243092 0.005610877 0.0043327054
000040 7d ba bb bb 22 44 d5 3b db 75 8c 3b 08 f7 e7 bb
       -0.0057290182 0.006508366 0.0042865104 -0.007079009
000050 3c d8 37 ba a6 c4 06 bd 69 c2 83 bb ba ae 2f 3c
       -0.00070131174 -0.032902382 -0.004020978 0.01072281
000060 c0 75 b2 3b a8 a8 85 be 97 8d 68 3b 16 d4 84 be
       0.005446166 -0.26105237 0.0035484785 -0.2594306
000070 03 7e 4e bc f9 c3 2f bb 23 f4 51 be eb fb f1 bd
       -0.012603286 -0.002681969 -0.20503287 -0.11815628
000080 c1 25 3e bc 6c d2 51 3b 5b c5 70 bb f1 84 8e 3a
       -0.011605681 0.003201629 -0.0036738727 0.001087336
000090 e9 19 13 ba 96 4c 98 bb 33 ec 71 bb cc e5 8c 3b
       -0.0005611466 -0.0046478016 -0.0036914467 0.004299855
0000a0 1a ae 91 be 6a ad 30 3e 4c 16 1c be 45 bf 59 be
       -0.2845314 0.17253652 -0.1524288 -0.2126437
0000b0 15 08 1b bd 8a 9c df 3d 2e 75 d4 3a 49 45 0f 39
       -0.037849505 0.10918529 0.0016209239 0.00013663353
0000c0 e4 04 5e bd 61 63 b9 3b 56 70 f3 3a 9c 9f 8b 3b
       -0.054203883 0.005657599 0.0018572907 0.0042609703
0000d0 4d 9c 77 3e 3e 98 39 be 8b b0 84 3e 69 50 34 3a
       0.24180718 -0.18124482 0.25915942 0.0006878437
0000e0 e9 bd bc 3e dc 94 9f 3e e2 19 cc 3c aa d2 ab 3c
       0.3686364 0.31168258 0.024914686 0.020974476
0000f0 fa 65 f8 3b 30 14 8b bc 9d 78 b6 bb 47 13 a6 3e
       0.007580516 -0.0169774 -0.0055685774 0.32436582
000100 7b 70 b6 3a 55 1c 00 3b 9e eb c5 39 47 0d 8b 3b
       0.001391902 0.0019548137 0.00037750317 0.004243526
000110 66 74 42 38 69 a3 e2 3b c7 52 81 ba 48 d5 41 bc
       4.636161e-05 0.0069164527 -0.0009866589 -0.011830635
000120 a7 69 44 3c ca bb 80 bb 55 4b 20 b9 a3 d5 05 be
       0.01198808 -0.003928636 -0.00015286852 -0.13069777
000130 00 bc a7 3b 04 73 fe 3b 69 fb 93 bd 39 36 aa 3a
       0.005118847 0.007765176 -0.07225687 0.001298613
000140 88 55 96 be 35 01 61 3b fd d6 b3 3b 12 41 4d ba
       -0.2936213 0.0034332995 0.005488275 -0.00078298256
000150 bb bb fa bd bb 2d fa 3d ef c0 3d 3c 4f 2f 9f bb
       -0.12242838 0.12215754 0.0115816435 -0.0048579345
000160 23 2a 09 bc 5f e9 1f 3b d9 49 eb 3c 3e 1a 8b 3b
       -0.008371863 0.0024400575 0.028721737 0.0042450717
000170 1d 69 0c 3c e1 44 1d bc d8 69 f3 3d e7 16 4f ba
       0.008569983 -0.009598942 0.118854225 -0.0007899836
000180 29 a2 19 3a 17 7d dc bc a2 9d 15 3c ec 39 0e bb
       0.00058606506 -0.026915116 0.009131821 -0.0021702005
000190 10 0f c8 be f7 c0 01 bb 2f c6 21 bd 61 8f 07 3b
       -0.39073992 -0.0019798854 -0.039495643 0.0020684826
0001a0 49 47 96 3b 7d 7a 87 3d 6a b3 92 3b 01 c1 10 bc
       0.0045861346 0.0661516 0.004476954 -0.008835078
0001b0 ba 30 34 3c 81 9a af bb ec 67 86 3e 5a c9 e4 39
       0.010997945 -0.0053589945 0.2625116 0.00043637567
0001c0 1b 36 6a 3d ee 08 9c bc 6b 20 8c 3b 6d 10 06 3c
       0.057180505 -0.019047227 0.0042763255 0.008182627
0001d0 e4 fa 06 3d 7d 40 64 3a 79 1f 03 bb 9d 9c 82 3a
       0.03295411 0.0008707119 -0.0020007773 0.0009964887
0001e0 98 ac 89 3c 31 e7 83 3c a7 22 c2 b8 c3 fb d6 bd
       0.016805932 0.016101452 -9.2570954e-05 -0.104972385
0001f0 11 23 cf ba 79 72 c7 3b 7a fc fb bc 9b 6a 38 bb
       -0.0015803297 0.0060866443 -0.030760039 -0.0028139714
000200 71 66 30 3b e8 2e 72 3b c1 9b 8a b9 0b 8d 8b bb
       0.0026916529 0.0036954228 -0.00026437457 -0.004258757
000210 36 a2 83 3b 59 83 35 bc e9 6c 82 bd f2 d8 33 bd
       0.00401714 -0.011078679 -0.06368429 -0.043908067
000220 a7 7c 68 3b 5d 25 1a 3c da 40 76 39 b7 16 36 bb
       0.003547469 0.009408322 0.00023484547 -0.0027784535
000230 c9 e3 54 be 77 c3 b8 ba 98 2f d0 3c 14 a8 89 bb
       -0.20790018 -0.0014096339 0.02541332 -0.0042009447
000240 68 95 1b 3b b6 ab 4b bc 3e 92 9f 3b b8 09 fd 3d
       0.0023740176 -0.012431076 0.0048697283 0.12355369
000250 95 fb 81 bd 2d 4e 67 bb 85 93 e5 bb 11 70 a0 ba
       -0.063468136 -0.00352944 -0.007006111 -0.001224043
000260 b8 15 00 bd f3 b5 bf ba b6 90 1d 3b c0 e6 0a bb
       -0.031270713 -0.0014626369 0.0024042553 -0.0021194667
000270 c6 30 8f bb b2 0c ad 3b a8 2a 8d 3d af de 3a 3b
       -0.004369828 0.0052810544 0.06892902 0.0028514077
000280 52 3c e9 bc 91 52 88 3e 8f 5d 30 3a cf 7d 43 3e
       -0.028471146 0.26625493 0.00067278085 0.19090961
000290 c6 6c 78 3b c7 0a 88 ba 2a e3 3e be 4e c6 06 bc
       0.003790663 -0.0010379188 -0.18641344 -0.00822599
0002a0 eb 63 96 be 6f 9a 25 bb 25 61 2b 3b 60 d2 15 3b
       -0.29373106 -0.0025269052 0.0026150432 0.002286099
0002b0 75 41 a7 3b 47 6e 8f bb 07 1d 4f be a1 4e 9e bb
       0.0051042386 -0.0043771598 -0.20225917 -0.0048311506
0002c0 5e 53 27 3c 06 69 c6 bc 5a 68 13 bc 23 80 95 3b
       0.010212747 -0.024220001 -0.008997047 0.004562394
0002d0 0a bd 11 3b 9d 59 b8 38 29 56 4d 3c 20 0c f1 bb
       0.002223792 8.7904955e-05 0.012532749 -0.0073561817
0002e0 09 ac 9b ba 7f 77 1c 3b d4 df 7b 3b ed 7b 85 3b
       -0.0011876832 0.0023874936 0.0038432973 0.004073611
0002f0 ee 35 39 bc 48 22 c8 3b 18 22 a4 bd 09 62 a7 bb
       -0.011304362 0.0061076023 -0.08014315 -0.0051081222
000300 22 ac b4 bb 8c ee 57 bb ad 29 af ba 83 26 39 b9
       -0.005513684 -0.0032948582 -0.0013363861 -0.00017657322
000310 6a 28 07 ba f8 7b 0a be 9a a7 f8 be 5f 95 30 3a
       -0.00051558635 -0.13523853 -0.4856537 0.0006736125
