whole_experiment/3_7_env/controller_last.pth (torch, 21207 bytes, 5 tensors)

fc1.weight f4 [200, 18]
0	0x3c17f33d	0.009274301
1	0x3a04c666	0.0005064964
2	0x3ca617af	0.020274965
3	0x3b8a5c6a	0.0042224424
4	0xbcac1b4d	-0.021009112
5	0x3c8a455f	0.016878782
6	0xbc03c451	-0.008042411
7	0x3cdec4c4	0.027193435
8	0x3d030017	0.031982508
9	0x3c394153	0.011307078
10	0xbb8c8816	-0.0042886836
11	0xbd2acbad	-0.041698147
12	0xbd893848	-0.06700188
13	0x3ca030a7	0.01955445
14	0x3d13a1b8	0.0360429
15	0xbca7cfe9	-0.020484881
16	0xbcffca59	-0.031224417
17	0xba263a02	-0.00063410413
18	0xbcbb1eaa	-0.02284177
19	0x3ccefdeb	0.025267562
20	0x3bc432b3	0.005987489
21	0x3c2159df	0.009848087
22	0x3c9e5f84	0.019332655
23	0xbaca3079	-0.0015425823
24	0x3b819a34	0.00395515
25	0x3d558d14	0.052136496
26	0x3ced7a6f	0.028989045
27	0x3c150d04	0.009097341
28	0xbd3ccde4	-0.04609479
29	0xbc90f6dd	-0.017695839
30	0xbdbbd614	-0.091716915
31	0x3c22757c	0.009915706
32	0x3b7c7c5f	0.003852628
33	0xbc8c8fe4	-0.017158456
34	0xbc8c0ae5	-0.017095039
35	0xbc9c7906	-0.019100677
36	0x3f24efc3	0.6442835
37	0x3e2c26e7	0.16811715
38	0xbd1c3675	-0.03813787
39	0x3f29fdeb	0.66403073
40	0xbe31f098	-0.17376935
41	0xbf069f4d	-0.52586824
42	0x3d492b95	0.04911383
43	0x3dbc5d37	0.09197467
44	0xbcfefbbd	-0.031125898
45	0x3db1c837	0.08680766
46	0xbd4a4043	-0.04937769
47	0x3dd0fddc	0.1020467
48	0xbee13829	-0.4398816
49	0xbcc47fd4	-0.023986734
50	0x3ca7f550	0.020502716
51	0x3d280742	0.041022547
52	0xbe8fc356	-0.28078717
53	0xbcae8b90	-0.021306783
54	0x3c132b3b	0.008982475
55	0xbc84a6a8	-0.01619275
56	0x3d855453	0.06510224
57	0x3c0fe371	0.008782254
58	0xbc9f3750	-0.019435555
59	0xbce4decf	-0.027938275
60	0x3ca5a053	0.02021805
61	0xbb8df9cc	-0.0043327566
62	0x3d0da361	0.03457964
63	0x3b45a160	0.0030156001
64	0x3c970fcd	0.018440152
65	0x3d08c055	0.033386547
66	0xbc694d92	-0.014239686
67	0x3ccd63cf	0.025072007
68	0x3b7d3bf7	0.0038640478
69	0xbc92bc5b	-0.01791208
70	0xbca47af6	-0.020078164
71	0xbd821de6	-0.06353359
72	0xbcad9e5c	-0.021193676
73	0x3c11f72b	0.008909027
74	0x3cdcb77a	0.026942957
75	0x3c324786	0.01088131
76	0x3c6728cd	0.014108849
77	0xbbe3abec	-0.006947985
78	0xba7368ff	-0.000928536
79	0x3d445e8c	0.04794173
80	0x3cedba56	0.029019516
81	0x3999e84c	0.0002935551
82	0xbd153771	-0.036429826
83	0xbbd66b85	-0.006543579
84	0xbda2f68c	-0.07957181
85	0x3c4fa2e1	0.012673111
86	0x3cb80098	0.02246122
87	0xbd1c4d75	-0.038159806
88	0xbcbac1fd	-0.022797579
89	0x3a6520c8	0.00087405415
90	0xba770fa6	-0.0009424634
91	0xbc635ef8	-0.013877623
92	0x38da432f	0.00010407564
93	0x3b67168a	0.0035261237
94	0x3cb1af3e	0.021690007
95	0x3bc44ff3	0.005990976
96	0xb9cd7990	-0.00039191218
97	0xbd1ab310	-0.037768424
98	0xbcc7aef8	-0.024375424
99	0xbbd3452c	-0.006447455
100	0x3c9e8a09	0.01935293
101	0x3cccfa32	0.025021646
102	0x3d631ff2	0.055450387
103	0xbc9610a9	-0.018318491
104	0xbc628ea4	-0.0138279535
105	0xbc925798	-0.017864034
106	0x3cbdea79	0.023183094
107	0x3ca68906	0.02032901
108	0x3d082c6f	0.0332455
109	0xbd701dc6	-0.058622144
110	0x3a92dae8	0.0011204155
111	0xbccd1748	-0.025035515
112	0xbda2f3bf	-0.07956647
113	0xbbd18645	-0.00639418
114	0x3cff95d5	0.031199375
115	0xbd2fcc8d	-0.042919684
116	0x3ba56f32	0.005048656
117	0x3a0015eb	0.00048860785
118	0x3d4221e1	0.04739559
119	0xbb427cb5	-0.0029676382
120	0x3dc6ba31	0.09703482
121	0x3cacfc45	0.021116385
122	0xbd503306	-0.05082991
123	0x3c478468	0.012177564
124	0xbc90d75e	-0.01768082
125	0xbccd5d4c	-0.025068901
126	0xbc437151	-0.011928872
127	0x3cc320f7	0.02381943
128	0x3bd96b8e	0.006635136
129	0x3c1f7d71	0.009734497
130	0x3d2eabee	0.042644434
131	0xbbfc227d	-0.007694541
132	0xbc412cab	-0.011790435
133	0x3d37522d	0.044756103
134	0x3c15f65a	0.009152973
135	0x3c82ff22	0.015990797
136	0xbd7de6ca	-0.061987676
137	0xbc877b8e	-0.016538408
138	0xbd8add91	-0.06780542
139	0x3c367d5e	0.011138288
140	0xbc39f20e	-0.011349214
141	0xbb12e3e6	-0.002241367
142	0x3bd990d7	0.0066395807
143	0xbd16d06c	-0.03681986
144	0x3dc46d87	0.09591203
145	0x3e9b754d	0.3036293
146	0xbc825adb	-0.015912464
147	0x3e77a136	0.24182591
148	0xbd904552	-0.07044472
149	0x3dc11e6f	0.09429633
150	0x3d8dda2f	0.06926381
151	0xbce7c422	-0.028291766
152	0x3c7c6c47	0.015406675
153	0xbe189d06	-0.1490365
154	0x3d5ead92	0.05436475
155	0xbdb85e1a	-0.090023234
156	0x3e71d47c	0.23616213
157	0xbc7221e8	-0.014778592
158	0xbd9095a9	-0.070597954
159	0x3b93b76a	0.0045079486
160	0x3e61c30c	0.2204706
161	0x3c132460	0.00898084
162	0xbdb3ee02	-0.08785631
163	0x3f7c377d	0.9852217
164	0xbe890ef1	-0.26769212
165	0x3e76a18a	0.2408506
166	0x3d152fd8	0.03642258
167	0xbeb75bdb	-0.35812268
168	0xbd200bf4	-0.0390739
169	0x3d32afee	0.04362481
170	0x3ce8d6d9	0.02842276
171	0xbce01cd2	-0.027357493
172	0xbd89b83e	-0.067245945
173	0x3dc7fa16	0.09764497
174	0xbe0856bb	-0.13314335
175	0x3d7dc9e0	0.0619601
176	0x3cc4323e	0.023949739
177	0xbca8e392	-0.020616326
178	0xbda3b56f	-0.0799359
179	0xbdc2cd8b	-0.095118605
180	0x3afd6f1f	0.0019335485
181	0xbb9b543d	-0.0047402666
182	0x3d1a24e7	0.03763285
183	0xbb550b1e	-0.0032507847
184	0xb831276f	-4.2236814e-05
185	0xbbe964e1	-0.0071226214
186	0xbc40ba48	-0.011763163
187	0xbc8c5dc0	-0.017134547
188	0x3cb818e6	0.02247281
189	0xbd380ed5	-0.04493602
190	0x3c933fbc	0.017974727
191	0x3cf44a32	0.029820535
192	0x3a7be9e0	0.000960974
193	0x3bd9b33f	0.0066436823
194	0xbb37b6e0	-0.0028032586
195	0x3d5f8191	0.054566924
196	0xbd395646	-0.045248292
197	0xbc6303ca	-0.013855884
198	0x3f36336d	0.7117222
199	0xbe1158a2	-0.14193967
200	0x3db8e098	0.09027213
201	0xbf566e7b	-0.8376233
202	0x3e91ce0b	0.2847751
203	0xbeaf3d54	-0.34226477
204	0x3d5c2ecf	0.053755578
205	0x3cbf5ce9	0.023359733
206	0x3d4aa6d9	0.049475525
207	0xbda63b3a	-0.08116765
208	0x3cf382b3	0.029725408
209	0xbd2f3adb	-0.04278074
210	0xbec85161	-0.39124587
211	0xbc4efde3	-0.0126337735
212	0xbdabc0cf	-0.08386385
213	0xbd4aa818	-0.049476713
214	0x3e402725	0.18764932
215	0x3e0525ba	0.13002673
216	0x397b3e36	0.000239604
217	0x3b91945f	0.004442736
218	0x3d1f3bed	0.03887551
219	0x3c7027c0	0.014657915
220	0xbbb54e96	-0.00553305
221	0xbc413c67	-0.011794186
222	0x3c81cb17	0.015843911
223	0xbcba08ff	-0.022709368
224	0x3ca7ced8	0.020484373
225	0xbb931071	-0.004488044
226	0x3a6a14b4	0.00089294766
227	0x3d048f65	0.032363314
228	0xbd0d0300	-0.03442669
229	0x3c68a1cb	0.014198731
230	0x3a651440	0.0008738674
231	0x3c3a669e	0.011377005
232	0xbcba1662	-0.022715751
233	0xbd830568	-0.063975155
234	0x3e9c335a	0.30507928
235	0xbccb4c9d	-0.024816805
236	0x3e5520bb	0.20813267
237	0x3e2dcbca	0.1697227
238	0xbee95c2e	-0.4557814
239	0x3df147be	0.11781262
240	0x3d3bb5ec	0.04582779
241	0xbd7e0fe0	-0.06202686
242	0x3d072086	0.03299
243	0xbd37a49e	-0.044834726
244	0x3d2ef410	0.042713225
245	0xbdf8f377	-0.12155812
246	0x3d17b66a	0.037039198
247	0x3b0e13a6	0.0021679192
248	0xbe14a77e	-0.14517018
249	0xbd52197d	-0.05129384
250	0x3e7a7461	0.24458458
251	0x3dd829d3	0.10554852
252	0xbc82f56d	-0.015986169
253	0xbbc5e6b4	-0.006039465
254	0xbb3d30ed	-0.0028868273
255	0xbb3e8389	-0.00290701

fc1.bias f4 [200]
0	0xbba50d45	-0.0050369822
1	0xbcfba4be	-0.030718204
2	0xbebca602	-0.36845404
3	0x3bff4211	0.007789858
4	0xbca48dd2	-0.020087156
5	0x3a1a7518	0.0005892082
6	0x3bcf5eea	0.0063284533
7	0xbd32d6c8	-0.043661863
8	0xbeac9526	-0.3370754
9	0xbf2a8b34	-0.6661866
10	0x3c8feb36	0.017568212
11	0xbe30bb76	-0.1725901
12	0x3b5d037c	0.0033724
13	0xbe0cec67	-0.13762055
14	0xbbab3b7a	-0.005225596
15	0xbc7d3575	-0.01545464
16	0xbcdc3aa0	-0.026883423
17	0xbd29d022	-0.041458257
18	0xbb7d912a	-0.003869126
19	0xbcdcd5b7	-0.026957376
20	0xbcdf635b	-0.027269056
21	0xbf1e3abc	-0.6180837
22	0x3c0af8d9	0.0084821815
23	0x3b35adff	0.0027722118
24	0xbec72a80	-0.38899612
25	0xbe59fa06	-0.21286783
26	0xbc66df96	-0.014091393
27	0xbe23d4d7	-0.1599916
28	0xbd845062	-0.06460644
29	0xbc2a43cc	-0.010392141
30	0xbead604d	-0.33862534
31	0xbd9236a7	-0.0713933
32	0xbd51e2fc	-0.05124186
33	0xbc5de808	-0.01354409
34	0xbc7995dd	-0.015233484
35	0xbb8c0c16	-0.0042739017
36	0x38962a31	7.160416e-05
37	0xbe232a67	-0.15934144
38	0xbe9b15db	-0.30290112
39	0xb9fcd4d4	-0.00048223755
40	0xbf4a964f	-0.791356
41	0xbe5a4ecd	-0.21319123
42	0xbd5b176a	-0.053489126
43	0xbe528a98	-0.20560682
44	0xbdda6297	-0.10663336
45	0xbedacece	-0.42735904
46	0xbbae9afe	-0.005328535
47	0x3b684802	0.003544331
48	0xbe541cb6	-0.20714077
49	0xbc413cb8	-0.011794262
50	0xbc6df565	-0.014523839
51	0xbcbaa6a1	-0.022784533
52	0xbf416f03	-0.75560015
53	0xbe3cab8f	-0.1842482
54	0xbf1f6663	-0.62265605
55	0xbabcca13	-0.0014403485
56	0xbe337233	-0.17524032
57	0xbd942127	-0.07232886
58	0xbd3f3bdf	-0.046687957
59	0xbebc734d	-0.36806718
60	0xbb5c8824	-0.0033650482
61	0xbd25d604	-0.040487304
62	0xbd09bf51	-0.03362972
63	0xbe6beee1	-0.23040344
64	0xbc788402	-0.015168192
65	0xbc418dda	-0.011813605
66	0xbec9b8ec	-0.39398897
67	0xbcafb358	-0.021447822
68	0xbc1de068	-0.009636022
69	0xbe972bf1	-0.29525712
70	0xbc9a13ef	-0.018808333
71	0xbd4c3e5d	-0.04986416
72	0x3c4c1812	0.012456911
73	0xbd0364ad	-0.032078434
74	0x3b584723	0.0033001385
75	0xbe186ffa	-0.14886466
76	0x3b774413	0.0037729784
77	0xbc8d5eaf	-0.017257063
78	0xbe2c2e10	-0.16814446
79	0xba136c96	-0.00056237855
80	0xbede613f	-0.43433568
81	0x3c328e4c	0.010898184
82	0x3c5f5221	0.013630421
83	0xbba7d0f3	-0.0051213442
84	0xbe9678a5	-0.2938892
85	0xbec7bc44	-0.39010823
86	0x3bf9fa6a	0.0076287286
87	0xbce909d8	-0.028447077
88	0xbd024082	-0.0317998
89	0xbcb1f2d1	-0.02172223
90	0xbf4fd330	-0.8118162
91	0x3c91d69b	0.017802527
92	0xbb0782f6	-0.0020677424
93	0xbd22d741	-0.039756063
94	0xbea4cbf1	-0.32186845
95	0xbb8a5948	-0.004222069
96	0xbc4ece40	-0.012622416
97	0xbecbc710	-0.3980031
98	0xbc4e82f6	-0.012604466
99	0xbbc916a5	-0.0061367326
100	0xbec8eaf0	-0.39241743
101	0xbca2be8d	-0.019866252
102	0xbe72afcb	-0.23699872
103	0x3ba0ba01	0.004904986
104	0xbc0e44c7	-0.00868339
105	0xbefd1fbe	-0.4943828
106	0xbc9abc38	-0.018888578
107	0xbcabe134	-0.020981409
108	0x3bff0904	0.007783057
109	0xbd0fe224	-0.035127774
110	0x3dca8c3e	0.0989003
111	0x3bdd7b36	0.0067590727
112	0xbe8cd2a1	-0.27504447
113	0xbea6853c	-0.32523525
114	0xbbc0e02b	-0.005886098
115	0xbeb38ca7	-0.35068247
116	0xbe9c1ac8	-0.30489182
117	0xbd569ec0	-0.05239749
118	0xbcc74f9e	-0.024329957
119	0xbc7daf33	-0.015483665
120	0x3915a6fb	0.00014271952
121	0xbd77cbc9	-0.06049708
122	0xbba2f291	-0.004972764
123	0xbeffbdaa	-0.4994939
124	0xbb9a43cf	-0.0047077904
125	0x3c68e644	0.014215056
126	0xbe4cc2b8	-0.19996154
127	0x3ba44317	0.0050128805
128	0xbb250083	-0.0025177307
129	0xbc11f4d4	-0.008908469
130	0xbbfe64f7	-0.007763501
131	0xbc6c2f1c	-0.014415529
132	0xbccec310	-0.025239497
133	0xbc19ce24	-0.009387527
134	0xbf03fd90	-0.5155878
135	0xbe8a0410	-0.26956224
136	0x3c8fd036	0.017555337
137	0xbb93cefc	-0.0045107584
138	0x3c7f9f46	0.015601939
139	0xbb2a8e2b	-0.002602468
140	0xbe65c8ea	-0.22439924
141	0xbb25263f	-0.0025199798
142	0xbf535615	-0.82553226
143	0xbbfecba5	-0.007775741
144	0x3b9f959d	0.00487013
145	0xbf1e79ee	-0.619048
146	0xbce4e756	-0.02794234
147	0xbf22622c	-0.6343105
148	0xbe541cbe	-0.2071409
149	0xbba327ca	-0.0049791085
150	0xbca58017	-0.02020268
151	0xbac04d77	-0.0014671524
152	0xbef6cbbd	-0.48202315
153	0xbc88e60d	-0.01671126
154	0xbde39196	-0.11111753
155	0xbc29a215	-0.010353585
156	0xbc7eadeb	-0.015544395
157	0x3c63188f	0.013860836
158	0xbf274294	-0.65335965
159	0xbdcb54a8	-0.09928256
160	0xbe153836	-0.14572224
161	0xbe29dd41	-0.16588308
162	0xbd514dbc	-0.051099524
163	0xbef2f057	-0.4744899
164	0xb9837aec	-0.0002507785
165	0xbc2974a4	-0.010342751
166	0xbf1367c3	-0.575802
167	0xbc03e535	-0.008050253
168	0xbec4018c	-0.3828243
169	0x3c5af8be	0.013364969
170	0xb888c038	-6.520789e-05
171	0x3a669af1	0.0008796892
172	0x3c42f826	0.0118999835
173	0xbcf839f8	-0.03030108
174	0xbe9208d1	-0.2852235
175	0xbcd42463	-0.025896257
176	0x3cb3cea9	0.02194913
177	0xbd60e2a8	-0.054903656
178	0xbc9f96b6	-0.019481044
179	0x3b69dca1	0.0035684484
180	0xb9c0c466	-0.00036767422
181	0xbc48b2f1	-0.012249694
182	0x3c91a8b3	0.017780637
183	0xbcb1d8ff	-0.021709917
184	0xbcd7e816	-0.026355784
185	0xbc9ac3c4	-0.018892176
186	0xbd13874e	-0.03601771
187	0xbbff768a	-0.0077961134
188	0xbeffabf1	-0.49935868
189	0x3a1683d1	0.0005741688
190	0xbe5fb849	-0.21847643
191	0xbc26d88f	-0.0101834675
192	0xbcdbbca4	-0.02682335
193	0xbb560b97	-0.0032660717
194	0xbc3f8735	-0.011689951
195	0x3c0a04ef	0.008424028
196	0xbcc8d61d	-0.02451616
197	0xbe9b1d96	-0.3029601
198	0xbecbc2d2	-0.39797074
199	0xbcf0d3c7	-0.029397858

fc2a.weight f4 [4, 200]
0	0x3c8f9ebc	0.017531745
1	0x3c0de893	0.008661407
2	0xbcd3a45f	-0.025835214
3	0xbd0b3d24	-0.033993855
4	0xbc4693f6	-0.012120238
5	0x3d24e33c	0.04025577
6	0xbd492022	-0.04910291
7	0xbca0bba2	-0.01962072
8	0x3d5b5778	0.053550214
9	0x3cb9ddd9	0.022688793
10	0x3d0d70f9	0.034531567
11	0xbe3c54a4	-0.18391663
12	0x3c52f205	0.012875085
13	0xbdbd0986	-0.09230332
14	0xbb2c1cdd	-0.002626232
15	0x3c1421a4	0.009041224
16	0x3cf3978d	0.029735351
17	0xbc0562a7	-0.008141196
18	0x3c670cc4	0.014102165
19	0xbbb3401b	-0.0054702885
20	0x3c9ddf9a	0.01927166
21	0xbe0cc499	-0.13746871
22	0x3c49c72a	0.012315551
23	0x3cb45299	0.022012042
24	0xbcfe4712	-0.031039748
25	0x3e90094b	0.2813209
26	0xbd11121b	-0.035417657
27	0xbceea14b	-0.029129645
28	0x3d0c799a	0.034295656
29	0xbc483113	-0.012218731
30	0xbda025a8	-0.07819682
31	0xbe1c5c4e	-0.15269586
32	0x3bd11de6	0.006381738
33	0x3c9f7df9	0.019469248
34	0xbc7911f1	-0.0152020315
35	0x3c86fb23	0.016477173
36	0xbbc54276	-0.0060198857
37	0xbcbd7411	-0.023126634
38	0xbdece754	-0.1156756
39	0x3c2dc0c4	0.010605041
40	0xbd911f7f	-0.070860855
41	0x3bdbf85b	0.006712956
42	0x3d5c1a49	0.053736005
43	0x3d2ef5a3	0.042714726
44	0x3d993335	0.0748047
45	0x3da7ba7d	0.08189867
46	0xbd10b3f3	-0.035327863
47	0x3b726ad1	0.0036989937
48	0xbc23f3dd	-0.010006872
49	0xbd130d3a	-0.035901286
50	0x3cb26163	0.021774953
51	0xbca9ea20	-0.020741522
52	0xbe94012d	-0.28907147
53	0x3e2290a4	0.15875489
54	0xbe0f6541	-0.14003469
55	0xbc0029fc	-0.00782251
56	0xbe1bc66d	-0.15212412
57	0x3c474705	0.0121629285
58	0x3a6e0b9c	0.00090807094
59	0x3e13d3b1	0.14436223
60	0xbd05581e	-0.03255474
61	0x3cae8b2c	0.021306597
62	0xbd1a5350	-0.03767711
63	0x3e2af757	0.16695915
64	0xbc1d74dd	-0.009610382
65	0x3a87633b	0.0010329256
66	0x3d3e3bfd	0.046443928
67	0x3af40a3e	0.0018618775
68	0xbc5fcdb3	-0.013659882
69	0xbe0b6841	-0.13613988
70	0xbc79509a	-0.015216971
71	0xbb1d9a7a	-0.0024048374
72	0xbd02b80b	-0.0319138
73	0xbc7f0ef6	-0.015567532
74	0xbd04ae5f	-0.032392856
75	0x3b86f533	0.0041185855
76	0x3cec83c6	0.028871428
77	0xbd068ff1	-0.032852117
78	0x3dd7496f	0.10512053
79	0xbcc16596	-0.02360801
80	0xbb64b722	-0.0034899195
81	0xbd2da16a	-0.042390265
82	0x3c45f350	0.012081936
83	0x3c9ffdf3	0.019530272
84	0x3d0a3b25	0.03374781
85	0xbcbb17f5	-0.022838572
86	0x3d6c93b0	0.057758033
87	0xbc4f3649	-0.01264722
88	0x3a2deb22	0.0006634464
89	0x3c8a0d92	0.016852174
90	0x3e5988ca	0.21243587
91	0xbb3440b7	-0.0027504393
92	0xbc07b389	-0.008282551
93	0x3d0e9ef4	0.03481956
94	0x3d903482	0.07041265
95	0x3c8412df	0.01612228
96	0xbc5017cd	-0.012700987
97	0xbd7240ce	-0.059143834
98	0xbb3ad611	-0.0028508941
99	0xbb83e107	-0.004024628
100	0x3d8f4730	0.06996
101	0xbc850e8c	-0.016242288
102	0xbdc06473	-0.09394159
103	0xbcedeb5d	-0.029042894
104	0xbc44858f	-0.0119947335
105	0x3e332c61	0.17497398
106	0x3cc91ead	0.02455076
107	0xbb5e1609	-0.0033887646
108	0x3ccf644c	0.02531638
109	0x3c5a95b1	0.013341353
110	0xbc7fa4b1	-0.01560323
111	0xbb939778	-0.0045041405
112	0xbc248135	-0.010040571
113	0xbd43258f	-0.04764324
114	0xbcf6f9a9	-0.030148344
115	0x3dc3a7f6	0.095535204
116	0xbd53becc	-0.05169563
117	0xbc7f36ea	-0.015577057
118	0x3cb04a39	0.021519767
119	0x3c18f069	0.009334662
120	0x3bb876b8	0.0056293868
121	0x3b300257	0.0026856863
122	0x3cb24aed	0.021764243
123	0x3db6374d	0.088972665
124	0xbca1abf3	-0.019735312
125	0x3d135fb8	0.035979956
126	0x3d06c542	0.032902963
127	0xbcebd7f8	-0.028789505
128	0xbc278e29	-0.010226765
129	0x3c976868	0.018482402
130	0xbcfcf0c9	-0.030876534
131	0xbcad7d02	-0.021177772
132	0x3d312640	0.04324937
133	0xbc45f41f	-0.012082129
134	0xbe4dabf7	-0.2008513
135	0x3b6856c4	0.0035452107
136	0x3c59667e	0.013269065
137	0x3c4601bd	0.012085375
138	0xbc79af8b	-0.015239607
139	0xbc901c09	-0.017591493
140	0x3dc0ac79	0.094078965
141	0x3c1c9756	0.009557566
142	0xbe60c959	-0.21951808
143	0xbb220f58	-0.0024728384
144	0x3c1d03f0	0.009583458
145	0x3e6fb747	0.23409759
146	0x3a756336	0.0009360792
147	0xbce144ed	-0.027498687
148	0x3ac17fa4	0.0014762771
149	0xbc9f7d7a	-0.019469012
150	0x3ca408fd	0.020023817
151	0x3a7a0a1c	0.00095382496
152	0x3d2aa35f	0.04165971
153	0x3b1c670a	0.0023865127
154	0xbd10549c	-0.03523694
155	0xbcb5f234	-0.022210218
156	0x3d4eb801	0.05046845
157	0xbb4d536f	-0.0031330248
158	0x3e1e18d0	0.15439153
159	0xbca9af8a	-0.020713586
160	0xbd410bf5	-0.047130544
161	0x3d01e966	0.031716727
162	0x3bf133c8	0.007360909
163	0xbcec813a	-0.028870214
164	0xbc3fe7ce	-0.011712981
165	0x3cb9e544	0.02269233
166	0x3dbe4841	0.09291125
167	0xbd440197	-0.04785308
168	0x3da41213	0.0801126
169	0xbc8d0897	-0.01721601
170	0x3c5dc1aa	0.013534943
171	0x3cd957bd	0.026531095
172	0xbca189c0	-0.019719005
173	0xbc92f457	-0.017938776
174	0x3c4c8ebf	0.012485205
175	0xbcca9df8	-0.024733528
176	0x3c5f128d	0.013615263
177	0x3ca273ce	0.01983061
178	0x3986b780	0.0002569519
179	0x3d197a49	0.037470136
180	0x3c24e93e	0.010065375
181	0xbc4189e6	-0.011812663
182	0xbd27cd42	-0.040967233
183	0x3ccbdb8f	0.024884967
184	0x3b59e12b	0.0033245783
185	0xbcd12100	-0.025528431
186	0x3a933167	0.0011229933
187	0x3987fb24	0.0002593632
188	0x3e468be4	0.19389302
189	0xbaec6381	-0.0018035026
190	0xbd277fc7	-0.040893342
191	0x3cbf90b4	0.02338443
192	0x3ba78f10	0.00511349
193	0x3bc1f05b	0.005918545
194	0x3c4985a9	0.0122999335
195	0x3c222f96	0.009899041
196	0x3d17b131	0.037034217
197	0x3da4e815	0.08052079
198	0xbdaaac7d	-0.08333681
199	0xbc522ae2	-0.012827607
200	0x3d505599	0.050862882
201	0x3cfc8300	0.030824184
202	0x3d8e1445	0.0693746
203	0xbc4fe1b9	-0.012688094
204	0x3bf18cea	0.0073715346
205	0x3c878fdc	0.01654809
206	0xbd3410ff	-0.04396152
207	0xbc5e3327	-0.013562
208	0x3b1cf122	0.0023947437
209	0xbc6c01a1	-0.014404685
210	0x3d0d2e93	0.034468245
211	0xbd86dec2	-0.065854564
212	0x3cd9a9f0	0.02657029
213	0x3c1650b1	0.009174512
214	0xbc74f032	-0.014949845
215	0xbc225432	-0.009907769
216	0x3cd8cb36	0.026464086
217	0x3c50e3e6	0.012749648
218	0x3c8fd4c9	0.017557519
219	0x3bac16c8	0.005251739
220	0x3cd34afc	0.025792591
221	0xbd4e2dbc	-0.050336584
222	0xbc6cce86	-0.014453536
223	0x3c3aa379	0.011391514
224	0xbbae71ee	-0.00532364
225	0xbcc1101b	-0.02356725
226	0xbd6a4c64	-0.057201758
227	0xbbc69cd2	-0.006061175
228	0x3d2439e7	0.040094282
229	0xba6308ef	-0.0008660694
230	0x3ecd6cef	0.40122172
231	0x3e3288c6	0.17434987
232	0x3c96699d	0.018360907
233	0xba4cb6bd	-0.00078092125
234	0xbaa6d97f	-0.0012729614
235	0xbc95dd68	-0.018294051
236	0x3ca0b88e	0.019619253
237	0xbc2f6059	-0.010704123
238	0x3da71a6c	0.081593364
239	0x3b98567a	0.0046489807
240	0xbc97e0bc	-0.018539779
241	0x3e36befc	0.17846292
242	0x3b4546b0	0.0030101947
243	0xbd6959e5	-0.056970496
244	0x3d9401fb	0.0722694
245	0x3cd940e7	0.026520206
246	0xbcc8a5f4	-0.024493195
247	0xba11ed9d	-0.0005566718
248	0x3ccdef85	0.025138626
249	0xbb4e6ac6	-0.0031496747
250	0x3ce7c0af	0.02829012
251	0xbc40d4e9	-0.011769512
252	0xbd26bd20	-0.040707707
253	0x3dcd025a	0.10010214
254	0xbd595f78	-0.05306956
255	0xbc9affc7	-0.018920792

fc2a.bias f4 [4]
0	0xbea13c0b	-0.31491122
1	0x3dd678a3	0.104722284
2	0xbb3d4452	-0.0028879833
3	0x3dc0d83f	0.09416246

fc2c.weight f4 [1, 200]
0	0x3b13bef3	0.0022544235
1	0x3a534d80	0.00080605596
2	0xbcd2d9d0	-0.025738627
3	0x3c8a3df5	0.016875247
4	0x3b767837	0.0037608275
5	0xbac567d0	-0.0015060846
6	0x3ba89777	0.005145009
7	0xbbe43191	-0.0069639166
8	0xbd271bef	-0.040798124
9	0xbe174dba	-0.14775744
10	0x3bed7736	0.007246877
11	0x3c68ba77	0.014204613
12	0x3c47ecfe	0.012202499
13	0x3e7be737	0.2459992
14	0xbacc1a94	-0.0015571886
15	0xbb4a94f7	-0.0030911544
16	0x392de962	0.00016585508
17	0x3bd4341b	0.006475938
18	0x3c962a68	0.018330768
19	0xbbd1b8e5	-0.006400215
20	0x3aa72155	0.0012751023
21	0xbd01a7d0	-0.03165418
22	0xbb3abece	-0.0028495076
23	0x3c79d0c0	0.015247524
24	0x3b49f828	0.0030818079
25	0xbe7c7251	-0.24652983
26	0xbba32091	-0.0049782475
27	0xbe84130c	-0.25795782
28	0xbbeb4f89	-0.007181112
29	0x3c040fda	0.00806042
30	0xbe5c6745	-0.21523769
31	0xbdd22d7e	-0.10262583
32	0xbbc8ce89	-0.0061281365
33	0x3bc1219c	0.005893899
34	0x3c02fc49	0.00799472
35	0xbb40cc84	-0.0029418776
36	0xbbcce06b	-0.0062523386
37	0xbbeb7447	-0.007185492
38	0xb9ddb319	-0.00042285843
39	0x398125eb	0.00024633048
40	0xbe9f548b	-0.3111919
41	0x3e2d43e0	0.16920424
42	0xbe14a904	-0.145176
43	0xbe63568f	-0.22200988
44	0xbd17e8bd	-0.03708719
45	0x3dde8ce6	0.10866718
46	0x3c1ed431	0.009694145
47	0xbc28d81d	-0.010305432
48	0xbd60bb53	-0.054866146
49	0x3becd6df	0.007227763
50	0x3b9cee08	0.0047891177
51	0x3b287071	0.0025701786
52	0x3e7c7ca0	0.24656916
53	0xbe3234b8	-0.17402923
54	0x3e845ea0	0.25853443
55	0xbc5bc9e9	-0.013414838
56	0x3ebaf86c	0.36517656
57	0x3e9beeff	0.30455777
58	0x3c93d869	0.018047528
59	0x3c875439	0.016519653
60	0x3b703473	0.0036652356
61	0xbb55bf2f	-0.0032615175
62	0xba996469	-0.0011702898
63	0x3ea57d18	0.32322
64	0xb7c31b50	-2.325853e-05
65	0xbb948ee7	-0.004533637
66	0x3b936ed9	0.004499298
67	0xbb90c5fe	-0.0044181338
68	0x3a41fc1f	0.00073999347
69	0x3bbdd31c	0.0057929885
70	0x3b8a6ec0	0.004224628
71	0xbba2c9bc	-0.0049678963
72	0x3b9a82d1	0.0047153016
73	0xbbb329b6	-0.005467619
74	0x3b449e04	0.0030001411
75	0xbe096e9b	-0.13421099
76	0xbb06a148	-0.0020542908
77	0x3b52d58e	0.0032170746
78	0xbd8498e5	-0.06474475
79	0x3b87b22d	0.0041411133
80	0xbe981537	-0.29703686
81	0xbbbdce41	-0.0057924096
82	0x3bcd4ba0	0.0062651187
83	0x3a221e11	0.000618429
84	0xbe055785	-0.13021667
85	0x3dec151f	0.11527466
86	0x3bd629ce	0.006535745
87	0xbbb84891	-0.005623885
88	0xbbaa9db9	-0.0052067903
89	0xbc1b1946	-0.009466475
90	0x3d0e28a1	0.034706715
91	0xbb3b3937	-0.0028568038
92	0x3b2e0fe8	0.0026559774
93	0xbb65a1a4	-0.0035038972
94	0x3dee870b	0.11646851
95	0xbb8adf5c	-0.0042380523
96	0xbb1f68ed	-0.0024324015
97	0xbd0153ea	-0.031574167
98	0xbc1220d3	-0.008918959
99	0xbaa58b79	-0.0012630067
100	0xbec794be	-0.3898067
101	0xbbc0006f	-0.0058594267
102	0xbd3aed3d	-0.045636404
103	0xba69ad8a	-0.0008914104
104	0x3a1500d2	0.0005684021
105	0x3d9455fb	0.07242962
106	0xbc005933	-0.007833767
107	0xbc585f3c	-0.013206299
108	0x3bcc0a06	0.006226781
109	0xbc2b549b	-0.010457183
110	0x3e879ac1	0.26485255
111	0xbba92e2b	-0.0051629744
112	0x3d8d9d59	0.06914777
113	0xbcb8a861	-0.022541227
114	0xbb861d44	-0.004092844
115	0x3c818826	0.015811991
116	0x3d02be82	0.031919964
117	0xbb74820b	-0.0037308957
118	0xbbd0a6cc	-0.00636754
119	0xbb0f686e	-0.0021882313
120	0x3c865f10	0.016402751
121	0x3c67cbdf	0.014147728
122	0xbb3c472c	-0.0028728945
123	0xbde8a091	-0.113587506
124	0xbb92afef	-0.0044765393
125	0x395a3bc5	0.00020812366
126	0xbd003ba4	-0.031306878
127	0xbc6ec8be	-0.014574228
128	0xbc17be53	-0.009261685
129	0x3abec842	0.0014555531
130	0x3b07ee7c	0.0020741513
131	0xbc38dadd	-0.01128265
132	0xbbe2b302	-0.006918312
133	0xbc88c978	-0.01669763
134	0xbd8b77b2	-0.068099394
135	0xbd8186f6	-0.0632457
136	0x3b428a28	0.0029684398
137	0xbb837912	-0.0040122354
138	0x3b8ef768	0.004362989
139	0xbc04f126	-0.008114135
140	0xbe46f24e	-0.1942837
141	0xbae5ff5f	-0.001754742
142	0x3cd78cbc	0.026312225
143	0xbb86f76e	-0.0041188514
144	0xbb817f31	-0.00395193
145	0xbc155da0	-0.00911656
146	0xb9835a8b	-0.00025053727
147	0x3df54bc9	0.119773455
148	0xbd7dc94d	-0.061959554
149	0xbc10a119	-0.008827471
150	0xbb31dc45	-0.0027139348
151	0x3c3f4b18	0.011675619
152	0xbd0fbd72	-0.03509278
153	0x3b398193	0.0028305992
154	0xba9583f1	-0.001140712
155	0x3bf736a4	0.0075443555
156	0xbb2564f0	-0.0025237165
157	0x3c01f0e7	0.007930971
158	0x3d994583	0.074839614
159	0xbc238ae4	-0.009981845
160	0xbcf664c0	-0.030077338
161	0x3e86a1a9	0.26295212
162	0x3bbf8249	0.0058443886
163	0x3e4ef7cf	0.20211719
164	0xbb3d5734	-0.0028891088
165	0xbae00761	-0.0017092043
166	0xbe3de3ae	-0.18543884
167	0xbb3d4e56	-0.0028885803
168	0xbe9b00d1	-0.3027406
169	0x3bf9e021	0.007625595
170	0xba4d4d5e	-0.0007831658
171	0xbbf39751	-0.00743381
172	0x3c7dd557	0.015492759
173	0xbc18c1cf	-0.009323551
174	0xbe43cf27	-0.19121991
175	0xbc2439c8	-0.010023542
176	0x3c164e0f	0.009173884
177	0xbc3809c7	-0.0112328
178	0xbc15a3aa	-0.009133259
179	0x3b3173b6	0.0027077026
180	0x3bbb65c9	0.005718921
181	0xba2f6a23	-0.0006691536
182	0x3c044850	0.008073881
183	0x3b5d6271	0.00337806
184	0xb699a700	-4.5791967e-06
185	0xba60dfb2	-0.0008578255
186	0xbc025b49	-0.007956334
187	0x3abad5ca	0.0014254388
188	0xb984e084	-0.0002534428
189	0xba9f9324	-0.0012174589
190	0xbd9c8464	-0.07642439
191	0xbaa547df	-0.001260992
192	0xbc4258df	-0.011862009
193	0xbb9efe7c	-0.0048521142
194	0xbc2587a4	-0.01010314
195	0x3c08d5cb	0.0083517535
196	0x3a6193ba	0.0008605082
197	0xbe05d7cf	-0.13070606
198	0xbef73cec	-0.48288667
199	0xbaaf3616	-0.0013367559
