whole_experiment/3_7_env/vae_last.pth (torch, 55227 bytes, 14 tensors)

conv_enc1.weight f4 [8, 3, 3, 3]
000000 28 9e 11 be 5b 57 a5 bd 3d d3 2c 3e 74 fa 4e be
       -0.14220488 -0.08073302 0.16877456 -0.20212728
000010 8d 8d 25 be eb d7 46 3e 3e 78 94 bd 9f 30 03 be
       -0.16167279 0.19418304 -0.07249497 -0.12811516
000020 97 c9 35 be 38 e9 6d bd ab 08 8f bd c7 03 46 3e
       -0.17752682 -0.058083743 -0.06984075 0.19337378
000030 91 d9 27 3d c3 f7 81 be 3c ec 24 3c f4 fb 1d be
       0.040978972 -0.2538434 0.010066088 -0.15428144
000040 c3 47 c1 3d 29 03 71 bc da b9 2a be 88 49 ea bd
       0.094375156 -0.014710226 -0.16672459 -0.11439806
000050 32 bc 12 3e a3 64 ae 3d 8f 6a ef 3d 70 fb cc 3d
       0.14329603 0.08515289 0.11690246 0.100088954
000060 2d fc 45 be a0 8c 3a be d7 a7 0a 3e 7c a1 c8 ba
       -0.19334479 -0.18217707 0.13540588 -0.0015306915
000070 45 6b ee bd 23 55 73 3e a2 98 40 3e fa d0 8f 3d
       -0.11641554 0.23762946 0.18808225 0.07022281
000080 b3 f9 64 3e 9f 57 6c 3e 52 6d 89 bc 06 1e 1b be
       0.22360878 0.230803 -0.01677576 -0.15148172
000090 f6 48 b0 3d 36 11 a0 3d a0 57 76 3d ee d7 c9 3d
       0.08607666 0.07815783 0.06014216 0.098556384
0000a0 90 21 29 be f1 cf bf 3d bd 9c 74 3e 86 48 e2 bd
       -0.1651671 0.093658336 0.23887916 -0.11048989
0000b0 a1 03 d7 3d 10 a8 1a bd a7 67 c1 3d 05 33 2b 3e
       0.10498739 -0.037757933 0.09443598 0.16718681
0000c0 58 42 3c 3e 95 66 b6 bd 49 a1 5b 3e ba 7b c4 bc
       0.18384683 -0.08906285 0.21448244 -0.023984779
0000d0 d3 25 88 be f7 bc 8d be 23 1f 78 3e 14 e7 07 be
       -0.26591358 -0.2768323 0.24230628 -0.13271743
0000e0 3c af 8b 3d 33 da 5a be 42 f6 00 bd bd be 44 3e
       0.06820533 -0.21372299 -0.03148485 0.19213386
0000f0 3d 5a 57 3e 8c d2 85 3d 87 f6 5b 3e 5e a7 bb 3d
       0.21030517 0.06534299 0.21480761 0.09162782
000100 7f c3 82 bd 23 58 28 3d e8 a9 32 3e 6f 35 c7 bd
       -0.06384944 0.04109968 0.17447627 -0.097269885
000110 51 9a b3 3d 15 97 e2 3d 99 52 45 be d8 e6 2a be
       0.08769668 0.11063973 -0.1926979 -0.16689622
000120 a5 21 57 3e 6c fd ac bc 7d 56 5b bd 11 0b 33 be
       0.21008928 -0.021116935 -0.05354928 -0.1748469
000130 80 9e 12 3e 3d c4 78 3e 11 a5 b2 3d bf 2a 8c 3d
       0.14318275 0.24293609 0.0872289 0.06844091
000140 2c d5 b1 3b b9 41 a8 3e 8c 99 a7 bd f2 31 bd 3a
       0.0054270234 0.32862642 -0.081835836 0.001443444
000150 8d de 07 be 60 2e 83 be 89 2a 8a 3d 19 1c 41 3d
       -0.1326849 -0.2562132 0.06746394 0.047145937
000160 96 df 2f 3e 3c 19 c4 be 94 73 9f 3e a1 af 24 3d
       0.17175135 -0.38300502 0.31142867 0.040206555
000170 77 04 ff 3d 8a 69 a5 3d 4b 46 13 3d 8d 4f 3b 3e
       0.124520235 0.080767706 0.03595571 0.18292065
000180 fa 48 76 3e d0 ed ab 3d b3 ce 3c 3e 6b 8e 6a 3e
       0.24051276 0.083949685 0.18438224 0.2290589
000190 ae 7d ea bd 1e 15 ff bc 9b 09 9c 3d 40 c9 de bd
       -0.11449753 -0.031138 0.076190196 -0.10878229
0001a0 db e5 08 be ca bf 93 3e 43 85 e4 3d 79 20 9b be
       -0.13368933 0.2885726 0.1115823 -0.30298212
0001b0 d2 fb 29 3e 73 0a 93 be ec 4d 02 3d 37 5e 42 bd
       0.16599968 -0.2871891 0.031812593 -0.04745313
0001c0 ad 80 08 3e 24 e2 8e bc 20 ec da 3c 0e 4a 17 3e
       0.13330336 -0.017441817 0.026723921 0.14774343
0001d0 61 8f a7 3d 39 cd 37 bd ca 3f 79 be 7c 1e 51 3d
       0.08181644 -0.04487345 -0.2434074 0.051054463
0001e0 4a 58 8a bd ff c7 12 3d 36 18 1e 3e de e6 7f 3e
       -0.06755121 0.035835262 0.15438923 0.24990413
0001f0 b6 4d 33 bd aa d6 8f 3d 28 33 e8 3d aa d6 62 3c
       -0.043775283 0.07023366 0.11337882 0.013845125
000200 2d 1a d9 3c e8 40 01 3e ee fb ed 3c 6a f9 52 bc
       0.02650174 0.12622416 0.029050793 -0.012876848
000210 0f cb 60 3e f2 c9 59 3e 8e 9e 01 3d 1b fb e9 3d
       0.2195246 0.21268442 0.03164535 0.11424848
000220 52 dd 26 3e 0b bc 01 bb 4e 61 2d 3e ec b1 66 3d
       0.16295364 -0.001979592 0.1693165 0.056322023
000230 f0 84 3e 3e 70 4a f1 bd 5b b3 7e 3d fb 01 e7 3c
       0.18605399 -0.11781776 0.062182765 0.028199187
000240 af 6a af bd 58 17 52 3e 72 a8 de 3d a0 e9 c0 3d
       -0.0856527 0.20516717 0.10871972 0.094195604
000250 03 64 85 be 8e 36 2c 3e 0b 74 45 be ea 2a aa 3d
       -0.26052865 0.16817686 -0.19282548 0.083089665
000260 8c d2 90 3d ae 4b 97 bd 85 7b 26 3e c2 e8 4e be
       0.07071409 -0.07387482 0.16258056 -0.20205978
000270 be 26 0c 3d 39 03 df 3d a2 e0 a2 bd 95 2a 1a 3e
       0.034216635 0.108892865 -0.079530016 0.15055306
000280 b8 96 01 bd 6e c7 58 3e 8f 07 8f bd 5e 90 29 3d
       -0.031637877 0.21169826 -0.069838636 0.041397445
000290 6f e4 6c be ab 8a 58 be 6f 7c 70 be 30 93 13 3e
       -0.23134016 -0.21146648 -0.23484968 0.14411616
0002a0 60 c0 a0 be 01 73 8a be 4f 62 bb 3d af e6 5c be
       -0.3139677 -0.27040866 0.0914961 -0.21572374
0002b0 c3 b8 16 3e 57 52 97 bd ba 3f 81 be a9 99 48 be
       0.14718919 -0.07388752 -0.25243932 -0.19589867
0002c0 24 79 27 3e 7c 2f b7 be 91 30 af bd 39 1f 0d 3d
       0.16354805 -0.35778415 -0.08554185 0.034453604
0002d0 07 3c 13 3d d3 f7 65 bd a5 52 24 3c 0c 26 3b be
       0.03594592 -0.056144547 0.01002947 -0.18276232
0002e0 e6 44 08 3d 31 ba 8b 3b 28 6d 43 be cf eb 3d be
       0.03326883 0.004264139 -0.19084609 -0.18546985
0002f0 22 58 bf 3c 12 fd a8 bd da ae eb 3d 59 3f 84 3e
       0.023357455 -0.08251394 0.1150796 0.2582958
000300 78 30 39 be 94 cd 9c be 4e 89 74 3e b5 04 b1 bd
       -0.18084896 -0.30625594 0.23880503 -0.08643476
000310 b4 26 7f 3d 21 b4 cb 3d 05 55 45 bd 66 1a 03 bd
       0.06229277 0.09946466 -0.048176784 -0.032007597
000320 77 2a 07 bd be 6a 82 bd 51 df 81 be 8c bd 23 3c
       -0.032999482 -0.06368016 -0.2536569 0.009993922
000330 ff 83 01 be 84 77 90 3c f6 2c 42 bd a2 85 cc bd
       -0.12648009 0.017635114 -0.04740616 -0.09986426
000340 52 2b 94 bd a1 8f d0 3d ef 0b e8 bd 7a 29 2f be
       -0.07234825 0.10183645 -0.11330401 -0.17105666
000350 7a 5d 10 3e 10 aa 2c 3e 62 58 59 be d0 08 a3 3c
       0.14098158 0.16861749 -0.21225122 0.019901663

conv_enc1.bias f4 [8]
000000 61 77 3d be 99 93 68 bb 86 a0 56 bb 08 ce 89 bc
       -0.1850257 -0.0035488366 -0.0032749488 -0.016821876
000010 6f e2 43 bd 94 95 5b be 39 4b d2 3d df 9b e3 bc
       -0.047823366 -0.21443778 0.10268254 -0.027784286

conv_enc2.weight f4 [16, 8, 3, 3]
000000 39 c7 ad bd df c1 c2 bc 26 20 97 bd 98 ea 9d bd
       -0.08485264 -0.023774086 -0.07379179 -0.07710761
000010 a6 4d 08 3d 8d 04 42 3a 87 63 64 3d 99 44 0d bd
       0.033277176 0.0007401191 0.05575898 -0.034489248
000020 ca 62 8d bc 3f 21 c6 bd 8c 75 3d bd ad d2 62 bd
       -0.01725902 -0.0967431 -0.04625468 -0.055376697
000030 5b 59 02 bd 51 11 de 3c b1 e5 83 be 24 4b b1 bd
       -0.031823497 0.027107866 -0.25761178 -0.0865691
000040 0d 74 25 be 3a a6 21 3e da dc 57 be 30 41 88 3d
       -0.16157551 0.15786067 -0.21080342 0.066530585
000050 ca f7 98 bd fc 47 0a be 03 bd 15 be 2d 08 87 bc
       -0.07469137 -0.13504022 -0.14622883 -0.01648339
000060 58 ee 24 3d c3 6e 3e bd 16 c8 07 3e 4c 9f 57 bc
       0.040266365 -0.04649235 0.1325992 -0.013160538
000070 8b c1 25 bd 87 35 f3 bd 32 7a 41 3c 6f a2 c6 bd
       -0.04046778 -0.11875444 0.011808919 -0.096989505
000080 35 2a 13 be c0 03 91 bd f2 6c 86 be a0 ee 11 bb
       -0.1437157 -0.070807934 -0.26254994 -0.0022267476
000090 2f c9 b2 bd a8 f9 17 bd 87 1c 41 3b c7 92 9a 3c
       -0.08729779 -0.037103325 0.0029466467 0.018868817
0000a0 75 d7 81 3d e2 56 2f 3a 56 01 f5 bd 3c 98 b0 3c
       0.06339923 0.0006688667 -0.119631454 0.021556966
0000b0 8a cc a3 3d 7c 5b 5d be 49 c1 d9 bc e2 0d ff bd
       0.07997997 -0.2161693 -0.026581423 -0.1245382
0000c0 b5 48 82 bc ab 71 8d bb f4 cd a4 bd 8a 59 3c be
       -0.01590381 -0.004316529 -0.08047095 -0.18393531
0000d0 12 3c 92 bd 71 f8 ec 3c d0 14 1a bd 7c 11 8e bd
       -0.07140364 0.02892706 -0.037617505 -0.06936929
0000e0 49 59 93 bd f8 74 6b bc 8e 8d 9a bd 3e 16 a2 bd
       -0.07194764 -0.014371149 -0.07546531 -0.079143986
0000f0 c1 6d 9e bd 8d e4 66 be 10 1f 30 be 7b 23 5d be
       -0.07735778 -0.22548123 -0.1719935 -0.21595566
000100 0b 6d df 3a 48 ec df bc 56 cb 37 be 78 6c 3b be
       0.0017046047 -0.027334347 -0.1794866 -0.18303096
000110 d6 e2 79 bd 10 e7 04 bd dd cc 65 3d c5 49 20 3e
       -0.061007343 -0.03244692 0.056103576 0.15653141
000120 1e 4e ab bd 7e 70 a0 bd 72 d8 12 3d 56 85 cf bd
       -0.08364509 -0.07833956 0.03585095 -0.10132854
000130 e1 9a a8 bd 05 a1 fa 3d 9a a4 2a be 84 a8 8e 3e
       -0.08232666 0.12237743 -0.16664353 0.27862942
000140 95 bc 07 3e 19 25 c5 be 7d 68 1a 3e 13 eb 37 be
       0.13255532 -0.38504866 0.15078922 -0.17960767
000150 2f 0a 83 bd bf 99 3a be 48 33 61 be 20 02 02 be
       -0.06398427 -0.18222712 -0.21992218 -0.12696123
000160 c9 69 3b 3e 83 c9 63 bb 32 48 a0 be 3f 75 25 3d
       0.18302073 -0.0034757562 -0.3130508 0.040395018
000170 4f 9e ce bc 9f 0f 9c 3b 68 cf a1 3d ec 32 e9 bd
       -0.025221972 0.0047626044 0.07900888 -0.11386666
000180 97 3a 41 3d e6 e5 87 3e 92 09 32 3d 45 5d 49 be
       0.047175016 0.26542586 0.04346616 -0.19664486
000190 c0 b6 25 bd d0 a2 fd bd 61 eb 22 3c b9 cd f2 be
       -0.040457487 -0.1238457 0.009943814 -0.4742258
0001a0 ac 6f c7 3d 2f 8d 1a 3e 89 38 1a 3c a1 57 39 3d
       0.097380966 0.1509292 0.009412893 0.045249585
0001b0 1c 5f a3 bc bb 34 bf bd 62 d8 24 be 34 c5 ee bd
       -0.019942813 -0.093362294 -0.16098168 -0.11658707
0001c0 71 93 b1 3c e9 c4 3f 3e 9a 1f 99 3c 39 8e 9c 3d
       0.02167675 0.18727459 0.018691827 0.07644314
0001d0 a9 2f 13 3e 1c 24 55 3e 40 78 a9 be 26 2d 3a be
       0.1437365 0.20814556 -0.33099556 -0.18181285
0001e0 81 b7 99 bd c2 18 35 3e 9d 72 40 3e 58 c3 01 be
       -0.07505704 0.17685226 0.18793721 -0.12672174
0001f0 1e 21 2f 3e f2 9c 0d be 0c d6 61 bd e8 cc 07 bd
       0.17102477 -0.13829401 -0.05513577 -0.0331544
000200 f3 85 3e bd cf 56 8e 3c 1e 5b 22 be 33 d8 96 3d
       -0.046514463 0.017375378 -0.15855071 0.073654555
000210 10 e5 69 be 3d 5d 7e be c2 a0 7d 3d fd 08 b6 bd
       -0.22841287 -0.24840255 0.06192089 -0.08888433
000220 92 5b 99 bd a4 d8 20 3d 99 c7 a9 bd 3f e5 26 be
       -0.07488169 0.039269105 -0.08290023 -0.16298388
000230 2d ce 8c 3d 07 65 3c ba 0c 26 6a be 5e 36 37 3d
       0.068752624 -0.0007186685 -0.22866076 0.044729583
000240 ff d8 b3 bd d3 1e af bd 40 77 fa bc 77 d8 af 3d
       -0.08781623 -0.08550801 -0.030574441 0.08586209
000250 73 26 1e bd 7c f3 65 3d 5c 6f b5 bd 89 70 86 3d
       -0.038610887 0.056140408 -0.08859131 0.06564433
000260 ef b4 3e 3c d3 09 a0 bd bc d2 4c 3d d1 84 85 3d
       0.011639818 -0.07814374 0.05000566 0.06519473
000270 45 67 cc 3c 88 ec af 3d 84 ed 83 3d 1d c9 01 be
       0.024951586 0.08590037 0.06441787 -0.12674375
000280 65 f0 1c be e1 8f fb bd 53 d8 ac 3d 5e 87 19 3e
       -0.15326078 -0.12283302 0.08439698 0.14993045
000290 df 7e df bb 4b 93 39 bd 97 06 83 be 53 66 2b 3e
       -0.006820544 -0.045306485 -0.25590965 0.16738252
0002a0 9a 78 64 be 64 13 97 3e 16 8f ff bd 24 79 7c 3d
       -0.22311631 0.2950698 -0.12478463 0.061638966
0002b0 99 18 8c bc dd c9 33 bd e1 20 5f be 9b 8d 3c bd
       -0.017101573 -0.043893684 -0.21789886 -0.046033483
0002c0 fd 53 13 bc c4 55 3b 3e 96 28 9d 3c 66 7b 42 bd
       -0.008992192 0.18294436 0.019184392 -0.047480963
0002d0 45 b8 d6 3d c2 55 50 ba 1f 56 5a bb d0 18 e1 bc
       0.104843654 -0.0007947349 -0.0033315492 -0.027477652
0002e0 37 2f 2f be 9f cf d5 bc a7 b3 32 bd b9 ef 64 bd
       -0.17107855 -0.026099978 -0.04362836 -0.05589268
0002f0 5b 6b d4 3d 54 2a ae bd bd 42 35 be 6b 6f 07 be
       0.10372039 -0.08504167 -0.1770124 -0.13226096
000300 3a 41 cd 3d 63 d0 1e 3e 3f 08 dd bd 65 55 3d be
       0.100222066 0.1550918 -0.107925884 -0.18489607
000310 1f 1e 2f be 82 eb ae bd a8 2e 90 be af 3a 3a be
       -0.17101334 -0.08541013 -0.28160596 -0.18186449
000320 68 9b fb ba 15 35 7e be 2d cb 90 be d1 60 f1 bc
       -0.0019196095 -0.24824937 -0.2828001 -0.029465111
000330 35 4e f6 3d 4a 22 cb bd 01 d0 20 be 2c 9d cf 3b
       0.120266356 -0.099186495 -0.15704347 0.006335875
000340 ce d7 71 bd c2 6e ad bd e7 3e 19 be 34 e2 13 3d
       -0.059043698 -0.08468391 -0.14965402 0.036104396
000350 de 5f 4f bd fb c7 b1 bd 9a 85 1a 3e 5d fb 86 bd
       -0.050628535 -0.08680721 0.15090027 -0.065909125
000360 51 81 4f 3d 62 04 6a 3d c8 1e 77 3d fb b1 42 3d
       0.050660435 0.057133086 0.06033209 0.047533017
000370 98 f4 b3 3d 4f e3 cd 3d c1 d4 3a bd 8a ab bf bd
       0.08786887 0.10053121 -0.045613054 -0.0935889
000380 19 98 9d bd 01 9a c4 bd a6 74 bc 3c d1 2b ca bc
       -0.07695026 -0.095996864 0.023004841 -0.024679096
000390 ae eb a8 3d 7e 37 01 be 30 2d f8 3c 2d 15 9a bd
       0.08248077 -0.12618825 0.030294985 -0.0752357
0003a0 a7 21 3f bc 5d a3 29 3d 57 58 89 3d 30 09 05 3c
       -0.011665738 0.04141556 0.067063026 0.008119866
0003b0 f2 bc 9e 3d c1 17 62 3d b7 f7 5c 3c 8c 7b 0b be
       0.07750882 0.055198435 0.013486794 -0.13621348
0003c0 5d c4 0b 3e ca be d3 3d ef 66 bf bd 71 2e 07 be
       0.13649125 0.103391245 -0.09345805 -0.1320131
0003d0 06 e1 02 bd 5e c2 68 3d 3c cf d7 3d 86 64 0f 3d
       -0.03195288 0.056825988 0.10537574 0.035007976
0003e0 59 0d 16 be c7 07 89 bd d2 f7 98 bd d6 aa 7b bd
       -0.14653529 -0.066909365 -0.07469143 -0.06144222
0003f0 a7 74 7f 3d e5 2a e9 bd 33 58 89 3b e1 cc c4 bd
       0.062367108 -0.113851346 0.0041914224 -0.0960939

conv_enc2.bias f4 [16]
000000 0b 2b da 3c 6d a8 b0 bb de d4 84 3c 8f 85 20 be
       0.026631853 -0.0053911717 0.016214784 -0.15675949
000010 85 da db bd e2 55 2e 3c b0 5a f6 3c 6c cd 4a 3e
       -0.10735039 0.010640593 0.03007254 0.19804925
000020 89 ff 1d be f4 02 b3 bc 43 43 ad 3c 5e 62 e8 3d
       -0.1542951 -0.021851994 0.021150237 0.11346887
000030 e3 9a b7 bd 08 ea 68 bd 5c e6 81 3e 6e 1b 33 bd
       -0.08965089 -0.056863815 0.25371063 -0.04372733

dense_encmean.weight f4 [8, 400]
000000 0f f1 c2 bd 93 c5 b1 bd b5 06 e0 bc 9d af 94 bc
       -0.095186345 -0.086802624 -0.027346948 -0.018150145
000010 47 83 a0 3d 77 3d f4 bd ef 83 18 be 17 70 7a 3d
       0.07837539 -0.11925786 -0.14894079 0.061142053
000020 16 49 80 bd d5 60 de 3d f9 e2 2a 3d cb b8 ae 3d
       -0.0626394 0.10858313 0.041720364 0.0853134
000030 66 bd 7d 3d 9a 9a 85 3e be 26 cf 3b ca ad ee 3d
       0.061948203 0.26094514 0.006321757 0.116542414
000040 1e 41 f5 3d 70 47 24 3e f8 e2 a0 3e 30 a8 09 3e
       0.11975311 0.16042876 0.31423163 0.13443065
000050 ad c7 9f 3d 33 cf ca 3b ff ac 5a 3e 9b 09 b4 be
       0.07801757 0.006189251 0.21355055 -0.35163578
000060 00 52 0b 3e b8 56 54 ba c1 3c 0c bd 2a 1c 0f bc
       0.136055 -0.00081000803 -0.034237627 -0.008734742
000070 9f c8 88 bd 0a d7 c5 b9 b8 91 a1 3c 4e 63 a5 bc
       -0.066788904 -0.00037734985 0.019722804 -0.020188954
000080 1e 33 a2 bd 2c 3f a5 3c e3 34 9b bd cd c6 1b be
       -0.07919906 0.020171724 -0.07578447 -0.15212555
000090 21 40 33 be 1b 03 e2 3d 7a 38 9f 3a c1 ea e3 3d
       -0.17504932 0.110357486 0.0012147569 0.1112876
0000a0 9b ab 46 3d 3f b5 03 be 24 dd 3a bd f3 81 ec 3d
       0.0485035 -0.12862109 -0.045621052 0.11548223
0000b0 e7 41 a0 3e 4d f2 a7 bd 34 99 c0 3d 5c b9 c0 3d
       0.3130028 -0.08200512 0.09404221 0.094103545
0000c0 9f c4 6f 3e 69 50 a3 3d 02 a5 2c be ff 27 48 bc
       0.23414849 0.079743214 -0.1685982 -0.012216567
0000d0 be cd 38 3e 73 eb ad be e4 89 0f 3e 54 f7 50 3e
       0.18047234 -0.33968696 0.14017445 0.20406848
0000e0 e5 10 26 3e 1a b5 cf 3d c5 3a 23 bd 2e cc a2 bd
       0.16217382 0.10141964 -0.03985097 -0.079491004
0000f0 fe ce a3 3c 53 43 8a bc ca bf 2c bd 79 89 c9 bc
       0.019996163 -0.016877806 -0.04217509 -0.024601685
000100 88 63 08 ba 92 e8 6a 3d 2f 09 bb 3d b5 e0 5f bd
       -0.00052028196 0.057350703 0.09132611 -0.054657657
000110 6a 7e f1 bd e7 c9 48 3d bd 24 b0 bc 97 14 8e bd
       -0.1179169 0.049020674 -0.021501893 -0.06937521
000120 d4 8e f2 3e ff cf 6b bc c1 c8 aa bc 23 04 67 bd
       0.47374594 -0.014392852 -0.02084768 -0.05640043
000130 7c 43 bb bc 8d 0b a2 bb d4 bd 9d bd 50 b5 8f bd
       -0.022859327 -0.0049452246 -0.077022225 -0.070170045
000140 2b 72 1f 3d 93 08 08 bd cd 7d f8 3b 51 9e 7e bd
       0.03892724 -0.033211302 0.007583356 -0.0621627
000150 ea 4c b5 bd d6 a4 dc bc 86 13 29 3d d4 e5 4b ba
       -0.08852561 -0.026934069 0.041278385 -0.00077780825
000160 f6 04 59 3d a4 09 88 bd 2f ea 2b 3c d4 bd a7 bc
       0.052983247 -0.06642464 0.010492845 -0.02047626
000170 5b 2c 8c 3c c7 40 20 3d 15 3d 2f bc ee 55 2f 3d
       0.017110994 0.039124276 -0.010695715 0.04280656
000180 8d fe 71 3c f9 71 8e 3c 5e 53 18 3d 34 27 0d 3d
       0.014770162 0.01738833 0.03718888 0.034461215
000190 ab 41 59 3c 24 3f fe bd 28 3e be 3d 93 ad e6 3b
       0.013260285 -0.12414387 0.09289199 0.0070397346
0001a0 67 84 17 3d 88 1c f6 3d 2a 4c db 3a 89 6f 92 3c
       0.036991503 0.12017161 0.0016731073 0.01787545
0001b0 0a 18 94 bd 7e 15 11 3d 91 62 fb bc 0b 46 03 3d
       -0.072311476 0.035420887 -0.030686649 0.03204922
0001c0 d9 13 81 3d c5 7d 72 bc 47 9e 9c 3d 88 7b cb 3d
       0.06302614 -0.014800494 0.076473765 0.09935671
0001d0 83 bb c7 3d 2a 82 63 3d a9 bd 0a 3f 20 96 79 3d
       0.09752562 0.055544056 0.5419565 0.060934186
0001e0 d5 95 98 be 47 92 8a 3d ed 94 27 3e 7a bb 8f bc
       -0.29801813 0.067661814 0.16365404 -0.01754545
0001f0 23 ef 21 3e f0 4c 6a bd 7d 4f d9 bc 51 71 14 3e
       0.1581388 -0.05720228 -0.02652716 0.14496352
000200 d4 38 59 3c 68 00 9b bd 43 a3 a7 bd cf fc 26 bd
       0.013258178 -0.07568437 -0.081854366 -0.04076844
000210 69 b8 d3 3d 47 05 9c bc 6a f1 03 3d aa 46 d5 3d
       0.10337908 -0.019045485 0.032212652 0.10413869
000220 8a 0d 0c bd 07 e2 43 3d b1 ae f8 3d a1 a7 a2 bd
       -0.0341926 0.04782298 0.12142695 -0.07942129
000230 3d ec 19 3d 00 c5 93 3d 75 ea a6 bd 1e e5 3a 3e
       0.03757881 0.07215309 -0.08150188 0.18251464
000240 0e e1 6f 3d b1 1b ad 3d ec 48 2c 3e aa aa 1e be
       0.05856424 0.08452547 0.16824692 -0.1549479
000250 de 73 23 3e 3d 38 fa bc cb 73 16 3e 41 97 23 3e
       0.15962169 -0.030544395 0.14692609 0.15975668
000260 63 48 b1 bc 2b 14 fd bc 95 44 a5 bd 2b ee 20 3e
       -0.021640962 -0.030893406 -0.080697216 0.15715854
000270 16 78 9d 3d f1 56 8b 3d f3 a5 0b bd 60 0e 6f 3c
       0.0768892 0.06803692 -0.03409381 0.01459083
000280 e9 55 69 3c 44 fa c2 bc 79 42 25 3b ac 08 f0 bc
       0.014241674 -0.023800977 0.0025216623 -0.02930101
000290 ca 1d c3 3c 2e f0 c1 bc e5 72 65 bd 55 46 d3 bd
       0.023817915 -0.023674097 -0.056017775 -0.10316149
0002a0 71 31 5a bd 34 20 b8 3b 0b c7 52 be 6d 1f d9 bd
       -0.053269807 0.0056190733 -0.20583741 -0.10601697
0002b0 bc 9c 57 be 84 f9 dd 3c 94 c6 d5 3d f9 f7 ce bd
       -0.21055883 0.027096517 0.104382664 -0.10105891
0002c0 b0 89 19 be 8a 3e 0b be b5 0b 4d bc 84 0b cc bc
       -0.1499393 -0.13598076 -0.012514998 -0.024907835
0002d0 7e 36 7a be 59 eb fc bd 72 e9 22 be cc 70 e4 bd
       -0.2443485 -0.123495765 -0.15909365 -0.11154327
0002e0 e9 fd 5a bd 38 83 f9 bc b1 0e 8a 3e 4a 51 09 3e
       -0.053464804 -0.030458078 0.26964334 0.13409916
0002f0 c8 99 09 3c ac ca 45 3d 69 f4 c9 bd 15 29 1e 3e
       0.008398481 0.048288986 -0.09861071 0.15445359
000300 aa 53 94 3d ff b7 48 bd ad c5 c2 3c 88 be 22 3c
       0.0724252 -0.049003597 0.0237759 0.0099331215
000310 c5 82 1f 3d 4e ec 98 3d 29 4f 71 3c 09 46 f0 3c
       0.03894307 0.074669465 0.014728346 0.02933027
000320 d0 21 ff 3d 9c 67 2a 3d 07 84 46 3e 9a 59 f7 bd
       0.12457621 0.041602716 0.19386302 -0.12077637
000330 d2 f9 04 3d 8a 6f 6c bc 8d 82 8e 3d 4b 48 ca 3b
       0.03246481 -0.01443089 0.06958494 0.006173169
000340 ea 01 dc bc b5 90 b7 3c 3f 31 a4 3d 34 1d c2 b9
       -0.026856381 0.022407869 0.080172054 -0.00037024322
000350 d3 0b 04 bc 0f 84 f1 3b 44 f0 00 bc 20 29 5e be
       -0.00805946 0.007370479 -0.007869784 -0.21695375
000360 e9 51 67 3d ce 92 34 bd 17 4b 87 bc fa 27 1e 3e
       0.0564746 -0.044085316 -0.016515298 0.15444937
000370 e8 b2 00 bd 14 b4 23 bd 03 fa a7 3d 1d 82 ce 3c
       -0.03142062 -0.039966658 0.08201983 0.025208527
000380 e8 1f 00 3e 7c 43 b7 be 36 77 45 3e 4a 4a ea bc
       0.12512171 -0.35793674 0.19283757 -0.028599877
000390 9c f9 b0 3b f3 1a 01 bf 79 c2 4f be a1 f7 a5 3e
       0.0054008495 -0.50431746 -0.20289029 0.32415488
0003a0 24 26 3b bc 86 3a 96 3e 96 9c c6 be 20 f7 91 bd
       -0.011422668 0.29341525 -0.3879134 -0.071272135
0003b0 b9 d4 20 bb 07 e5 1e bd b4 a0 96 bc 4d 95 06 be
       -0.0024540855 -0.038792636 -0.018387176 -0.13142891
0003c0 15 ab 5e 3e 13 d9 29 3e b7 dd d0 3d 61 88 c5 bd
       0.2174495 0.16586713 0.10198539 -0.09645153
0003d0 cd 6f 99 bd f3 4c 28 bd e4 c2 bd bc a7 67 ff 3d
       -0.074920274 -0.04108901 -0.02316422 0.12470942
0003e0 0b f7 59 3e 19 10 f2 bc ff d6 23 bd 72 35 49 3e
       0.21285646 -0.029548692 -0.039999958 0.19649294
0003f0 b1 d2 97 be 28 9a 35 3e 99 d4 b4 3d c8 35 fe bd
       -0.29652932 0.17734587 0.08829612 -0.12412602

dense_encmean.bias f4 [8]
000000 76 7a 38 bd 84 ce 33 bc 9d e3 14 bd 0a a4 72 3d
       -0.045038663 -0.01097453 -0.03634988 0.05923847
000010 aa 52 04 bd c5 b9 37 bd 20 bc c1 bc be 5c 0a bd
       -0.032305397 -0.044854898 -0.023649275 -0.033779852

dense_encvar.weight f4 [8, 400]
000000 f9 bb 12 3e 5c bb 2e 3e ad ca b9 39 4f e8 65 3c
       0.14329518 0.1706366 0.00035436955 0.0140324375
000010 db 11 b2 bd 88 79 e6 3d 74 ad 21 3e 0b 04 06 3d
       -0.08694812 0.11253649 0.15788823 0.0327187
000020 ff 8e 71 3d c2 db 9e bd 6a 69 ea 3d ad c6 ec 3d
       0.058974262 -0.07756759 0.114458874 0.11561332
000030 7a 4e 53 3e bb e3 31 3e aa 69 3a 3d e4 eb aa 3d
       0.20635405 0.17372029 0.045510925 0.08345774
000040 5e 94 bc 3d ea ab 74 3e 29 49 97 3e ce a8 9b 3d
       0.09207986 0.23893705 0.29548004 0.07600556
000050 9b 95 e4 3c 97 fa 72 3d ba ab 8d 3e 61 51 4f 3e
       0.027903369 0.059321012 0.2767008 0.20245887
000060 35 1e 36 3c f3 ae 72 3d f5 41 1a 3d b9 1d b6 3d
       0.0111156 0.059248876 0.037660558 0.08892388
000070 25 82 69 3d af 5d a4 3d e9 3e 87 3d 8e 97 c9 3d
       0.05700888 0.08025681 0.06603796 0.0984336
000080 d3 a3 45 3e 53 81 b6 3d ea 77 25 3e 26 75 eb 3d
       0.19300775 0.089113854 0.16159025 0.11496954
000090 d0 5a 84 3d 60 aa 88 bd d2 d1 bc 3a 66 e2 0a 3e
       0.064626336 -0.066731215 0.0014405793 0.13562927
0000a0 16 a1 f3 3d b6 f4 3c 3d 74 84 68 3d 5b 2d e8 3d
       0.11895959 0.046131812 0.056766942 0.11336776
0000b0 cd 8f 6c 3e d7 9b f8 3e 07 03 f2 bc 88 b6 11 3e
       0.2310173 0.48556396 -0.02954246 0.14229786
0000c0 2e 57 7f 3e 87 d2 45 3e 6c f5 73 be f2 fd 0c bd
       0.249356 0.19318591 -0.2382409 -0.03442187
0000d0 49 70 1b be b9 4c a2 bd d6 4f 0e bd 18 bb 34 3e
       -0.15179552 -0.0792479 -0.034744106 0.17649496
0000e0 96 7f 93 3e 64 f6 00 3d a4 28 b4 3c b8 63 3f 3d
       0.28808278 0.031484976 0.021992035 0.04672596
0000f0 05 af 13 3e 09 76 8c 3d ef 01 37 3e 30 ef 36 3e
       0.14422233 0.06858451 0.17871831 0.1786468
000100 a4 1d 50 3e d9 4f 4f 3e ef 54 a8 3d c8 32 69 3e
       0.20323807 0.20245303 0.08219325 0.22773278
000110 43 45 a3 3e 9a 96 50 3e bf 5f 6e 3d eb ec 0f 3d
       0.3188878 0.2036995 0.05819678 0.035138052
000120 c8 33 2b 3e c4 bc 28 3e 1b 18 f8 3d 87 1d ef bc
       0.16718972 0.16478258 0.12113973 -0.029188884
000130 90 c5 40 be 53 20 32 be 73 c3 f9 bc 28 39 6c bd
       -0.18825364 -0.17395143 -0.030488705 -0.057671696
000140 e3 e5 5e 3c 8a 12 bd bc d0 61 26 3c 69 bb 6c 3d
       0.013604614 -0.02308013 0.010155156 0.057795916
000150 ad 7b f2 bb 31 be 03 3e a0 26 d7 3d f8 e0 4a 3d
       -0.007399997 0.12865521 0.10505414 0.049530953
000160 5a 61 19 3e e2 69 37 3e 46 d0 a6 bb 1f 6c 87 3d
       0.14978543 0.17911485 -0.005090746 0.06612419
000170 52 74 11 3e f6 a8 99 3d e0 8a 85 3d 8a de 96 3d
       0.14204529 0.0750293 0.06520629 0.07366665
000180 80 68 89 3d f7 a2 12 3e f8 d9 e8 3d 3a 8d 01 3e
       0.06709385 0.14319979 0.11369699 0.1265153
000190 df b0 9a 3b 35 b8 26 3e 94 1d dd 3d fb e9 34 3e
       0.0047207917 0.16281207 0.10796657 0.17667381
0001a0 68 de 1a bd e7 dc 19 3e 97 c4 3d 3e 5d 2a c6 3d
       -0.03780976 0.15025674 0.18532024 0.09676049
0001b0 5c f9 74 3d c1 86 03 3c 89 c4 8b 3d 1a e4 d8 3d
       0.05980812 0.008027733 0.068245955 0.10590382
0001c0 61 4b 0f bd 9f cf dc 3b d2 ed fd 3d fd bc 10 3e
       -0.034983996 0.0067386176 0.12398876 0.14134593
0001d0 3e 64 45 3e b3 fe 12 3e 30 ed 24 3f bd 8a 45 3d
       0.1927652 0.14354973 0.6442442 0.048228014
0001e0 aa a8 79 3e 32 42 62 3d 90 18 c7 3d dc a1 e9 bc
       0.24380746 0.05523891 0.09721482 -0.028519563
0001f0 74 27 30 3e 60 47 14 3e 7e 5a 15 3e 4f bc 38 3d
       0.1720255 0.14480352 0.14585301 0.04510146
000200 c3 81 d0 3c 35 57 72 3c 0d 2f 43 3e 15 68 0b 3e
       0.0254525 0.0147913 0.19060917 0.13613923
000210 c1 92 8d 3d 72 b0 86 3c 66 91 74 3d a9 3b 0f 3e
       0.06912757 0.016441558 0.059708975 0.13987602
000220 1d 89 c9 3c bf c2 05 bd 5c b5 e1 3d a7 36 5b 3e
       0.024601514 -0.032656427 0.1102092 0.21407567
000230 f8 67 da 3d 3f ad 95 3d 5d 58 8f 3d 67 25 74 3e
       0.10664362 0.07308435 0.06999276 0.23842393
000240 b1 26 03 3e 0e 06 32 3d b4 21 e2 3d 94 b3 d8 3d
       0.12807728 0.043462805 0.110415846 0.10581127
000250 dc 19 46 3e c8 11 50 3e 81 cd 97 bd ea cf 93 bd
       0.19345802 0.20319283 -0.07412244 -0.07217391
000260 de 1e d4 bc ae 4e 96 3d 49 8f 36 3d e7 67 4c bd
       -0.025893625 0.07339226 0.04457024 -0.049903776
000270 73 66 5f bc 64 07 b5 b9 d7 b7 29 3c 98 5d d3 3b
       -0.013635266 -0.00034528517 0.010358772 0.006450366
000280 3f bc 9d bd b2 36 87 3b 0f 92 2f bd 15 d1 46 bd
       -0.07701921 0.0041263932 -0.0428639 -0.04853924
000290 6b 25 1a bb d4 c4 e5 bd 76 63 e8 bd 92 1d ef bd
       -0.0023520838 -0.112191826 -0.11347096 -0.11675562
0002a0 93 af 8b bb d5 a0 ed bc d4 77 ab bd b8 6e fd bd
       -0.0042628734 -0.029007355 -0.08372465 -0.123746336
0002b0 24 7d 1b be b3 19 67 bd 67 6b ad 3d a0 9c 8e bd
       -0.15184456 -0.056420993 0.08467751 -0.069634676
0002c0 b8 6b 8d bd 19 ab 86 bc 7e 2e f9 bd 79 b3 1d be
       -0.06905311 -0.016439008 -0.12167071 -0.15400495
0002d0 4b 41 6f 3d c6 06 16 3e e7 dd 27 3e 40 18 c3 bd
       0.058411878 0.14651021 0.16393243 -0.0952611
0002e0 e5 0d cd bd c8 b1 d3 3d bc db 5f 3e c1 ca 65 3e
       -0.10012416 0.103366435 0.21861166 0.22440626
0002f0 53 38 1b 3c 99 e4 c2 bd 58 02 fa 3d 28 ca 42 bd
       0.009473878 -0.09516258 0.12207478 -0.047556072
000300 a7 2e d7 be e1 c0 8e bd 9a c0 07 be b7 34 04 3e
       -0.4202778 -0.069703825 -0.13257065 0.12910734
000310 90 fe c7 bd a9 53 9c bd 63 13 43 3c c3 a2 f1 bd
       -0.09765351 -0.076331444 0.011906478 -0.117986225
000320 73 e4 8f 3d ab 23 5a 3d 92 5e 7a 3e 96 f8 6b 3e
       0.07025995 0.053256672 0.24450138 0.23044047
000330 97 46 ae 3d f0 5c a2 3d df 48 41 3e 0a 4b 2a 3e
       0.08509558 0.07927883 0.18875454 0.16630188
000340 2c e3 35 3d 05 ab b2 3d d1 47 37 3e 16 93 16 3e
       0.0444061 0.08724026 0.1789849 0.14704546
000350 8d e3 31 3e fa 8a cf 3d 27 b2 c9 3d 6b 57 7e 3e
       0.1737196 0.101339296 0.09848433 0.24838035
000360 f0 7d 26 3d 87 2a 67 3d 87 42 26 3e ac 05 09 3e
       0.040647447 0.05643704 0.16236316 0.1338107
000370 67 c5 b5 3d 22 14 ae 3d 43 81 6c 3d be 80 9e 3d
       0.08875542 0.08499934 0.05774046 0.077393994
000380 f0 ae 43 3e ca 26 28 bd ec c7 36 bc 1f 68 82 bc
       0.19109702 -0.041052617 -0.0111560635 -0.01591879
000390 40 51 9b bc 1c ba f7 bd e3 ef 19 bc bd 1a d0 3c
       -0.018959641 -0.120960444 -0.009395572 0.025403375
0003a0 3a 80 a2 bd 31 08 cc 3d 89 b9 82 3c 91 70 af 3c
       -0.079346135 0.099625 0.01595761 0.02141598
0003b0 3a 8c 75 3d 38 32 09 3d a3 ef c8 3d 05 d4 8b 3d
       0.059948184 0.033495158 0.09811332 0.06827549
0003c0 22 c7 15 3e c4 cd f8 3d b5 65 b4 3d bd bf be 3d
       0.14626744 0.12148622 0.088084616 0.09313915
0003d0 21 72 9c 3d 19 1e 3f 3d a2 98 52 bd 9a a9 2a 3c
       0.07638956 0.046659563 -0.051415093 0.010416413
0003e0 cb 8b 89 bd 11 8a 0b 3d 04 8f a5 be af 0b c3 be
       -0.067161165 0.034067217 -0.32335675 -0.3809485
0003f0 9c ec 05 bf 85 29 10 be a5 48 af 3b 86 88 85 be
       -0.5231416 -0.14078338 0.005349236 -0.26080722

dense_encvar.bias f4 [8]
000000 f5 db 5c be a8 4e 5d be 36 89 be bd da 60 7c be
       -0.21568282 -0.21612036 -0.09303515 -0.24646321
000010 38 fa 52 be a7 12 42 be 63 ba 3c 3d 02 13 a3 3d
       -0.20603263 -0.18952428 0.04607619 0.0796261

dense_dec.weight f4 [400, 8]
000000 4f 2f 51 3e 84 cb c6 3e d0 93 f1 bd a8 15 06 3f
       0.20428203 0.38827145 -0.11795771 0.52376795
000010 13 16 72 3d ca 95 75 3f c2 d9 c2 3a f5 3a 3f bc
       0.059103083 0.95931685 0.0014865922 -0.011671771
000020 50 aa 53 3d 86 23 ac 3e 5f 26 c0 3c 92 08 2c be
       0.051676095 0.33620852 0.023455797 -0.16800144
000030 71 96 93 bb 0a b4 a9 be 15 76 71 bc a2 f5 dc ba
       -0.004504018 -0.3314517 -0.014737626 -0.0016857872
000040 11 e6 6a 39 ce ef 27 bf 26 03 ee bc 1e e7 f1 3d
       0.00022401685 -0.6560029 -0.029054236 0.1181166
000050 be 68 2a bd 38 63 b5 bd 2a bd 09 bb 92 f0 68 bc
       -0.041603796 -0.08856815 -0.0021017292 -0.014217513
000060 82 ac 02 bc 75 41 c7 bd b9 d8 00 bd 1a 2e af be
       -0.007975699 -0.09729282 -0.031456683 -0.3421486
000070 69 00 a2 bd 53 42 26 be d1 8f 7f 3b 06 33 8c 3b
       -0.079102345 -0.16236238 0.0038995633 0.0042785434
000080 f3 e0 34 be 4b b4 25 3f 82 42 7e bd d6 31 71 be
       -0.17663936 0.6472823 -0.062075146 -0.23554167
000090 91 e5 0b 3e 69 af 2e 3e 4f a3 d6 bc 36 7b 89 bc
       0.13661791 0.17059101 -0.026200918 -0.016782384
0000a0 d2 a1 27 3f 7d c9 dd 3e 39 c1 0d 3f 25 2d d2 bd
       0.65481293 0.43317786 0.5537296 -0.10262517
0000b0 e6 0a 0a bd e2 a9 d2 3f 1a 4e 29 3b a1 8a fb 3b
       -0.0337018 1.6458094 0.0025833906 0.007676438
0000c0 e7 43 ad be 72 32 4b 3f b5 7a ce 3e 28 43 91 be
       -0.33840868 0.7937385 0.40327993 -0.2837155
0000d0 d2 37 5b bd 73 e7 cf bd 8f a2 1b 3b 1d f6 13 3c
       -0.05352003 -0.10151567 0.0023748016 0.009030846
0000e0 ad b0 61 bf 9f d5 1e 3f 56 44 3b 3b 0b 90 8c 3b
       -0.8816021 0.6204471 0.0028574667 0.004289632
0000f0 5b 0e e9 3d c6 03 43 3e fa 7d 7a bc ba 35 50 bc
       0.11379691 0.19044408 -0.015288824 -0.012708122
000100 2a ab 50 be ae bf 09 3f 17 70 45 bd 4e 5e 58 bf
       -0.20377794 0.53808105 -0.0482026 -0.845189
000110 13 8d 0b be 6d 48 f4 3e 8e 96 3b 3c 5e 86 97 bc
       -0.13628034 0.47711506 0.011449469 -0.018496688
000120 5a 45 99 bd 49 d0 e5 3f 2f c1 95 bd 6f c1 71 3d
       -0.07483931 1.7954189 -0.073122375 0.059022363
000130 27 ba 80 3f f6 0f 72 3e 3a d9 55 3c 93 dc 49 3b
       1.0056809 0.23638901 0.013052279 0.0030801638
000140 a9 db 79 be f7 ba 04 bf b9 b8 0f 3e e5 3e d6 be
       -0.244002 -0.51847786 0.1403531 -0.4184486
000150 c9 1d b0 3d 5f da 25 3c 91 d1 05 bc 31 d2 0f bc
       0.08599431 0.0101228645 -0.00816764 -0.008778141
000160 62 8f 4b 3e 9a 50 68 bf 72 41 1e 3e 2d 77 f2 bd
       0.19878915 -0.9074799 0.15454653 -0.11839137
000170 a1 80 12 bd 75 9e 07 bd 25 8f 56 bb d6 22 29 ba
       -0.0357672 -0.0331101 -0.003273913 -0.00064520293
000180 c9 d5 af 3e c1 ef a4 3d 59 d1 79 3d e7 d8 54 3b
       0.34342793 0.08053542 0.060990665 0.0032477917
000190 bb 8b dd 3b 2e 2e 98 be 1d 96 c6 bb f6 3e bb bb
       0.006761042 -0.29722732 -0.0060603754 -0.0057142926
0001a0 56 ac 9a 3c 39 f9 20 3d 81 27 00 bd bf 72 27 3d
       0.018881004 0.039300177 -0.031287674 0.040880915
0001b0 2a 12 87 be 6a 24 37 3b 40 3d a4 3b 29 1d 1a 3c
       -0.26381046 0.0027945288 0.0050121844 0.009406366
0001c0 a7 b7 9f bc fc 61 23 3c 67 8c 6e bc 67 c6 e6 3d
       -0.019496752 0.009972092 -0.014559842 0.11268311
0001d0 20 61 8d ba c7 be 52 be df 21 e4 38 33 8b f9 b9
       -0.0010786392 -0.20580588 0.00010878196 -0.00047596692
0001e0 78 bb 50 3f b9 4f 13 3f 48 81 0d 3c b1 b8 8e 3e
       0.81536055 0.5754352 0.00863678 0.27875283
0001f0 f9 35 ba bc dc 34 ac be 6e a9 ab bb cb e2 89 3a
       -0.022730814 -0.33634079 -0.0052387035 0.001051986
000200 f1 73 2e be c6 0b b4 3e dd ce 2e 3e c0 3c aa be
       -0.17036416 0.35165232 0.170711 -0.33249474
000210 cc 35 a1 bc 12 01 5e be c4 14 58 39 92 87 d9 3b
       -0.019678973 -0.21680096 0.00020607101 0.0066384757
000220 c7 2b c8 3c 74 0a 61 bf 8d 8e b8 bb 01 8f 8c be
       0.024434937 -0.87906575 -0.0056322278 -0.27452853
000230 5b 49 5e be 79 77 ac be bc a2 65 bb d7 87 d0 3b
       -0.2170767 -0.336849 -0.0035039624 0.0063638496
000240 f6 b0 dc bd bd 53 b2 3e 1f 8e a5 bb 95 6a b3 be
       -0.1077594 0.34829512 -0.0050523425 -0.35042253
000250 d5 1d 55 3e cf 52 1e be 09 e7 7d bb b5 28 a7 39
       0.20812161 -0.15461276 -0.0038742444 0.0003188305
000260 08 1c 50 bd e1 38 59 be 85 7f 74 bc 0f 12 0e bf
       -0.050807983 -0.21213104 -0.014922981 -0.55496305
000270 31 28 a2 bf f8 0c 17 be 70 8a a1 3c ff b2 03 3c
       -1.2668515 -0.14751041 0.019719332 0.008038281
000280 02 ab c0 3f 5e 6f f0 3e 73 bb e6 be d1 54 a9 3e
       1.5052187 0.46959966 -0.45064887 0.33072522
000290 9c 03 b0 bd 4c f1 13 bf 38 e6 b7 3b 03 94 d9 3b
       -0.085944384 -0.57790065 0.005612161 0.006639959
0002a0 fc 00 99 3e d5 24 f3 3e ab 70 aa be 3c 4b 26 3e
       0.29883564 0.47489038 -0.33289084 0.16239637
0002b0 52 6a 12 ba b8 2a 41 be 28 d8 f6 3b 79 76 22 3c
       -0.0005585301 -0.18863952 0.007533092 0.009915941
0002c0 b4 ff 01 bb 2b 15 48 be 71 71 bd 3b 7a cc ed bd
       -0.0019836249 -0.19539325 0.0057813455 -0.116112664
0002d0 10 a8 41 be d0 fe 0a 3e 12 06 20 bb fb 6c 80 3b
       -0.18911767 0.13573766 -0.002441768 0.0039192415
0002e0 2e db 4d 3d cd 06 a9 be 75 f3 ba ba c0 58 06 3f
       0.050257854 -0.33013 -0.001426323 0.5247917
0002f0 a1 b5 f6 39 07 f3 f8 be 37 b8 50 3c 17 af 85 bb
       0.000470561 -0.48622915 0.012739233 -0.00407971
000300 28 c2 75 3d 8b 86 e1 3d 2e df 83 bb 26 26 88 3e
       0.059999615 0.1101199 -0.004024408 0.26591605
000310 fc 0e b0 bf 78 14 23 3e b9 1e 91 3c 9a 4d ec 3b
       -1.3754573 0.15925777 0.017714845 0.0072113993
000320 4c a2 5c bf a3 ee 7e 3f 6b ab 6c be ac 83 10 3e
       -0.86185145 0.9958288 -0.23112266 0.14112729
000330 99 ec 88 3b fa 35 dc 3e a7 72 0a bb 08 a2 78 3c
       0.0041785953 0.4300993 -0.0021125467 0.01517535
000340 08 56 8d 3a 68 bc 18 bf 8d d0 f3 3c 53 37 cb be
       0.0010783086 -0.59662485 0.02976253 -0.39690647
000350 d8 1c c2 be 27 94 9c 3e b2 88 75 3c 36 ac 93 ba
       -0.3791263 0.3058178 0.014986204 -0.0011266533
000360 e3 01 c5 be 8e bd c0 3e 56 48 71 be 16 5a ce bd
       -0.38478002 0.3764462 -0.2356275 -0.10075776
000370 07 a8 d7 be 7e 6e 8c 3f 64 1b c4 3b 7f e7 c8 3b
       -0.42120382 1.097122 0.0059847105 0.006131112
000380 63 e9 8a 3e 46 df df 3e 1c f2 b4 3d 8a c9 51 3f
       0.27131185 0.43725032 0.08835241 0.8194815
000390 e7 5b be bd 94 7d f3 3d 2b 80 87 3c bd 11 48 3c
       -0.09294873 0.118891865 0.016540607 0.01221126
0003a0 4a 1b b7 be 2f 7a f7 bd 35 22 9d bd 12 20 68 3f
       -0.35763007 -0.120838515 -0.0767254 0.90673935
0003b0 dc 6f bf bd e4 07 8b 3f 05 59 96 bc b3 31 8f bb
       -0.09347507 1.0861783 -0.018352995 -0.0043699383
0003c0 1b a4 c2 bd a8 5c dd be 32 71 18 bc 75 6b 49 bf
       -0.09503957 -0.43234754 -0.009304332 -0.7867959
0003d0 46 42 f2 be 3c ed fe 3e 92 ef 34 bc 9b 57 15 3c
       -0.47316188 0.4979037 -0.011043446 0.009115125
0003e0 f0 d9 7a 3c 11 95 3c be 1d 7c f1 3c 63 01 28 bf
       0.015310749 -0.1841624 0.029478127 -0.65627116
0003f0 c0 1c e4 be df d7 fb 3e af 2d 84 bb bc 26 d6 3b
       -0.44553185 0.49188134 -0.004033766 0.006535379

dense_dec.bias f4 [400]
000000 2e 08 3d bf b4 c3 3b bf 19 64 3c bd 24 6d 0a bf
       -0.73840606 -0.73345494 -0.045993898 -0.54072785
000010 a8 da 53 be 78 25 09 bf db 7f ac 3e e5 a2 e7 be
       -0.2068888 -0.535728 0.33691296 -0.45241466
000020 e4 31 96 3d bc ad 9d 3e 4e 3a 1b be bb 98 22 3e
       0.07333735 0.3079661 -0.1515896 0.15878575
000030 e1 df ba 3e 17 8f 43 3e 0b e4 4b 3e 1d ed 0b 3f
       0.3649893 0.19097553 0.1991121 0.5465868
000040 16 b4 04 3e 70 c6 da bd 08 c4 00 bd a4 a3 01 bf
       0.12959322 -0.1068238 -0.03143695 -0.5064032
000050 52 17 7c 3f a6 7f 82 be 5d e6 88 be 90 7c 26 bf
       0.98473084 -0.25488013 -0.26738253 -0.6503382
000060 67 a5 dd 3e 05 39 8e bc f7 7a c5 be 4d 5d 26 3d
       0.43290254 -0.017361173 -0.38570377 0.040616322
000070 9e 0a 97 be b1 54 e9 3e a8 db 87 be dc a4 cf be
       -0.29500288 0.45572427 -0.26534772 -0.40555465
000080 2b 63 1b bf 9b 50 04 be 89 42 a6 bd cf cd de be
       -0.60698193 -0.12921374 -0.08118159 -0.43516394
000090 15 34 6f bd 5a 85 aa be e9 d7 ee be e7 12 8c 3e
       -0.05839928 -0.33304864 -0.466491 0.2735817
0000a0 91 cd 93 3e a3 e5 a5 3e 7d 84 ef 3d f6 e8 69 3e
       0.28867772 0.3240176 0.11695192 0.22842774
0000b0 ee 25 e5 3e 3e 6d 6b be 62 9e a6 bd 09 51 86 3d
       0.447555 -0.22990891 -0.08135678 0.06558425
0000c0 9c 36 23 3f 90 7b 01 40 74 7c be 3f 21 02 1d 3f
       0.637552 2.0231667 1.488173 0.61331373
0000d0 9e ec c1 be df f1 06 3f eb b6 c3 3f 9b be 34 3c
       -0.37875837 0.52712816 1.5290197 0.011031772
0000e0 e2 d4 a0 be 81 d9 ac 3d c6 46 ef be a5 c0 2a bd
       -0.31412417 0.08439923 -0.46733683 -0.041687626
0000f0 04 6e 3a bf 0d 7c bb be 52 00 00 bf 44 7d 4b bd
       -0.7282412 -0.3661808 -0.5000049 -0.04968001
000100 8c 75 66 bd 70 d7 3a bf 69 4e 6f 3e 3e cb 02 bf
       -0.056264445 -0.7298498 0.23369755 -0.5109137
000110 52 6d 5d 3e ff 1f 95 be 92 3f 4c 3e 3e 0b 1a 3e
       0.21623734 -0.29125974 0.19946125 0.15043351
000120 a9 ed 27 3e 1b bd 1f 3b 9d 08 0e bb 11 aa 32 3e
       0.16399254 0.002437419 -0.0021672614 0.17447688
000130 3a bc 37 3f e8 e7 54 3e 63 4b e0 be 4b 9a 15 bf
       0.71771586 0.2079159 -0.43807516 -0.5843856
000140 f3 75 fd be b4 3b 49 be cd dd 2e be 0e ff 58 3c
       -0.4950405 -0.19651681 -0.17076798 0.0132444035
000150 13 bb 41 be 16 69 b7 be 52 9f 28 bf a3 61 71 be
       -0.1891902 -0.35822362 -0.65868104 -0.23572402
000160 1a c1 81 be 80 a6 44 bf f4 2a 3e be 36 d4 c5 bd
       -0.25342637 -0.7681656 -0.18571073 -0.09659617
000170 8c 1a fe be 0e 4a ab bf 3e a9 9f bd 3c 85 d6 3e
       -0.4962963 -1.3381975 -0.07795952 0.41898525
000180 3b 4c f3 3e 5d 34 30 3f 44 1b 49 be 3c 7c a3 3c
       0.47519097 0.688299 -0.19639307 0.0199567
000190 21 05 7e 3f 1f 9d 8a 3e f0 ee 3e be a9 ea 9e 3e
       0.99226576 0.27073 -0.18645835 0.31038406
0001a0 69 51 35 3f f9 7f 57 3f 2c 5e ea be 0f 72 13 3e
       0.7082735 0.84179646 -0.45774972 0.14398979
0001b0 c6 a1 0d 3e 22 bd b4 3e ad c7 45 be e7 2c 18 bf
       0.13831243 0.35300547 -0.19314452 -0.59443516
0001c0 fd 0a 4e 3d 9a a7 18 3f 1a 16 da bc 38 0b 9c be
       0.050303448 0.5963074 -0.026621867 -0.3047731
0001d0 b8 0a a2 3e 52 2a 37 3e a1 bc 15 bd a9 62 90 3e
       0.31648803 0.17887238 -0.036556844 0.28200272
0001e0 09 73 32 bf 09 98 ea 3d a4 e3 c1 3e 46 b5 21 3f
       -0.6970678 0.1145478 0.3786899 0.63167226
0001f0 9b 0b 82 bf bd 3f 8c 3e 70 cf c5 3e 72 33 22 3e
       -1.0159792 0.27392378 0.38634825 0.15839937
000200 63 c4 3f 3e 1c 05 ad 3f 9b ec 09 bd 69 18 b9 be
       0.1872726 1.3517184 -0.03367291 -0.36151436
000210 5e eb 99 be 08 a2 e1 3e 21 ba 08 3d 0a d9 a6 bd
       -0.30062383 0.44068933 0.03338063 -0.08146866
000220 bc 1c 04 3e d9 12 07 bf ca 0e 6c bc 6b c4 22 bf
       0.12901586 -0.52763134 -0.014407823 -0.6358096
000230 4f 28 d4 be 3d 62 f9 be f4 d4 13 3f 43 63 ae be
       -0.41437003 -0.48707762 0.57746816 -0.34060106
000240 9a 48 ef 3e 41 79 41 3f a0 1e 2b 3f 10 28 31 be
       0.46735078 0.75575644 0.66843605 -0.17300439
000250 58 a3 5b be b4 34 3b be ea 32 42 bd 7e 50 9c be
       -0.2144903 -0.18281823 -0.047411837 -0.3053016
000260 b1 5d b9 be 5c d4 0c be 36 17 2e 3f e2 a2 cf bd
       -0.36204293 -0.13752884 0.6800417 -0.10138489
000270 dc 3f c3 3e c2 95 ae bd ea fc 8b 3e 09 55 43 bf
       0.38134658 -0.08524658 0.27341396 -0.7630163
000280 16 bc f1 bd de e2 a0 be 45 b4 0b be 58 13 9c be
       -0.11803453 -0.31423086 -0.13642986 -0.30483508
000290 a2 86 f5 3d e3 72 d4 3e 37 1a bc be b9 a3 65 be
       0.1198857 0.41493902 -0.3673875 -0.22425736
0002a0 a9 2e ce 3e 87 22 76 3e 02 1f 99 be ac 6a 06 3f
       0.40269974 0.24036609 -0.2990647 0.5250652
0002b0 93 f4 25 bf 65 af 21 3d 8c a1 18 3f 74 fa e6 be
       -0.64826316 0.03947391 0.596215 -0.45112956
0002c0 47 24 bb be e5 f4 cd bd ea e7 be 3e 02 d2 02 40
       -0.36551115 -0.100564755 0.3728631 2.0440679
0002d0 03 9e 3f bd e5 43 0a bf 2e 10 0c bf e5 02 32 bf
       -0.04678155 -0.5400985 -0.5471219 -0.69535667
0002e0 7f e7 f5 3e 08 a7 19 be bf 81 ce be 88 2d 95 be
       0.4802818 -0.15005124 -0.40333363 -0.291363
0002f0 e2 08 6d bc 4f b4 8e be fc 7e 0b 3f eb be 4a 3e
       -0.01446745 -0.2787194 0.5449064 0.19799392
000300 25 68 b6 be 30 ef b5 be 80 ad be 3e d8 3b db 3d
       -0.3562633 -0.35534048 0.37241745 0.10704774
000310 6d 9a 90 be 9d 99 0d be 12 05 2e 3f af 30 b9 3d
       -0.28242818 -0.1382813 0.67976487 0.09042489
000320 46 05 98 3e 61 36 78 be 0f bb f8 3e d8 07 a2 bd
       0.29691523 -0.24239494 0.48580214 -0.07911652
000330 2f 22 64 be 00 8c 82 3e dc f2 64 bf 15 1c 78 be
       -0.22278665 0.25497437 -0.89433074 -0.24229462
000340 a2 3f 13 be 79 8d 48 bf 0e 52 b9 be f6 ea de bd
       -0.14379743 -0.7834087 -0.36195415 -0.10884659
000350 fa ab 59 bc 52 9a de bd ee 1f 88 3e fd 86 75 3e
       -0.013285631 -0.10869278 0.2658686 0.23977275
000360 27 a7 bb be 98 d8 1b bf 4c 92 aa 3e a2 30 2c be
       -0.36650965 -0.6087737 0.3331474 -0.16815427
000370 40 30 90 3f 04 31 c8 3d cb d3 13 bf fa b1 97 3e
       1.1264725 0.09774974 -0.57745045 0.29627973
000380 75 3e 65 3d 3d c2 ab 3e cd 01 7f bd 34 77 ec be
       0.055967767 0.3354663 -0.062257577 -0.46184695
000390 5c 5e d6 be 04 6a 68 bf 36 f5 10 bf ae 41 56 3e
       -0.41868865 -0.90786767 -0.5662416 0.20923492
0003a0 c3 72 31 3e 1e aa 98 3e 68 40 60 3e 73 89 0c bf
       0.17328934 0.2981729 0.21899569 -0.5489723
0003b0 fa 89 09 3d 1f b6 8d be 2c 20 e7 bd 89 09 04 bd
       0.03357885 -0.2767801 -0.11285433 -0.032235656
0003c0 b2 3a 73 be 7a bf 1c bf b5 8c ae 3d 45 7f 2e 3e
       -0.23752859 -0.6122967 0.085229315 0.17040737
0003d0 3a 60 8f bd 69 86 9b 3e 9c ff 17 3e 15 17 91 be
       -0.07000776 0.30375984 0.14843601 -0.28337923
0003e0 4b b7 a3 3e b4 83 0b 3f bd f4 47 3f 28 08 30 3e
       0.3197578 0.5449784 0.78107816 0.17190611
0003f0 c0 a0 40 bf 24 44 13 3f 2d e1 10 3f 58 54 8a be
       -0.75245285 0.5752585 0.5659359 -0.27017474

conv_dec1.weight f4 [16, 8, 3, 3]
000000 a8 19 ff bd fa d1 14 3e fa 9c 6b be db c9 1c 3f
       -0.124560654 0.14533225 -0.230091 0.61245507
000010 b3 6e b3 3e 0a a2 7c bd 47 2a 1b 3f e8 b3 34 3f
       0.35045394 -0.06167797 0.60611385 0.70587015
000020 77 31 68 3e 6a 5e fe 3d a4 68 be 3d 00 1d 17 be
       0.2267512 0.12420352 0.09297302 -0.14757156
000030 06 fe 0c 3e c5 ed 52 3e 19 5c d9 bd 43 d6 18 3f
       0.13768777 0.20598514 -0.10613269 0.5970194
000040 9e 96 c3 bd f6 cc 82 3c fa b9 35 be e3 d2 59 3e
       -0.09550212 0.015966874 -0.17746726 0.21271853
000050 f9 8d 87 3d 4f 7b a0 be eb 69 22 3e c9 d8 45 3e
       0.06618876 -0.31344077 0.15860717 0.19320978
000060 71 eb 97 3e 6a 83 5e 3f 14 e9 d9 3e e9 48 53 bf
       0.29671815 0.8691927 0.42560637 -0.8253313
000070 4a 2b 6f bd de a2 ce be 89 22 28 be 43 cf ae be
       -0.058390893 -0.40358633 -0.16419424 -0.34142503
000080 60 ab 86 bd 11 75 62 bd fd 00 3f 3f d6 9c 8e 3e
       -0.06575656 -0.055287424 0.74610883 0.2785403
000090 75 f8 3d bd a5 be 85 3e 96 2c eb be c0 de 8d be
       -0.046379525 0.26122013 -0.45932454 -0.27709007
0000a0 b5 a0 a4 be 2b dd ad bd 48 de aa 3e 28 89 ae 3e
       -0.3215386 -0.0848945 0.33372712 0.34089017
0000b0 48 b7 7a 3d 99 42 bb be 3a 2b c8 3e bf d2 9b be
       0.061209947 -0.36574247 0.3909548 -0.30434224
0000c0 c4 c5 d4 be d6 c0 88 bf 9e 95 c1 3e 4a c7 9c 3e
       -0.41557133 -1.0683849 0.3780946 0.30620795
0000d0 c5 d9 02 bf 83 9e 72 3e 08 0f 84 be b1 d9 70 3e
       -0.5111354 0.2369328 -0.25792718 0.23520543
0000e0 a8 58 da 3c 3b 84 3f bf c2 44 e9 3e 6b 7c 95 be
       0.026653603 -0.7481114 0.4556027 -0.29196486
0000f0 be 44 1e 3f bf de 85 3f 0e 99 24 3e 23 1c 22 bf
       0.6182364 1.0458602 0.1607401 -0.63324183
000100 9c f4 26 bf 4e 94 88 be ad 48 82 bd 6d f1 b5 bd
       -0.65216994 -0.26675647 -0.06361518 -0.08883939
000110 7c 30 c6 be 9f 99 36 3d b1 e6 3a 3e 87 c5 92 3e
       -0.38708866 0.0445801 0.18252064 0.28666326
000120 88 7f 36 3f ad 1d ca be 1a e1 df 3e 8c 40 42 3e
       0.7128835 -0.39475766 0.43726426 0.18969935
000130 5e 0c e3 3c d6 1a b0 bd 29 05 96 be 33 fd 71 3e
       0.027715858 -0.085988685 -0.29300812 0.23631744
000140 ad 9e 86 3d 84 7e e2 bd 3f 9d ee ba 9e eb 4d be
       0.06573234 -0.11059287 -0.0018204822 -0.20109412
000150 08 7a 0e bf ab 37 c2 3e 4f b8 37 bd 1f f3 c5 3d
       -0.55654955 0.37933096 -0.044853505 0.09665512
000160 e1 e5 93 3e e8 d7 a1 3d b0 24 d5 bd 22 5a 5b bd
       0.2888632 0.07902509 -0.10407388 -0.053552754
000170 9e 56 c5 be 9c 1b 46 bc 16 80 a0 b9 0b 7c d3 3d
       -0.38542646 -0.0120915435 -0.0003061301 0.10326394
000180 f8 b9 e2 3d 7b 72 be 3e 0d 9d 8b 3e b6 cd ea be
       0.11070627 0.37196717 0.27268258 -0.4586007
000190 f9 d9 8f 3e 26 45 b3 3e ed d8 5b 3f c5 b9 05 3d
       0.28095987 0.35013694 0.8587788 0.032647867
0001a0 24 dc e7 3e a6 30 f2 3d 80 45 0f 3e 4e 57 8a 3f
       0.4528514 0.11825685 0.13991356 1.0807893
0001b0 76 a4 a4 3e 8d 7e 29 bd 57 6e 05 be 37 92 64 3d
       0.32156724 -0.041380454 -0.13030373 0.055803504
0001c0 f1 84 33 3e 49 70 91 be a5 4b e8 bd 5b 61 1a 3c
       0.17531182 -0.2840598 -0.11342553 0.009422625
0001d0 47 0c 81 3d 57 75 a7 3c 32 76 88 bd 5d 89 aa 3e
       0.0630117 0.020441694 -0.06663169 0.33307925
0001e0 cc 50 22 3e 0d ba 1c bd 34 df 7d be a5 98 94 bd
       0.15851134 -0.03826337 -0.24792176 -0.07255677
0001f0 5f ac 58 bf 0d db 9e 3f cb 19 f8 bd 3f 85 cd 3b
       -0.8463802 1.2410599 -0.121142946 0.0062719877
000200 f7 fd 80 be 54 f8 8c 3e b9 2b a0 bd 08 d8 ba 3e
       -0.2519376 0.2753321 -0.078208394 0.36492944
000210 a9 98 96 3d 5e 5d 18 3f 39 f9 71 3e f5 26 8c 3e
       0.07353336 0.5951747 0.23630227 0.27373472
000220 ac 7f 2a 3d 45 88 88 bc f0 54 18 3e 37 05 04 bd
       0.041625664 -0.01666654 0.14876151 -0.032231536
000230 47 93 db bd 44 79 d1 3e 81 eb 52 3e 5e 17 ae 3e
       -0.1072145 0.4091283 0.2059765 0.34002203
000240 ea ed 03 be 4c c0 40 3e dd 49 8a be 1c 37 e9 3e
       -0.12883726 0.18823355 -0.27009478 0.45549858
000250 fc f8 8e 3e 4d f7 3a be 2d 3a 25 3e e2 0c 4b 3d
       0.27924335 -0.182584 0.16135474 0.049572833
000260 4c a7 a2 3d 43 44 6b 3f af bd 27 be 56 6c 45 3f
       0.079420656 0.91901034 -0.16380952 0.7711843
000270 2c dc 65 3e 93 7d 1a be 11 f1 ad 3d ed 98 07 bf
       0.2244727 -0.15086965 0.084932454 -0.5296772
000280 f2 a7 24 3d cb f5 4e be 2f 04 dc 3e 8b 97 d8 bd
       0.040199228 -0.2021095 0.42971942 -0.105757795
000290 63 02 d8 3e e4 b8 40 3e 20 5e 2b be ea b9 d2 bd
       0.4218932 0.1882053 -0.16735125 -0.102893665
0002a0 3f 0e 81 3e 7a 48 2e be 56 5f 5d bd 95 ac b3 be
       0.2520618 -0.17019835 -0.054045998 -0.35092607
0002b0 24 c8 00 3e d1 29 87 3f 04 5c 5c bf 82 41 1c bf
       0.12576348 1.0559636 -0.86077905 -0.61037457
0002c0 e0 0a 91 be 8b 07 15 bd 09 27 c1 be b6 e7 9a be
       -0.2832861 -0.036384147 -0.37725094 -0.30254906
0002d0 37 d9 0e bc ad 5b bf 3e cc 71 84 bd 43 9c 8f 3e
       -0.00871878 0.3737463 -0.064670175 0.28048906
0002e0 16 02 1d 3e 3c 02 ca 3d 9b 4a bc 3e 61 0b c7 3d
       0.15332827 0.098637074 0.3677567 0.09718967
0002f0 79 7f 08 be 47 e0 2e be cb b5 ab bf 18 35 d0 3e
       -0.13329877 -0.17077743 -1.3414854 0.40665507
000300 fa 11 de 3d 75 f4 70 3d 6f 95 ee bd 05 e7 93 3d
       0.108432725 0.058826882 -0.11649596 0.07221798
000310 f1 89 d6 3e 91 db f9 bd e4 52 7f 3f b3 aa 69 3f
       0.41902116 -0.12200082 0.99735856 0.9127609
000320 2a e5 15 3f ea 2a 57 3d 6a 90 5d 3e 11 ca bb 3d
       0.585528 0.05253116 0.21637121 0.091694005
000330 61 a1 b3 3c 13 d1 5b be 02 87 8f 3e 8c 35 21 3f
       0.021927537 -0.21466474 0.2803269 0.6297233
000340 df 85 de 3e 8c 1c 7f 3f 0c d2 7f 3e cc bb 7c be
       0.4346151 0.99652934 0.2498247 -0.24681014
000350 44 fb 28 be fe 5a 69 be ea e9 d2 3c 8d 59 84 be
       -0.165021 -0.22788617 0.025746305 -0.25849572
000360 b3 b9 1f bc b5 e6 21 bf 45 4f 80 3e e9 39 db 3e
       -0.009748864 -0.63242656 0.25060478 0.4281762
000370 1a e7 ad be e2 b4 7f 3c 4c 77 84 3e 64 6e 34 be
       -0.3396538 0.015607091 0.25872266 -0.17620236
000380 a6 a0 8e 3e c5 23 82 be bd ce 80 be de 83 01 3e
       0.2785694 -0.25417915 -0.2515773 0.1264796
000390 44 c6 8c 3e bc e0 72 3c eb af 79 3e c6 29 a2 3e
       0.27495015 0.014824089 0.24383514 0.31672496
0003a0 ae 86 17 be e3 0b 58 bd c6 ac a5 3e 3b f7 1e 3e
       -0.1479747 -0.05274571 0.32358378 0.15523998
0003b0 9e 14 43 3e 02 50 4a 3e 98 b4 00 3d dc f0 c0 3d
       0.19050834 0.19757083 0.031422228 0.0942094
0003c0 de a4 9e 3e 6d 9c 16 3e a9 96 28 3e 4f 4a d1 bd
       0.3098516 0.14708109 0.16463722 -0.10219251
0003d0 ef 6f d6 3d a6 90 fc be c6 2a 20 be e7 c3 1a be
       0.104705684 -0.49329108 -0.15641317 -0.15113793
0003e0 aa 9e a9 be ef 36 b4 3e 67 c6 a8 be f9 f3 fd be
       -0.33128864 0.3519816 -0.3296387 -0.496002
0003f0 69 0e 18 3e a1 d4 6c be eb 9b 24 be 05 62 74 3e
       0.14849247 -0.23127986 -0.16075103 0.23865516

conv_dec1.bias f4 [8]
000000 4d 56 19 3f 05 26 0e 3e f2 12 79 be 27 42 42 3e
       0.5989731 0.13881691 -0.24323633 0.18970548
000010 cc 55 4b 3e 4a 76 62 3e 06 dd 07 3e c6 2a c5 3d
       0.19856948 0.22115436 0.13267908 0.09627299
