whole_experiment/3_7_env/vae_best.pth (torch, 55227 bytes, 14 tensors)

conv_enc1.weight f4 [8, 3, 3, 3]
000000 28 9e 11 be 5b 57 a5 bd 09 1c 30 3e 74 fa 4e be
       -0.14220488 -0.08073302 0.17198195 -0.20212728
000010 8d 8d 25 be a4 68 49 3e 3e 78 94 bd 9f 30 03 be
       -0.16167279 0.19668823 -0.07249497 -0.12811516
000020 5a 40 33 be 38 e9 6d bd ab 08 8f bd 94 4c 49 3e
       -0.17505017 -0.058083743 -0.06984075 0.19658118
000030 91 d9 27 3d c3 f7 81 be bf f6 4d 3c f4 fb 1d be
       0.040978972 -0.2538434 0.012571036 -0.15428144
000040 c3 47 c1 3d 6a 6f 48 bc da b9 2a be 88 49 ea bd
       0.094375156 -0.012233594 -0.16672459 -0.11439806
000050 ff 04 16 3e a3 64 ae 3d 8f 6a ef 3d e8 1c d2 3d
       0.14650343 0.08515289 0.11690246 0.1025942
000060 2d fc 45 be a0 8c 3a be 14 31 0d 3e 97 98 d5 b9
       -0.19334479 -0.18217707 0.13788253 -0.00040740214
000070 4b b9 ec bd 47 f3 72 3e 6c 47 40 3e e1 f2 8d 3d
       -0.11558779 0.23725615 0.18777245 0.06931091
000080 32 f0 61 3e 5f 06 6a 3e d5 97 98 bc 36 94 1d be
       0.22064283 0.22853993 -0.018627087 -0.15388569
000090 97 93 b3 3d 62 ff a3 3d 63 bf 7a 3d 8d 93 c7 3d
       0.08768385 0.08007695 0.061217677 0.0974494
0000a0 22 04 2b be c3 e6 b9 3d 64 a0 71 3e bd c8 e3 bd
       -0.16700795 0.090772174 0.2359634 -0.11122272
0000b0 05 a2 cf 3d 33 71 15 bd 14 b6 c2 3d db 09 2b 3e
       0.10138325 -0.03648491 0.09507385 0.16702978
0000c0 98 85 3b 3e 4b 43 ba bd ca 97 58 3e 9e cf cd bc
       0.1831268 -0.09094866 0.21151653 -0.025123414
0000d0 1e 04 8a be f1 f7 8e be 34 4f 76 3e c7 1c 07 be
       -0.26956266 -0.2792354 0.24053651 -0.13194571
0000e0 ad d4 8c 3d 29 6e 5e be 97 7d 07 bd d5 14 43 3e
       0.06876502 -0.2172171 -0.033078756 0.19050916
0000f0 27 06 55 3e 63 44 81 3d f9 2a 5b 3e 60 07 b8 3d
       0.20803128 0.06311872 0.21403112 0.08985782
000100 5d 6f 80 bd 2a 9e 2b 3d 5a 23 2e 3e 22 13 cd bd
       -0.06271241 0.041898884 0.17005673 -0.10013415
000110 15 27 ae 3d 5d b0 de 3d a7 99 47 be 69 5e 2c be
       0.08503548 0.108734824 -0.19492207 -0.1683289
000120 98 7c 55 3e a9 db b1 bc 67 0b 59 bd bd 29 37 be
       0.2084831 -0.021711187 -0.05298939 -0.17887016
000130 f2 8b 0f 3e ce c6 76 3e e4 fc ad 3d 92 45 86 3d
       0.14018229 0.24099275 0.08495501 0.06556238
000140 e0 06 c6 3b 26 f7 a8 3e 55 6f 9f bd 83 76 01 3b
       0.0060433 0.3300106 -0.07784907 0.0019754476
000150 25 f3 05 be f0 e4 81 be f1 3d 84 3d 3a 00 3f 3d
       -0.13081034 -0.25369978 0.06457127 0.046631075
000160 b4 f4 2e 3e 02 5a c5 be 4e 40 a1 3e 22 3e 3b 3d
       0.17085534 -0.38545233 0.31494373 0.04571355
000170 b7 25 00 3e a7 61 a7 3d 21 ef 17 3d 52 7a 37 3e
       0.12514387 0.081729226 0.037093285 0.17917755
000180 94 1c 75 3e a4 de a7 3d 1b 97 39 3e 26 49 6e 3e
       0.23936683 0.08196762 0.18124048 0.23270091
000190 6e 71 e4 bd 78 b9 fa bc 3a 45 9f 3d b8 2b df bd
       -0.111544475 -0.030606017 0.07776876 -0.108970106
0001a0 fb db 0b be 04 0c 93 3e 35 3e e2 3d 36 61 9c be
       -0.13658135 0.28720105 0.11047021 -0.30542916
0001b0 19 1b 2b 3e e8 3a 94 be bd 9f 00 3d db e1 44 bd
       0.16709556 -0.28951192 0.03140234 -0.048066955
0001c0 d1 61 07 3e 97 4f 8e bc f8 e1 c7 3c ec 9b 15 3e
       0.13220908 -0.017371936 0.024399742 0.1461026
0001d0 59 7b aa 3d c1 4f 33 bd ba a0 7b be 66 30 4e 3d
       0.08324308 -0.04377723 -0.24573031 0.050339125
0001e0 3c 6a 8d bd 44 42 0c 3d 80 28 1d 3e 6a 61 7c 3e
       -0.06905028 0.034242883 0.15347481 0.24646536
0001f0 3c 8e 3b bd 99 bb 92 3d fb d0 ea 3d e9 1b 40 3c
       -0.045789942 0.07164688 0.11465641 0.011725404
000200 fd bd d5 3c a8 30 00 3e 3d 49 dd 3c 1e 1c 5e bc
       0.02609157 0.12518561 0.027012462 -0.013556508
000210 87 a8 5d 3e 69 4a 58 3e f3 9f 09 3d 91 94 f0 3d
       0.2164632 0.21122135 0.033599805 0.11747087
000220 cc 35 2b 3e 2e aa 28 bb 16 b8 2c 3e 80 5a 4b 3d
       0.1671974 -0.00257362 0.16867098 0.049646854
000230 48 bb 3a 3e 54 cb e7 bd 26 78 86 3d b6 d5 bc 3c
       0.18235505 -0.11318079 0.06565885 0.023051124
000240 37 d1 a8 bd d0 6f 56 3e 81 fe d2 3d ec 96 bf 3d
       -0.082430296 0.2094109 0.10302449 0.09354958
000250 f9 ce 88 be 72 70 27 3e 89 b4 40 be 05 f1 b1 3d
       -0.26720408 0.16351488 -0.18818869 0.08688549
000260 8a 98 85 3d 03 07 99 bd 84 a7 27 3e 0a d7 4c be
       0.06523235 -0.074720405 0.16372496 -0.20003906
000270 be 8a 16 3d 62 2e d9 3d 9d 17 ad bd 5f 98 1e 3e
       0.03675341 0.1060455 -0.084517695 0.15487812
000280 19 87 06 bd 4d 5e 54 3e e9 b2 7e bd b7 32 35 3d
       -0.032843683 0.20739098 -0.06218234 0.04423782
000290 be e4 6e be ab 8a 58 be 52 00 6d be b1 1a 18 3e
       -0.23329446 -0.21146648 -0.23144653 0.14853932
0002a0 60 c0 a0 be 01 73 8a be 60 02 c8 3d 8a 0f 55 be
       -0.3139677 -0.27040866 0.09766078 -0.20806709
0002b0 38 a1 19 3e d9 52 9b bd ba 3f 81 be 8c 1d 45 be
       0.15002906 -0.07584161 -0.25243932 -0.19249552
0002c0 a5 00 2c 3e 7c 2f b7 be 91 30 af bd 5f 5f 26 3d
       0.16797121 -0.35778415 -0.08554185 0.040618297
0002d0 62 98 32 3d 7b 55 5a bd 6c d3 3e 3c 0c 26 3b be
       0.043602355 -0.053304177 0.011647087 -0.18276232
0002e0 39 35 16 3d 1d 56 0e 3c 28 6d 43 be cf eb 3d be
       0.03667185 0.008687523 -0.19084609 -0.18546985
0002f0 1e d8 f1 3c 4e a0 a6 bd f7 ae f3 3d e8 eb 86 3e
       0.029521998 -0.081360444 0.11898606 0.26351857
000300 70 44 33 be 94 cd 9c be 20 a0 79 3e 83 2c a5 bd
       -0.17506576 -0.30625594 0.24377489 -0.080651306
000310 10 5e 90 3d 4a 77 da 3d ba 9b 40 bd 82 34 e6 bc
       0.07049191 0.10667284 -0.047023512 -0.02810121
000320 6c 8a e3 bc 15 25 6d bd 51 df 81 be 94 29 75 3c
       -0.027775966 -0.057896692 -0.2536569 0.014963526
000330 c7 2f f7 bd 4c a3 d3 3c cf a6 24 bd e0 28 ca bd
       -0.1206966 0.025834702 -0.040198144 -0.098710775
000340 37 2b 8c bd 39 42 db 3d bd 33 dc bd 59 3d 29 be
       -0.0684418 0.1070599 -0.10752056 -0.16527309
000350 4d 74 15 3e 18 96 32 3e e4 f2 50 be 45 15 de 3c
       0.14595146 0.17440069 -0.20405155 0.027109751

conv_enc1.bias f4 [8]
000000 a1 a6 39 be 3a ce 60 bb d3 02 4e bb c1 dc 82 bc
       -0.1812997 -0.0034302608 -0.0031434789 -0.015974404
000010 37 bf 43 bd a9 61 5d be a6 56 ce 3d 18 a7 b0 bc
       -0.04778978 -0.21619286 0.10075121 -0.021564052

conv_enc2.weight f4 [16, 8, 3, 3]
000000 39 c7 ad bd df c1 c2 bc 26 20 97 bd 98 ea 9d bd
       -0.08485264 -0.023774086 -0.07379179 -0.07710761
000010 a6 4d 08 3d 8d 04 42 3a 0f e8 57 3d 99 44 0d bd
       0.033277176 0.0007401191 0.052711543 -0.034489248
000020 12 6b 8b bc 3f 21 c6 bd 8c 75 3d bd ad d2 62 bd
       -0.017018829 -0.0967431 -0.04625468 -0.055376697
000030 5b 59 02 bd 51 11 de 3c 1a 77 85 be 84 e8 b8 bd
       -0.031823497 0.027107866 -0.2606743 -0.09028724
000040 0d 74 25 be 65 d7 1d 3e d0 0b 5a be 30 41 88 3d
       -0.16157551 0.15414198 -0.21293569 0.066530585
000050 a3 3d 9f bd 16 20 0e be b7 25 19 be f7 83 98 bc
       -0.07775428 -0.13879427 -0.14955793 -0.018617613
000060 31 af 1e 3d 2d 84 3e bd aa c2 07 3e 4c 9f 57 bc
       0.038741294 -0.04651277 0.13257852 -0.013160538
000070 8b c1 25 bd 83 e9 fa bd 32 7a 41 3c 6f a2 c6 bd
       -0.04046778 -0.1225157 0.011808919 -0.096989505
000080 4a 2c 12 be c0 03 91 bd f2 6c 86 be bc 94 17 bc
       -0.14274707 -0.070807934 -0.26254994 -0.00925177
000090 8d 04 bb bd 8c eb 27 bd 32 61 69 ba 4b 3d 77 3c
       -0.09131727 -0.04099612 -0.0008902728 0.015090297
0000a0 55 a9 7a 3d 3a 92 ac ba 06 8e f6 bd e4 21 b2 3c
       0.061196644 -0.0013166138 -0.120388076 0.021744676
0000b0 ad 81 a5 3d 7c 5b 5d be 49 c1 d9 bc e2 0d ff bd
       0.08081374 -0.2161693 -0.026581423 -0.1245382
0000c0 f9 f6 a5 bc 0d 2e 0d bc 1a e5 a4 bd 62 c6 3c be
       -0.020259367 -0.008616936 -0.0805151 -0.18435052
0000d0 a6 53 90 bd cf ae db 3c a4 a8 1f bd de 1e 8e bd
       -0.07047205 0.026816754 -0.038979188 -0.06939481
0000e0 8f 46 93 bd 98 aa 85 bc 9e 5e 9f bd aa 8b a2 bd
       -0.07191192 -0.016316697 -0.07781719 -0.07936795
0000f0 68 a9 9e bd 73 93 66 be 1c 8b 2f be 0a 45 5d be
       -0.077471554 -0.22517185 -0.1714291 -0.21608368
000100 0b 6d df 3a c9 8b d1 bc 46 ef 3a be 78 6c 3b be
       0.0017046047 -0.02557935 -0.18255338 -0.18303096
000110 c6 a6 77 bd 6b 78 0a bd dd cc 65 3d 0e 9c 20 3e
       -0.060461782 -0.033806246 0.056103576 0.1568453
000120 1e 4e ab bd 7e 70 a0 bd 72 d8 12 3d 56 85 cf bd
       -0.08364509 -0.07833956 0.03585095 -0.10132854
000130 e1 9a a8 bd 05 a1 fa 3d 9a a4 2a be b2 1d 8b 3e
       -0.08232666 0.12237743 -0.16664353 0.27171093
000140 23 c7 0b 3e 1a c8 c3 be 4e 40 1a 3e 7e 00 43 be
       0.13650183 -0.38238603 0.15063593 -0.19043157
000150 fb fe 75 bd a0 de 39 be d1 f6 62 be b2 63 ed bd
       -0.06005762 -0.18151331 -0.22164465 -0.11591281
000160 a7 ea 3c 3e 96 ff 6e b9 92 62 9f be bf 67 17 3d
       0.18448888 -0.00022792662 -0.3112989 0.036964174
000170 9f 17 e4 bc 43 c6 c3 3b a6 cf 9c 3d 77 c6 e5 bd
       -0.027843295 0.0059745624 0.07656793 -0.11219495
000180 fc 75 53 3d f3 71 87 3e 5f 58 3b 3d ae d3 47 be
       0.05162619 0.26454124 0.045738574 -0.19514343
000190 51 9f 31 bd 61 c8 01 be 1d a4 87 3c d0 d3 f0 be
       -0.043364827 -0.12674095 0.016557747 -0.470366
0001a0 58 2b c4 3d 20 bb 23 3e 82 2c 4a 3c b8 46 27 3d
       0.0957858 0.15989351 0.012339713 0.040838927
0001b0 45 90 a2 bc d9 e7 c6 bd 5b 2c 2a be c8 70 eb bd
       -0.019844184 -0.0971219 -0.16618483 -0.11496121
0001c0 bf 03 a3 3c 94 1e 3d 3e c0 22 c5 3c c5 1b 9f 3d
       0.019899247 0.18468696 0.024064422 0.077689685
0001d0 f3 d4 13 3e 74 1f 54 3e 40 78 a9 be 26 2d 3a be
       0.14436702 0.20715123 -0.33099556 -0.18181285
0001e0 aa 88 96 bd fa bc 2e 3e 05 38 41 3e f5 97 fe bd
       -0.07350285 0.17064276 0.18869026 -0.12431327
0001f0 59 cf 2c 3e 70 6b 08 be 72 b3 53 bd 25 66 00 bd
       0.16875972 -0.13322234 -0.051684804 -0.031347413
000200 64 07 22 bd 28 24 a3 3c ca a6 25 be 9c bc a4 3d
       -0.03955783 0.019914702 -0.16176906 0.08043787
000210 6e 95 64 be 64 1d 81 be ee bd 8d 3d fd 08 b6 bd
       -0.22322628 -0.25217736 0.06920992 -0.08888433
000220 1e 81 aa bd 95 92 2f 3d c4 da 9f bd dc 40 2e be
       -0.083254084 0.0428644 -0.07805398 -0.1701693
000230 68 79 94 3d f6 9d 21 3b 1f b9 70 be 8c 0d 46 3d
       0.07249719 0.0024660802 -0.23508118 0.048352763
000240 ff d8 b3 bd d3 1e af bd 40 77 fa bc 77 d8 af 3d
       -0.08781623 -0.08550801 -0.030574441 0.08586209
000250 73 26 1e bd 7c f3 65 3d 5c 6f b5 bd 89 70 86 3d
       -0.038610887 0.056140408 -0.08859131 0.06564433
000260 ef b4 3e 3c 73 0c a8 bd 47 3e 40 3d 2f 5d 79 3d
       0.011639818 -0.082054995 0.046934392 0.060879882
000270 8b 7e a6 3c a0 77 a5 3d 38 d5 6b 3d 15 c1 09 be
       0.020324012 0.08079457 0.057576388 -0.13452561
000280 1a 6c 1b be a3 3b 0c be c1 32 a6 3d 1f f3 12 3e
       -0.15177956 -0.13694625 0.08115149 0.14350556
000290 6d fc 59 bc f3 29 55 bd 83 c9 83 be a4 ea 28 3e
       -0.013304812 -0.05204196 -0.2573968 0.16495758
0002a0 4a ea 65 be be 37 97 3e 22 74 05 be be b6 6b 3d
       -0.22452655 0.29534715 -0.13032582 0.057547323
0002b0 e7 6f ac bc d0 bf 48 bd 8d c5 63 be 11 03 42 bd
       -0.021049453 -0.04901105 -0.22243328 -0.047366206
0002c0 89 f1 46 bc b9 38 3d 3e 90 c6 93 3c f7 29 55 bd
       -0.012142547 0.18478669 0.018039018 -0.052041974
0002d0 83 c9 d0 3d 41 a2 b7 bb 26 31 31 bc 52 6a ff bc
       0.10194685 -0.005604059 -0.010814941 -0.031178627
0002e0 f9 f8 2f be f2 47 f5 bc 5b 2c 1a bd 06 c4 4e bd
       -0.1718482 -0.029941533 -0.037639957 -0.05047991
0002f0 e7 6e d0 3d be c5 b7 bd b2 bc 40 be e3 7d 11 be
       0.10177403 -0.08973263 -0.18821982 -0.14208178
000300 c3 67 cf 3d 12 f0 1a 3e 8a 6b 0a be 1a 67 43 be
       0.10127213 0.15130642 -0.13517585 -0.19082299
000310 44 9e 51 be 06 c2 c7 bd 2e 28 8a be be aa 3d be
       -0.2047053 -0.09753804 -0.2698378 -0.18522164
000320 67 e6 1b bb f7 0a 76 be 14 64 90 be f8 ab f0 bc
       -0.0023788454 -0.2402762 -0.28201354 -0.029378876
000330 2e e8 f2 3d fe 07 d1 bd ca 10 22 be 46 dd cf 3b
       0.11860691 -0.102066025 -0.15826717 0.0063435165
000340 ce d7 71 bd c2 6e ad bd e7 3e 19 be 34 e2 13 3d
       -0.059043698 -0.08468391 -0.14965402 0.036104396
000350 de 5f 4f bd 0f e4 d7 bd 9a 85 1a 3e 5d fb 86 bd
       -0.050628535 -0.105415456 0.15090027 -0.065909125
000360 51 81 4f 3d 62 04 6a 3d c8 1e 77 3d fb b1 42 3d
       0.050660435 0.057133086 0.06033209 0.047533017
000370 98 f4 b3 3d 4f e3 cd 3d c1 d4 3a bd 8a ab bf bd
       0.08786887 0.10053121 -0.045613054 -0.0935889
000380 19 98 9d bd 01 9a c4 bd a6 74 bc 3c d1 2b ca bc
       -0.07695026 -0.095996864 0.023004841 -0.024679096
000390 ae eb a8 3d 7e 37 01 be 30 2d f8 3c 2d 15 9a bd
       0.08248077 -0.12618825 0.030294985 -0.0752357
0003a0 a7 21 3f bc 5d a3 29 3d 57 58 89 3d 30 09 05 3c
       -0.011665738 0.04141556 0.067063026 0.008119866
0003b0 f2 bc 9e 3d c1 17 62 3d b7 f7 5c 3c 8c 7b 0b be
       0.07750882 0.055198435 0.013486794 -0.13621348
0003c0 5d c4 0b 3e ca be d3 3d ef 66 bf bd 71 2e 07 be
       0.13649125 0.103391245 -0.09345805 -0.1320131
0003d0 06 e1 02 bd 5e c2 68 3d 3c cf d7 3d 86 64 0f 3d
       -0.03195288 0.056825988 0.10537574 0.035007976
0003e0 59 0d 16 be c7 07 89 bd d2 f7 98 bd d6 aa 7b bd
       -0.14653529 -0.066909365 -0.07469143 -0.06144222
0003f0 a7 74 7f 3d e5 2a e9 bd 33 58 89 3b e1 cc c4 bd
       0.062367108 -0.113851346 0.0041914224 -0.0960939

conv_enc2.bias f4 [16]
000000 93 27 d5 3c f8 02 e2 ba 51 60 7a 3c 8f 85 20 be
       0.026019847 -0.0017243316 0.015281753 -0.15675949
000010 49 07 e4 bd 9c ee 2d 3c a7 59 ee 3c 2b ea 46 3e
       -0.11134202 0.010615971 0.029095484 0.19425265
000020 29 69 18 be 74 85 a1 bc bc 54 93 3c 0a 02 e5 3d
       -0.14883865 -0.019716956 0.01798474 0.111820295
000030 ff 33 b3 bd a9 d7 5a bd bb 21 80 3e 39 9d 22 bd
       -0.08750152 -0.053428326 0.25025734 -0.03970072

dense_encmean.weight f4 [8, 400]
000000 ba 38 b3 bd 35 60 a2 bd 3d 08 fb bc 21 65 d0 bc
       -0.08751054 -0.07928506 -0.030643577 -0.025438847
000010 ea 15 8f 3d 02 b4 fc bd ae 2a 21 be c7 81 5e 3d
       0.06986602 -0.12339021 -0.15738937 0.054322984
000020 4b ad 9b bd d5 60 de 3d 50 58 1c 3d f7 03 a0 3d
       -0.076014124 0.10858313 0.03817016 0.07813256
000030 42 b8 80 3d 6c 24 83 3e dd ab ac 3b 82 85 e6 3d
       0.062851444 0.25613725 0.005269511 0.11255933
000040 9b 69 e5 3d 7b f3 24 3e 3c 70 9d 3e 66 8b 08 3e
       0.11201783 0.16108505 0.3074969 0.13334426
000050 49 59 a2 3d bb 06 a7 b9 b5 bd 5b 3e 00 c1 ab be
       0.07927186 -0.00031857737 0.21459086 -0.33545685
000060 00 52 0b 3e 69 38 3a 3b bd ee fb bc 9b 9f 4c bb
       0.136055 0.002841497 -0.030753488 -0.0031223062
000070 2c 52 90 bd 20 01 e5 bb 49 8c c9 3c 8b 15 6e bc
       -0.07046923 -0.0069886595 0.024603026 -0.014531503
000080 b0 c8 98 bd 7a 28 45 3c 38 bf a8 bd b3 50 19 be
       -0.07460153 0.012033576 -0.08239597 -0.1497219
000090 ae 9f 2e be 7d cc f3 3d df 1d b7 b8 f2 5a cf 3d
       -0.170531 0.119042374 -8.731684e-05 0.10124768
0000a0 8b eb 76 3d bb 3a 09 be 62 09 48 bd 80 6e f1 3d
       0.060283225 -0.1340131 -0.048837073 0.11788654
0000b0 b7 1d 9a 3e 7c c1 9f bd b3 de bf 3d 19 c6 b3 3d
       0.30100796 -0.07800576 0.093686484 0.087780185
0000c0 e7 9d 6e 3e d1 07 b8 3d 80 50 28 be 2d c1 91 bc
       0.23302422 0.08985866 -0.16436958 -0.017792309
0000d0 cf c0 3e 3e 59 d3 ab be b8 32 05 3e 2a f4 53 3e
       0.18628238 -0.33559683 0.13007629 0.2069861
0000e0 a7 3c 28 3e be ca ed 3d c5 3a 23 bd 2e cc a2 bd
       0.16429387 0.11610936 -0.03985097 -0.079491004
0000f0 4c bd c1 3c 17 02 b6 bc 97 03 13 bd ea f0 12 bd
       0.023649834 -0.022217793 -0.035892095 -0.035874285
000100 66 5d a3 39 aa 48 70 3d 94 d0 bf 3d ae fe 53 bd
       0.0003115937 0.058663048 0.09365955 -0.051756553
000110 01 a1 e2 bd 41 d8 69 3d 27 eb bc bc 0d e5 8d bd
       -0.11065865 0.057091 -0.023061348 -0.069284536
000120 9d f1 f4 3e ff cf 6b bc c1 c8 aa bc 23 04 67 bd
       0.47840586 -0.014392852 -0.02084768 -0.05640043
000130 7c 43 bb bc 8d 0b a2 bb d4 bd 9d bd 50 b5 8f bd
       -0.022859327 -0.0049452246 -0.077022225 -0.070170045
000140 2b 72 1f 3d 93 08 08 bd cd 7d f8 3b 51 9e 7e bd
       0.03892724 -0.033211302 0.007583356 -0.0621627
000150 ea 4c b5 bd d6 a4 dc bc 86 13 29 3d d4 e5 4b ba
       -0.08852561 -0.026934069 0.041278385 -0.00077780825
000160 f6 04 59 3d a4 09 88 bd 2f ea 2b 3c d4 bd a7 bc
       0.052983247 -0.06642464 0.010492845 -0.02047626
000170 5b 2c 8c 3c c7 40 20 3d 15 3d 2f bc ee 55 2f 3d
       0.017110994 0.039124276 -0.010695715 0.04280656
000180 8d fe 71 3c f9 71 8e 3c 5e 53 18 3d 34 27 0d 3d
       0.014770162 0.01738833 0.03718888 0.034461215
000190 be 1f c4 3b 0c 15 f0 bd 2f 02 aa 3d dc 3b da 3b
       0.0059852293 -0.117227644 0.08301198 0.006659968
0001a0 35 56 f1 3c c6 f0 f8 3d 02 20 01 3c 24 b4 76 3c
       0.029460052 0.12155299 0.007881166 0.015057597
0001b0 5c c3 9f bd d4 2f e9 3c 2d c4 21 bd 74 45 e1 3c
       -0.07800934 0.028465189 -0.03949373 0.027498938
0001c0 d9 13 81 3d c5 7d 72 bc 47 9e 9c 3d 84 84 d0 3d
       0.06302614 -0.014800494 0.076473765 0.10181525
0001d0 92 2f b0 3d 71 bc 3c 3d 01 88 07 3f e0 70 79 3d
       0.08602823 0.04607815 0.529419 0.06089866
0001e0 65 67 9c be 71 81 72 3d 0a 51 27 3e 27 ca f4 bb
       -0.30547634 0.059205476 0.16339508 -0.0074703875
0001f0 d7 a0 20 3e 9e 5f 47 bd 2c a0 ac bc 79 2c 0e 3e
       0.15686356 -0.048675172 -0.02107247 0.13884152
000200 31 e8 f8 3b 1d ca a7 bd 69 ae 96 bd 5e 8b 12 bd
       0.0075960387 -0.08192847 -0.07357485 -0.035777442
000210 82 1e c7 3d a0 19 d5 bc 7f d2 cf 3c 14 f5 d3 3d
       0.09722616 -0.026013196 0.025368927 0.10349479
000220 49 1e 0d bd 1d cc 4e 3d b2 19 eb 3d 18 f8 9c bd
       -0.03445271 0.050487626 0.1147951 -0.07664508
000230 45 b6 16 3d 2b ba 7f 3d 3e 26 a4 bd f0 8e 36 3e
       0.03679492 0.062433403 -0.080151066 0.17827964
000240 83 68 6d 3d a9 9e ac 3d 09 8f 21 3e e7 82 1f be
       0.057961 0.084286995 0.1577722 -0.15577279
000250 05 17 27 3e 68 78 f8 bc aa ca 13 3e 73 b7 21 3e
       0.16317375 -0.030330852 0.14432779 0.15792637
000260 bf 60 b2 bc 00 f5 e6 bc bd ee a1 bd ba e3 21 3e
       -0.021774648 -0.028192997 -0.07906864 0.15809527
000270 55 47 a2 3d c5 83 8e 3d d4 72 00 bd 70 e1 4a 3c
       0.07923762 0.06958727 -0.03135951 0.01238285
000280 29 69 6f 3c 81 ba a7 bc e7 20 a7 3b bc 8b d1 bc
       0.0146124745 -0.020474674 0.005100358 -0.025579326
000290 38 a9 a1 3c a9 2b a5 bc 2f 41 4c bd 10 07 c9 bd
       0.01973401 -0.02016242 -0.04986685 -0.098158
0002a0 cf fd 41 bd 43 d2 4b 3b 9e bb 4e be 53 06 cc bd
       -0.04736119 0.0031100668 -0.20188758 -0.09962144
0002b0 fd 5d 51 be 48 c5 05 3d 93 18 d4 3d bf 66 c4 bd
       -0.2044601 0.032658845 0.1035625 -0.0958991
0002c0 85 c7 13 be 16 61 05 be a3 7a 27 bc e5 e1 b9 bc
       -0.1443158 -0.13025317 -0.01022211 -0.022690723
0002d0 d6 b9 77 be 80 67 f1 bd 18 f9 1b be ab be df bd
       -0.24191985 -0.11787319 -0.1523174 -0.10925039
0002e0 5a e9 51 bd 82 b4 18 bd 7b b1 87 3e 36 73 12 3e
       -0.051247932 -0.03728152 0.26502594 0.14301762
0002f0 8f e0 f3 3b b5 46 51 3d cb 87 cc bd db 4a 20 3e
       0.007442541 0.051092822 -0.09986838 0.15653555
000300 81 e4 9e 3d c3 f7 4f bd 48 04 d9 3c 1e 5b 06 3c
       0.077584274 -0.050773393 0.0264913 0.008200435
000310 c6 6b 19 3d 37 cd 99 3d f8 44 54 3c 3e 42 03 3d
       0.037456296 0.07509845 0.012955897 0.032045595
000320 80 e2 f6 3d 59 74 37 3d 7f a2 42 3e 3d d7 ef bd
       0.1205492 0.044788692 0.190073 -0.11710975
000330 5d 92 c7 3c 4d ed 7c bc 77 51 8d 3d 4b 48 ca 3b
       0.024361784 -0.015437436 0.06900304 0.006173169
000340 ea 01 dc bc b5 90 b7 3c fd b0 a6 3d a8 72 c3 37
       -0.026856381 0.022407869 0.081392266 2.3299202e-05
000350 d3 0b 04 bc 0f 84 f1 3b 44 f0 00 bc 66 d2 64 be
       -0.00805946 0.007370479 -0.007869784 -0.22345886
000360 4c 2f 60 3d 18 5c 23 bd 86 f0 de bb e5 c9 25 3e
       0.054732606 -0.03988275 -0.006803575 0.16190298
000370 0e 74 f5 bc ac ff 27 bd 03 fa a7 3d 1d 82 ce 3c
       -0.029962566 -0.041015312 0.08201983 0.025208527
000380 e8 1f 00 3e d7 47 b8 be 53 cf 48 3e b7 30 cc bc
       0.12512171 -0.3599231 0.19610338 -0.024925573
000390 07 24 fa 3b 54 7f 00 bf 87 89 4d be ff 73 a4 3e
       0.0076336893 -0.5019429 -0.20071994 0.32119748
0003a0 7a 1d c2 bb 1c f5 92 3e 1b 89 c3 be 78 3d 90 bd
       -0.005923924 0.2870263 -0.3819054 -0.07042974
0003b0 1f 80 2c bc 15 24 36 bd de bf 70 bc 64 d9 fd bd
       -0.010528593 -0.044468004 -0.014694182 -0.123949796
0003c0 a8 5c 5f 3e 74 37 2b 3e 1a 74 d2 3d 95 ff ba bd
       0.2181269 0.16720372 0.10276051 -0.0913078
0003d0 4a 3d 8c bd a0 16 36 bd 6f 8e c5 bc b8 a2 f8 3d
       -0.068476275 -0.04445517 -0.02411577 0.12140411
0003e0 33 8f 5f 3e 46 5a f7 bc f5 cf 0b bd 1b 36 45 3e
       0.2183197 -0.030194413 -0.03413387 0.19258921
0003f0 1a 6f 99 be 99 9a 3b 3e 79 36 c5 3d 7b f9 00 be
       -0.29967576 0.18320693 0.096295305 -0.12595169

dense_encmean.bias f4 [8]
000000 f9 df 2d bd f1 44 39 bc 2f b0 13 bd 52 1d 72 3d
       -0.042449925 -0.011307941 -0.036056694 0.059109993
000010 31 f5 04 bd 1d fd 35 bd 48 2c ca bc 4d ba 11 bd
       -0.032460395 -0.04443084 -0.024679318 -0.03557806

dense_encvar.weight f4 [8, 400]
000000 e4 92 0e 3e 9f 6f 12 3e 27 99 82 3b 4b e8 39 3c
       0.13923222 0.14300393 0.0039855423 0.011346887
000010 76 af ad bd 01 2e e2 3d 15 85 1e 3e 2d 11 19 3d
       -0.08480732 0.11043931 0.15480454 0.037369896
000020 72 cb 50 3d c2 db 9e bd 62 e8 f4 3d f2 61 d9 3d
       0.05097527 -0.07756759 0.11958386 0.10614385
000030 41 79 5c 3e b7 75 2c 3e 7a f6 3c 3d 5e 8f b4 3d
       0.2153063 0.1684178 0.046133496 0.088164076
000040 d3 1f a7 3d 29 f9 7d 3e 97 85 92 3e bd 90 9c 3d
       0.08160367 0.24802078 0.28617546 0.07644794
000050 53 3e 12 3d f7 81 5c 3d 36 ab 8d 3e d0 6a 59 3e
       0.03570397 0.05383488 0.27669686 0.21232152
000060 35 1e 36 3c d5 1e 7b 3d e4 85 18 3d 96 d6 a8 3d
       0.0111156 0.0613087 0.037237063 0.08244054
000070 f9 78 79 3d cf a3 97 3d f6 40 81 3d ff 36 bf 3d
       0.060906384 0.07404291 0.063112184 0.093366615
000080 0a d8 2c 3e 7d 4d c3 3d 47 5f 22 3e 96 33 d8 3d
       0.16879287 0.09536264 0.15856658 0.10556714
000090 4e 3f 7a 3d 18 3d 71 bd fd a5 22 3c ed b2 08 3e
       0.06109553 -0.058896154 0.00992727 0.13349505
0000a0 0c 4c 06 3e cf ec 38 3d 5e 80 54 3d 1c 8f 04 3e
       0.13114947 0.045147713 0.051880233 0.12945217
0000b0 ff 28 64 3e f0 56 f5 3e f7 e9 a4 bc e3 92 09 3e
       0.22281264 0.4791789 -0.020131094 0.13434939
0000c0 9b d2 84 3e 88 e3 50 3e f7 0d 72 be 58 b6 f2 bc
       0.2594193 0.20399296 -0.2363814 -0.029627964
0000d0 6e 1e 21 be a4 da b7 bd ef 5b 48 bd 13 5f 34 3e
       -0.15734264 -0.08977249 -0.0489158 0.17614393
0000e0 24 91 93 3e 60 af a8 3c a4 28 b4 3c b8 63 3f 3d
       0.2882167 0.020591438 0.021992035 0.04672596
0000f0 a2 8c f5 3d 41 6f 9a 3d fe ef 29 3e 03 12 37 3e
       0.11989714 0.07540751 0.16595456 0.17877965
000100 ea 95 4a 3e 83 f6 46 3e ba 93 a3 3d 7e 39 69 3e
       0.1978375 0.19429974 0.07987161 0.22775838
000110 ec 06 a2 3e 3f de 33 3e 68 e6 7d 3d 1a cb 1e 3d
       0.31645906 0.17565249 0.06198731 0.03876791
000120 86 28 2e 3e c4 bc 28 3e 1b 18 f8 3d 87 1d ef bc
       0.17007646 0.16478258 0.12113973 -0.029188884
000130 90 c5 40 be 53 20 32 be 73 c3 f9 bc 28 39 6c bd
       -0.18825364 -0.17395143 -0.030488705 -0.057671696
000140 e3 e5 5e 3c 8a 12 bd bc d0 61 26 3c 69 bb 6c 3d
       0.013604614 -0.02308013 0.010155156 0.057795916
000150 ad 7b f2 bb 31 be 03 3e a0 26 d7 3d f8 e0 4a 3d
       -0.007399997 0.12865521 0.10505414 0.049530953
000160 5a 61 19 3e e2 69 37 3e 46 d0 a6 bb 1f 6c 87 3d
       0.14978543 0.17911485 -0.005090746 0.06612419
000170 52 74 11 3e f6 a8 99 3d e0 8a 85 3d 8a de 96 3d
       0.14204529 0.0750293 0.06520629 0.07366665
000180 80 68 89 3d f7 a2 12 3e f8 d9 e8 3d 3a 8d 01 3e
       0.06709385 0.14319979 0.11369699 0.1265153
000190 67 e8 ff 3b 14 55 0f 3e 9d 32 df 3d 81 6d 2a 3e
       0.007809687 0.13997298 0.108983256 0.16643335
0001a0 3e 90 08 bd 75 29 17 3e f1 5d 22 3e 16 db d0 3d
       -0.033340685 0.14761908 0.15856148 0.10198037
0001b0 29 70 67 3d bc 39 40 3c fd f1 96 3d 31 93 d5 3d
       0.05650345 0.011732515 0.07370374 0.10428465
0001c0 61 4b 0f bd 9f cf dc 3b d2 ed fd 3d 79 14 08 3e
       -0.034983996 0.0067386176 0.12398876 0.1328906
0001d0 13 3c 31 3e 32 27 0e 3e 80 07 1c 3f c7 42 48 3d
       0.17308073 0.1388214 0.60948944 0.04889181
0001e0 5c 99 6f 3e 94 75 34 3d 96 57 df 3d 2f 89 79 bc
       0.23398346 0.044057444 0.109053776 -0.015230461
0001f0 44 2f 31 3e 43 13 11 3e 88 8a f7 3d f4 a2 46 3d
       0.17303187 0.14167504 0.120869696 0.048495248
000200 31 92 e0 3c 31 c5 a1 3c 2d 5c 40 3e f8 11 e4 3d
       0.02741346 0.019747349 0.18785162 0.1113624
000210 73 54 98 3d 99 5b 8e 3c d1 64 85 3d fa d4 17 3e
       0.074379824 0.017377662 0.0651337 0.14827338
000220 9c 60 a2 3c 8e d8 02 bd 44 b0 ea 3d 70 c0 61 3e
       0.019821458 -0.031944804 0.11459401 0.22046065
000230 fe 7d ec 3d 8e f9 7a 3d 3f ce 8a 3d c6 59 72 3e
       0.115474686 0.06127315 0.067776196 0.23667058
000240 e7 68 0c 3e 58 c2 5a 3d 85 71 c9 3d 0f 65 df 3d
       0.13711892 0.053407997 0.09836105 0.10907947
000250 f1 7b 4b 3e 96 c7 59 3e 97 e4 8f bd c9 d8 8f bd
       0.19871499 0.21267542 -0.07026022 -0.0702377
000260 30 a3 ca bc f0 59 8b 3d 16 60 27 3d 38 c8 4a bd
       -0.024736017 0.068042636 0.04086312 -0.04950735
000270 71 56 6b bc 0b a2 e5 39 49 d6 c3 3b f1 cd 92 3b
       -0.014363871 0.00043799015 0.0059764725 0.0044801165
000280 34 77 99 bd da cb 9f 3b aa 04 25 bd 31 ca 4b bd
       -0.07493439 0.004876596 -0.04028765 -0.04975337
000290 33 4c 39 ba 4f 6d e9 bd 45 76 e8 bd 4e b0 ea bd
       -0.00070685445 -0.11397802 -0.11350683 -0.11459409
0002a0 cc 24 0e bb c1 c9 ac bc 61 21 af bd 47 52 fd bd
       -0.0021689413 -0.021092298 -0.085512884 -0.12369209
0002b0 45 1a 15 be b8 b2 4a bd 7e 4b c3 3d 48 96 92 bd
       -0.14560802 -0.049486846 0.09535883 -0.0715757
0002c0 29 e6 91 bd 62 8d a3 bc 4e b0 f3 bd b6 c4 18 be
       -0.07123978 -0.019964878 -0.11898862 -0.1491879
0002d0 e5 72 77 3d c9 84 17 3e cd fe 29 3e 0f 9a bd bd
       0.060412306 0.14796747 0.16601105 -0.092579
0002e0 fa 2f c3 bd 29 3d d2 3d a1 40 64 3e 09 73 68 3e
       -0.09530635 0.102655716 0.22290279 0.22700132
0002f0 d5 1c 88 3b 13 60 be bd 40 ac fd 3d 2c ed 3e bd
       0.0041538277 -0.092956685 0.1238637 -0.046612903
000300 03 ed d7 be 06 11 9d bd f3 b2 06 be ee 74 09 3e
       -0.42173013 -0.076692626 -0.13154201 0.13423511
000310 a8 a9 c0 bd b6 4e 95 bd fe 6b a1 3b 87 87 ef bd
       -0.09407359 -0.072904035 0.0049262038 -0.11695772
000320 89 94 94 3d 8e be 64 3d 9e 3b 77 3e e2 e2 60 3e
       0.07254893 0.05584579 0.24143836 0.21961549
000330 1d 8d 94 3d db 8f a9 3d cb 95 41 3e 0a 4b 2a 3e
       0.07253478 0.082793914 0.18904798 0.16630188
000340 2c e3 35 3d 05 ab b2 3d 3c 83 32 3e 76 81 14 3e
       0.0444061 0.08724026 0.17432874 0.1450251
000350 8d e3 31 3e fa 8a cf 3d 27 b2 c9 3d 45 4f 69 3e
       0.1737196 0.101339296 0.09848433 0.22784145
000360 5c c6 17 3d 61 bb 62 3d a9 db 22 3e 7f 46 e4 3d
       0.037054405 0.05535448 0.15904106 0.111462586
000370 91 30 aa 3d 3a ed b9 3d 43 81 6c 3d be 80 9e 3d
       0.083100446 0.090784505 0.05774046 0.077393994
000380 f0 ae 43 3e 82 10 28 bd f4 3c 74 bc 2f 90 f0 bb
       0.19109702 -0.041031368 -0.0149071105 -0.007341407
000390 db e6 da bc 28 f4 04 be 8a ba 38 bc 04 12 c0 3c
       -0.026721409 -0.12983763 -0.011274943 0.02344609
0003a0 b1 47 99 bd 2a 72 b9 3d 2a ef 4d 3c 1b 40 cc 3c
       -0.07484377 0.09054978 0.012569228 0.024932912
0003b0 b9 5d 84 3d 7f 19 12 3d dd 20 c6 3d 6e e3 86 3d
       0.06463189 0.035668846 0.09674237 0.065863475
0003c0 a8 6b 15 3e 24 c2 fa 3d 8a 7b ad 3d e4 b6 b9 3d
       0.14591849 0.12244061 0.08470829 0.09068087
0003d0 9a 26 9b 3d b7 5f 60 3d 0f d1 48 bd f1 12 72 3c
       0.07575722 0.05477878 -0.0490275 0.014775024
0003e0 3d 64 89 bd 5f 96 15 3d 51 ef a6 be 6d 80 c8 be
       -0.06708572 0.03652036 -0.3260446 -0.3916048
0003f0 b6 11 08 bf 54 e0 1c be 57 a8 a2 3b 07 b2 84 be
       -0.53152025 -0.1531995 0.0049639153 -0.25917074

dense_encvar.bias f4 [8]
000000 e9 1a 59 be 2e bd 58 be 8a a5 bd bd a7 6b 79 be
       -0.21201672 -0.21165916 -0.0926009 -0.24357472
000010 0e 75 54 be b2 64 41 be 14 0a 37 3d 9b 75 a1 3d
       -0.20747778 -0.18886068 0.044687346 0.078837596

dense_dec.weight f4 [400, 8]
000000 38 12 59 3e a5 7a c1 3e 86 fe d9 bd de 52 02 3f
       0.21198356 0.37788883 -0.106442496 0.50907695
000010 ab b2 95 3d a1 d1 73 3f 3a ef a9 ba 60 f9 ec bb
       0.07309469 0.95241743 -0.0012964972 -0.0072318763
000020 4f 86 44 3d 42 df aa 3e 13 7a 19 bc a4 eb 19 be
       0.04797965 0.33373457 -0.009367484 -0.15031296
000030 52 fe a5 bc b6 19 a7 be 43 db 60 bc 61 0e b9 3a
       -0.020262871 -0.32636803 -0.013724151 0.0014118665
000040 23 56 da bc 47 82 28 bf 0c b1 1c bd c9 19 db 3d
       -0.026652401 -0.6582379 -0.038254783 0.106982775
000050 8d 16 1d bd cc ed ab bd a4 ab ec bb 1e 71 b4 bb
       -0.038351584 -0.083949655 -0.0072226096 -0.0055066487
000060 8f 6e 73 3b 9d 01 ab bd e2 4e 37 bd 68 42 b1 be
       0.0037144755 -0.08349917 -0.044752963 -0.34620976
000070 34 e2 b1 bd 39 c6 25 be e5 b6 9e bb 94 72 87 3b
       -0.08685723 -0.16188897 -0.00484358 0.004133532
000080 7b b7 36 be 18 81 24 3f 66 3d 9d bd ef a4 72 be
       -0.1784343 0.6425948 -0.076777264 -0.2369573
000090 4a 13 0c 3e 08 53 32 3e 89 86 f1 bc 87 74 48 bc
       0.13679233 0.17414486 -0.029483097 -0.0122348135
0000a0 7c 30 27 3f 03 84 d9 3e cc 36 15 3f 6e 5b c3 bd
       0.65308356 0.4248353 0.5828674 -0.09538923
0000b0 59 c5 18 bd 93 35 ce 3f 65 d3 3e 3c bc 6a c5 3b
       -0.03729758 1.61101 0.01164708 0.0060246866
0000c0 0f b2 aa be 0e 7f 49 3f 45 ba d0 3e 95 9b 8c be
       -0.33338973 0.78709495 0.40767112 -0.2746245
0000d0 ce 2b 80 bd 59 a5 cf bd 15 0d d8 39 86 b0 6b 3c
       -0.06258355 -0.101389594 0.00041208477 0.014385348
0000e0 29 96 63 bf a1 a2 1b 3f 5d 40 86 bb 9e db 07 3d
       -0.88901 0.60795027 -0.004097028 0.033168428
0000f0 fa 78 fa 3d 5d 03 48 3e 02 12 85 3b 14 26 d8 bb
       0.12230106 0.19532533 0.0040609846 -0.006596336
000100 68 b3 40 be 7b 2c 08 3f b0 af 1d bd f4 68 56 bf
       -0.18818438 0.5319287 -0.038497627 -0.83753896
000110 1e 35 d4 bd 97 e9 e9 3e e9 50 83 3c d6 d6 a6 bc
       -0.10361694 0.45686027 0.016029792 -0.020366114
000120 4d fe 6f bd 19 55 e2 3f 72 4b 27 bd 16 1b 38 3d
       -0.05859213 1.768222 -0.040843435 0.044947706
000130 55 0e 86 3f 0f a1 6b 3e 1b d0 98 3c 37 3a af 3b
       1.0473124 0.23010658 0.01865392 0.005347516
000140 18 76 78 be 0a 84 00 bf 0a 6e 12 3e aa b0 de be
       -0.24263799 -0.50201476 0.14299789 -0.4349416
000150 8a 5d dd 3d d2 65 71 bc 41 31 a6 bc 63 70 3a 3c
       0.10808857 -0.0147337485 -0.020287158 0.011379334
000160 ae 40 42 3e 92 f8 69 bf 15 0b 1f 3e 7d 8a 04 be
       0.18969986 -0.91394913 0.15531571 -0.12943454
000170 c4 8f 18 bd f7 49 09 bd 3a 41 3c 3b 30 66 8d bb
       -0.03724648 -0.033517804 0.0028725401 -0.00431516
000180 dd 48 b1 3e ba b2 97 3d 92 b0 89 3d 56 78 33 bb
       0.34625903 0.07407136 0.06723131 -0.0027384958
000190 75 de 28 3c db e3 95 be cf 7d ae 39 c8 b7 85 3b
       0.010306944 -0.29275402 0.000332816 0.0040807463
0001a0 3d 02 45 3c 35 f4 30 3d 4a 90 2f bd 73 25 e1 3c
       0.012024459 0.043201644 -0.042862214 0.027483677
0001b0 fe 66 90 be e1 3b 17 3b c0 44 a4 3a c2 1c 87 bb
       -0.28203577 0.0023076462 0.0012532696 -0.0041233012
0001c0 bc ea 26 bc 5c 91 8d 3b 4a 3b de 38 d3 de df 3d
       -0.010187801 0.0043203067 0.00010596828 0.10931172
0001d0 67 a6 2b bc 04 3e 56 be 42 03 fb 3b ba c6 91 3b
       -0.010476685 -0.20922095 0.0076603005 0.004448739
0001e0 db 7a 50 3f 42 19 16 3f 4f 1d 7c 3c 17 90 96 3e
       0.8143746 0.5863229 0.015387847 0.29406807
0001f0 49 36 cc bc b8 f3 a6 be da e4 e0 bb c3 24 1c 3b
       -0.024928229 -0.32607818 -0.0068632187 0.0023825623
000200 33 9d 2f be 85 06 ba 3e 69 8a 35 3e fe 6d aa be
       -0.1714981 0.363331 0.1772858 -0.33287042
000210 95 e8 19 bd ad 29 4e be 7c 9a 26 bc 13 01 17 3b
       -0.037575323 -0.20133086 -0.010168668 0.0023041412
000220 5f d1 95 3c 01 da 61 bf c7 c0 07 3b 45 29 8a be
       0.018288312 -0.8822327 0.002071427 -0.2698461
000230 97 39 5f be f6 a3 a7 be 24 8f ff 3a d9 8e bc 3a
       -0.21799313 -0.3274228 0.0019497615 0.0014385834
000240 cc 61 d3 bd bf 51 b3 3e d2 18 39 3b b7 b9 ba be
       -0.10321388 0.35023305 0.0028243554 -0.36469814
000250 a0 eb 51 3e a8 68 18 be f1 a2 0a 3c 39 60 f8 3b
       0.2050004 -0.14883673 0.0084617 0.00757983
000260 ea 1b 5d bd 3f 26 6e be c1 5c c3 bc fd ab 0b bf
       -0.0539817 -0.23256777 -0.02384794 -0.5455931
000270 ab c9 a5 bf 61 03 2b be a3 98 94 3c a9 2d 67 3c
       -1.2952169 -0.16700508 0.01813919 0.014110007
000280 05 d8 c0 3f 89 fa f4 3e c9 a9 eb be 60 c2 a5 3e
       1.5065924 0.47847393 -0.46027973 0.3237486
000290 81 73 91 bd cf 24 11 bf 2b 1c 06 bb 16 22 0d 3a
       -0.07102109 -0.5669679 -0.0020463567 0.00053838023
0002a0 92 9f 98 3e c7 d9 f3 3e d6 f8 b0 be 74 f7 1f 3e
       0.29809242 0.47627088 -0.34564847 0.1562174
0002b0 d8 81 e1 3b ed 5b 3c be fe 39 37 3b b5 d3 ed 3b
       0.0068819337 -0.18394442 0.002795815 0.0072579035
0002c0 ad 2f 15 bc ac 3e 3f be 2c 55 7e 3b c5 23 e4 bd
       -0.009105605 -0.18676251 0.003880809 -0.11139635
0002d0 b5 ab 41 be c9 c9 02 3e 90 ab 0b bb dd 88 c8 3a
       -0.18913157 0.12772287 -0.0021311976 0.0015299577
0002e0 df d9 5b 3d 01 90 a4 be b0 7a 68 bc 09 46 07 3f
       0.053674575 -0.32141116 -0.014189407 0.5284124
0002f0 55 d6 fc ba fb c3 f7 be 56 ec e1 bb 85 c1 8a bb
       -0.001928995 -0.4839171 -0.0068946285 -0.004234495
000300 6e 68 5f 3d a1 d7 ff 3d 4f 93 05 3b fb df 8d 3e
       0.05454295 0.124923 0.0020381992 0.27709946
000310 12 f4 af bf 76 00 2a 3e 6b 14 8e 3c a6 24 93 3c
       -1.3746359 0.16601738 0.01734372 0.017961811
000320 94 05 5d bf b2 21 7c 3f d5 33 6c be da 7a 17 3e
       -0.86336637 0.98488915 -0.23066647 0.14792958
000330 9b e0 82 3b 83 00 dc 3e 87 9f 47 ba 74 9d 84 3b
       0.00399406 0.4296914 -0.0007615019 0.00404709
000340 dc bd 16 bc 28 79 15 bf 9a 6a 2f 3d b2 87 c3 be
       -0.009200539 -0.58387995 0.042826273 -0.38189465
000350 4b ca c5 be 1e ee 9f 3e cc dc 99 3c 13 62 af 3c
       -0.386309 0.31236356 0.018782042 0.02140907
000360 e6 76 c4 be 52 56 b8 3e 9a a1 7a be 65 67 b2 bd
       -0.38371962 0.36003357 -0.24475709 -0.08711127
000370 49 3e d0 be d9 54 8d 3f 02 55 0b 3c 82 65 8a 3c
       -0.4067252 1.1041518 0.008504154 0.016894106
000380 33 38 91 3e dc b4 e1 3e 07 71 dc 3d a5 40 53 3f
       0.2836319 0.44083297 0.10763746 0.82520515
000390 a9 93 a1 bd 49 b4 f1 3d 6a 9c 1f 3c f8 57 bd 3b
       -0.07889492 0.11801965 0.009741882 0.005778309
0003a0 2d dc bc be b1 49 f5 bd 4f c1 a4 bd 46 3a 68 3f
       -0.3688673 -0.11976946 -0.08044683 0.9071392
0003b0 53 e1 c4 bd 0b da 8a 3f d7 95 b6 bc b0 11 a2 bb
       -0.0961329 1.0847791 -0.022288246 -0.004945956
0003c0 e6 27 b5 bd c5 93 dd be e2 a8 6c bc 1f 78 42 bf
       -0.08845501 -0.43276802 -0.014444562 -0.7596454
0003d0 d3 5c ef be ef e2 02 3f 22 0d 4f bb 51 7d 01 3d
       -0.46750507 0.51127523 -0.003159352 0.03161365
0003e0 c5 09 03 3d 7d e8 3d be b9 cb d1 3c 31 b9 25 bf
       0.03199174 -0.18545718 0.025609838 -0.64735705
0003f0 30 b9 ea be 14 30 fb 3e 98 11 b4 3b 0d 49 3c 3b
       -0.45844412 0.49060118 0.0054952614 0.0028730065

dense_dec.bias f4 [400]
000000 8d 75 3d bf dd b0 3b bf 55 1d 5b bd ef 43 09 bf
       -0.74007493 -0.73316747 -0.05349477 -0.53619283
000010 4a 22 52 be f3 3c 08 bf 1a 6e ad 3e ca 39 e0 be
       -0.20520893 -0.53218 0.33873063 -0.4379409
000020 17 5f a3 3d 5d f1 b8 3e 8e 92 18 be 75 19 20 3e
       0.07977121 0.36121646 -0.14899656 0.15634711
000030 c7 ea b9 3e b5 43 45 3e 6d b1 4b 3e 45 32 0b 3f
       0.36311933 0.1926411 0.19891901 0.5437358
000040 2d 42 07 3e 4a d3 da bd 35 ee 03 bd ee 87 01 bf
       0.13208838 -0.106848314 -0.032209594 -0.5059804
000050 dc fc 78 3f 7b c9 87 be 71 7f 89 be 50 24 25 bf
       0.9726083 -0.26520905 -0.26855043 -0.64508533
000060 d6 50 d1 3e 30 c5 ac 3b d3 9b cc be 8d be 54 3d
       0.40881985 0.00527253 -0.39962634 0.051939536
000070 2d 33 95 be ad 5f e0 3e 85 c8 87 be 87 61 cd be
       -0.29140607 0.43822995 -0.26520172 -0.4011347
000080 de 96 1b bf 12 4b d8 bd 74 02 c4 bd f9 42 e7 be
       -0.6077708 -0.105611935 -0.095707804 -0.45168284
000090 2f 84 89 bd dc e8 b4 be bd 2b f2 be 2b 1b 8b 3e
       -0.06714665 -0.35333908 -0.47298995 0.27169165
0000a0 1a fb 8e 3e a1 b1 a9 3e 5e 4c ee 3d e9 fd 70 3e
       0.2792595 0.33143333 0.1163566 0.23534359
0000b0 ae 4c ed 3e 2a f3 7b be 5d e2 98 bd 39 4d 80 3d
       0.46347564 -0.24604478 -0.0746505 0.06264729
0000c0 8d 60 24 3f 50 08 01 40 e3 b9 be 3f 02 9f 1a 3f
       0.64209825 2.0161324 1.4900478 0.60398877
0000d0 63 57 bf be 5b 5f 0a 3f df 22 c3 3f e7 02 cc 3c
       -0.37371358 0.5405175 1.5245017 0.024903728
0000e0 40 bd 9e be 02 f7 a6 3d 3a 37 eb be 3a c4 06 bd
       -0.3100376 0.08152582 -0.45940572 -0.03290198
0000f0 42 9e 38 bf 10 7e bd be f9 6d 00 bf fd e3 4a bd
       -0.7211648 -0.3701024 -0.50167805 -0.049533833
000100 84 97 65 bd 7c 05 37 bf 37 c3 70 3e 18 f2 00 bf
       -0.0560527 -0.71492743 0.23511969 -0.50369406
000110 ba f9 5a 3e b8 41 83 be b6 31 57 3e 87 10 1b 3e
       0.21384326 -0.25636077 0.21015057 0.15143023
000120 05 40 25 3e cc 9d 1d 3c 66 1f 32 bc 0a 4e 41 3e
       0.16137703 0.009620141 -0.010871744 0.18877426
000130 ab a2 37 3f c3 25 65 3e 15 1b d9 be 9e db 13 bf
       0.71732587 0.22377686 -0.42403474 -0.57756984
000140 86 02 fd be f6 5c 43 be 4b d2 22 be b9 b2 9e 3c
       -0.49415988 -0.1907843 -0.15900533 0.019372331
000150 21 00 3f be af b4 b8 be 32 0a 27 bf 0d 35 67 be
       -0.18652393 -0.3607535 -0.6524993 -0.22578831
000160 02 1c 80 be dd f6 43 bf c3 de 2c be c2 00 b9 bd
       -0.25021368 -0.7654856 -0.16881852 -0.09033348
000170 e0 3d fe be 86 da ac bf e8 7b 90 bd a1 f7 da 3e
       -0.49656582 -1.3504188 -0.07054883 0.4276705
000180 b3 88 f6 3e e0 d7 2f 3f 8b 6e 63 be ac 52 13 3c
       0.48151168 0.68688774 -0.22210138 0.0089918785
000190 b9 a3 7b 3f aa ca 8c 3e 2c 49 34 be 64 9b 9d 3e
       0.98296696 0.2749837 -0.17606038 0.30782616
0001a0 f1 f5 36 3f a4 57 55 3f 96 b5 eb be 9d 0f 0b 3e
       0.71469027 0.83336854 -0.46036977 0.13580175
0001b0 99 51 13 3e 21 18 b6 3e d9 7f 4a be 8b 29 17 bf
       0.14386596 0.35565284 -0.19775333 -0.59047765
0001c0 ee 72 32 3d da f1 18 3f 53 78 d2 bc d3 92 9b be
       0.043566637 0.59744036 -0.02569214 -0.30385455
0001d0 b9 f7 9f 3e 96 f4 40 3e 14 74 fc bc c0 e1 99 3e
       0.31243685 0.18843302 -0.03081707 0.30055046
0001e0 4b f0 33 bf 93 dd eb 3d 35 cb bf 3e fc 14 24 3f
       -0.7028853 0.11516871 0.37459722 0.6409452
0001f0 9b ef 81 bf 66 b5 8b 3e c8 da c1 3e a2 d1 18 3e
       -1.0151247 0.27286834 0.3786223 0.14923719
000200 0b fa 47 3e aa 9d aa 3f 82 a4 2b bd e2 f0 b1 be
       0.19528978 1.3329365 -0.041904934 -0.34754092
000210 a8 96 95 be 7a 0d dc 3e 2b cb 1f 3d f8 7a ae bd
       -0.29216504 0.42979032 0.039012115 -0.08519548
000220 5f 08 04 3e d9 12 07 bf 69 40 df bc 68 60 22 bf
       0.12893818 -0.52763134 -0.027252393 -0.63428354
000230 05 55 d2 be e9 4c f7 be 8b 4f 12 3f 65 71 a4 be
       -0.4108049 -0.48300865 0.5715262 -0.32117763
000240 fa 2a ee 3e 72 a0 40 3f 13 98 2c 3f 2d 90 2e be
       0.46517164 0.7524482 0.67419547 -0.17047186
000250 23 4a 55 be 0b d9 2f be 9a 14 35 bd c2 67 93 be
       -0.20829062 -0.17172639 -0.0442091 -0.28790098
000260 54 9b b3 be 90 7a 0d be 22 35 2e 3f 08 c0 dd bd
       -0.35079443 -0.13816285 0.68049824 -0.10827643
000270 2f 07 c6 3e f0 48 d2 bd 85 7e 85 3e a1 b0 38 bf
       0.38677356 -0.10267818 0.2607309 -0.72144514
000280 07 fc ee bd 0e 53 a1 be 23 33 04 be b3 4e a4 be
       -0.11669164 -0.31508678 -0.12910132 -0.32091293
000290 6e f4 e7 3d 61 18 d2 3e d9 c3 bb be f4 4b 54 be
       0.11325918 0.41034225 -0.36672857 -0.20732099
0002a0 88 f4 ca 3e 25 c9 7d 3e bf cf 94 be 01 da 05 3f
       0.39639688 0.24783762 -0.29064748 0.5228577
0002b0 12 a4 26 bf 7d 30 14 3d b1 1e 1b 3f e1 8d e9 be
       -0.650941 0.036179055 0.60593706 -0.45616058
0002c0 9c 02 c0 be 0b 03 d6 bd f8 43 bb 3e 97 0d 02 40
       -0.3750199 -0.10449799 0.36575294 2.0320795
0002d0 81 0e 14 bd ab 0e 08 bf 31 72 0d bf a1 a9 33 bf
       -0.036146645 -0.5314738 -0.5525237 -0.7018071
0002e0 57 8b f1 3e 22 73 12 be c3 88 d1 be 8b 56 97 be
       0.4717662 -0.14301732 -0.40924653 -0.29558215
0002f0 1b 48 90 bb 1a f8 97 be 68 51 0a 3f de 30 47 3e
       -0.004403127 -0.29681474 0.54030466 0.19452235
000300 a5 87 b3 be 5b 64 b4 be 34 01 c2 3e 3d a1 d9 3d
       -0.35064426 -0.35232815 0.37891543 0.10626457
000310 18 c5 8c be 11 4b 12 be 4d ac 2d 3f dc f7 a3 3d
       -0.2749412 -0.14286448 0.67841035 0.0800626
000320 95 0f 9b 3e 9d 27 7f be d0 d8 f6 3e 27 ae b8 bd
       0.30285326 -0.24917455 0.4821229 -0.09017592
000330 86 50 72 be 3c b4 86 3e 64 a0 64 bf f5 07 7d be
       -0.2366353 0.26309383 -0.89307237 -0.24710067
000340 1c 89 0f be ee cc 47 bf c3 43 b3 be e0 b2 cb bd
       -0.14017147 -0.7804707 -0.35012636 -0.09946227
000350 83 a4 80 bb 02 61 c4 bd 33 94 87 3e fb a3 65 3e
       -0.0039258613 -0.09588815 0.26480255 0.22425835
000360 22 82 aa be ef fc 18 bf 4d 58 a9 3e 77 40 2a be
       -0.33302408 -0.59760946 0.3307518 -0.16626154
000370 ed ce 8e 3f 08 be b3 3d 45 97 14 bf ff 69 96 3e
       1.1156899 0.0877648 -0.5804332 0.29377744
000380 95 ed 0d 3d af b9 a8 3e 8e 81 63 bd 27 20 e7 be
       0.034650404 0.32954165 -0.055543475 -0.45141718
000390 18 bb d4 be 36 e0 62 bf a0 6c 07 bf 38 e7 5a 3e
       -0.4154899 -0.8862337 -0.52900124 0.21377265
0003a0 66 18 30 3e fc 5a 91 3e 2c 5d 6e 3e 75 6f 0a bf
       0.17196807 0.28389728 0.2327773 -0.5407632
0003b0 3f 29 55 3d 3a f2 89 be aa 57 d1 bd 2c ab 26 bd
       0.05204129 -0.26942617 -0.10221799 -0.040690586
0003c0 de dc 70 be a5 c8 19 bf 17 8f a5 3d f2 39 37 3e
       -0.23521754 -0.60071784 0.08083933 0.17893198
0003d0 72 6d 9d bd 83 73 aa 3e 42 51 17 3e f8 15 92 be
       -0.07686891 0.33291253 0.14777091 -0.28532386
0003e0 54 87 aa 3e e8 58 07 3f bd 3e 47 3f 3c 7e 39 3e
       0.33306372 0.52870035 0.77830106 0.18114561
0003f0 8c ca 3d bf ab 86 12 3f a2 6f 11 3f cc bc 82 be
       -0.74137187 0.57236737 0.56810963 -0.25534666

conv_dec1.weight f4 [16, 8, 3, 3]
000000 0d 17 f8 bd d2 0a 13 3e 85 21 6c be 09 3f 1e 3f
       -0.121137716 0.14359596 -0.23059662 0.61814934
000010 af 7c b2 3e e4 6b 6f bd a4 7a 1b 3f 71 f5 31 3f
       0.3486075 -0.058452502 0.6073401 0.6951514
000020 23 79 69 3e 82 48 f3 3d 9b e4 a9 3d e3 96 13 be
       0.22800116 0.11879064 0.08295556 -0.14413027
000030 93 6c 07 3e 6c 48 4e 3e ee 94 d5 bd f7 03 1a 3f
       0.13225012 0.20144814 -0.10428797 0.601623
000040 8c fa c1 bd 9a 11 da 3c bd d9 30 be 52 3e 58 3e
       -0.09471616 0.026619721 -0.1727056 0.21117523
000050 7f ae 8d 3d 1c ba 9d be 44 5d 19 3e be e3 4a 3e
       0.06918048 -0.30806053 0.14976984 0.19813439
000060 e5 2e 9a 3e 81 13 5b 3f 60 94 d8 3e fc 91 51 bf
       0.30113903 0.85576636 0.423007 -0.8186338
000070 97 9b 6e bd 84 9e cd be 71 38 29 be af 47 ac be
       -0.05825385 -0.4016 -0.16525437 -0.3364844
000080 f0 e7 95 bd 2b 77 71 bd dc 02 3e 3f a6 5d 93 3e
       -0.07319629 -0.058951538 0.74223113 0.28782386
000090 4f bd 2e bd 74 20 79 3e 98 1b ea be 68 4e 8e be
       -0.042661007 0.24328786 -0.45724177 -0.27794194
0000a0 4b a8 a4 be d0 ed a7 bd 3e cc aa 3e 8a 58 b3 3e
       -0.32159647 -0.08199656 0.3335895 0.35028487
0000b0 df 95 48 3d 33 d2 bd be ed 58 bf 3e 95 0e 9e be
       0.048971053 -0.37074432 0.37372532 -0.308705
0000c0 11 9e cd be a8 36 87 bf cd fe bd 3e cb c3 a0 3e
       -0.40159658 -1.0563555 0.3710846 0.31399378
0000d0 41 f9 02 bf d8 7a 72 3e a7 b0 84 be 78 50 71 3e
       -0.5116158 0.23679674 -0.25916025 0.23565853
0000e0 61 c5 b5 3c 96 40 3f bf 0c 3a eb 3e 16 9c 8d be
       0.022188844 -0.74707925 0.45942724 -0.27658147
0000f0 64 e4 1b 3f 7b ae 85 3f a8 68 21 3e ed 74 23 bf
       0.6089537 1.0443872 0.1576258 -0.6385029
000100 f0 ee 24 bf f4 bd 88 be 0f ba 6f bd c8 d1 c4 bd
       -0.6442709 -0.26707423 -0.05852705 -0.09610325
000110 71 d2 c6 be e0 4b 32 3d 61 f0 3a 3e 9e b5 94 3e
       -0.3883243 0.04352939 0.1825576 0.29044813
000120 39 c9 36 3f 2e 09 c8 be 18 f4 de 3e 98 5d 42 3e
       0.7140079 -0.39069504 0.43545604 0.18981016
000130 32 ac b7 3c 7b ac b4 bd fc d8 97 be 20 be 6a 3e
       0.022420976 -0.088219605 -0.29657733 0.2292409
000140 94 b4 9c 3d 57 8e da bd bc 49 a0 bb 1a 5f 49 be
       0.0765163 -0.106716804 -0.0048916023 -0.19665185
000150 ed bd 0b bf 29 25 be 3e d8 d2 18 bd 84 0a cf 3d
       -0.5458668 0.37137726 -0.03731045 0.101094276
000160 8f 93 8d 3e 5e 9b ab 3d cb 33 c9 bd 03 7e 76 bd
       0.2765164 0.08379243 -0.09824332 -0.060178768
000170 de 79 c5 be 46 36 69 bc d1 ee 37 bb 39 e7 d8 3d
       -0.3856954 -0.014234131 -0.002806593 0.10590977
000180 bc 9a d4 3d 6a 21 c4 3e b1 17 8a 3e 36 2f e8 be
       0.10381076 0.38306743 0.269712 -0.4534852
000190 57 49 8c 3e 7d 96 af 3e 54 fa 5b 3f e8 36 14 3d
       0.27399704 0.342945 0.85928845 0.036185175
0001a0 92 bd e6 3e a3 a1 02 3e af 9c 0f 3e 25 68 8c 3f
       0.45066506 0.12756972 0.14024614 1.0969282
0001b0 d8 90 9f 3e 2a 71 29 bd 82 22 09 be 9a e4 5b 3d
       0.31165195 -0.041367687 -0.1339207 0.05368481
0001c0 26 f6 37 3e 7a bd 8d be 41 72 f2 bd c9 33 81 3c
       0.17964992 -0.27683622 -0.118381985 0.015771763
0001d0 0b f9 86 3d 08 db c5 3c 70 91 88 bd 71 28 ab 3e
       0.0659047 0.024152294 -0.06668365 0.33429292
0001e0 54 49 21 3e 08 9d 0e bd 06 3e 73 be 56 9d 8e bd
       0.15750629 -0.034817725 -0.23754129 -0.06963603
0001f0 a5 30 5b bf f3 42 a0 3f 91 e2 01 be 11 2a c7 bb
       -0.856211 1.2520431 -0.12684084 -0.0060780128
000200 e4 8e 7e be d9 ba 8b 3e 6b ca 8d bd 19 bc ba 3e
       -0.24859196 0.2729099 -0.06923374 0.36471632
000210 7a 66 9e 3d 70 68 16 3f 45 5c 76 3e 19 f3 8e 3e
       0.077343896 0.5875311 0.24058636 0.27919844
000220 e4 66 34 3d eb 8a 90 bc b6 88 13 3e 23 ef c7 bc
       0.044043437 -0.017644366 0.1440762 -0.024406021
000230 d9 1f df bd d2 77 d3 3e cb 8f 58 3e d5 6f ae 3e
       -0.10894746 0.41302353 0.21148603 0.34069696
000240 84 fa 00 be 58 64 39 3e 74 81 87 be a1 0f e8 3e
       -0.12595564 0.18104684 -0.26465952 0.45324424
000250 fb 3e 93 3e 1f 8e 35 be ec b0 25 3e f3 e6 48 3d
       0.28758988 -0.17729996 0.16180772 0.049048375
000260 6e ef b2 3d b8 a7 6d 3f 7f b4 2a be 1a e9 46 3f
       0.08737074 0.92834044 -0.16670416 0.77699435
000270 37 8f 73 3e 94 1e 15 be 8f 6e ba 3d 9d f4 08 bf
       0.23785101 -0.14562446 0.09103119 -0.5349825
000280 c8 93 27 3d d2 3a 5a be 9e df db 3e a5 32 e9 bd
       0.04091242 -0.213115 0.42944044 -0.11386613
000290 b8 fc db 3e 8b c1 37 3e 14 69 30 be d8 03 cb bd
       0.42966247 0.17944925 -0.17227584 -0.099128425
0002a0 74 36 83 3e 96 04 2e be ee 70 4e bd 67 03 ae be
       0.25627482 -0.16993937 -0.050400667 -0.3398697
0002b0 b0 e6 f7 3d 47 3e 85 3f 5b e6 5d bf 17 50 1d bf
       0.12104547 1.040963 -0.8667962 -0.6145033
0002c0 37 13 8c be 8c 15 23 bd ee cd c2 be 3d cf 9d be
       -0.2735841 -0.03981547 -0.38047737 -0.30822173
0002d0 16 ea 0b bc f9 6d b9 3e 3c c3 6d bd c7 6b 8a 3e
       -0.008539697 0.36216715 -0.058047518 0.27035353
0002e0 4d 00 1a 3e 97 0f f1 3d 79 50 c1 3e 1c 18 dc 3d
       0.15039177 0.11770552 0.37756708 0.10746786
0002f0 8a 28 13 be 4a e7 2b be 91 5c a9 bf 2a 42 d9 3e
       -0.14370933 -0.16787449 -1.3231374 0.42433292
000300 1c 5a f0 3d c1 e6 90 3d 70 8e ee bd b9 fe ac 3d
       0.11735937 0.07075263 -0.116482615 0.08447022
000310 69 a5 db 3e 9b 2d f8 bd dd 78 7a 3f 56 3b 69 3f
       0.42899635 -0.121180736 0.9784067 0.91106164
000320 5e e8 14 3f af 00 54 3d eb f8 5a 3e 3c bd ca 3d
       0.58167064 0.051758464 0.21384017 0.09899375
000330 5f 30 d3 3c b5 c8 5f be a9 35 8d 3e bb 96 1e 3f
       0.025779901 -0.21853907 0.27580002 0.61948746
000340 6d 0e db 3e 9d 36 7e 3f 15 8d 7c 3e 28 c2 6b be
       0.42784443 0.99302083 0.24663194 -0.23023283
000350 e4 58 24 be 01 15 62 be d8 07 04 3d 08 d6 86 be
       -0.16049534 -0.22078325 0.032234043 -0.26335168
000360 e2 2e 28 bc 12 82 20 bf b7 d1 7c 3e 37 92 d8 3e
       -0.010265084 -0.6269847 0.24689375 0.42299053
000370 7a c1 aa be 88 7a 64 3c 50 cc 88 3e 18 c7 3c be
       -0.33350736 0.013945229 0.26718378 -0.18435323
000380 3f 63 8d 3e bd 79 77 be 5e 36 84 be fa c2 03 3e
       0.2761478 -0.24167533 -0.2582273 0.12867346
000390 1b 14 88 3e bb 50 51 3c 65 d4 84 3e 6f 70 a0 3e
       0.2657784 0.012775595 0.25943294 0.3133578
0003a0 5b 4c 17 be 58 c4 68 bd c0 f2 ab 3e 16 b6 1d 3e
       -0.14775221 -0.056827873 0.3358364 0.15401492
0003b0 1b 7f 4b 3e 80 da 4c 3e a7 2e 27 3d 25 e9 c6 3d
       0.19872706 0.20005226 0.040815976 0.097124375
0003c0 ab d2 a2 3e fd 3d 16 3e e4 84 25 3e 21 ff d6 bd
       0.31801352 0.14672084 0.16163975 -0.10497881
0003d0 9b 04 ef 3d 49 18 f7 be dc 09 2b be c9 8f 19 be
       0.116708 -0.48260716 -0.1670298 -0.14996256
0003e0 05 ea ad be 13 6a b7 3e e6 93 a4 be a6 7e fa be
       -0.33967605 0.35823116 -0.32144088 -0.4892475
0003f0 71 81 12 3e ba 05 61 be ed 09 1b be f1 32 7d 3e
       0.1430719 -0.21974841 -0.15140505 0.24726464

conv_dec1.bias f4 [8]
000000 c7 d5 18 3f 28 fe 0c 3e 37 40 78 be 8a 6b 45 3e
       0.597012 0.13768828 -0.24243246 0.19279304
000010 3f 90 41 3e 18 83 61 3e 1a 31 04 3e ce 35 bc 3d
       0.18902682 0.22022665 0.12909356 0.0918995
