test3/pth/controller_best.pth (torch, 29207 bytes, 5 tensors)

fc1.weight f4 [200, 28]
0.063157886 -0.00056549645 -0.019678239 0.032906123 0.047294617 0.08950066 0.06711403 0.009577439
-0.08758302 -0.030034294 -0.08010269 -0.055150613 0.059302103 -0.14688301 -0.020142132 0.051726177
0.11672398 0.06221031 0.13195755 -0.07227717 -0.0313312 -0.0025842902 -0.17535181 0.07475241
0.073063105 0.017036516 0.23274937 -0.07677159 -0.003538214 -0.1692732 -0.043004833 0.042879388
0.774541 -0.093061894 -0.111391455 0.20110604 0.17597862 0.08056857 0.19935262 -0.0564188
-0.009270514 0.08347084 -0.04671195 0.011787678 -0.22629642 -0.17941019 -0.030027805 0.025205592
-0.06712573 0.056129746 -0.082765944 0.0506389 -0.053276557 -0.2105433 -0.0134582585 0.0011547747
0.0381139 -0.04693072 0.086497985 -0.021216843 0.042437997 0.04929908 -0.11537862 0.05002173
-0.15388441 0.14513417 0.15662514 0.029118646 0.15671271 -0.078049876 -0.0372959 0.11174478
-0.11319905 0.020391338 -0.14602849 0.19586086 0.1259791 -0.076963596 -0.12076613 -0.061515693
-0.041403092 0.041648325 0.06152225 0.045032773 0.03932095 -0.14330134 0.02878169 -0.0037936429
-0.024964068 0.37765884 -0.17233732 -0.057275664 0.15172495 -0.27991948 0.2728754 -0.13969953
-0.46991846 0.37332854 0.13259645 -0.25873992 0.14969191 -0.0067193755 -0.29561746 -0.0413121
0.19945076 -0.087011844 -0.06462286 -0.19150966 -0.05193743 -0.19199646 0.12280666 -0.22674172
0.09487371 0.13687888 -0.11993995 0.015973808 0.122568734 0.009106067 -0.066108815 -0.084767535
-0.5367726 0.2556338 -0.26593292 0.29590097 -0.03657819 -0.075495355 -0.13816915 -0.06481893
0.009368524 -0.2366849 -0.2714801 -0.2453712 -0.5354378 0.09666077 -0.07418309 0.028370809
-0.65080667 0.2622771 0.021207461 -0.044002645 -0.009056218 0.03319048 0.1748716 0.069189094
-0.873623 -0.1866539 -0.017216185 -0.14247122 -0.21300289 0.026257852 0.025264466 -0.063295946
0.13794425 -0.13012712 -0.16907497 0.07004174 -0.13744527 -0.048236568 -0.083261676 -0.07373368
0.017482832 0.24583276 0.021106118 -0.031254668 -0.13909045 -0.26327 -0.17401126 -0.09207527
0.22944775 0.0057754167 0.013217257 -0.021422036 0.9840085 -0.21496369 -0.11824672 0.30677617
0.0089112045 0.09516769 0.19583303 -0.29347995 0.0150574 0.07905655 0.07503719 -0.124103636
-0.07084858 -0.027081035 0.15872546 -0.037151184 -0.006774781 0.07945429 0.17213027 -0.20665078
-0.066437304 0.14624423 -0.10047504 0.021859279 -0.18650897 0.0028485924 0.020422174 0.042459536
0.023209874 0.0009227328 0.07018815 -0.082385175 0.113705754 -0.40554956 0.105436146 -0.2802317
0.4157864 -0.8240775 -0.1274903 0.17406236 0.12940651 -0.023992414 -0.10115116 0.15567383
0.25969493 -0.396271 -0.13304389 -0.25733364 0.67977095 -0.5834505 0.11423358 -0.22375011
-0.04075793 0.032677267 0.013919741 -0.07061672 -0.019036476 -0.106864646 -0.05844024 0.017677661
0.030371206 -0.03803901 0.1656967 0.13362555 -0.053242233 0.093489274 -0.13441058 -0.1510966
-0.05326151 -0.017053036 -0.032913875 0.020108234 0.13520697 0.124252155 -0.09376098 -0.19922765
0.16950734 0.14812367 -0.17360988 -0.026587326 -0.09602297 -0.025899058 -0.14540155 -0.13303842
00000000: ec58 813d d33d 14ba 4234 a1bc 92c8 063d
00000010: 00b8 413d 1f4c b73d 1573 893d b1ea 1c3c
00000020: ba5e b3bd 7b0a f6bc e10c a4bd 9ce5 61bd
00000030: c3e6 723d 8068 16be 1d01 a5bc d4de 533d
00000040: fb0c ef3d 3dd0 7e3d e11f 073e 0e06 94bd
00000050: 2555 00bd 325d 29bb 6d8f 33be cb17 993d
00000060: 1ca2 953d 2a90 8b3c da55 6e3e 6c3a 9dbd
00000070: 61e1 67bb f455 2dbe d625 30bd 4ca2 2f3d
00000080: 5248 463f 3c97 bebd 3421 e4bd beee 4d3e
00000090: bd33 343e 2201 a53d 1823 4c3e 6617 67bd
000000a0: 5be3 17bc c2f2 aa3d 0855 3fbd 1b21 413c
000000b0: 40ba 67be 4eb7 37be dffc f5bc f57b ce3c
000000c0: 3779 89bd 4ee8 653d 3181 a9bd bc6a 4f3d
000000d0: 8538 5abd aa98 57be 0780 5cbc cf5b 973a
000000e0: 521d 1c3d 6d3a 40bd db25 b13d f2ce adbc
000000f0: 77d3 2d3d d5ed 493d a04b ecbd 96e3 4c3d
00000100: e093 1dbe 0d9e 143e 5762 203e 3a8a ee3c
00000110: 4c79 203e 9dd8 9fbd 96c3 18bd 72da e43d
00000120: e7d4 e7bd bc0b a73c 7e88 15be c08f 483e
00000130: aa00 013e 179f 9dbd 3c54 f7bd e1f7 7bbd
00000140: 4a96 29bd 6f97 2a3d c1fe 7b3d 4974 383d
00000150: 010f 213d 96bd 12be 94c7 eb3c c49e 78bb
00000160: 7281 ccbc 805c c13e 3279 30be e399 6abd
00000170: c95d 1b3e 9b51 8fbe 53b6 8b3e 650d 0fbe
00000180: 2799 f0be eb24 bf3e 5dc7 073e 8f79 84be
00000190: d648 193e 352e dcbb 2c5b 97be e036 29bd
000001a0: d23c 4c3e 4433 b2bd fd58 84bd 1c1b 44be
000001b0: 58bc 54bd b89a 44be 0f82 fb3d fb2e 68be
000001c0: 264d c23d fa29 0c3e 14a3 f5bd 81db 823c
000001d0: 5105 fb3d 9d31 153c 0f64 87bd 9a9a adbd
000001e0: ee69 09bf 6fe2 823e 5c28 88be 5580 973e
000001f0: 03d3 15bd 4f9d 9abd 377c 0dbe cabf 84bd
00000200: 707e 193c 875d 72be 71ff 8abe 9642 7bbe
00000210: 7412 09bf 15f6 c53d 4eed 97bd e669 e83c
00000220: 449b 26bf 2f49 863e 45bb ad3c 1e3c 34bd
00000230: 8860 14bc bef2 073d 8a11 333e 03b3 8d3d
00000240: c2a5 5fbf 3322 3fbe f508 8dbc fae3 11be
00000250: 6e1d 5abe b51a d73c 6df7 ce3c 4ea1 81bd
00000260: 4241 0d3e 0b40 05be fd21 2dbe 0b72 8f3d
00000270: 74be 0cbe b593 45bd 1985 aabd af01 97bd
00000280: 2838 8f3c 95bb 7b3e bde6 ac3c e504 00bd
00000290: ba6d 0ebe 53cb 86be 0230 32be f691 bcbd
000002a0: 5af4 6a3e b53f bd3b 328d 583c 447d afbc
000002b0: fbe7 7b3f 711f 5cbe 562b f2bd c411 9d3e
000002c0: 4d00 123c 47e7 c23d 7488 483e 0143 96be
000002d0: 50b3 763c 67e8 a13d 19ad 993d 0c2a febd
000002e0: 0f19 91bd 0cd9 ddbc ed88 223e d72b 18bd
000002f0: fbfe ddbb eeb8 a23d eb42 303e 439c 53be
00000300: 4810 88bd 0cc1 153e dcc5 cdbd 3b12 b33c
00000310: 35fc 3ebe 73af 3a3b 674c a73c 0dea 2d3d
00000320: a222 be3c 8de3 713a cebe 8f3d 8fb9 a8bd
00000330: 90de e83d 31a4 cfbe e8ee d73d 887a 8fbe
00000340: f4e1 d43e bef6 52bf d18c 02be 673d 323e
00000350: 2483 043e bd8b c4bc 5728 cfbd f668 1f3e
00000360: bcf6 843e 08e4 cabe a83c 08be 3cc1 83be
00000370: 7805 2e3f 035d 15bf 4cf3 e93d c01e 65be
00000380: caf1 26bd 99d8 053d a00f 643c 809f 90bd
00000390: 62f2 9bbc dadb dabd 085f 6fbd bed0 903c
000003a0: 09cd f83c cbce 1bbd 65ac 293e 23d5 083e
000003b0: 8714 5abd 4e77 bf3d eda2 09be 11b9 1abe
000003c0: be28 5abd cfb2 8bbc b3d0 06bd 06ba a43c
000003d0: b273 0a3e ea77 fe3d c205 c0bd 5502 4cbe
000003e0: 5593 2d3e bbad 173e cac6 31be aacd d9bc
000003f0: b1a7 c4bd 432a d4bc 25e4 14be 393b 08be

fc1.bias f4 [200]
-0.12163173 -0.014676025 -0.12881996 0.051787738 -0.10234649 -0.009403611 -0.06852516 -0.18362507
0.017947089 -0.23019278 0.05964734 -0.026418148 0.1357329 -0.19861372 0.04695069 -0.11792582
0.091319196 -0.18827595 -0.13944794 0.014130002 -0.21361744 -0.05612761 0.10193216 -0.1453285
0.08142884 0.05491677 -0.18830958 0.1543089 0.070063636 -0.13476497 -0.24873687 -0.113210805
-0.112598054 -0.0006242285 -0.078803 0.09723765 -0.046694763 0.0073401094 0.052825775 0.03801141
-0.13333313 0.01876154 -0.12556216 0.02907462 -0.06854428 0.11490834 0.018170424 -0.09881821
0.05966596 -0.17011216 0.104295075 -0.03157672 0.08883825 0.04493501 -0.0057000294 -0.14348976
-0.05465321 0.033215113 0.14911753 0.08435668 0.04651683 0.013352308 -0.062620245 0.049070623
-0.2976572 -0.20807956 -0.028254164 -0.0041553266 -0.050310377 -0.15587395 0.021890566 0.025410268
-0.26078328 -0.14567779 -0.15977983 0.11372771 -0.079954185 0.08065177 -0.022809952 0.11575447
-0.036194496 -0.13901663 0.06519822 -0.24682404 0.07374906 0.04508092 -0.040827796 -0.0797916
-0.086834654 0.026166571 0.043327205 -0.042275768 -0.06284076 -0.094433405 -0.018485423 -0.077994235
-0.21662293 -0.07976468 0.07307556 -0.026081158 -0.021958247 0.071679994 0.03853171 -0.027877383
-0.044633053 -0.18777272 0.08859928 -0.015545933 -0.16647345 0.11628295 -0.027700862 -0.045826674
0.109737895 0.02143355 0.032814577 0.043260124 0.21095811 -0.09645584 -0.14137204 -0.03985009
-0.10077546 -0.20714027 -0.16047736 -0.025059747 -0.10107706 0.082362555 0.009282393 -0.015435275
-0.115887955 -0.09365984 0.121709235 -0.037997928 0.10102703 -0.14095314 -0.15739416 0.05637019
-0.1415001 -0.10644731 -0.14497972 -0.119305104 -0.043434985 -0.21503162 -0.08716094 -0.13142088
0.11043149 -0.32444856 -0.009732044 -0.17232269 0.20320871 0.08505825 -0.11583894 0.043376204
-0.14289661 0.098401666 -0.15467998 -0.26916656 -0.18931295 -0.18447362 0.110930815 -0.13220873
-0.11755746 -0.16695127 -0.19285116 0.0018988851 -0.08873198 -0.16412924 0.07467987 -0.19904259
-0.05417945 -0.056352284 -0.2048599 -0.22088827 0.004598862 -0.05757701 -0.12453575 0.149345
-0.18767394 -0.16467944 0.15536673 0.024923353 -0.075235814 0.0058664232 -0.18108426 -0.06459917
0.21398216 0.017916363 -0.09270915 -0.07338297 0.09549069 -0.06992937 -0.21571633 0.16929539
-0.026442392 0.09948313 0.01440045 0.06044516 -0.07750059 0.019978672 -0.06520257 0.15535696
00000000: 0e1a f9bd b673 70bc 61e9 03be 611f 543d
00000010: 099b d1bd 9a11 1abc eb56 8cbd 3608 3cbe
00000020: c605 933c a8b7 6bbe c550 743d df6a d8bc
00000030: 91fd 0a3e 6561 4bbe 5e4f 403d 1883 f1bd
00000040: 8f05 bb3d 69cb 40be 71cb 0ebe 8681 673c
00000050: 88be 5abe 11e6 65bd cfc1 d03d ffd0 14be
00000060: 2ac4 a63d 68f0 603d 3ad4 40be 2703 1e3e
00000070: 867d 8f3d d4ff 09be e1b4 7ebe 11db e7bd
00000080: cf99 e6bd 44a3 23ba 7863 a1bd 8824 c73d
00000090: 0243 3fbd 4d85 f03b d75f 583d dab1 1b3d
000000a0: 7b88 08be cdb1 993c 5e93 00be e62d ee3c
000000b0: f260 8cbd 1055 eb3d 24da 943c 3461 cabd
000000c0: 4b64 743d e231 2ebe a898 d53d 9756 01bd
000000d0: d4f0 b53d c60d 383d 50c7 babb fbee 12be
000000e0: 0bdc 5fbd 920c 083d 44b2 183e 32c3 ac3d
000000f0: 6e88 3e3d a4c3 5a3c 0b3f 80bd 47fe 483d
00000100: 8666 98be cf12 55be 4775 e7bc 6829 88bb
00000110: 4112 4ebd 6c9d 1fbe d853 b33c 3229 d03c
00000120: 6385 85be 8f2c 15be 539d 23be 13ea e83d
00000130: 05bf a3bd c12c a53d f0db babc ae10 ed3d
00000140: ae40 14bd 605a 0ebe a586 853d 71bf 7cbe
00000150: bf09 973d c5a6 383d 0c3b 27bd c769 a3bd
00000160: 5ed6 b1bd 475b d63c de77 313d 5b29 2dbd
00000170: a8b2 80bd 4d66 c1bd be6e 97bc 71bb 9fbd
00000180: 67d2 5dbe aa5b a3bd a4a8 953d 27a8 d5bc
00000190: c8e1 b3bc f6cc 923d 6dd3 1d3d 1c5f e4bc
000001a0: 26d1 36bd 7e47 40be 8a73 b53d 5eb4 7ebc
000001b0: 0478 2abe c125 ee3d ebec e2bc c0b4 3bbd
000001c0: 43be e03d 6a95 af3c 9468 063d 8731 313d
000001d0: 6705 583e a48a c5bd d5c3 10be d939 23bd
000001e0: 5d63 cebd 941c 54be 2d54 24be 194a cdbc
000001f0: 7d01 cfbd b3ad a83d 2e15 183c 3ce4 7cbc
00000200: aa56 edbd bbd0 bfbd b142 f93d b7a3 1bbd
00000210: 42e7 ce3d 0556 10be ef2b 21be 6ee4 663d
00000220: 67e5 10be 0c01 dabd 9075 14be 3c56 f4bd
00000230: e2e8 31bd 4031 5cbe 6f81 b2bd 3293 06be
00000240: e829 e23d 1f1e a6be 2773 1fbc 5c75 30be
00000250: f215 503e 0533 ae3d f73c edbd 3fab 313d
00000260: 7d53 12be d086 c93d 6e64 1ebe 33d0 89be
00000270: 41db 41be a7e6 3cbe b22f e33d ba61 07be
00000280: f7c1 f0bd 46f5 2abe c67a 45be 03e4 f83a
00000290: 1db9 b5bd 7f11 28be c2f1 983d d2d1 4bbe
000002a0: 45eb 5dbd a7d1 66bd cbc6 51be 8930 62be
000002b0: 0db2 963b dfd5 6bbd 990c ffbd e5ed 183e
000002c0: 992d 40be baa1 28be 7518 1f3e 0f2c cc3c
000002d0: 3c15 9abd 203b c03b 276e 39be 924c 84bd
000002e0: 241e 5b3e 56c5 923c 4bde bdbd d049 96bd
000002f0: 9f90 c33d 2137 8fbd bee4 5cbe c55b 2d3e
00000300: b79d d8bc d0bd cb3d ddef 6b3c 5895 773d
00000310: a1b8 9ebd 50aa a33c ed88 85bd e515 1f3e

fc2a.weight f4 [4, 200]
-0.010659127 -0.038287107 0.022642415 -0.1624426 0.10693687 0.07408927 -0.025603738 0.3292268
-0.0014433282 0.19296248 0.17807108 -0.0050870087 -0.07425069 -0.46865943 -0.0121291755 -0.026194511
-0.030320486 0.07988273 0.017714394 -0.023166588 -0.13607398 0.03737898 0.08147182 -0.025579695
-0.0033012342 -0.0006805619 0.047783054 -0.0071878927 0.054966398 0.08100036 0.17897151 0.058987424
0.1278768 -0.077592276 -0.012981533 0.11152615 -0.02747803 -0.022977237 0.020951934 -0.017760077
0.0055512516 0.46679533 0.019542174 0.03644434 -0.050001524 -0.0045294804 0.024352856 -0.03677481
0.020169588 0.0033743486 -0.005445655 0.03460104 -0.015446453 -0.032487705 0.017451135 0.039480772
-0.068439364 0.0648033 0.08925495 -0.0021340803 -0.02465207 0.030330334 -0.02134528 -0.018818295
-0.6546519 0.15621847 0.001780794 -0.038584672 0.00484067 0.05225846 0.008858469 0.07781627
0.19151418 0.04280214 -0.008052093 -0.01579578 -0.037459046 -0.06042713 0.07328883 -0.045761805
0.037234697 0.11318256 0.03515046 -0.0205879 0.029550577 0.07813015 -0.012843684 -0.04567411
0.035390597 0.016991735 -0.39629617 -0.10728576 -0.080336615 0.07903832 0.016645357 0.43043423
-0.33806217 0.073038906 -0.00059112505 0.072338656 -0.013866476 -0.030688584 0.04834948 0.0067775226
0.14899215 -0.03466948 0.05472411 -0.037556857 -0.19684589 -0.010277209 -0.3215577 -0.0043582786
-0.060627192 0.024187297 -0.029131727 0.020858089 -0.02177618 0.042550918 -0.02158885 0.09956867
0.010347649 -0.124545515 -0.683777 0.020755524 -0.45181328 0.004664645 0.24059787 -0.1393769
-0.028686818 -0.024115954 -0.03694801 -0.0031171003 0.02089077 0.1430226 -0.014988677 -0.045159698
0.13248381 0.42572555 0.00032862468 -0.024801686 0.010968956 -0.0746311 1.1069373e-05 -0.0027650169
-0.06172845 0.40594777 -0.005114017 -0.18319547 0.13740207 0.004419846 0.010175019 0.0992643
0.2619058 -0.024664493 0.017888352 0.14989579 0.061515193 -0.24989052 0.016697695 -0.039197914
-0.008970323 0.116377406 -0.12810886 0.024833594 -0.031311434 -0.05009688 -0.015295887 -0.07580957
-0.028850269 0.028833123 -0.023965271 0.0357342 0.40356603 0.012280833 0.033388305 -0.008528834
-0.013521679 -0.066287436 -0.0054444047 -0.009029425 0.34162587 -0.0063263467 -0.51247686 0.021511886
0.05880655 -0.0038421138 -0.058547802 -0.0037209317 -0.030378196 -0.027401267 0.043358352 0.0700544
-0.057652924 0.06748367 0.058457118 0.082671806 -0.1906847 0.03196123 -0.07185305 0.111290075
0.012216101 0.035102874 0.0030474176 0.026909677 -0.021777892 0.07303717 0.09983909 -0.024747191
-0.033718098 -0.12339689 0.03613351 0.032097727 0.013129724 -0.046835624 -0.008600928 -0.022228815
0.043203592 0.10749755 -0.013634641 -0.08887581 0.074740596 -0.0639925 -0.0066817035 -0.025997305
0.0058523775 -0.0036406894 -0.14117436 -0.014123361 0.07215319 0.021346502 -0.020831501 0.14657655
-0.046343748 0.14035231 -0.028834486 -0.08328829 -0.065493986 0.011306648 0.12091196 0.038244136
0.048790254 0.1446921 0.048964083 0.08225296 -0.07910673 0.031848192 0.086574554 0.08774514
0.05584632 0.023644257 -0.019292898 0.04917393 -0.0024045892 0.012506448 0.025115153 0.0036207335
00000000: 9ea3 2ebc f1d2 1cbd 967c b93c 5a57 26be
00000010: b801 db3d 1dbc 973d eebe d1bc 6a90 a83e
00000020: 0f2e bdba f597 453e 4458 363e ecb0 a6bb
00000030: bf10 98bd 21f4 efbe 73b9 46bc df95 d6bc
00000040: ab62 f8bc 8f99 a33d c71d 913c dbc7 bdbc
00000050: fa56 0bbe b41a 193d b3da a63d 828c d1bc
00000060: 8559 58bb bc67 32ba 2ab8 433d 6a88 ebbb
00000070: 7224 613d 84e3 a53d 4f44 373e cc9c 713d
00000080: 23f2 023e b3e8 9ebd 7fb0 54bc d267 e43d
00000090: 9b19 e1bc c23a bcbc 64a3 ab3c 957d 91bc
000000a0: 46e7 b53b ccff ee3e e916 a03c a946 153d
000000b0: 66ce 4cbd 096c 94bb a47f c73c 2fa1 16bd
000000c0: b13a a53c 2d24 5d3b 7771 b2bb d2b9 0d3d
000000d0: 1f13 7dbc d411 05bd aff5 8e3c 97b6 213d
000000e0: f029 8cbd 98b7 843d 4dcb b63d eddb 0bbb
000000f0: 23f3 c9bc 5277 f83c 4cdc aebc d328 9abc
00000100: 4497 27bf bcf7 1f3e 8869 e93a f60a 1ebd
00000110: 7c9e 9e3b f80c 563d 1d23 113c 235e 9f3d
00000120: 4b1c 443e 4c51 2f3d edec 03bc 2766 81bc
00000130: a86e 19bd 7082 77bd 7418 963d bb70 3bbd
00000140: 6983 183d 42cc e73d eef9 0f3d f5a7 a8bc
00000150: 0d14 f23c b302 a03d 516e 52bc c714 3bbd
00000160: bbf5 103d 4032 8b3c 55e7 cabe a3b8 dbbd
00000170: 8687 a4bd d8de a13d d85b 883c e061 dc3e
00000180: 7c16 adbe 6c95 953d bbf5 1aba 4a26 943d
00000190: 3730 63bc a066 fbbc 1b0a 463d fb15 de3b
000001a0: 6691 183e 9601 0ebd 6326 603d 38d5 19bd
000001b0: f891 49be bd61 28bc 36a3 a4be e4cf 8ebb
000001c0: 3854 78bd 7024 c63c a9a5 eebc 95de aa3c
000001d0: f663 b2bc df49 2e3d 1adb b0bc a9ea cb3d
000001e0: 3089 293c b811 ffbd 020c 2fbf 7d07 aa3c
000001f0: 1254 e7be e1d9 983b 4a5f 763e d1b8 0ebe
00000200: 9e00 ebbc d28e c5bc cc56 17bd 4448 4cbb
00000210: 1f23 ab3c 8474 123e 1193 75bc 60f9 38bd
00000220: d6a9 073e b3f8 d93e 424b ac39 e82c cbbc
00000230: 23b7 333c 31d8 98bd 98b6 3937 4935 35bb
00000240: f9d6 7cbd 63d8 cf3e 7c93 a7bb 9897 3bbe
00000250: 21b3 0c3e 5bd4 903b 1fb5 263c 154b cb3d
00000260: 8418 863e 310d cabc 988a 923c 487e 193e
00000270: 5bf7 7b3d 4de3 7fbe 9bc9 883c fe8d 20bd
00000280: 43f8 12bc 4757 ee3d f82e 03be d26f cb3c
00000290: 6b40 00bd 6332 4dbd 9a9b 7abc 0c42 9bbd
000002a0: 6657 ecbc 7133 ec3c d152 c4bc 065e 123d
000002b0: 35a0 ce3e 8c35 493c 2dc2 083d 86bc 0bbc
000002c0: 088a 5dbc b5c1 87bd fa66 b2bb 27f0 13bc
000002d0: 96e9 ae3e 3e4d cfbb af31 03bf b239 b03c
000002e0: 23df 703d f9cb 7bbb d2cf 6fbd e0da 73bb
000002f0: b2db f8bc 9f78 e0bc 8798 313d ae78 8f3d
00000300: 7925 6cbd e134 8a3d bb70 6f3d d64f a93d
00000310: da42 43be c7e9 023d b127 93bd 0dec e33d
00000320: 0b26 483c 08c8 0f3d 2fb7 473b af71 dc3c
00000330: 8d67 b2bc 8394 953d 7078 cc3d 9fba cabc
00000340: fd1b 0abd 82b7 fcbd bb00 143d e878 033d
00000350: 0e1e 573c b6d6 3fbd e8ea 0cbc 3419 b6bc
00000360: 40f6 303d ad27 dc3d d463 5fbc 8504 b6bd
00000370: 9911 993d 800e 83bd 31f2 dabb 4df8 d4bc
00000380: 4dc5 bf3b a298 6ebb 0390 10be ab65 67bc
00000390: 0dc5 933d dcde ae3c d3a6 aabc 2a18 163e
000003a0: f1d2 3dbd 84b8 0f3e 4d36 ecbc 0d93 aabd
000003b0: b621 86bd 853f 393c b1a0 f73d e2a5 1c3d
000003c0: 4ad8 473d 2a2a 143e 908e 483d 3d74 a83d
000003d0: b602 a2bd 4073 023d 004e b13d b9b3 b33d
000003e0: 1cbf 643d 9ab1 c13c 240c 9ebc 9a6a 493d
000003f0: 5096 1dbb d8e7 4c3c 4bbe cd3c d449 6d3b

fc2a.bias f4 [4]
-0.015873577 0.18872918 0.034536593 -0.11647274
00000000: 4e09 82bc 3942 413e 3e76 0d3d 4389 eebd

fc2c.weight f4 [1, 200]
0.0020397366 0.029358605 0.0024757579 0.047722764 -0.03236019 -0.016487412 0.055249088 -0.05410722
0.0076469565 -0.07613164 0.033905286 -0.0074265683 0.067035854 -0.020778893 0.0030974308 -0.0360138
-0.00032217795 0.010075337 -0.003038767 0.024607634 0.019907054 -0.046354238 -0.0046982393 -0.011194767
0.0011110036 0.0001120311 -0.3169313 0.010368581 -0.0008195356 0.0413633 0.16063249 0.06574843
0.07317422 -0.06325653 0.0015313623 -0.06694372 0.0045388206 0.0012826956 -0.009254249 -9.3012386e-05
-0.022011608 0.05199434 0.006634643 -0.01818118 -0.0073397052 -0.002003412 -0.057930768 -0.043553125
-0.015149519 -0.0022788816 0.002571232 -0.005169492 -0.0020898052 0.04454123 -0.030403012 0.011544015
-0.18872897 0.100981794 -0.20989758 0.0061030993 -0.003356357 0.025027007 0.014008651 -0.004229673
-0.013426546 0.0037429149 0.0006336158 0.06620538 0.0023991335 0.0565466 -0.009900943 0.02776346
-0.008326774 0.043242 -0.00762082 -0.007765777 0.004011621 -0.0073350077 -0.11146712 -0.009035018
-0.017315473 0.0150097255 0.0016486995 0.04328625 0.0046099536 0.028585492 0.0019848037 -0.13686907
0.0018516416 0.090452954 -0.026281273 0.06755955 0.024379231 -0.13032332 0.016077304 -0.088394605
-0.064012885 0.0045113554 0.011633273 -0.019330032 0.0030351998 -0.0420675 -0.039926954 0.0052776616
-0.024864748 -0.0013564329 -0.00066453667 -0.025123993 0.032793287 -0.044944916 0.16881245 0.001888199
-0.036578104 -0.0032624323 0.020960044 0.014526843 -0.0023256221 0.0009916947 -0.008337623 0.0074104876
0.044981737 -0.015752776 -0.07296166 -0.0021971597 -0.04960486 -0.023932884 -0.010897779 0.04669168
0.01825795 -0.0059854374 0.0046493234 1.5473282e-06 0.0024534964 -0.0068712602 0.001477837 -0.001571854
0.091569535 -0.046738308 -0.0020383617 -0.0038526643 0.047535703 -0.048988875 0.005923945 -0.01694818
-0.045625385 -0.037943304 -0.028844899 -0.09260719 -0.14571887 -0.013832401 0.09551613 0.03783706
0.029470017 -0.0956042 -0.045237493 0.037988123 -0.0060371356 0.07364011 0.017363383 0.0043917196
0.058571458 -0.010286279 0.019907758 -0.004643165 0.0028331187 -0.023027427 0.007571628 -0.25910437
0.0027148384 -0.08140636 -0.010175195 0.09460811 0.104618765 0.0052534295 -0.0077115833 0.006227679
0.0020810089 -0.027071092 -0.14490671 0.0044008214 -0.027962506 -0.002721066 0.017153582 0.0009799842
-0.1311965 -0.0011018256 -0.024749588 0.009097206 0.05438665 -0.0006269545 -0.018173762 -0.0066121495
-0.015753586 0.025588483 0.03380853 -0.0019067677 0.07430343 0.021289114 -0.038388338 -0.019696703
00000000: 1aad 053b 7581 f03c 5340 223b f278 433d
00000010: 1e8c 04bd 9c10 87bc de4c 623d 889f 5dbd
00000020: 5293 fa3b e8ea 9bbd 45e0 0a3d 925a f3bb
00000030: 184a 893d 7f38 aabc 44fe 4a3b 3583 13bd
00000040: fee9 a8b9 0713 253c 0d26 47bb f395 c93c
00000050: 1e14 a33c f1dd 3dbd b0f3 99bb 426a 37bc
00000060: 189f 913a 3df2 ea38 d244 a2be fbe0 293c
00000070: 1ad6 56ba 906c 293d d87c 243e 1da7 863d
00000080: 5edc 953d a48c 81bd feb7 c83a ca19 89bd
00000090: 63ba 943b 1f20 a83a 229f 17bc a50f c3b8
000000a0: b051 b4bc 04f8 543d 6b67 d93b b3f0 94bc
000000b0: e981 f0bb ad4b 03bb d048 6dbd c364 32bd
000000c0: b035 78bc 4a59 15bb 1d82 283b d864 a9bb
000000d0: 1df5 08bb dd70 363d bd0f f9bc 1c23 3d3c
000000e0: 2b42 41be 8bcf ce3d 64ef 56be 82fc c73b
000000f0: 54f6 5bbb 7005 cd3c 8a84 653c 1299 8abb
00000100: 04fb 5bbc b14b 753b 3d19 263a b096 873d
00000110: c83a 1d3b 689d 673d 9137 22bc 3270 e33c
00000120: 066d 08bc 861e 313d 12b8 f9bb 0f78 febb
00000130: ea73 833b 815a f0bb e048 e4bd 9d07 14bc
00000140: 2ed9 8dbc 5aeb 753c 2d19 d83a ec4c 313d
00000150: 180f 973b 1f2c ea3c 7b13 023b 6827 0cbe
00000160: c8b2 f23a 663f b93d d34b d7bc a95c 8a3d
00000170: f4b6 c73c 7a73 05be 8db4 833c 3b08 b5bd
00000180: 3019 83bd fed3 933b 7c99 3e3c 045a 9ebc
00000190: 34ea 463b f94e 2cbd 728a 23bd 3cf0 ac3b
000001a0: 28b1 cbbc 56ca b1ba 4d34 2eba d5d0 cdbc
000001b0: 4152 063d 2918 38bd 2cdd 2c3e 727d f73a
000001c0: ecd2 15bd 88ce 55bb 66b4 ab3c ff01 6e3c
000001d0: 7769 18bb c1fb 813a 879a 08bc add3 f23b
000001e0: c53e 383d f70b 81bc ec6c 95bd 39fe 0fbb
000001f0: 772e 4bbd e50e c4bc 998c 32bc c63f 3f3d
00000200: b291 953c 7d21 c4bb 5a59 983b cbad cf35
00000210: d7ca 203b 4f28 e1bb fbb3 c13a ab06 ceba
00000220: cf88 bb3d ab70 3fbd 0996 05bb fb7c 7cbb
00000230: ccb4 423d 8fa8 48bd a71d c23b e9d6 8abc
00000240: afe1 3abd 706a 1bbd 234c ecbc d7a8 bdbd
00000250: 5437 15be 4ba1 62bc f69d c33d 08fb 1a3d
00000260: 1b6b f13c 23cc c3bd f34a 39bd 6f99 1b3d
00000270: 2ad3 c5bb a0d0 963d a73d 8e3c 6ae8 8f3b
00000280: a0e8 6f3d c887 28bc 9815 a33c b125 98bb
00000290: d8ab 393b 04a4 bcbc 6b1b f83b 54a9 84be
000002a0: 6eeb 313b 61b8 a6bd dcb5 26bc e6c1 c13d
000002b0: 5d42 d63d f624 ac3b 73b1 fcbb 8f11 cc3b
000002c0: 8961 083b 32c4 ddbc 6d62 14be c434 903b
000002d0: a011 e5bc e953 32bb ab85 8c3c d072 803a
000002e0: 6058 06be 226b 90ba a6bf cabc 730c 153c
000002f0: 89c4 5e3d 345a 24ba 24e1 94bc bbaa d8bb
00000300: aa0d 81bc f09e d13c d07a 0a3d 82ec f9ba
00000310: 662c 983d 8266 ae3c 173d 1dbd fb5a a1bc
