test3/pth/controller_last.pth (torch, 29207 bytes, 5 tensors)

fc1.weight f4 [200, 28]
0	0x3cef1959	0.029186891
1	0x3d2c9a07	0.04213908
2	0xbd2e305a	-0.04252658
3	0x3d17d93d	0.03707241
4	0x3d555ab9	0.052088473
5	0x3da9c854	0.08290163
6	0x3cd85dd6	0.026411932
7	0xbd1dd5f4	-0.03853412
8	0xbdb8216c	-0.0899075
9	0xbcbed36b	-0.023294171
10	0xbd84c479	-0.06482787
11	0xbd84d33e	-0.06485604
12	0x3d4673cf	0.048450287
13	0xbe0a4645	-0.13503368
14	0xbbf5918b	-0.0074941567
15	0x3d31c471	0.04340023
16	0x3de143e8	0.1099928
17	0x3d9527b9	0.07282967
18	0x3e081c5f	0.13292073
19	0xbd8576be	-0.06516789
20	0xbcc5a30f	-0.024125604
21	0xbbf85a4b	-0.007579123
22	0xbe2d3857	-0.16916023
23	0x3d987e07	0.07445913
24	0x3d8d6dc2	0.069057
25	0x3ce141f2	0.027497265
26	0x3e69f3a4	0.22846848
27	0xbd89508d	-0.06704817
28	0xbc98b4aa	-0.018640835
29	0xbe2cbf78	-0.16869915
30	0xbd85c15b	-0.0653102
31	0xbb57d630	-0.0032934062
32	0x3f423b87	0.7587208
33	0xbdbc4f49	-0.0919481
34	0xbdebcb08	-0.115133345
35	0x3e58fab1	0.21189381
36	0x3e4834a0	0.19551325
37	0x3d9fa1f8	0.07794565
38	0x3e5737bd	0.21017356
39	0xbd3d149d	-0.046162236
40	0xbc1c3f7f	-0.009536623
41	0x3dd79066	0.10525589
42	0xbd63a361	-0.055575732
43	0x3cf6e79b	0.030139735
44	0xbe46159f	-0.19344185
45	0xbe410c30	-0.18852305
46	0xbcaef906	-0.021358978
47	0x3d01eb27	0.0317184
48	0xbd7d23cc	-0.061801717
49	0x3d854880	0.06507969
50	0xbd760887	-0.060066726
51	0x3d4ffdc5	0.050779123
52	0xbd618ba8	-0.055064827
53	0xbe44ca98	-0.19217908
54	0xbaa952a6	-0.0012918308
55	0x3b465831	0.0030264969
56	0x3ceb6f09	0.02873947
57	0xbc9bf20c	-0.019036315
58	0x3d9fc5f4	0.078014284
59	0x3ca1ab30	0.019734949
60	0x3cf2eca4	0.029653855
61	0x3d985170	0.07437408
62	0xbde3c5cd	-0.11121712
63	0x3d5d0aa0	0.05396521
64	0xbe19a796	-0.15005335
65	0x3e135d4d	0.1439106
66	0x3e1a744f	0.1508343
67	0x3d1a6666	0.03769531
68	0x3e2e8df0	0.17046332
69	0xbdbad419	-0.09122486
70	0xbd079c48	-0.033108026
71	0x3df478dc	0.119371146
72	0xbdd59cdf	-0.104303114
73	0x3c94e5e8	0.018176034
74	0xbe0291ce	-0.12750933
75	0x3e394228	0.18091643
76	0x3e037237	0.12836538
77	0xbd970b61	-0.07375217
78	0xbe04c579	-0.12965955
79	0xbd4e6b6f	-0.050395425
80	0xbd2e095b	-0.04248939
81	0x3d472d07	0.048626926
82	0x3d904790	0.070448995
83	0x3d1a461d	0.03766452
84	0x3c652d36	0.01398783
85	0xbe3e555e	-0.18587252
86	0xb9f4500c	-0.00046598946
87	0xbcdf7c94	-0.027281083
88	0xbd0451f2	-0.03230471
89	0x3ebc3c67	0.36764833
90	0xbe2a79bb	-0.16647999
91	0xbcfe1872	-0.031017516
92	0x3e234022	0.15942433
93	0xbe9f155d	-0.31070986
94	0x3e920f13	0.28527126
95	0xbe29968a	-0.16561332
96	0xbf038d3b	-0.51387376
97	0x3ec9b1bd	0.39393416
98	0x3dbfe825	0.0937045
99	0xbe785ae9	-0.2425343
100	0x3e1a88c4	0.15091234
101	0xbce2a4db	-0.0276665
102	0xbe95f691	-0.29289678
103	0xbd75ee92	-0.06004197
104	0x3e2c531d	0.1682858
105	0xbda68d36	-0.081324026
106	0xbda42dca	-0.08016546
107	0xbe4b5a5c	-0.19858688
108	0xbd9a71af	-0.07541215
109	0xbe44ce4a	-0.19219318
110	0x3dd4d351	0.10391868
111	0xbe69d3f7	-0.22834764
112	0x3d88e22b	0.06683763
113	0x3e05f8f8	0.13083255
114	0xbdb07b70	-0.08617294
115	0x3c640d3d	0.013919172
116	0x3de7c439	0.113167234
117	0xbc2504de	-0.010071961
118	0xbd73b4e3	-0.05949868
119	0xbdbf9a01	-0.09355546
120	0xbf0d4880	-0.5518875
121	0x3e8c0960	0.27350903
122	0xbe8e5a00	-0.2780304
123	0x3e9c2cfc	0.3050307
124	0xbd08411e	-0.033265226
125	0xbd88868c	-0.06666288
126	0xbe12c65e	-0.14333484
127	0xbd85d362	-0.06534459
128	0x3d4d0aa1	0.050058965
129	0xbe8d0940	-0.2754612
130	0xbe8060e1	-0.25073913
131	0xbe8c0f48	-0.2735541
132	0xbefe88ce	-0.4971375
133	0x3d8677bd	0.06565807
134	0xbda8ecf7	-0.082483225
135	0x3d1affe5	0.037841696
136	0xbf28ada7	-0.6588997
137	0x3e877661	0.26457503
138	0x3be15ce9	0.006877531
139	0xbcee72dc	-0.029107504
140	0xbcfacb95	-0.030614654
141	0xbc03aa72	-0.008036243
142	0x3e509fbb	0.20373432
143	0x3dbeb960	0.09312701
144	0xbf678818	-0.9044204
145	0xbe233073	-0.1593645
146	0x3c9adc27	0.018903805
147	0xbe23548b	-0.1595022
148	0xbe4a83db	-0.19776861
149	0x3ba0f713	0.004912266
150	0x3caa28ff	0.020771502
151	0xbd906c48	-0.07051903
152	0x3e0bdfb6	0.13659558
153	0xbe07399d	-0.13205571
154	0xbe01f4cd	-0.1269104
155	0x3cab3fad	0.020904386
156	0xbe2c8f73	-0.16851597
157	0xbd2132e9	-0.039355192
158	0xbdd64e24	-0.10464123
159	0xbd909536	-0.0705971
160	0x3cfe7d45	0.031065593
161	0x3e67a1d4	0.22620326
162	0x3c2e9fac	0.010658186
163	0xbd0192b6	-0.031634055
164	0xbe0dacd5	-0.13835461
165	0xbe8ae2a8	-0.2712605
166	0xbe46db66	-0.19419631
167	0xbd95f229	-0.07321579
168	0x3e4c030a	0.19923034
169	0x3c93f01f	0.018058835
170	0xbd23d51a	-0.03999815
171	0xbd584bc9	-0.05280665
172	0x3f801d78	1.0008993
173	0xbe681eff	-0.22668074
174	0xbe0685d2	-0.13136986
175	0x3e97d628	0.29655576
176	0x3cdb3303	0.026757723
177	0x3dad34c8	0.08457333
178	0x3e67926a	0.22614446
179	0xbe9f7f66	-0.31151885
180	0x3c99cbee	0.018773999
181	0x3dc2a0ab	0.09503301
182	0x3d859283	0.065220855
183	0xbde24f10	-0.11050236
184	0xbd5af69f	-0.053457852
185	0xbd096484	-0.033543125
186	0x3e3207c8	0.17385781
187	0xbd311a82	-0.04323817
188	0xbc471a50	-0.0121522695
189	0x3dc13cf3	0.09435453
190	0x3e4d9a85	0.20078476
191	0xbe60ff0d	-0.21972294
192	0xbd5b7f8a	-0.053588428
193	0x3e14e20c	0.14539355
194	0xbdcefbe6	-0.101066396
195	0x3d006da5	0.031354565
196	0xbe4f7160	-0.20258093
197	0x3cedfc7b	0.029051056
198	0x3d83ce94	0.06435886
199	0x3ccd6d39	0.025076495
200	0x3c8dac4c	0.017294072
201	0x3c96d15c	0.018410377
202	0x3d65fb3c	0.0561478
203	0xbd83ce58	-0.06435841
204	0x3e0e192d	0.13876791
205	0xbee35d96	-0.44407338
206	0x3e0276f3	0.12740688
207	0xbe9423f7	-0.2893369
208	0x3edd660c	0.43241918
209	0xbf5644b3	-0.83698577
210	0xbd01a126	-0.031647824
211	0x3df323f8	0.11872095
212	0x3dc54f21	0.09634233
213	0x3c25f371	0.010128842
214	0xbe15325f	-0.14569996
215	0x3e4d7768	0.20065081
216	0x3e7673c9	0.24067606
217	0xbebd674f	-0.3699288
218	0xbe00f0ba	-0.1259183
219	0xbe82a1d6	-0.25514096
220	0x3f32b29f	0.69803804
221	0xbf18c3f5	-0.59674007
222	0x3e1c9b42	0.15293601
223	0xbe864d3e	-0.26230806
224	0xbc8379fa	-0.016049374
225	0xbbcbda81	-0.006221116
226	0x3c4dba70	0.012556657
227	0xbd5c9e06	-0.05386164
228	0xbc4d347c	-0.01252472
229	0xbdc7986c	-0.09745869
230	0xbcb34ac3	-0.021886235
231	0x3d293011	0.041305605
232	0x3d28f51c	0.04124938
233	0xbd6b394e	-0.057427697
234	0x3e1ac123	0.15112738
235	0x3e0f7bce	0.14012071
236	0xbd52cfbc	-0.051467642
237	0x3db8b52e	0.09018932
238	0xbe0da9e6	-0.13834342
239	0xbe1dcafe	-0.15409467
240	0xbd4c6240	-0.049898386
241	0xbccd1799	-0.025035666
242	0xbd17931b	-0.037005525
243	0x3c7834bd	0.015149293
244	0x3e00792e	0.12546226
245	0x3e02d432	0.12776259
246	0xbdcaf31e	-0.09909652
247	0xbe4f2a9c	-0.20231098
248	0x3e272227	0.16321622
249	0x3e18e184	0.14929777
250	0xbe325e97	-0.17418896
251	0xbd0b7295	-0.03404482
252	0xbdac872a	-0.08424218
253	0xbd03e1ba	-0.03219769
254	0xbe00ae9d	-0.1256661
255	0xbdca0f9e	-0.0986626

fc1.bias f4 [200]
0	0xbdf06fc6	-0.11740069
1	0xbb398951	-0.0028310607
2	0xbdff26c3	-0.12458565
3	0x3d144a84	0.036203876
4	0xbdc9664f	-0.09833967
5	0xbc29950f	-0.01035048
6	0xbd7af662	-0.061270125
7	0xbe34bb9d	-0.17649694
8	0x3c3baf55	0.011455377
9	0xbe72b1ec	-0.23700684
10	0x3d8c1752	0.068403855
11	0xbd1dfb3f	-0.038569685
12	0x3e07c441	0.13258459
13	0xbe5ae041	-0.21374609
14	0x3d55d35a	0.052203514
15	0xbdf39289	-0.11893184
16	0x3da41661	0.08012081
17	0xbe584ee1	-0.2112384
18	0xbe023624	-0.12715966
19	0x3d0d1d66	0.034451865
20	0xbe5f6d91	-0.2181914
21	0xbd152242	-0.036409624
22	0x3df6d76a	0.12052806
23	0xbe1dc4d3	-0.15407114
24	0x3da99c69	0.08281786
25	0x3d60d328	0.054888874
26	0xbe3a4666	-0.18190917
27	0x3e17c26c	0.1482026
28	0x3d89e4aa	0.06733067
29	0xbe005a3e	-0.12534425
30	0xbe737ba0	-0.23777628
31	0xbdf781af	-0.12085282
32	0xbdf3efea	-0.11910994
33	0x3bb2d3c7	0.0054573747
34	0xbd926147	-0.071474604
35	0x3de53d2e	0.1119331
36	0xbd3e7771	-0.046500627
37	0x3c15ac86	0.009135371
38	0x3d829fdd	0.06378148
39	0x3d35e151	0.04440433
40	0xbe01cf3f	-0.12676714
41	0x3c9dcd0d	0.019262815
42	0xbde4455c	-0.11146042
43	0x3d19c1ae	0.037538223
44	0xbd544082	-0.051819332
45	0x3dd2e6d6	0.10297935
46	0x3cad8764	0.021182723
47	0xbdb38abb	-0.08766695
48	0x3d5bb8b1	0.053642932
49	0xbe277198	-0.16351926
50	0x3dc33bd2	0.09532894
51	0xbd09cade	-0.033640735
52	0x3dc01d6d	0.093806125
53	0x3d91a4b4	0.07111493
54	0xbc888bf2	-0.016668294
55	0xbe18279b	-0.14858858
56	0xbd27aa3b	-0.04093383
57	0x3cdc2d8e	0.02687719
58	0x3e16491f	0.14676331
59	0x3da7eab2	0.081990615
60	0x3d49d5bb	0.049276095
61	0x3c2921da	0.010323012
62	0xbd8085e1	-0.062755354
63	0x3d6e4f1b	0.05818091
64	0xbe90155f	-0.28141305
65	0xbe4cd8b3	-0.20004539
66	0xbcfd9dd7	-0.030959053
67	0xbbc0f90d	-0.005889064
68	0xbd71a1ea	-0.058992304
69	0xbe11f5cb	-0.14253919
70	0x3cd2c261	0.025727453
71	0x3d1182c7	0.03552511
72	0xbe75b2af	-0.23993944
73	0xbe0a1dba	-0.13487902
74	0xbe1fddbb	-0.15611927
75	0x3ddf5ad3	0.10905995
76	0xbd49d557	-0.049275722
77	0x3db5443a	0.08850904
78	0xbd0cc3f0	-0.034366548
79	0x3e0238c1	0.12716962
80	0xbd083968	-0.033257872
81	0xbe08c770	-0.1335733
82	0x3d7e67cb	0.062110703
83	0xbe75d8ae	-0.24008438
84	0x3d925f9d	0.07147143
85	0x3d078949	0.03308991
86	0xbd3cbfc3	-0.046081316
87	0xbd952203	-0.07281878
88	0xbdaeadd2	-0.08529247
89	0x3cb92300	0.022599697
90	0x3b1f2a10	0.0024286546
91	0xbd08e003	-0.03341676
92	0xbd9cac56	-0.07650058
93	0xbdbb817e	-0.09155558
94	0xbc0c70fd	-0.00857186
95	0xbd9e10cf	-0.0771805
96	0xbe7224ee	-0.236469
97	0xbd9deecb	-0.07711562
98	0x3da3f71e	0.08006118
99	0xbd1105b7	-0.03540584
100	0xbcafa80f	-0.021442441
101	0x3d8e0ed0	0.06936419
102	0x3bfca57e	0.007710158
103	0xbcececf2	-0.028921578
104	0xbd28f331	-0.04124755
105	0xbe423f46	-0.1896945
106	0x3db18041	0.086670406
107	0xbcba1ec1	-0.022719743
108	0xbe420988	-0.18948948
109	0x3e02c764	0.12771374
110	0xbd117160	-0.035508513
111	0xbc8770e8	-0.01653333
112	0x3ddee69f	0.10883831
113	0x3ca916e6	0.020640802
114	0x3d15e585	0.03659584
115	0x3d69b6d4	0.057059124
116	0x3e541b9a	0.20713654
117	0xbdd7326e	-0.105076656
118	0xbe19c030	-0.1501472
119	0xbd647b61	-0.055781726
120	0xbdcce9ee	-0.10005556
121	0xbe6586ec	-0.2241475
122	0xbe231254	-0.1592496
123	0xbc9e87b8	-0.019351825
124	0xbdcfb2ea	-0.10141547
125	0x3dbb3086	0.091401145
126	0x3cae9936	0.021313291
127	0xbc72c2a0	-0.01481691
128	0xbe00bb42	-0.12571433
129	0xbdba14e0	-0.09086013
130	0x3df2cbc1	0.11855269
131	0xbd0c638d	-0.034274627
132	0x3de3a34b	0.1111513
133	0xbe0f231e	-0.1397824
134	0xbe201f7d	-0.15637012
135	0x3d531175	0.05153032
136	0xbe213602	-0.15743259
137	0xbdd1f525	-0.10251836
138	0xbe1e153c	-0.15437788
139	0xbde2d828	-0.11076385
140	0xbd4f3ffc	-0.05059813
141	0xbe48aea5	-0.19597872
142	0xbdae3574	-0.08506289
143	0xbdd69dd6	-0.104793236
144	0x3de573dc	0.11203739
145	0xbe9ba313	-0.30397853
146	0xbbc8d068	-0.0061283596
147	0xbe3fafd6	-0.1871942
148	0x3e4f20bf	0.20227335
149	0x3da5637e	0.08075617
150	0xbdeb3b7d	-0.11485956
151	0x3ce689bf	0.028141854
152	0xbe06bb78	-0.13157451
153	0x3dcb3f6e	0.09924208
154	0xbe0cb77f	-0.13741873
155	0xbe748fac	-0.23882931
156	0xbe47f791	-0.19528033
157	0xbe5b54da	-0.21419087
158	0x3de9d4d9	0.114175506
159	0xbe1277c9	-0.14303507
160	0xbdd97347	-0.106176905
161	0xbe310080	-0.17285347
162	0xbe4d9e59	-0.20079936
163	0x3c29b348	0.010357685
164	0xbdb071ac	-0.08615431
165	0xbe1ed093	-0.15509252
166	0x3dc4d90e	0.096117124
167	0xbe4aa6c2	-0.19790176
168	0xbd694812	-0.056953497
169	0xbd27fcb2	-0.041012473
170	0xbe4e4be3	-0.20146136
171	0xbe666c07	-0.22502147
172	0x3b3fe55c	0.0029280996
173	0xbd5db066	-0.054123305
174	0xbdea3e50	-0.114376664
175	0x3e1ed301	0.15510179
176	0xbe28a59a	-0.16469422
177	0xbe15c5e5	-0.14626272
178	0x3e1f17d8	0.1553644
179	0x3cee0f30	0.029059976
180	0xbd8c1434	-0.06839791
181	0x3c472d18	0.012156747
182	0xbe36fbc6	-0.17869481
183	0xbd749731	-0.0597145
184	0x3e54232a	0.20716539
185	0x3cb7de11	0.022444757
186	0xbde4a25f	-0.11163782
187	0xbd8cb86d	-0.06871114
188	0x3dd6873d	0.104750134
189	0xbda0d72b	-0.0785354
190	0xbe58c090	-0.21167207
191	0x3e29d6db	0.16585867
192	0xbc0b9e1e	-0.008521585
193	0x3dc24877	0.09486478
194	0x3c84d7f0	0.016216248
195	0x3d839b34	0.06426087
196	0xbdadc283	-0.08484366
197	0x3c8e5215	0.017373124
198	0xbd610273	-0.054933976
199	0x3e0cf208	0.13764203

fc2a.weight f4 [4, 200]
0	0x3adab6c3	0.0016686547
1	0xbd404f05	-0.04695036
2	0x3d006fb5	0.031356532
3	0xbe2c7b25	-0.16843851
4	0x3da816c7	0.082074694
5	0x3daf16f2	0.08549298
6	0xbd28eea2	-0.041243203
7	0x3eb50333	0.35354003
8	0xbcd0d784	-0.02549339
9	0x3e44d91f	0.1922345
10	0x3e2a8e28	0.16655791
11	0x3c65cbab	0.014025609
12	0xbd9d067a	-0.07667251
13	0xbefa4655	-0.48881784
14	0xbc59fe1a	-0.013305211
15	0xbc9f06aa	-0.019412357
16	0xbcaae7b3	-0.020862436
17	0x3d92ba00	0.07164383
18	0x3c990746	0.018680226
19	0xbc1955d2	-0.00935884
20	0xbe394611	-0.18093134
21	0x3d33a28b	0.043856185
22	0x3da355bc	0.07975337
23	0xbd504528	-0.050847203
24	0x3c01694a	0.007898638
25	0xbaf663e5	-0.0018798081
26	0x3d38d0e9	0.045121107
27	0xbcf72631	-0.030169578
28	0x3d82892c	0.0637382
29	0x3da92cea	0.0826052
30	0x3e550ad8	0.20804918
31	0x3d3c3e36	0.045957766
32	0x3da9bbc9	0.0828777
33	0xbdb3439d	-0.087531306
34	0xbce5300c	-0.027977012
35	0x3de4e140	0.111757755
36	0xbd9dc010	-0.07702649
37	0xbc28db37	-0.010306171
38	0x3d3ec51d	0.0465747
39	0xbd32149f	-0.043476697
40	0x3cb43f11	0.022002729
41	0x3ef48ffe	0.47766107
42	0x3d23dee8	0.0400075
43	0x3d21302d	0.039352585
44	0xbd6ae23d	-0.057344664
45	0x3aef5adb	0.001826133
46	0x3c0f7c47	0.008757657
47	0xbd733ede	-0.059386127
48	0x3c9087aa	0.017642815
49	0x3c10cbeb	0.00883768
50	0xbcd1ba3d	-0.0256015
51	0x3d46ffa1	0.04858363
52	0x3b4bd2f1	0.0031101073
53	0xbd3cab72	-0.04606194
54	0x3b877f2e	0.004135034
55	0x3c9a86d1	0.018863114
56	0xbdd00e16	-0.10158937
57	0x3d8aa449	0.06769616
58	0x3db2f43e	0.08737992
59	0xbc80351b	-0.015650323
60	0x3b095838	0.0020957123
61	0x3cc3bba3	0.023893183
62	0xbced6070	-0.028976649
63	0x3b1840b3	0.0023231923
64	0xbf31274b	-0.6920058
65	0x3e3a7456	0.18208441
66	0x3b8b2e20	0.004247442
67	0xbd83e5b1	-0.064402945
68	0xbc487908	-0.012235887
69	0x3da0cba0	0.078513384
70	0xbb7cefc6	-0.0038595065
71	0x3d845521	0.064615496
72	0x3e5b4ba9	0.21415581
73	0x3d104fa2	0.035232194
74	0xbd24268b	-0.04007582
75	0x3c294e23	0.010333571
76	0xbd418d5e	-0.04725396
77	0xbd05e7ac	-0.032691643
78	0x3d639640	0.05556321
79	0x3ba91662	0.005160139
80	0x3d43f0f7	0.047837224
81	0x3dff4ca5	0.12465791
82	0x3d0c1346	0.034198068
83	0xbd0ebb80	-0.034846783
84	0x3cc4340e	0.023950603
85	0x3d841b80	0.06450558
86	0xbc9b4c8e	-0.018957403
87	0xbd869163	-0.06570699
88	0x3c94b36f	0.018151967
89	0x3c6f9828	0.014623679
90	0xbed65f80	-0.41869736
91	0xbe04ec4a	-0.12980762
92	0xbdcd5f8a	-0.10027988
93	0x3db9a67d	0.09064958
94	0x3bd5feb9	0.0065306094
95	0x3ed4d7e1	0.41570953
96	0xbeb7c9b5	-0.35896078
97	0x3da523ce	0.0806347
98	0xbc951941	-0.018200519
99	0x3d83e864	0.06440809
100	0xbd617a1e	-0.0550481
101	0xbd9f8f16	-0.07790963
102	0x3ce67aa8	0.028134659
103	0xbc2fbbef	-0.010725959
104	0x3e070e94	0.13189155
105	0xbd0034e5	-0.031300444
106	0x3d30e1e2	0.04318417
107	0xbd8d6ccc	-0.06905517
108	0xbe536d34	-0.20647126
109	0xbd220ed3	-0.03956492
110	0xbeaea05d	-0.34106722
111	0x3d2d1b02	0.042262085
112	0xbd681aef	-0.05666631
113	0x3ccc28a7	0.024921728
114	0xbd101a1c	-0.03518115
115	0x3b6da155	0.0036259491
116	0xbae5a18c	-0.0017519458
117	0x3d209329	0.039202843
118	0xbd8b3895	-0.067979015
119	0x3db9f803	0.090805076
120	0xbc357621	-0.011075527
121	0xbe176509	-0.14784636
122	0xbf371418	-0.71515036
123	0x3d5bf852	0.053703614
124	0xbefa359f	-0.48869035
125	0x3c46fd3b	0.012145336
126	0x3e7d5d6c	0.24742669
127	0xbe19d051	-0.15020873
128	0xbd188ebf	-0.03724551
129	0xbd405598	-0.04695663
130	0xbd3d89eb	-0.046274107
131	0x3c444669	0.011979678
132	0x3cb781b7	0.02240072
133	0x3e09d940	0.1346178
134	0xbc30eed5	-0.0107991295
135	0xbd6f1752	-0.05837185
136	0x3dbbfd0b	0.091791235
137	0x3ed102af	0.4082236
138	0xbc996abd	-0.018727655
139	0xbd43bac2	-0.047785528
140	0x3a8408ba	0.0010073401
141	0xbdb3c77f	-0.08778285
142	0xbbe506d7	-0.0069893408
143	0xbc6254fd	-0.013814208
144	0xbdd3b20e	-0.103366956
145	0x3ed2d782	0.41180044
146	0x3c881e1b	0.016615918
147	0xbe4a1bf1	-0.19737221
148	0x3e0974ff	0.13423537
149	0xbbd860a7	-0.0066033187
150	0xbc80bee9	-0.015716033
151	0x3d7ca8dc	0.061684474
152	0x3e875436	0.26431435
153	0xbd6dbc82	-0.058041103
154	0x3d108355	0.035281498
155	0x3e1ede84	0.1551457
156	0x3d8182d2	0.0632378
157	0xbe6e98d2	-0.23300484
158	0xbb853cd0	-0.0040660873
159	0xbd25895c	-0.0404142
160	0xbcfab7fd	-0.03060531
161	0x3dc252e5	0.09488467
162	0xbe0750f3	-0.13214473
163	0x3d00b6c0	0.031424284
164	0xbd43c99e	-0.0477997
165	0xbd0e2684	-0.0347047
166	0xbc7be7df	-0.015375107
167	0xbdb1944a	-0.08670862
168	0xbd15fb98	-0.03661689
169	0x3d0cb2c5	0.034350175
170	0xbbdef755	-0.0068043866
171	0x3d4494fd	0.04799365
172	0x3ec48209	0.3838046
173	0xbbb9e790	-0.0056733564
174	0x3d364c05	0.04450609
175	0xbb3072f1	-0.002692398
176	0x3c479d94	0.012183566
177	0xbd58eb4d	-0.052958775
178	0xbc45ca00	-0.012072086
179	0xbc847fac	-0.01617416
180	0x3ea3ecaa	0.32016498
181	0x3b80cd08	0.0039306916
182	0xbf117c4c	-0.56830287
183	0x3c2d90b4	0.010593582
184	0x3d8ea414	0.06964889
185	0xbc14e40e	-0.009087576
186	0xbd57b1a4	-0.052659646
187	0xbccb172e	-0.024791326
188	0xbd1b51f6	-0.03791996
189	0xbd452bb9	-0.0481374
190	0x3d7ce95a	0.06174598
191	0x3d359000	0.044326782
192	0xbd8e42ac	-0.069463104
193	0x3d0340d1	0.032044236
194	0x3d332fa8	0.04374662
195	0x3d88a1a6	0.06671457
196	0xbe549d89	-0.2076322
197	0x3d463753	0.048392605
198	0xbd9c7aec	-0.07640633
199	0x3d9250b7	0.071443014
200	0xbcd1ac24	-0.025594778
201	0x3cda8303	0.0266738
202	0xbca76b9c	-0.020437054
203	0x3cf86a54	0.030324139
204	0xbc9be877	-0.019031746
205	0x3d76eb6d	0.060283113
206	0x3de46ad6	0.1115319
207	0xbd13339d	-0.035937894
208	0x3b46ba00	0.0030323267
209	0xbdeaf71c	-0.114729136
210	0x3cf7204c	0.030166768
211	0x3cc8ce8a	0.024512548
212	0xbab4bc59	-0.0013789042
213	0xbcd8706f	-0.0264208
214	0xbd19391d	-0.037407983
215	0xbb1eb304	-0.0024215588
216	0x3d811e43	0.063046
217	0x3df8863e	0.1213498
218	0xbaf8070d	-0.0018923
219	0xbdd301bf	-0.103030674
220	0x3dca2a75	0.09871379
221	0xbd9dd424	-0.07706478
222	0xbc714b25	-0.0147273885
223	0xbcb57dc0	-0.022154689
224	0xbd08c783	-0.033393394
225	0x39b15362	0.00033822196
226	0xbe170b68	-0.14750445
227	0xbce1e515	-0.027575055
228	0x3d997d77	0.07494634
229	0x3b2f07a9	0.0026707447
230	0xbc87669c	-0.01652842
231	0x3e23d24f	0.15998195
232	0xbd56015e	-0.052247398
233	0x3e154040	0.1457529
234	0xbc46c99a	-0.0121330265
235	0xbdd11637	-0.10209315
236	0xbc93b486	-0.018030416
237	0xbb358cc2	-0.0027702306
238	0x3df4d4d3	0.119546555
239	0x3db0b926	0.08629064
240	0x3d76253c	0.060094103
241	0x3dedbd42	0.11608364
242	0x3d4ebfec	0.050476
243	0x3d8bc8e9	0.0682543
244	0xbd911958	-0.07084912
245	0x3c49136e	0.012272699
246	0x3db42674	0.08796397
247	0x3dba286f	0.09089743
248	0x3d604364	0.05475177
249	0x3cf1177e	0.029430147
250	0x3b02219d	0.001985646
251	0x3d8a87f3	0.067642115
252	0xbcf3c864	-0.02975864
253	0x3caa97e4	0.02082438
254	0x3c681ad2	0.014166551
255	0x3d277c06	0.040889762

fc2a.bias f4 [4]
0	0xbb13291e	-0.0022454928
1	0x3e3f6e2c	0.18694371
2	0x3cba78d6	0.022762697
3	0xbdf08205	-0.11743549

fc2c.weight f4 [1, 200]
0	0xba84bb91	-0.00101267
1	0x3ccbc640	0.024874806
2	0x3bed2daf	0.007238112
3	0x3d42ac8f	0.047527846
4	0xbcdce87b	-0.026966324
5	0xbc0d5f23	-0.008628639
6	0x3d4a50b4	0.04939337
7	0xbd5dd39b	-0.05415688
8	0x3b61a4df	0.0034430546
9	0xbdac866b	-0.08424076
10	0x3d0f17a2	0.034934647
11	0xbc71f20c	-0.014767181
12	0x3d7ac1da	0.061220028
13	0xbc837932	-0.016049001
14	0x3ba057f1	0.004893296
15	0xbd07e43e	-0.033176653
16	0xbc7311d6	-0.014835795
17	0x3c42ea20	0.01189664
18	0x3b7002f8	0.0036622863
19	0x3d2afce0	0.041745067
20	0x3cfa96fd	0.030589575
21	0xbd34c891	-0.044136588
22	0xba974008	-0.0011539469
23	0xbb3d6454	-0.0028898912
24	0x38ebb97f	0.000112402246
25	0xbbc7d515	-0.0060983994
26	0xbea87a6e	-0.32905906
27	0x3c11ac3a	0.00889116
28	0x3bc3af84	0.005971851
29	0x3d38a9e7	0.045083907
30	0x3e2e4326	0.17017803
31	0x3d76f7fa	0.060295083
32	0x3d91f44c	0.07126674
33	0xbd562df3	-0.052289914
34	0x3b045423	0.002019175
35	0xbda186d7	-0.07887047
36	0xbb1fb843	-0.0024371303
37	0xbbda410b	-0.0066605858
38	0xbb9034f5	-0.004400844
39	0x3c9a6d44	0.01885093
40	0xbc9a2f2e	-0.018821325
41	0x3d76692e	0.0601589
42	0x3bbe067e	0.005799114
43	0xbc68502e	-0.014179273
44	0xbbea2249	-0.0071452004
45	0xba55c383	-0.00081544387
46	0xbd5e10e6	-0.054215334
47	0xbd352968	-0.04422894
48	0xbc188e8f	-0.009311332
49	0xba689dd7	-0.00088736176
50	0x39e4d415	0.00043645562
51	0xbc436622	-0.011926206
52	0x3c0cfdfd	0.008605477
53	0x3d3d42d8	0.046206325
54	0xbd2f2d13	-0.042767595
55	0x3bbf92fb	0.005846379
56	0xbe4458f2	-0.19174555
57	0x3dc1f1e8	0.09469968
58	0xbe48ddcb	-0.19615857
59	0xbbcd5b7e	-0.0062670102
60	0x3c3831aa	0.01124231
61	0x3cdcf702	0.026973251
62	0x3c02e0ee	0.007988198
63	0x3bd6502d	0.0065403194
64	0xbbcdd2b6	-0.006281222
65	0x3b87f1c2	0.004148693
66	0x3a898a86	0.0010493554
67	0x3d787550	0.060658753
68	0xbaa20eac	-0.0012363992
69	0x3d53c432	0.05170078
70	0xbc9af5e1	-0.018916072
71	0x3ca7d75d	0.020488435
72	0xbc635aea	-0.013876656
73	0x3d076df0	0.03306383
74	0xbc582210	-0.013191715
75	0x3a7b0228	0.00095752114
76	0x3ba71ccc	0.0050998684
77	0xbb6f715b	-0.003653607
78	0xbded06bb	-0.11573549
79	0x3b40d689	0.0029424748
80	0xbc8c6259	-0.01713674
81	0x3ba74825	0.005105036
82	0xbbbef35c	-0.0058273505
83	0x3d2dcab0	0.042429626
84	0x3b415769	0.0029501563
85	0x3ca50435	0.020143608
86	0xbb9a97e8	-0.0047178157
87	0xbe0f0b22	-0.1396909
88	0xbb608a47	-0.0034262107
89	0x3dd357dc	0.10319492
90	0xbc8e1eb3	-0.017348623
91	0x3d9c9ef7	0.07647508
92	0x3d1eb3fd	0.03874587
93	0xbddf45cc	-0.109019846
94	0x3c5b0b20	0.013369352
95	0xbdbfb028	-0.09359771
96	0xbd880fb0	-0.06643617
97	0x3aba72a2	0.0014224837
98	0x3c04d531	0.008107469
99	0x39afbc25	0.0003351878
100	0xbb5b01ee	-0.0033417898
101	0xbce4f130	-0.027947038
102	0xbd185939	-0.037194464
103	0xbbef28b4	-0.0072985534
104	0xbce77fd3	-0.028259194
105	0xba2f5ec5	-0.0006689842
106	0x3b802c96	0.003911565
107	0xbd0935cf	-0.03349858
108	0x3ce359bd	0.027752751
109	0xbd1b8dc8	-0.03797701
110	0x3e319055	0.17340215
111	0x3ba18411	0.0049290736
112	0xbd10d682	-0.03536082
113	0xba2dd7f0	-0.00066316035
114	0x3cae5306	0.021279823
115	0x3c2e10fc	0.010624167
116	0x3bec0902	0.0072032223
117	0x3b46d115	0.0030337025
118	0xbc4bab2b	-0.012430946
119	0x3c129e75	0.008948912
120	0x3d2b8ab6	0.041880332
121	0xbc90d068	-0.0176775
122	0xbd657397	-0.05601844
123	0x3bee9fda	0.0072822394
124	0xbd667a26	-0.056268834
125	0xbcecea55	-0.028920332
126	0xbb96395a	-0.0045844736
127	0x3d2921b8	0.041291922
128	0x3caa52f2	0.020791505
129	0xbc3a9513	-0.011388081
130	0xbc148bf8	-0.009066574
131	0xbac1e052	-0.0014791584
132	0xbba03588	-0.004889194
133	0xbb369fc7	-0.002786623
134	0x3b5f373f	0.003406003
135	0xbb82b6e3	-0.003989087
136	0x3db197eb	0.08671554
137	0xbd4ec1e2	-0.05047787
138	0xbb072651	-0.0020622204
139	0x3adecee8	0.0016998919
140	0x3d287743	0.04112936
141	0xbd454b4b	-0.048167508
142	0xbaa47dfe	-0.0012549756
143	0x3aa5fc35	0.0012663665
144	0xbd2e8e98	-0.042616457
145	0xbd062439	-0.03274939
146	0xbcee886b	-0.029117784
147	0xbdcc58d4	-0.0997788
148	0xbe061334	-0.13093263
149	0xbc44dc4b	-0.012015413
150	0x3dadfe08	0.08495718
151	0x3d05dc70	0.03268093
152	0x3cf83187	0.030297054
153	0xbdbc5df3	-0.09197607
154	0xbd380836	-0.044929706
155	0x3d7c5884	0.061607853
156	0xbbc7624b	-0.0060847155
157	0x3d8c6925	0.06855992
158	0x3c814070	0.015777797
159	0x3bcd8e3d	0.0062730596
160	0x3d7ee7dd	0.06223284
161	0x3a9cbdb8	0.0011958396
162	0x3c8cd655	0.017192045
163	0xbc32b78f	-0.010908022
164	0xbc381b0d	-0.011236918
165	0xbcea8a69	-0.028630452
166	0x3c70a5a3	0.014687928
167	0xbe9da4f6	-0.30789918
168	0x3b724766	0.0036968826
169	0xbd94a026	-0.072571084
170	0xbc51092c	-0.012758534
171	0x3daff55f	0.08591723
172	0x3dd5f2cc	0.104467005
173	0xbbab7d4f	-0.005233444
174	0x3b28d5f1	0.0025762285
175	0x3c0fb37d	0.008770821
176	0x3c8e2a67	0.017354203
177	0xbc861879	-0.016369091
178	0xbe131444	-0.143632
179	0x3c01e113	0.007927197
180	0xbd3466cf	-0.04404336
181	0xbbe22d19	-0.0069023487
182	0x3c3a822d	0.011383575
183	0x3a3c4a86	0.0007182736
184	0xbe0e4bb9	-0.13896073
185	0xbbe30c54	-0.00692896
186	0xbd12963a	-0.0357878
187	0x3c335654	0.010945875
188	0x3d6e9498	0.05824718
189	0xbc06f7c9	-0.0082377875
190	0xbcf1dfd4	-0.029525675
191	0xbc932c20	-0.017965376
192	0xbc673dc5	-0.014113848
193	0x3cfedd0a	0.031111259
194	0x3ce5ccbe	0.02805173
195	0x3aaa3d59	0.0012988254
196	0x3da6d4e4	0.081460744
197	0x3ca3cf2b	0.019996246
198	0xbcc20231	-0.023682686
199	0xbc1c7112	-0.009548442
