test3/pth/vae_best.pth (torch, 55227 bytes, 14 tensors)

conv_enc1.weight f4 [8, 3, 3, 3]
000000 41 5e 14 3e 9e 6b 04 be f4 c7 0c 3d d0 99 89 be
       0.1448908 -0.12931678 0.034370378 -0.26875162
000010 4e 36 44 3e 9c 23 ed 3c 7d 51 ae 3d d1 45 b1 3d
       0.1916134 0.028947644 0.085116364 0.086558945
000020 33 b8 9b bc 9d ca 79 3e 7d 39 a1 bd 28 d7 07 3e
       -0.019008731 0.24393697 -0.07872293 0.1326567
000030 3f c4 47 be e0 39 4c 3e a1 61 04 3d 18 81 74 3e
       -0.19508456 0.19943953 0.03231967 0.2387737
000040 7e bf 50 be 17 4a ab bd a3 ac 22 3e 44 b9 e4 bd
       -0.20385548 -0.08363741 0.15886168 -0.11168149
000050 25 0b df 3c c9 69 ac bd d1 a4 da 3d e3 30 09 bd
       0.027226994 -0.084186144 0.106759675 -0.033493888
000060 06 48 7c 3e 5e 6e 74 bd e9 b7 86 bd 6f 63 4a bc
       0.2463685 -0.059675567 -0.06578047 -0.012352808
000070 b8 21 35 3e 98 d6 31 be 55 29 08 3e 02 66 1e be
       0.17688644 -0.17367017 0.13297017 -0.154686
000080 b1 1e 6f bd 51 61 51 3e a6 ae 1e be 9c 1a 3a be
       -0.05837888 0.2044728 -0.1549631 -0.18174213
000090 36 89 d4 3d 09 1a 25 3e 40 9c 93 bd 37 21 d9 bc
       0.103777334 0.16123213 -0.07207537 -0.026505096
0000a0 12 80 29 3e a8 bd 8e 3e bc 94 84 3d 75 42 fb 3d
       0.16552761 0.2787907 0.06473681 0.12268535
0000b0 6c 21 27 be 15 4b b1 3d 71 45 6f bd e4 fe 6a 3d
       -0.16321343 0.08656899 -0.058415834 0.05737199
0000c0 dd 6b 59 3e b5 3a 01 be 62 60 01 be 5a 04 1a 3e
       0.21232553 -0.12620051 -0.12634423 0.15040722
0000d0 99 9e 27 bd 1d fc 8d be 22 a1 56 bd 63 e1 4b be
       -0.040922735 -0.2773141 -0.052399762 -0.19910197
0000e0 06 44 c2 3d 3d 72 25 3e b6 b1 3f bd 83 cf f2 bd
       0.09485631 0.1615686 -0.046800338 -0.11855986
0000f0 38 94 3a bd a9 e9 79 3d b1 e3 ed 3c 19 d1 ff bd
       -0.04555151 0.06101385 0.029039236 -0.12491054
000100 89 e9 07 bd 7c c5 d6 bc 3f 92 e1 3c e7 d2 34 be
       -0.0331817 -0.026217215 0.027535556 -0.17658578
000110 9d d0 3f 3e 08 c0 ca 3d 82 8d 33 3d 47 96 0f 3d
       0.18731923 0.09899908 0.043836124 0.035055425
000120 be 13 3a 3e 7e 5b 91 3d e2 a0 ce 3d dc 2d 34 3d
       0.18171594 0.07097529 0.1008928 0.043989047
000130 68 57 e1 3c a6 19 a9 bd de 98 c3 bc 87 2e d6 3c
       0.027507499 -0.08256845 -0.023876604 0.026145233
000140 1d 4a b2 3c 02 69 5a bd d5 74 3b be 6a 79 84 3d
       0.021763856 -0.0533228 -0.18306287 0.064684704
000150 01 c1 dd bd e8 15 89 bd 50 4a 1a bd fd f3 3e be
       -0.10827828 -0.066936314 -0.037668526 -0.18647762
000160 fe 95 e1 bd 6c 2f d1 3a ad f4 0a bc 85 c9 86 bb
       -0.11014937 0.0015959567 -0.008481187 -0.0041133785
000170 21 c1 0d bd 33 74 da 3d d7 a7 14 3d 18 0a a8 bd
       -0.03460801 0.106666945 0.036292877 -0.0820505
000180 9e ca 13 3e 06 f6 f6 bd ec 82 64 3c 56 01 20 3e
       0.14432761 -0.12058644 0.01394723 0.1562551
000190 65 88 b6 3c e6 3f 4f be d7 18 3a 3d d4 4b 60 bd
       0.022281835 -0.20239219 0.045433845 -0.054759815
0001a0 c4 df 51 be f7 8c fb bd e6 f7 30 3e 44 45 50 3e
       -0.20495516 -0.12282746 0.17282066 0.20338923
0001b0 87 26 f8 bc b0 39 d7 3d a4 0a 28 be e9 02 04 bd
       -0.030291809 0.1050905 -0.16410309 -0.032229338
0001c0 7f 61 d3 bd 27 9e ba bd 47 de 6a 3b 96 fa 78 3e
       -0.1032133 -0.091121964 0.0035838054 0.24314341
0001d0 f3 94 76 bd c8 c6 52 3c ba a6 84 3e 4a 10 6b be
       -0.060200643 0.012864776 0.25908452 -0.22955433
0001e0 14 55 4c be ae 77 bd bd 27 53 36 3b 3f 0c d0 bd
       -0.1995433 -0.09251343 0.0027820559 -0.10158586
0001f0 8f b9 58 3c d6 4e 20 3e 62 18 8b 3e 77 94 51 3e
       0.013227834 0.15655074 0.2716704 0.20466791
000200 00 92 99 bd 81 bd 24 be 4d 9e 14 3d f0 44 37 be
       -0.074985504 -0.16087915 0.03628378 -0.17897391
000210 76 4f b8 bd 90 a3 85 3e ec 67 af ba 55 49 14 3e
       -0.08999531 0.2610135 -0.0013382412 0.14481099
000220 5e bd b4 bd 5e 57 1e 3e b7 63 05 3e 81 98 b7 3d
       -0.088251814 0.15463015 0.1302632 0.08964635
000230 d8 f5 8f 3e ed 99 f2 bc d6 58 48 3e 27 92 9e 3e
       0.2811725 -0.029614413 0.19565138 0.3097088
000240 d7 2c 8b 3d d4 30 09 3e 92 dd d5 3d 5e cf 46 3e
       0.06795662 0.13397533 0.10442652 0.19415042
000250 b0 81 2a be b7 d8 8f 3e da d0 2d be 0f b7 d5 bd
       -0.16651034 0.28095028 -0.16974202 -0.10435306
000260 53 57 4c 3e 67 fa 34 be b3 fa 1b 3e bf 71 90 3e
       0.19955187 -0.17673646 0.15232353 0.2821178
000270 5c 3c 29 3a 61 eb 8e 3e ae b9 91 3e 21 75 90 bd
       0.00064558326 0.27913955 0.28461975 -0.070535906
000280 16 38 01 be 9e 6a 3e 3e bf 3a 81 bd ed b8 a3 3d
       -0.12619051 0.18595359 -0.06310033 0.07994256
000290 97 9e 26 be 14 f9 ed 3d 46 be 5b 3d f6 bc 15 be
       -0.16271435 0.116197735 0.053648256 -0.14622864
0002a0 3c 9e c2 3b 8c c5 84 3d f7 15 22 3e 18 df 32 be
       0.005939273 0.064829916 0.15828691 -0.17467916
0002b0 79 10 f6 bd e8 2a 28 be 88 ab a5 3d 31 76 61 3b
       -0.12014861 -0.16422617 0.080893576 0.0034402723
0002c0 3b 62 9a 3d d7 dc fb 3d e3 17 c8 3d be 58 81 3e
       0.07538267 0.12297981 0.09770181 0.25263017
0002d0 85 3e a0 bd b4 5d f8 3b a0 54 83 bd 5c e9 88 3e
       -0.07824425 0.0075795297 -0.06412625 0.2674054
0002e0 9e c6 99 3d 46 24 30 3e 33 92 27 3e d6 2b e7 bd
       0.07508586 0.17201337 0.16364364 -0.11287658
0002f0 78 0e 2f 3e e4 f8 3e be 1a ec 56 be 48 2f 89 3d
       0.17095363 -0.18649632 -0.20988503 0.06698471
000300 c2 1d 08 be ff ef 5b be 99 7f f1 bd f1 10 30 bc
       -0.13292602 -0.2147827 -0.117919154 -0.010746227
000310 ec 9a fa 3d 6c a9 f0 3c b3 32 80 bd d3 1f f6 bd
       0.1223658 0.029377662 -0.0625967 -0.12017789
000320 70 d2 67 be 86 90 ea bd c5 8e 67 be 2c 3c 80 bd
       -0.2263887 -0.11453347 -0.22613056 -0.06261477
000330 34 ac 82 be be e3 ea 3d bb 70 25 be a3 d6 cf bd
       -0.25522006 0.114692196 -0.16156285 -0.101483606
000340 ba f5 a6 be cb b1 9e bd 7b 23 58 be bc 5b bf bb
       -0.3260935 -0.07748755 -0.21107285 -0.005839793
000350 ba cf 21 be 32 51 9c bd db ff 81 bd de 1c 86 be
       -0.15801898 -0.07632674 -0.06347629 -0.261939

conv_enc1.bias f4 [8]
000000 d1 d9 96 bc 79 3f b7 bd b6 80 23 3d 65 f3 b9 3d
       -0.01841441 -0.08947653 0.03991767 0.09079627
000010 8a 8a 40 bb 5a 2e 18 bd fa 4c cd bd 90 f9 e0 3d
       -0.002937945 -0.03715358 -0.10024448 0.109851

conv_enc2.weight f4 [16, 8, 3, 3]
000000 2c 30 18 3d 9f ee 1a bd c8 a4 6b bd 98 51 98 3c
       0.037155315 -0.037825223 -0.057530195 0.018593594
000010 9b e5 e6 3c 03 e6 97 bd 6a 90 89 bd 05 94 42 bc
       0.028185656 -0.07416918 -0.06716998 -0.011876111
000020 2c 58 45 bd cd bb 43 3c 56 c2 75 3d 98 b2 da bc
       -0.04817979 0.011946631 0.059999786 -0.026696488
000030 ed e6 02 3d 2a 56 0d 3b 17 cc 99 bc 3a ef b1 bd
       0.03195851 0.002156625 -0.018774075 -0.08688207
000040 2c 00 0c bd 5f 20 e1 bd d5 32 e6 3c f3 1f d6 3c
       -0.03417985 -0.109925024 0.02810041 0.026138281
000050 73 01 e2 3d 62 22 50 3b 39 84 4d bd 40 73 d1 3c
       0.11035433 0.0031758775 -0.050174925 0.02556765
000060 a2 fb ea bd 44 93 46 bc 3e 58 52 bd 2e 00 ea bc
       -0.114737764 -0.012120072 -0.051353686 -0.028564539
000070 8b a1 84 bd 1e cf f1 bd b0 6d c7 3c ac 31 82 3d
       -0.064761244 -0.118070826 0.024344295 0.063571304
000080 70 e4 7d 3d 9e 6f cd 3d 9d 58 ae bd a1 9c 8c bd
       0.061985433 0.10031055 -0.085129954 -0.06865812
000090 36 4f 50 bd 0c 6b 31 3d ee be ca 3d 3e 26 e8 bd
       -0.05085679 0.04331498 0.09899698 -0.11335419
0000a0 a4 83 9a 3c 9e 33 dc 3d 42 0e 64 bd 89 32 53 bd
       0.0188616 0.10752033 -0.05567766 -0.051561866
0000b0 67 4b 90 3d c8 82 e8 bd bb c5 8d 3d c8 b8 8e bd
       0.07045632 -0.113530695 0.0692248 -0.06968838
0000c0 20 d6 74 3c de c3 f5 3c 1c a5 90 bd ba 40 2f bc
       0.0149436295 0.030000623 -0.07062742 -0.010696584
0000d0 fe 9e 5a 3c 0d 8c 44 3d d3 f3 a5 3d dd 45 f3 bd
       0.013343571 0.047985125 0.081031464 -0.1187856
0000e0 c1 fe 78 bc d0 95 c3 bd 0c 9e 86 bd 15 f1 cb 3d
       -0.015197457 -0.09550059 -0.06573114 0.09958092
0000f0 e0 49 0a bc ad 85 41 bd bb d2 1a 3d 24 ce 7d 3d
       -0.008440465 -0.047246624 0.037798624 0.06196417
000100 33 58 14 3c a4 63 b5 3d 59 a0 7a 3d 50 2b c3 3c
       0.009054231 0.088568956 0.061188076 0.023824364
000110 e0 af 3a bd d0 0e ba bd cc 8e 96 3c 92 92 6e 3d
       -0.045577884 -0.090848565 0.018378638 0.05824525
000120 fa be 18 3e 92 87 cc bd c3 8b e8 3c 2b 92 8e bd
       0.14916602 -0.099867955 0.028386956 -0.06961473
000130 c1 6a 7b be 19 ee a8 bd 84 4d 44 3d 1e c1 05 3d
       -0.24552442 -0.082485385 0.047925487 0.032654874
000140 35 aa 97 3d 95 45 87 3e 6a 25 a1 3c 68 fa 95 3c
       0.07405511 0.26420274 0.01967116 0.01830788
000150 37 32 fc bc 9e 93 a0 bc d9 f3 b6 3d 5c af a2 3c
       -0.030785663 -0.01960164 0.08933229 0.019859008
000160 ef 91 ca 3d 45 7c e3 bc ba f8 1a 3e c4 05 8b be
       0.09891116 -0.027769217 0.15133944 -0.27152836
000170 70 6b 72 bc e2 ef be 3d 58 33 b0 3d 69 fc 94 3d
       -0.014796123 0.09323098 0.08603543 0.07274706
000180 48 90 50 3d 1c dc a0 bd a5 5d 52 bd e6 01 be bd
       0.050918847 -0.078544825 -0.051358838 -0.09277706
000190 f1 47 9a bd 2f fd 0f 3d 41 2a 41 3e 6e d8 0d bd
       -0.07533253 0.035153564 0.18863775 -0.03463023
0001a0 f5 9f e5 bc 72 7f 46 3e 40 bb cd bd f8 5d 93 bd
       -0.028030375 0.19384554 -0.10045481 -0.071956575
0001b0 53 e1 e5 bd ef 79 87 be bf b6 d4 be ef a3 2f be
       -0.11224618 -0.26460215 -0.41545674 -0.1715238
0001c0 19 40 33 be a4 1b 5a be 22 2c 88 3e 2a b7 1c 3e
       -0.1750492 -0.21299607 0.2659617 0.15304247
0001d0 85 bd 80 bd f6 b6 05 3d 0e bf 89 3d cc 07 47 3e
       -0.06286148 0.03264519 0.06725894 0.19436568
0001e0 bf 2a 18 3d 0f a1 93 3d 6b 4b 1e 3e 96 7d 1a be
       0.03715014 0.07208454 0.15458457 -0.1508697
0001f0 6a da 52 be ac a3 6a 3e 3d f7 03 bb 30 63 21 bd
       -0.20591131 0.22913998 -0.002013638 -0.039401233
000200 50 fe a9 3d bf 9e 6e bc a5 d7 0b be 1d 87 bb 3b
       0.083004594 -0.014564215 -0.1365648 0.005722894
000210 f2 68 8e be 61 47 07 be 7c 65 36 3d 0b be 8a bd
       -0.27814442 -0.13210823 0.044530377 -0.06774529
000220 45 5d 43 bd 5d 89 f4 3d 8e 28 60 be 9b fd 5b bd
       -0.04769637 0.119402625 -0.2189047 -0.053708654
000230 69 0e b3 bc 8a 2c 10 be 39 a3 fa bc 45 f7 ad 3d
       -0.021857457 -0.1407949 -0.030595409 0.084944285
000240 d7 64 32 3e 14 05 25 bd 8f e4 04 3e 77 a1 e2 bc
       0.1742128 -0.040288046 0.12977813 -0.027664883
000250 7f 80 e2 bd 66 8d dc bc 75 1b 13 be b9 d2 d7 3d
       -0.11059665 -0.026922893 -0.14365943 0.10538239
000260 da 92 d2 3d 3e 5a ab bc c2 d1 f1 bd 53 35 d9 bd
       0.10281916 -0.020917054 -0.11807586 -0.10605874
000270 1e 2a ff bc 0a 8a 95 be 15 d8 a6 bd 82 da 5e bd
       -0.031148013 -0.29206878 -0.08146683 -0.054407604
000280 f3 97 a0 bd 34 de 40 3e 6d d3 aa bc 44 01 87 bd
       -0.07841482 0.18834764 -0.020852769 -0.06592038
000290 f2 1d 44 be e4 d2 a9 3d d4 62 17 be 3d 42 7c bd
       -0.19152048 0.08292177 -0.14783794 -0.061586607
0002a0 f6 95 85 3d 5b 3b be bd 8e d9 9e 3d c1 81 4b 3d
       0.065227434 -0.09288665 0.07756339 0.04968429
0002b0 43 63 3b bd c3 20 8c bd 74 20 36 3d 4e 60 0c bd
       -0.04574896 -0.06842186 0.044464543 -0.03427153
0002c0 39 d2 88 bd 15 95 56 bc f9 8a 70 be 19 ac e4 bd
       -0.06680722 -0.013097067 -0.23490514 -0.111656375
0002d0 d4 82 bb 3d 75 14 82 3d 85 52 aa bc f7 cd d8 bd
       0.09155813 0.06351558 -0.020791302 -0.1058616
0002e0 d2 54 9c 3c ee 29 17 3e 11 fc f9 bd 09 8b 41 3a
       0.019083414 0.14762089 -0.12206281 0.00073830836
0002f0 f3 c2 69 be 70 99 11 be af a0 08 be 9b 20 99 be
       -0.22828273 -0.14218688 -0.13342546 -0.29907688
000300 44 53 90 bd 04 54 e6 bd f8 ce ae bd ff 6d 0b 3e
       -0.07047132 -0.112464935 -0.0853557 0.13616179
000310 b9 68 bd bd 19 ff 69 3d f2 31 27 bd bc 3c 58 be
       -0.0924849 0.057128046 -0.040819116 -0.21116918
000320 bf 75 45 be ec ae 18 bd d3 0b a9 bd f2 98 12 bd
       -0.19283198 -0.037276193 -0.082542084 -0.03579039
000330 e2 ed 45 3e 0f 64 25 be 77 af 12 3e bd f8 30 be
       0.19329026 -0.1615145 0.14324747 -0.17282386
000340 79 bf eb bd 85 9a 57 bd 19 59 78 bd 9e f4 8f 3d
       -0.1151113 -0.052637596 -0.060631845 0.07029079
000350 62 51 08 be 45 eb 8b 3d 2d dc ef 3c bb c6 60 bd
       -0.13312295 0.068319835 0.029279793 -0.054877024
000360 11 da 6b be 80 e0 34 3e df c1 32 3d ad b4 08 be
       -0.23032404 0.17663765 0.04364192 -0.13350172
000370 6b 84 d1 3c 94 f8 46 be 64 2e 20 3e 46 cd 53 bd
       0.025575837 -0.19430763 0.15642697 -0.051709436
000380 cc 37 37 3e a5 9c e6 bb 2e ee ca 3d 08 0f b0 bd
       0.17892379 -0.0070377165 0.099087104 -0.08596617
000390 b8 8d 87 be 6b 5a 2a 3d 5d 74 a2 3d 58 77 92 3c
       -0.2647531 0.041590136 0.07932351 0.017879173
0003a0 d0 af 18 3e 2f 42 26 3d 46 cc 54 bd 98 55 90 bc
       0.14910817 0.04059046 -0.051952623 -0.01761894
0003b0 b9 72 25 3c 85 e2 0e be 88 95 3b 3d ec 23 4d 3d
       0.010098153 -0.13953598 0.0457969 0.050083086
0003c0 2a 7f 2c bd 2c fd 41 3d 71 4b c1 bd 14 89 21 be
       -0.04211346 0.047360584 -0.094382174 -0.15774947
0003d0 de 32 53 bc 9b c6 bc 3d a9 59 81 bd 77 b1 80 bd
       -0.012890546 0.092175685 -0.063159294 -0.06283849
0003e0 fc 4c ed 3d 46 3f c5 3d 82 ec 97 3c 1c de a3 3d
       0.11586949 0.09631209 0.018545393 0.080013484
0003f0 d2 72 1e 3e d6 8d ff 3d 23 28 13 3d 3e 3c ef bd
       0.15473488 0.12478225 0.03592695 -0.11681412

conv_enc2.bias f4 [16]
000000 c3 e7 d5 bd 5e 49 37 3c a1 98 75 3d 61 f5 19 3e
       -0.10444596 0.011186926 0.05996001 0.15035011
000010 68 72 cb 3b 3d 9b dc bc 71 a3 05 3c d9 20 c5 3d
       0.0062087066 -0.026929492 0.008156643 0.09625406
000020 8d e5 54 3d d3 8a 40 bd 91 d6 63 3d 0e 3e 9a bd
       0.05197673 -0.047007393 0.05562455 -0.07531367
000030 ee 72 b3 3d e2 a9 f0 bd 81 bb 0b bd d1 54 a0 3d
       0.087621555 -0.117511526 -0.034114365 0.078286774

dense_encmean.weight f4 [8, 400]
000000 2d 73 c7 3c 27 09 3a bc 7f 85 6a 3c 00 b8 72 b9
       0.024346912 -0.011354721 0.0143140545 -0.00023147464
000010 08 62 43 3d 67 da 03 3a fd d6 f1 3c 8d 51 cc bb
       0.04770091 0.0005029798 0.02952146 -0.0062353075
000020 ca 22 0c 3d 03 b1 a9 3c a5 9c 01 3d 4a 5c a3 bc
       0.034212865 0.020714289 0.03164353 -0.019941468
000030 3b 38 13 3d 4a ca a4 3c fd f8 27 bd bb 39 07 3d
       0.035942297 0.02011599 -0.041008938 0.03301404
000040 67 41 bc 3b e5 1e 39 bd 60 91 45 3c 2d 95 26 3c
       0.0057451013 -0.04519548 0.012058586 0.010167402
000050 1d 8d 0a 3d 4a c7 d4 bb ab e4 48 3d e0 09 0c 3c
       0.033825982 -0.0064934837 0.0490462 0.008547276
000060 b3 a6 f7 3c 8b 2e 81 be 58 f1 99 3e 4e e8 6c bd
       0.030230856 -0.25230822 0.30066943 -0.05783873
000070 57 b9 16 bd 4e c3 c9 be f6 13 47 be d6 96 85 3d
       -0.036797848 -0.39406818 -0.19441208 0.0652291
000080 84 0a 23 3d 44 2c 30 3e 27 5d 02 bf 60 3f 83 3d
       0.03980495 0.17204386 -0.5092339 0.06408572
000090 d7 5f 66 3c 2e b6 6b 3d 15 1c e9 3d 56 9c b2 be
       0.014060936 0.057546787 0.11382309 -0.348849
0000a0 5b c7 15 3e 3e 37 17 be 96 f6 0d bd 84 9c c9 3e
       0.1462683 -0.14767167 -0.03465899 0.39377224
0000b0 b8 4d 9b bd 12 13 56 bc c1 a6 15 be 18 f2 9a bd
       -0.07583183 -0.01306607 -0.14614393 -0.07565707
0000c0 92 61 46 3e 83 c4 47 bd f2 0c 02 3d e4 ec 05 3e
       0.19373158 -0.048771393 0.031750627 0.13078648
0000d0 03 63 00 be 95 4c b6 3d d6 19 b5 3d 5d 2a 88 bd
       -0.1253777 0.089013256 0.088428184 -0.06648705
0000e0 15 3a 4e 3e 15 e5 f0 bd ab d4 e7 3d fa 2d 95 3d
       0.20139344 -0.11762444 0.1131986 0.0728416
0000f0 1d 0c 7c be 97 cb 5b 3e ec 90 e3 bd de be 95 3d
       -0.24613996 0.21464382 -0.11111626 0.07311796
000100 ba 4e da bc 35 a7 b0 bd 1a 9d 4f bd 45 d9 1d 3e
       -0.026648868 -0.08625642 -0.050686933 0.15414913
000110 ae 15 18 be 4b 53 22 bd c9 7b 9c 3d b4 bf 8b bb
       -0.1485202 -0.039630216 0.07640798 -0.004264796
000120 a5 ce 17 3e 1a 7c 6a bd 8f 8e 3e 3d e3 7f 03 be
       0.14824922 -0.05724726 0.046522673 -0.12841754
000130 aa df bc bd f5 40 a2 bb 61 e5 6e bd 24 73 9f 3d
       -0.09222348 -0.004951591 -0.05832422 0.07785633
000140 61 7d 43 bd 5f b3 d8 bd 5b 5f 08 3e 37 4f 76 bd
       -0.047726993 -0.10581087 0.13317625 -0.06013414
000150 08 1c 94 bb bb 27 8d 3c c2 70 41 be ce 33 b3 3d
       -0.004519943 0.017230859 -0.1889067 0.08750115
000160 7b a3 66 3b 2e a2 5c 3d 34 c0 70 be c3 9c a9 bd
       0.0035192657 0.053865604 -0.2351082 -0.08281853
000170 b3 7d 94 3c 8f ab f6 bc 77 8b 96 3d 02 97 10 be
       0.018126344 -0.030111102 0.073508196 -0.14120105
000180 42 c3 1e be 25 fa 1c 3b c9 5a a5 3d 13 e5 ca 3a
       -0.15504172 0.0023952809 0.080739565 0.0015479646
000190 42 cb 0e be b4 ef bf 3e a6 34 e7 3d 7d 70 99 bd
       -0.13944724 0.37487566 0.11289339 -0.074921586
0001a0 44 97 6a be f8 8d 21 3d ca c2 9a 3d 3e f6 1f 3e
       -0.22909266 0.039442033 0.07556684 0.15621278
0001b0 a1 a8 83 bd 5b 4c 02 be 8d 31 72 3d a5 ac 4a 3e
       -0.06428648 -0.1272444 0.059129287 0.19792421
0001c0 4c a2 88 3d d9 67 1b be 68 b2 17 be 1c 22 b0 3d
       0.06671581 -0.15176333 -0.1481415 0.08600256
0001d0 b7 5d 34 3d 1e e3 97 3d 10 40 ed bc a3 eb b5 bd
       0.044034686 0.07416366 -0.028961211 -0.08882835
0001e0 7f 4b ec 3d 74 8b 23 bb b5 4c 18 3e 2b 7b 25 be
       0.11537837 -0.0024954947 0.14873011 -0.16160266
0001f0 85 8d 46 bd e9 20 2f be fb 71 62 3e 65 e8 fe 3b
       -0.048474807 -0.17102398 0.22113793 0.0077791684
000200 ad 67 0b 3e b6 7d 01 be 4a 40 7d bd 0b ae 5b 3e
       0.13613768 -0.12645611 -0.06182889 0.21453111
000210 84 78 b9 3c 1a a5 8a bb 8c cb 1d be 24 9f bd bc
       0.022640474 -0.0042311074 -0.15409678 -0.023147173
000220 3b e0 81 3e c0 91 f6 3d be ed 8e bd db 03 24 bd
       0.25366387 0.12039518 -0.069789395 -0.04004274
000230 24 1b 85 3d 74 c4 fe 3d c8 dc 64 3d dc a1 24 be
       0.06499317 0.12439814 0.055874616 -0.1607737
000240 9a 20 ca 3d 42 38 8f 3d 70 18 98 3d 66 ca 13 3c
       0.098694995 0.06993152 0.07426536 0.0090204235
000250 2e c6 69 be d4 99 13 3d 2c 75 e4 bd d4 88 76 3e
       -0.22829506 0.036035374 -0.11155161 0.24075633
000260 7f 63 a2 3d cd 98 d2 3d c5 17 db bd 2e 3d 1e bd
       0.079291336 0.10283051 -0.10697893 -0.038632564
000270 10 77 9f 3b 09 5a 3b 3e f3 f2 82 3e 33 4c ab bd
       0.0048664883 0.18296064 0.2557598 -0.08364143
000280 72 0a d4 3a 2f f2 67 3d 7c c4 9a 3d ed 61 1a 3e
       0.0016177429 0.05662745 0.07557008 0.15076418
000290 a3 b0 a4 bd b4 e1 5f bb db 12 fd ba bf 15 fc 3d
       -0.08041503 -0.003416163 -0.0019307988 0.12308835
0002a0 49 56 35 3e 75 ba a1 bd b4 15 20 bd 6f 3b 7f 3d
       0.17708696 -0.07896892 -0.039083198 0.06231254
0002b0 17 de 18 3e d0 9c 90 3d 62 3f 20 3a ec 29 7e 3d
       0.1492847 0.070611596 0.00061129604 0.0620517
0002c0 a8 24 e4 3d c5 c4 ca 3d 31 89 c8 bd 9e 60 69 be
       0.11139804 0.09900812 -0.09791792 -0.22790763
0002d0 22 8c 42 3d 92 e9 60 3e ad 34 af 3d 08 7f d7 bd
       0.047496922 0.219641 0.08554969 -0.10522276
0002e0 dd a5 65 be 30 98 05 3e 8a 6f 1b 3e 8c 0d f3 bb
       -0.22426553 0.13046336 0.15179268 -0.0074173864
0002f0 c9 16 27 be 11 76 44 be 4f 6d fd 3d ab 2a 96 3d
       -0.16317286 -0.19185664 0.123743646 0.07332357
000300 39 dd 90 bc e0 bc 23 be 6d a5 a5 bd a1 35 d4 3d
       -0.017683612 -0.15990019 -0.08088193 0.103617914
000310 fb a4 29 3e 4e 46 25 3c 7c e8 89 bd 1e 9b 44 be
       0.16566841 0.010087563 -0.06733796 -0.19199798
000320 3c f3 20 3c 94 5d 36 3d a4 aa f1 3d 19 9d 05 be
       0.009823617 0.044522837 0.11800125 -0.13048209
000330 0a 75 20 be bc 15 e4 bc c3 3d bb bd 2c 3a 52 3d
       -0.15669647 -0.027842395 -0.091426395 0.05132501
000340 ce f7 c3 bd 16 ed 25 be 62 ed 6e 3b 46 7e 34 bd
       -0.09568749 -0.16203722 0.003645741 -0.044065736
000350 c3 59 5e 3c 0d 59 19 be 9c 22 55 be 27 4d 8b 3d
       0.013571206 -0.14975376 -0.20813984 0.06801825
000360 ad f7 14 3d 8f 85 91 bb d7 4e 9a bc c4 50 70 bd
       0.036369015 -0.0044409703 -0.018836422 -0.058670774
000370 c1 93 e5 bc b1 3f a3 bc 56 cf 10 be 3f 74 43 bd
       -0.028024556 -0.019927831 -0.14141592 -0.047718283
000380 93 bc f2 3c d5 10 3a 3b 86 60 cc 3e b9 f7 6a be
       0.029630935 0.002839138 0.39917392 -0.22946061
000390 61 7e 33 3e e1 67 44 3e 81 aa 3b be b7 d6 62 3e
       0.17528678 0.19180252 -0.18326761 0.2215222
0003a0 33 e2 f6 bd 7a d3 e7 3d 24 9f 37 3e 45 0b 93 bd
       -0.12054863 0.11319633 0.17931801 -0.07179884
0003b0 67 5e dc 3b 20 f5 b7 bd 1f 39 45 3e 02 46 4a bc
       0.006725121 -0.08982301 0.19260071 -0.012345793
0003c0 d2 9f 93 3d 6d af 34 3d f9 46 ea bd 21 50 96 3d
       0.07208218 0.04411261 -0.11439318 0.07339502
0003d0 ad 6a 49 3b ff 5b 26 3e 60 41 5f be 74 7c da bd
       0.003073375 0.16246031 -0.21802282 -0.10668269
0003e0 49 a0 fc bd 92 09 8a 3d 4c 16 48 bd cf 94 08 be
       -0.123352595 0.06740107 -0.04884939 -0.13338016
0003f0 ef 15 c9 3d 65 92 34 be 64 3d 0e 3d 55 35 fe 3d
       0.098186366 -0.1763397 0.034726515 0.12412516

dense_encmean.bias f4 [8]
000000 e6 7a 3e 3b 37 67 ab 3b e2 5c 74 3c 3c a4 07 bd
       0.0029064952 0.00523081 0.014914723 -0.03311561
000010 74 bc da bb 92 14 f8 bb 28 4f b1 bb 11 50 57 3d
       -0.0066752974 -0.0075708115 -0.0054110475 0.05256659

dense_encvar.weight f4 [8, 400]
000000 47 62 1b bc b3 a3 ee bc 4e 80 98 bc 10 6b 31 bd
       -0.00948388 -0.029130792 -0.018615868 -0.043314993
000010 a3 c1 03 3d f7 e2 ff 3c dd 0b 9d 3c fd 6c 9c bc
       0.03216709 0.031236155 0.019170696 -0.019094938
000020 33 19 5f 3b ff 6b 16 bd c0 8c 91 bc 35 be 38 3d
       0.003404212 -0.036724087 -0.01776731 0.04510327
000030 c6 66 18 bd 83 e0 05 3d 15 30 33 bd 8d 5e e7 bb
       -0.037207387 0.032684814 -0.043747026 -0.007060832
000040 a7 92 1a bc 88 6e 16 bd 80 12 02 bd b0 28 e7 3c
       -0.009434379 -0.036726505 -0.031755924 0.028217643
000050 07 ad bb 3c 97 e5 3c bd 47 17 06 3c aa 64 bc 3c
       0.022909654 -0.04611739 0.008184261 0.02299722
000060 67 f2 c3 bb f1 a7 8f 3d 46 a5 05 3c 8f 67 84 3b
       -0.0059798243 0.07014454 0.00815708 0.0040406655
000070 58 25 7b 3d 88 ce df bd 1f 76 90 3d 7c d7 c6 3c
       0.06131491 -0.109280646 0.0705378 0.024272673
000080 bb ad a6 3d f9 ad c8 3d 26 41 ce bd b4 8d d4 3d
       0.08138605 0.09798808 -0.1007102 0.1037859
000090 21 ea da 3d b5 11 bf 3d fb b1 2d be 70 99 ff bd
       0.10689188 0.09329549 -0.16962425 -0.12480438
0000a0 cd 53 4a 3d 32 c0 f7 3d 2d 96 3b 3d a1 9d 6e be
       0.049396325 0.12097205 0.045797516 -0.23302318
0000b0 7d 11 15 3d 93 b4 dc 3c 3e 94 7d 3d 7e ba a4 bd
       0.03639363 0.026941573 0.061908953 -0.08043383
0000c0 2c 43 38 3e 84 0e 8d 3e 9b 25 16 3e 57 8e 94 be
       0.17994374 0.27550137 0.14662783 -0.29014847
0000d0 5d 4d 4a 3c 41 32 2c bd 08 c3 a9 bc c3 70 4a 3d
       0.012347546 -0.042040113 -0.020722881 0.049423944
0000e0 36 c3 29 bd 97 4f 1b 3d e3 95 38 3e 6c 3d 81 3e
       -0.041445933 0.0379177 0.18025927 0.25242174
0000f0 e4 42 8e 3d 7c eb 68 bd d8 42 82 bc b1 d3 0d bc
       0.06946352 -0.0568652 -0.015901014 -0.008656428
000100 5b a2 6b 3d a7 2b db 3c 08 bf 32 3e e0 00 9b 3d
       0.05752788 0.026754213 0.17455685 0.07568526
000110 5c 13 86 bc af c1 9b bc 4e a4 6c 3e e4 f2 14 3e
       -0.016366653 -0.019013254 0.23109552 0.1454578
000120 6c 7e be 3d a2 79 d4 3d fa 6e 81 3d e5 92 c8 bd
       0.09301457 0.10374762 0.06319995 -0.09793643
000130 ac 68 94 3d 85 46 d4 bd b3 41 18 bd f7 3a 05 bd
       0.07246527 -0.10365013 -0.03717203 -0.032526936
000140 ed 28 a7 bc ac c8 d2 3c ac a7 14 bd 00 7b c1 3c
       -0.020405257 0.025730453 -0.036292717 0.023618221
000150 a3 3b 69 bd b3 08 ed 3d 91 22 2b 3d 7e ff b6 bd
       -0.05694164 0.11573925 0.041781012 -0.0893545
000160 f9 73 eb 3b 12 28 03 3c b0 14 a8 bd f9 43 06 3d
       0.007185456 0.008005159 -0.08207071 0.032779668
000170 d7 a0 8f bd 9e e7 fb bc 42 e2 40 bd 34 67 63 3d
       -0.070131 -0.030750092 -0.047090776 0.055518344
000180 a1 83 03 3e e4 3d 76 3c f5 ef ab 3c c2 71 36 bd
       0.12843181 0.015029404 0.020988444 -0.04454208
000190 7e 62 9c 3c da e3 6d bd 14 aa 01 3d 5e 48 01 3e
       0.019089933 -0.058078624 0.03165634 0.12625262
0001a0 3a 41 01 bd 59 5d 0e 3d dd 18 71 3c 6e 44 38 bc
       -0.031556346 0.034756992 0.0147154005 -0.011246784
0001b0 ee f7 af 3b 62 8d d8 3d 95 b0 31 3d 08 ba bf bd
       0.0053701317 0.10573842 0.043381292 -0.093616545
0001c0 3e 2d 47 bd 02 c4 d1 bd 00 15 f9 3c 65 b6 19 3d
       -0.04862713 -0.10242464 0.030405521 0.03752746
0001d0 7e 10 4b 3d a1 e1 3d bd d6 cc ba 3b 21 43 f2 bc
       0.049576275 -0.046357755 0.005700688 -0.029573025
0001e0 a7 e4 4d 3d b5 a6 4a 3d cc 88 24 bd 41 0c ab bc
       0.050266888 0.04947539 -0.040169522 -0.020879867
0001f0 07 6d 52 3d f8 45 d4 3c 32 5a b8 3a a2 31 a2 3d
       0.051373508 0.02591227 0.0014064966 0.07919623
000200 68 11 09 3e 0a f0 50 3d 26 e6 cb 3d 7f 8c a1 bd
       0.13385546 0.05101017 0.09956007 -0.07888126
000210 06 a5 03 be a8 eb c4 3d e9 69 d8 3c 2f 90 09 3e
       -0.1285592 0.0961526 0.02641769 0.13433908
000220 4f 61 33 be dc 13 1c bd 9a 27 fb 3d 8b 2f b8 3d
       -0.17517589 -0.038104877 0.12263413 0.08993443
000230 47 00 af 3d 6c db 7d 3d 99 1a 83 3d 66 90 b1 3d
       0.08544975 0.061976835 0.064015575 0.0867012
000240 84 61 08 bd 6e 70 f8 bb 0a 75 e4 3c b6 ff 41 3c
       -0.033296123 -0.007581762 0.02788784 0.011840751
000250 2f 3b 5f 3d 01 5f aa bd 76 8b cb 3d ea 9c 29 3c
       0.0544998 -0.08318902 0.099387094 0.010352353
000260 93 1c ab bc a3 c7 92 3b cd 51 f6 3c f6 4d a5 3d
       -0.020887649 0.004479365 0.030068303 0.080715105
000270 5d fa bd ba 41 38 62 bd c7 97 13 bc fe 06 8f 3d
       -0.001449417 -0.05522943 -0.0090083545 0.069837555
000280 3b b3 92 3d 4d 2a 83 3d 54 d7 bc bc f7 bf 78 be
       0.07163092 0.064045526 -0.023051895 -0.24291979
000290 bb ec 34 bd 43 6c d4 3d 51 37 79 3d 13 4b ab bc
       -0.044171076 0.10372212 0.06084377 -0.020909822
0002a0 b9 fd d8 bd 4d e4 75 bd ca 76 fb 3d d4 02 78 3d
       -0.10595269 -0.060032178 0.122785166 0.060549572
0002b0 43 cc 18 3d ce 79 51 bd 08 20 97 bd 2f 8a 0c bd
       0.037304174 -0.051141553 -0.07379156 -0.03431147
0002c0 19 7e eb bb 2b 4d 40 3d 70 7a 21 3d 0c ad 7a bd
       -0.007186663 0.046948593 0.039423406 -0.061200187
0002d0 52 51 e5 bc be 8f c3 bd df d9 39 bd 76 7c 5c bc
       -0.027992878 -0.09548901 -0.045373794 -0.013457408
0002e0 7c 01 92 bd bb a0 ed bc 23 30 e9 bd 35 84 de bd
       -0.07129189 -0.029007306 -0.113861345 -0.1086506
0002f0 97 80 66 bd 83 04 ad bd df f1 c9 bc e5 00 d2 bd
       -0.056274977 -0.08448126 -0.024651466 -0.10254077
000300 85 28 09 be 5d db a0 bd 94 d4 ce bd cc 3c 10 3c
       -0.13394363 -0.0785434 -0.1009914 0.008803558
000310 c7 9f 8b 3b 87 df 01 bd 37 2c 2b ba a1 ff 8a bd
       0.0042609903 -0.031707313 -0.0006529721 -0.067870386
000320 7d 35 ec bc cb 3e 3c 3d 29 d0 da 3c f1 d7 af 3d
       -0.028834099 0.04595832 0.026710587 0.085861094
000330 8e 00 d2 bc b2 86 6a bd 4a 9c 38 3d 2f 60 d4 bd
       -0.02563503 -0.05725736 0.045070924 -0.10369908
000340 47 7d 6a bd d6 bf 86 bd ac a4 be 3b 68 93 7f 3c
       -0.05724838 -0.065795586 0.0058179703 0.015599109
000350 33 41 8b bd 2d 17 bd bb 26 47 60 bc 2e 55 06 3b
       -0.06799545 -0.005770585 -0.013688838 0.0020497548
000360 8d 43 96 bd 3e 8d 80 bd 95 9b c8 bd 5b fd a7 bd
       -0.07337103 -0.0627694 -0.097953 -0.082026206
000370 e6 a6 8e bd ee 92 4c 3c 3b dc a5 bd 32 6e 08 bd
       -0.06965427 0.012486203 -0.08098646 -0.033308215
000380 3d aa d3 bb 84 5f 25 3e 23 e3 a8 3d cd 8f 40 3d
       -0.006459503 0.16149718 0.08246448 0.04701214
000390 d7 a8 34 bb 81 73 41 3e 61 0e f0 3d c8 f9 08 bd
       -0.0027566457 0.18891717 0.117214926 -0.033441335
0003a0 9e 87 15 3e 85 c6 c1 bd 2d 39 d8 bd 25 8d 43 3d
       0.14602515 -0.09461693 -0.105577804 0.047742028
0003b0 90 dc 9b 3d 4f 90 4c 3d ae 5b 9a be 51 90 70 be
       0.07610428 0.04994231 -0.3014807 -0.23492552
0003c0 e8 68 e2 3c 10 77 a3 3c 64 0d 96 3c d2 77 03 3e
       0.027637914 0.019954234 0.018316932 0.12838677
0003d0 82 13 52 3d a0 e6 11 3e 50 92 1c bd 25 ee cb 3d
       0.051288135 0.14248133 -0.038225472 0.09957532
0003e0 68 d8 18 3e cc dd 09 3e b6 df fd 3c 35 49 4c 3d
       0.14926302 0.13463515 0.030990463 0.049874503
0003f0 f6 7f 31 3d eb b6 2e 3e 86 d5 4e 3b 34 55 69 3d
       0.043334924 0.17061965 0.0031560375 0.05696602

dense_encvar.bias f4 [8]
000000 c9 0e c8 bd 39 60 85 bd 6d 1c 4d bd 1f ce 0b 3d
       -0.09768445 -0.06512494 -0.050075937 0.03413212
000010 b4 b1 53 be ef aa 18 be d9 50 95 bd d4 bf 4b be
       -0.20673257 -0.14908956 -0.07290811 -0.19897395

dense_dec.weight f4 [400, 8]
000000 97 b2 2a bd 68 92 0f 3d 1f 9b 74 bc d9 57 45 3b
       -0.041674223 0.035051733 -0.014929562 0.0030112176
000010 4e f7 78 3f 17 06 af 3f e2 7e 6b 3d 18 aa be bc
       0.97252357 1.3673733 0.05749405 -0.023274466
000020 f1 c0 0d be 93 fc 5b 3c bb 7d 37 ba 0a 00 09 3c
       -0.13843133 0.013426918 -0.00069996313 0.008361826
000030 cb 05 7e 3f 66 a7 fb 3f 10 0a 2a 3c 0a f7 b1 3d
       0.9922759 1.9660461 0.010378376 0.08689697
000040 0a 53 e6 3d fe 4f 03 3c fa 31 01 bc b3 2a cd bb
       0.11246307 0.008014677 -0.0078854505 -0.0062611937
000050 95 fb ff be 99 73 25 be 27 38 61 bc 24 ea 68 3e
       -0.4999663 -0.16157378 -0.013746298 0.22745568
000060 aa 4c b4 be ed 81 d1 3c cb 95 c2 3c ce ab 38 3d
       -0.3521474 0.025574649 0.023753067 0.04508572
000070 01 c4 8e bf 37 39 df bc fb 0d e7 bd 58 b4 cd be
       -1.1153566 -0.027248962 -0.112819634 -0.40176654
000080 49 0c 1c 3f 09 12 3b bd 18 01 24 3d 94 9d 92 3b
       0.60956246 -0.045671497 0.040040106 0.004474351
000090 65 25 12 be 92 6b f9 bf ba e4 93 3d 82 04 75 3e
       -0.14272077 -1.9485953 0.072213605 0.23927501
0000a0 fd 23 59 bd 5c 53 85 bc 61 61 fd 3a d7 35 6a 3c
       -0.053012837 -0.0162751 0.0019331389 0.014295063
0000b0 87 de 1b 3f 70 ff 4e 3f e1 35 91 3c be 8b 30 3d
       0.60886425 0.80858517 0.017725887 0.04310202
0000c0 d2 27 f2 bc 1e d7 28 bc c4 fd 3f 3c d2 33 fc bb
       -0.029560003 -0.010305194 0.011718217 -0.007696607
0000d0 e8 9d 14 3f 07 9b 1a 3f 92 44 b9 3c 1c 83 1a 3d
       0.58053446 0.603928 0.022615705 0.037722692
0000e0 ac 70 63 3e 25 86 06 3c 0e 0f 60 ba ae b6 0f 3c
       0.2221095 0.0082106935 -0.0008547165 0.008771582
0000f0 44 23 93 3e 82 3c 08 be 6a b2 a1 bc c4 d5 1c 3d
       0.28737843 -0.13304332 -0.019738395 0.0382898
000100 4d c7 16 3e ac 52 6c b9 7d fe bc 3c ff 5b 8c 3c
       0.14724465 -0.00022537512 0.023070568 0.01713371
000110 e3 82 1f bf 60 15 bd be 3f 9e 82 3c bb 16 f0 be
       -0.6230909 -0.3693037 0.015944598 -0.46892342
000120 60 51 cb 3e 2a 30 16 3d 57 2d af 39 a5 e8 ad 3c
       0.39710522 0.036667027 0.00033412382 0.021229098
000130 d0 e4 9b 3e 7c f7 b8 bc 83 41 16 3e dd b7 e5 3d
       0.30448008 -0.022578947 0.14673428 0.1121671
000140 80 7b 6d be 31 22 ec 3d 59 5d ae 3d e1 eb 82 bc
       -0.23191643 0.11529959 0.085138984 -0.015981616
000150 bf 78 13 3e 36 c6 e4 3d 21 f2 e7 bc 04 a9 aa 3d
       0.1440153 0.11170618 -0.028313698 0.083330184
000160 d5 a9 29 3c 68 94 38 bb 32 95 aa 3b 0c 19 9c bc
       0.0103554325 -0.002816463 0.0052057737 -0.019054912
000170 41 04 65 3e 10 a8 c4 3e f5 80 04 3a 9f a9 40 3e
       0.22364904 0.38409472 0.00050546165 0.18814705
000180 c0 e9 31 3e 66 ee b1 3c 32 79 3a bb f0 e0 aa 3b
       0.17374325 0.021720123 -0.0028453586 0.005214803
000190 be 45 8a 3e 5a 8d ad 3d 83 de ce 3b 91 b3 7a be
       0.27006334 0.08474226 0.0063131466 -0.24482562
0001a0 aa 16 b9 be 6d 60 5c 3e 64 fb 8c 3c c0 55 ce bb
       -0.36150104 0.21521159 0.017209716 -0.0062968433
0001b0 a6 b8 10 bf ed 24 1b bd 12 8a 84 bd d4 bb d5 3e
       -0.5653175 -0.037877012 -0.06471647 0.41744864
0001c0 20 ca 1f bc 9a c0 38 bc db eb 62 3c 8e 53 49 3c
       -0.00975278 -0.011276389 0.013850178 0.012287987
0001d0 0d 2c 18 3e 3c 61 fd bc 61 c0 6a 3e 95 9e 02 3e
       0.14860554 -0.030930154 0.22924949 0.12755807
0001e0 54 fe 4b 3c be 39 3f 3e d6 ce b6 bc 58 c9 a2 bc
       0.012450773 0.1867437 -0.022315424 -0.019871399
0001f0 d7 ff 74 3f b6 89 76 3e 28 b6 f9 bb 1f fe 64 3e
       0.9570288 0.2407597 -0.0076205917 0.22362565
000200 3c da a5 3d 2c f5 ca 3e 58 73 f4 bc 4b b3 e9 3b
       0.080982655 0.39640176 -0.029840156 0.007131969
000210 4d 4c e9 3e cd 8e a4 3e 54 cf 20 bc 52 62 00 3e
       0.45566025 0.32140198 -0.009815056 0.12537506
000220 c8 6c 77 bc 78 af 03 be 5e 07 6f ba aa b9 5b 3c
       -0.015101619 -0.12859905 -0.0009118224 0.013410965
000230 54 92 4c 3e fe 16 ab 3e e8 63 cd ba 90 71 f3 be
       0.19977695 0.3341598 -0.0015670033 -0.4754758
000240 09 94 76 be a9 09 1f bf 71 35 96 bb 56 1e d8 3b
       -0.24079908 -0.62124115 -0.0045840074 0.006595413
000250 5d 6b 00 3f 4b c4 c5 bd ea da 80 bb 54 8a 9f bd
       0.50163823 -0.096565805 -0.0039323466 -0.07790056
000260 b9 70 31 be bf 62 d2 bd 57 2d 51 bd 45 42 e6 3c
       -0.17328157 -0.102727406 -0.05106863 0.028107772
000270 da 6e 4d bf 39 3f 37 3e 07 e5 00 bd bd 4e 4b bf
       -0.8024727 0.17895211 -0.031468417 -0.7941702
000280 8b af 26 bd 1c 30 e8 bd 99 d1 cd bc 1a 65 19 3c
       -0.040694755 -0.11337301 -0.025124358 0.009362483
000290 f1 af 88 3f 80 b7 c1 be 8b 16 25 bd c5 52 30 bf
       1.0678693 -0.37835312 -0.0403047 -0.68876296
0002a0 33 3e 74 bd 7b e4 0f be d1 6d 23 bd 7f 43 0c 3a
       -0.05962963 -0.14052002 -0.03989965 0.0005350634
0002b0 5c 54 89 3f d3 78 d0 be 10 27 2a bd 1b 73 68 bf
       1.072887 -0.40717182 -0.04154116 -0.90800637
0002c0 f9 38 24 3d 97 69 76 3d 83 2f 74 3c 99 a0 03 3b
       0.040093396 0.060159292 0.014903906 0.0020084737
0002d0 17 71 91 bd 86 63 9f be 12 25 c8 bb de 44 8d be
       -0.07101648 -0.31130618 -0.0061079348 -0.27591604
0002e0 72 06 78 3c 94 dc 2c bd 53 9e 6a 3d db 2f 40 bc
       0.015138255 -0.042202547 0.057279896 -0.01173016
0002f0 30 33 52 3f 20 2d 65 bf 07 c7 bf 3c b4 7c 67 bf
       0.82109356 -0.8952198 0.023410333 -0.90424657
000300 cb dd f0 be f6 08 ea be 9a fe 98 be 20 dc 00 3b
       -0.47044215 -0.45709962 -0.29881746 0.0019662455
000310 bb 3c 82 3f 2d 7d b5 bd 1b 13 58 bd b9 0c 93 3d
       1.0174783 -0.08861766 -0.052752595 0.07180161
000320 25 01 a7 be 30 ca 99 3c 15 0a bb bb db 78 63 bc
       -0.3261806 0.018773168 -0.005707989 -0.013883795
000330 15 9d 2a 3f e4 05 b0 bd 61 50 9f 3c bb 53 fa 3e
       0.6664594 -0.085948735 0.019447507 0.48892006
000340 82 78 be 3e 73 0b 8d 3c b6 13 37 bb 9a 14 f2 bb
       0.37201315 0.017217373 -0.0027935333 -0.00738771
000350 fc 75 df 3e ef b4 a6 be 5a 12 81 3c 30 c0 f2 be
       0.43644702 -0.32559916 0.015755821 -0.47412252
000360 22 21 83 bd f0 0a a2 bc 6a d2 1c 3b 77 80 c7 bb
       -0.06402804 -0.019780606 0.0023929127 -0.0060883122
000370 3f 64 82 3d fb da 8c 3e 9e d4 f2 3d db 21 29 bd
       0.06366777 0.2751082 0.1185696 -0.041292053
000380 4f 32 7f be ef 0f fa 3c 5b f2 5a 3c f8 53 43 3c
       -0.24921535 0.030525176 0.013363446 0.011921875
000390 63 d3 9a be be ba df 3e 85 fe df 3e 62 e2 91 3d
       -0.302394 0.4369716 0.4374887 0.07123257
0003a0 36 01 a4 be b9 d2 e0 3c dd e5 8a 3c d6 4f 0b 3d
       -0.32032174 0.02744423 0.01695531 0.034011684
0003b0 43 9c 0b be 0d 24 fe bd 45 97 cb 3c b0 ca 31 be
       -0.13633828 -0.1240922 0.024852404 -0.17362475
0003c0 c8 6d 92 bd 9c 0f 3f 3d 6b ac 8b bc 2d f5 c7 3b
       -0.07149845 0.046645746 -0.017049989 0.0061022253
0003d0 82 c4 53 3e c4 44 86 bf a4 ca bb bb e0 b2 40 3e
       0.2068043 -1.0489736 -0.0057309438 0.18818235
0003e0 9d 41 0d 3f fe 0f 0d 3b 35 dd 51 3b 49 8b be 3c
       0.5517824 0.0021524425 0.0032022719 0.023259776
0003f0 99 41 32 3f 76 11 99 bc ba 26 b5 bc 8d ff 2c 3e
       0.69631344 -0.018685084 -0.022113193 0.1689436

dense_dec.bias f4 [400]
000000 86 2c 36 be c2 02 e0 bd 32 b5 a0 be 15 c1 c8 be
       -0.17790422 -0.10938026 -0.3138824 -0.3920981
000010 41 62 88 be 65 23 33 be f0 3c 07 be b0 41 be be
       -0.26637462 -0.1749397 -0.1320684 -0.3715949
000020 85 b1 11 3d a7 9e f0 be f2 cb 2f bf 9b 26 07 3e
       0.035569686 -0.46996042 -0.6867057 0.1319832
000030 17 56 2a bf aa a4 91 be 1b fd 0c 3e 43 75 b2 be
       -0.6653761 -0.2844594 0.13768427 -0.3485509
000040 14 e0 f8 be 07 5c ed be a6 3c 34 3e 3a 0a 76 3d
       -0.48608458 -0.46359274 0.1760126 0.060068347
000050 a5 8f 35 bf 6b 5c c7 be 6d 74 cb bd 06 ff 87 be
       -0.7092231 -0.38937697 -0.09934316 -0.26561755
000060 32 8c 2a 3f 90 8d 8e bd 44 f7 29 bf b0 88 8f be
       0.6662017 -0.06960595 -0.6639292 -0.28033972
000070 d6 cc d0 be 60 78 dc be 74 bf a6 be f8 96 21 bf
       -0.40781277 -0.4306059 -0.32567942 -0.63120985
000080 7c 74 27 3d 67 7d d1 bd 44 1f 91 3c 05 02 83 3c
       0.040882573 -0.10228997 0.017715104 0.015992174
000090 f5 01 ea bc 3a 9d 2f 3e 59 5d a2 be 49 93 eb be
       -0.028565386 0.17149821 -0.31711844 -0.46010807
0000a0 6b b3 07 3f d7 78 68 3e 91 1d 12 3e 86 0a 54 bd
       0.53008145 0.22702347 0.14269091 -0.05176785
0000b0 16 dd cc 3e 14 09 db 3d 06 f7 67 be 47 bf 4c be
       0.40012425 0.10695091 -0.22652826 -0.19994842
0000c0 f5 3c 02 3e 69 30 ae 3e e0 39 1b 3f 7d f7 d0 be
       0.12718566 0.3402131 0.60635185 -0.4081382
0000d0 93 e7 4f 3e 5c e4 0f 3f 63 52 37 be f3 ef 0d bd
       0.20303182 0.56207824 -0.17902522 -0.03465266
0000e0 96 f4 23 3e 01 23 c5 bd e6 92 9f 3d 1f 5a 47 3f
       0.16011271 -0.09625817 0.077916905 0.7787189
0000f0 b4 11 aa 3e f1 e4 d8 be d7 2e fb bd d7 92 27 be
       0.3321663 -0.42362168 -0.12264793 -0.16364609
000100 b8 97 cc be 90 10 61 bf 36 b8 8a 3e 25 16 66 be
       -0.39959502 -0.879159 0.27093667 -0.22469385
000110 6a f6 79 3e 15 78 12 3e 97 45 29 3f 41 20 6a be
       0.24410406 0.1430362 0.6612181 -0.22863866
000120 2c b5 43 bd 01 b0 ff 3e a3 18 4c 3f 0a 90 8b 3e
       -0.0477802 0.49938968 0.7972509 0.2725833
000130 92 94 c3 be f5 ad 2f be 8e fb 2c 3e af 7d 47 3f
       -0.38199288 -0.17156203 0.16892835 0.7792615
000140 6f a2 ff 3e 26 80 00 3f e1 fb 9a be a0 ec d1 3e
       0.49928614 0.5019554 -0.30270293 0.41000843
000150 59 c7 ac 3e 63 4b b8 be e4 ec f5 be 10 7f 18 bd
       0.3374584 -0.35995016 -0.48032296 -0.03723055
000160 22 a3 b4 3e 03 24 89 3e 05 2e a5 3e d1 5e d6 3e
       0.3528071 0.26785287 0.32261673 0.41869214
000170 d8 6a 15 3d f0 2d 92 3e 2d cd 79 3f a2 2e 11 3f
       0.036478847 0.28550673 0.975787 0.5671178
000180 48 29 d2 be 3c 1f 33 3e bd f5 5d 3f 71 31 38 3f
       -0.4104712 0.17492384 0.8670309 0.7195044
000190 fb 45 74 bf 4a 7e ea be 2a 99 6f 3e c2 27 70 3e
       -0.9541928 -0.45799476 0.23398271 0.23452666
0001a0 68 48 76 3f 37 3a b7 be 69 23 56 3d 2b b1 02 3e
       0.96204233 -0.35786602 0.052279864 0.12762897
0001b0 78 93 39 3f 09 4b bd 3e 1b 1a c6 be 38 e4 d8 3d
       0.72490644 0.3697131 -0.38691792 0.10590404
0001c0 f3 63 50 3d ef 4e b0 ba 58 18 f1 3b 7b 52 35 3f
       0.05087657 -0.0013451258 0.0073576383 0.7082898
0001d0 20 d4 ee 3e 3c d0 8a 3e 10 94 2f 3f c8 2e 37 3f
       0.46646214 0.27111995 0.685853 0.7155576
0001e0 3a 5f 51 be e1 f2 45 3e b0 75 c9 ba 74 1e 93 3e
       -0.20446482 0.19330932 -0.0015370157 0.2873417
0001f0 d6 56 a8 3e 64 0a 77 3f d2 35 24 3e 74 06 fe bd
       0.3287875 0.9650023 0.16036156 -0.124035746
000200 98 7f fe bd 04 e1 42 3f 3c 25 38 3f 0d c8 c1 3e
       -0.1242668 0.76124597 0.71931815 0.3784794
000210 93 37 9a 3e 01 c4 8d 3e 2a 15 42 3f 88 bd 78 be
       0.30120525 0.27688602 0.75813544 -0.2429105
000220 8a 0a 96 be 65 bf 91 be 9d 50 ed bd eb 84 96 3d
       -0.29304916 -0.28466335 -0.115876414 0.07349571
000230 f4 c1 0a bf a8 05 18 be 2f 48 3c bf 5b 48 a5 3e
       -0.542022 -0.14845908 -0.73547643 0.32281765
000240 d4 3c aa 3e 80 f6 d1 bd 52 d5 18 bf f2 be e2 bd
       0.33249533 -0.10252094 -0.597005 -0.11071576
000250 2f 52 db 3d 5f 8f 32 3e f6 17 6d 3f 14 2c e9 3c
       0.10709035 0.17437504 0.92614686 0.0284634
000260 ee 13 00 3f 02 fa f0 3d 0c bf 43 3e 71 d5 e4 3e
       0.5003041 0.11766435 0.19115847 0.44694093
000270 e6 97 ed be 3d 0e a6 3e 52 d2 16 be a7 31 00 3e
       -0.46404952 0.32432738 -0.14728668 0.12518941
000280 7a 8e da be a4 62 2d bf cd 07 c0 3e 41 42 26 be
       -0.42686826 -0.6772864 0.37505952 -0.16236211
000290 36 1f 54 be 81 0a ac be e1 64 09 bf 3b 5c 9e be
       -0.20715031 -0.33601764 -0.53669554 -0.3092974
0002a0 21 aa cf bd e4 7d f7 3e c9 b1 dd bd 31 74 e4 bd
       -0.101398714 0.48338234 -0.108249255 -0.11154974
0002b0 2e 1b 09 bd cd 74 37 bc 7c 36 c6 3f f1 86 9e bb
       -0.033473186 -0.011197281 1.5485377 -0.0048378636
0002c0 c7 3f 96 3e 14 8f 93 3d b3 a4 86 3e 07 83 86 bd
       0.29345533 0.07205024 0.2629753 -0.0656796
0002d0 64 56 af be 18 fb 3e be b1 62 80 be be f3 75 3e
       -0.34245598 -0.18650472 -0.25075296 0.24018762
0002e0 cd 82 0c 3e 83 77 25 be 41 29 73 3d 4b 57 a6 bc
       0.13721772 -0.16158871 0.059365515 -0.020305296
0002f0 4e af 16 3f 6b d1 53 be 5f 20 fe bd 10 41 10 be
       0.58861244 -0.20685355 -0.12408518 -0.1408732
000300 6a fd 84 be 2e 8c 20 3d 96 90 8e 3e d2 7e 76 3f
       -0.2597459 0.039196186 0.27844685 0.9628726
000310 e6 66 22 3f c6 58 b1 3d 7a 40 fc 3e 19 7f ff 3e
       0.6343826 0.0865951 0.49267942 0.49901655
000320 4d e3 38 3e 40 a4 58 3f 12 9e 65 be 55 7d 85 be
       0.18055458 0.84625626 -0.2242358 -0.26072183
000330 ba 63 50 3f 17 87 83 be 08 a9 54 3c aa 26 39 bd
       0.8140217 -0.25689003 0.012979753 -0.04520289
000340 87 52 98 be aa a8 f4 be 3d a3 ff 3e 3b 19 9c 3d
       -0.29750463 -0.4778493 0.49929228 0.07622
000350 dc 78 ea bd 72 3a a9 3d 56 57 49 3e 42 77 8f be
       -0.11448833 0.08263101 0.19662222 -0.28020674
000360 01 15 3c 3e 9e c5 37 be 78 c3 85 3e 24 6d 39 3f
       0.18367387 -0.17946479 0.26125693 0.7243216
000370 0f cb dd 3e 89 d0 1d 3f 03 37 b0 3e 62 8a ce 3e
       0.43318984 0.61646324 0.3441697 0.40339953
000380 99 cf b5 3f 2e 7f 02 3d 83 3d 6a 3d 28 14 05 be
       1.4203979 0.03185957 0.05718757 -0.1299597
000390 30 69 44 be 28 d8 fb 3e 80 49 3a bf 4c b0 d0 3e
       -0.19180751 0.49188352 -0.727684 0.40759504
0003a0 71 3c 52 bf 25 d1 eb 3e 5e e6 ef 3c f6 9c 68 be
       -0.82123476 0.46058002 0.029284652 -0.22716126
0003b0 8e 21 1f bf 1b 94 1b be cb 58 40 3e 02 50 52 3e
       -0.62160575 -0.15193217 0.18783872 0.20538333
0003c0 65 5d 1e bf 7c 63 ad bd da 0b 51 3c 41 ee 95 3e
       -0.6186126 -0.08466241 0.012759173 0.29283336
0003d0 3f f8 4e 3f 1f db 0f 3f d6 69 2b 3e 83 42 0b be
       0.80847543 0.5619373 0.16739592 -0.13599591
0003e0 5b 4a a3 be 4f 8c bb 3f 4c f2 85 bf bc f9 43 3f
       -0.31892666 1.4652194 -1.0464568 0.7655294
0003f0 39 4c 88 be 34 11 03 3d 7b 17 05 3f e3 3a 37 bf
       -0.26620653 0.031998828 0.51988953 -0.7157423

conv_dec1.weight f4 [16, 8, 3, 3]
000000 2b 5f cf 3e 80 52 9f be 20 37 2b 3e f6 19 2c 3f
       0.40502295 -0.3111763 0.16720247 0.67227113
000010 24 db 6d bb ac 37 dd bd 13 3c ef bc 0d 28 00 bd
       -0.0036293948 -0.10801634 -0.02920345 -0.031288195
000020 f0 5c 2f be a0 25 b4 3f 9f 18 5c 3f 9a 12 4a 3d
       -0.17125297 1.4073982 0.8597507 0.049334146
000030 fa 1e 74 3f 1e d9 81 3f e8 2d 72 be 5b 73 1e 3f
       0.95359766 1.0144384 -0.23650324 0.6189477
000040 d2 61 bc 3e 6c 43 75 be 2d 58 d9 bd ae 0a 8b 3e
       0.3679338 -0.239515 -0.10612521 0.27156585
000050 de d8 d6 be e3 9f bc 3e 76 b2 13 be 26 b1 0a 3f
       -0.41962332 0.36840734 -0.14423546 0.5417656
000060 d1 a5 af 3e 82 f4 19 bf 8d 1c 8a 3e 38 a8 73 3f
       0.34306195 -0.60138714 0.26974908 0.95178556
000070 d9 53 8a bd 52 c4 da bd 8e 6a 95 3e 37 3d 81 3e
       -0.06754274 -0.106819764 0.29182857 0.25242016
000080 07 8a 54 3e 06 e2 68 3d 23 64 b8 be e8 50 a4 3c
       0.20755778 0.056856178 -0.36013898 0.02005811
000090 48 6b 0e 3f ff b8 9e be d1 ce aa be 82 45 e3 3e
       0.5563245 -0.31000516 -0.33360913 0.44388968
0000a0 ad 8b 17 3e dc 5b d3 bc 9d e0 e3 3e 1b ae 82 bd
       0.14799376 -0.025800638 0.44507304 -0.06380864
0000b0 94 40 25 3f d6 a7 16 bf 09 09 99 be 66 c7 48 3e
       0.64551663 -0.5884985 -0.29889706 0.19607314
0000c0 85 99 d8 be aa 8a 1a be 0e 12 17 be 05 8f 66 3d
       -0.42304626 -0.15091959 -0.14752981 0.056288738
0000d0 88 f5 98 bb b6 f6 00 bf 2a 5c c8 bb 23 c7 37 be
       -0.0046679415 -0.5037645 -0.0061145024 -0.17947058
0000e0 4e e5 18 3e 33 35 f8 3e 09 ae 6f bd b8 8e 59 3e
       0.14931223 0.48478088 -0.058515582 0.21245849
0000f0 7d a9 9e 3e e0 e1 8b be f0 f0 68 3e a5 02 dc 3e
       0.30988684 -0.27320766 0.2274816 0.42970768
000100 98 17 01 3e 15 52 aa be 51 bf 25 3f 17 33 bd 3e
       0.12606657 -0.3326575 0.6474505 0.3695304
000110 93 f7 8e 3e 6f ea 56 3f 36 17 96 3e 64 39 67 3e
       0.2792326 0.8395147 0.29314584 0.22580487
000120 fc a3 86 bd 3f 38 7a be 08 9b 90 bd 6d 38 6f bf
       -0.06574246 -0.24435519 -0.0706082 -0.93445474
000130 e4 1a e3 be 8c fb ed be a6 56 86 bd 6e 78 b5 3d
       -0.44356453 -0.46480978 -0.06559496 0.08860861
000140 7e 8d 9b be cd 22 52 bd e1 49 a9 be 9b 79 24 bf
       -0.30381387 -0.05130272 -0.33064178 -0.64248055
000150 99 55 38 bc 65 83 f9 be 9a 1a cd 3c 31 42 55 3d
       -0.011250877 -0.4873306 0.025037099 0.05206508
000160 56 02 de bd bc 7a a7 3c 3b 09 04 3e b5 e6 07 bd
       -0.10840289 0.020444266 0.12894146 -0.033179004
000170 a9 a5 87 3e 4d 12 c5 bc 6d 02 68 be 16 2d 0a be
       0.26493576 -0.024056578 -0.22657175 -0.13493761
000180 69 af eb 3e 7b 2c 3f 3e d2 b6 8d 3d e2 0a d6 be
       0.46032265 0.18669312 0.06919636 -0.41805178
000190 1f 68 9f 3e bf 93 8a be 6f 61 6b bf 2a 1e 0f be
       0.31134126 -0.27065846 -0.91945547 -0.1397635
0001a0 c2 92 8c bc 2d 67 a2 bd ce f9 4e 3e a2 c5 c2 3d
       -0.017159823 -0.079298355 0.2021248 0.09510352
0001b0 5d 22 fe bd 52 0c ad 3e b2 14 87 3e 79 bc 69 bf
       -0.12408898 0.33798462 0.26382977 -0.9130321
0001c0 3b 87 87 bc f9 2d 1a be 6d 5a 1f 3e 32 26 9a 3e
       -0.016543975 -0.150566 0.15561838 0.30107266
0001d0 78 71 18 3e e7 49 57 3e ca b4 73 3d 56 1a ae 3d
       0.14887035 0.21024285 0.059498586 0.08501117
0001e0 5f cd 94 3e b5 24 3f be 4c a1 cf 3c 1a f2 5b 3e
       0.29062936 -0.18666346 0.025345467 0.21479073
0001f0 26 41 ef 3e 4a a8 45 3e 3e 1f 66 bf 3a 1a de be
       0.46729392 0.19302478 -0.8989142 -0.43379384
000200 71 53 c8 be f3 e4 ec be 3d 27 d0 be bd 75 76 bd
       -0.3912616 -0.46268424 -0.40654936 -0.060170878
000210 7b fb 9e be 92 d2 30 3e 18 cb 93 bc f6 ee c6 be
       -0.3105124 0.17267826 -0.018041179 -0.38854188
000220 0a 18 ee bd cd 64 43 3c 5c d4 dd be 52 10 7d be
       -0.11625679 0.011925888 -0.4332608 -0.24713257
000230 ce a2 d9 be 56 f3 16 3f 9b 8c 7d bd 35 f4 97 3e
       -0.42507023 0.5896505 -0.06190167 0.29678503
000240 95 31 dc 3d cd 1e 91 3e 15 80 6a 3e 3b 68 21 3f
       0.107516445 0.28343812 0.22900422 0.6304967
000250 e8 68 df 3e 3d 7f 09 3d ed 3c 94 3f cd c9 8f 3f
       0.43634725 0.03356861 1.1581093 1.123346
000260 38 b4 f5 be 7d af 28 3e f4 d4 68 be 04 58 8c 3e
       -0.47989058 0.16473193 -0.22737485 0.274109
000270 78 c9 d5 3c d9 1c 1e 3f a7 37 79 3e 0e 79 f9 3d
       0.026097044 0.6176277 0.24337636 0.121812925
000280 4e d4 ef 3e b1 99 ac be 77 df 41 3e ca ac f8 3e
       0.46841663 -0.33711007 0.18932901 0.48569328
000290 42 39 64 bf 54 89 9f 3e c9 72 15 3d 30 c5 32 3e
       -0.8914987 0.3115946 0.03648642 0.17458034
0002a0 f3 ab 10 be 2c 72 ed bd 3f fe 7b 3c e6 cd d2 3e
       -0.14128093 -0.11594042 0.015380441 0.41172713
0002b0 08 fa 28 3e 97 3c 0f 3e e3 1e 50 3f 7f 7c c3 3d
       0.1650163 0.13987957 0.8129713 0.0954523
0002c0 5e f5 1a 3f d9 18 0c 3f b4 c5 e8 be 45 d1 32 be
       0.6053065 0.54725415 -0.45463336 -0.17462642
0002d0 56 13 23 3f 51 4d f2 3b 79 64 a2 3d 52 ed 38 3e
       0.6370138 0.0073944707 0.0792932 0.1805928
0002e0 36 c3 0d 3e e7 09 b6 3e 3e e0 e3 3e 52 e0 ec 3e
       0.13843998 0.3555443 0.4450702 0.46264893
0002f0 7c ee 19 3e eb ca 90 3d 4e fe ab be 1a 4e 24 be
       0.15032381 0.070699535 -0.33592457 -0.16045418
000300 45 3b be be 5c fa 93 be 1c 7e 81 3c f3 dd 30 be
       -0.37154594 -0.28901947 0.015807204 -0.17272167
000310 76 c8 aa be 8c a3 72 be ed af 99 3e f5 94 15 3e
       -0.33356065 -0.236952 0.30017033 0.14607604
000320 f5 fd 86 3e 44 4b af 3e ef 3e f6 3d 33 86 87 3d
       0.2636563 0.3423711 0.120237224 0.06617393
000330 68 a5 8b 3e 36 23 1c bd 8e 18 8a 3e b9 f3 b8 3e
       0.27274632 -0.038119517 0.2697186 0.36123446
000340 0d f9 a0 3e a2 4d ad 3d c1 9e 73 3f 72 0c 20 3f
       0.3144001 0.08462073 0.95164114 0.6251899
000350 0f c1 0c 3f 4d 50 35 3f 8c e2 d9 3d 99 f8 18 3f
       0.54982084 0.70825654 0.106389135 0.5975433
000360 c9 e6 83 3e 18 37 b4 bd dc 66 21 3e b2 6d 45 bd
       0.25762013 -0.08799571 0.15761894 -0.048200317
000370 9f 30 4b 3d 8a 87 7f be a6 c5 74 be 77 bf 98 be
       0.049606916 -0.24954048 -0.23903522 -0.29833576
000380 59 2a bb be a0 1d 50 3e 9d 6d bd bc b6 d6 a5 be
       -0.36555746 0.20323801 -0.023123557 -0.32390374
000390 eb c3 4d be fd 52 2d be d4 1e 91 be af de 82 3e
       -0.20094268 -0.16926189 -0.28343832 0.2556052
0003a0 30 af 19 bf 41 d1 d4 bd 22 03 35 3d 10 f3 b2 3e
       -0.6003294 -0.103914745 0.04419244 0.34951067
0003b0 d6 e0 23 3f f9 db f2 be 67 8d ff 3d c1 06 cb 3c
       0.6401495 -0.4743345 0.12478142 0.024783494
0003c0 55 e8 0c be 6c ce 99 3d d2 88 c5 3d e9 7b 97 bd
       -0.13760503 0.07510075 0.09645237 -0.07396681
0003d0 62 0a c4 3e f5 dd 9c bd 3e fc 16 bf 1e d5 75 3e
       0.3828917 -0.076595224 -0.5897864 0.24007079
0003e0 c2 1c 0d be 0f 1f 0c be 7d 64 8f 3e c7 f1 83 3e
       -0.13780501 -0.13683723 0.28006354 0.257704
0003f0 2e e8 22 3e a9 8f 3d 3d 4c e4 2a be 14 d0 1d bf
       0.15908882 0.046279583 -0.16688651 -0.6164563

conv_dec1.bias f4 [8]
000000 7d c7 db 3d e9 03 84 3e f8 c8 7c 3d 92 c9 cc 3d
       0.10731409 0.25784233 0.061715096 0.09999384
000010 a9 39 49 3e 7e c1 ab 3e 8d cf 3a 3d fb 03 a0 3d
       0.19650902 0.3354606 0.045608092 0.07813259
