test2/pth/controller_last.pth (torch, 29143 bytes, 5 tensors)

fc1.weight f4 [200, 28]
00000000: 541e e4ba a88a 793d e47e d0bc 2fdb 583e
00000010: c744 64bd f49f cdbd 2c91 38bd 2cf6 3dbe
00000020: 4b35 8fbc c383 673d 0db5 9f3d 49f0 0b3e
00000030: b424 e6bd 81ac 0c3d 668a 2a3d e05c 78bd
00000040: d031 34bc 53a8 82bc 788b 32bd 6907 1dbb
00000050: 99cf 2dbe ec13 4cbd e63d b6bd d435 29bd
00000060: fb28 29be 0151 cdbc 1c67 5d3e 8ee7 693d
00000070: 272b 4f3c 75a9 33bb 4604 c13c 4cce c1bc
00000080: 40ec 12bd 1634 4d3d 6118 1b3d 5b38 d5bd
00000090: d9ee f03d 8da3 663c cdb1 01bc f3a0 d73d
000000a0: 1620 673d 1d87 3abe 1636 db3c ec32 703d
000000b0: c032 33be 193f 7bbd dbb8 a03e ac7f 993d
000000c0: 15fc 1abe 0191 a6bd 66b3 883c 2c69 453d
000000d0: ff87 87be 4f38 b7bd b1ee 013c 564f 183e
000000e0: 324d 053d 7c88 633c 4061 7fbb 7967 53bc
000000f0: f24d 34bd f739 32bd d532 d5bc 579b 3d3c
00000100: 84e2 b33d 8b44 6e3d 41ae 5ebd a5a4 abbd
00000110: 6aa7 fabd 12ab eebd c690 06bd 4b5d 8dbd
00000120: 5b3e 3abd 4ab6 2f3e 1158 f93d d371 9e3d
00000130: 9e8a dfbd f960 c83c 822d 26ba f662 863d
00000140: f798 9b3d c640 2dbe b7b0 4fbd aad5 733d
00000150: a2f9 c83d c618 d9bb ca0c b13d d80c b93e
00000160: 8ed1 2d3d 79b6 0cbe a54c e8bd f12a d8be
00000170: cbd1 533e 0dea 86be 425c 6a3e d05d f63c
00000180: 51d3 8e3e 1aa0 82be 841a 8d3e 2290 13be
00000190: 8424 7fbe 9a40 45bd 5040 5f3e c4c8 97be
000001a0: a0ac 1c3e 0fde a6be f459 233e 908e c6bd
000001b0: 8d6b 9dbe ec08 5a3e 241e 3ebe e18c 423d
000001c0: dde8 a1bd 1942 74be a3c8 153d b5a8 e1be
000001d0: 823e de3b 98af a5bd 325a 22bc e15f 69bd
000001e0: f807 673d a351 633e 5aa0 73be cfd3 9c3e
000001f0: 7053 8b3e 1930 4bbd 0314 0dbe f2f3 07bc
00000200: 1510 31be b957 2e3e 9a56 dd3b 6398 8dbe
00000210: 7f14 96be f878 a93d 2ceb 5a3e 5825 2bbe
00000220: ba71 7d3d 3bfb b8bc a92b 0cbf b64d ab3e
00000230: 967f 613d 3ed2 df3c 9268 27bb a995 523f
00000240: bfbc 333d ca1d c8bd 6d6f cdbd f565 a5be
00000250: 521f a73d 611a a9bc 0cfb 00be 60f4 3ebd
00000260: 17c2 c1bd 0809 92bd 677c 6abe bb70 8a3e
00000270: 1e3b 533e 2ca3 9fbd 5139 0bbe 4116 813e
00000280: bca7 eb3d 1486 1abe f15e d4bd baa5 f23d
00000290: 4037 47be 222a 1c3e 8fb4 3ebd 78d1 a03d
000002a0: db59 2a3d f616 21bc cd2f 943d 439e 92be
000002b0: 446f db3c b5e4 4a3e cfa5 0b3e 32e7 e63d
000002c0: a157 8ebb 21c9 84be cbb7 d13d 85f4 96be
000002d0: b2f3 8abd a712 0ebe 1477 533e f96f 01bf
000002e0: 7b86 9e3d 7de7 86be 9079 253d 970c 8abe
000002f0: 4afa 12bd 9188 233c 3cc8 093e 3c83 67bc
00000300: 5c98 0c3e d768 7fbe 76b9 cdbd 2e6c 8bbe
00000310: 647f 7dbc 4adf e03b 5003 8bbb 2ef5 2bbd
00000320: 6728 623d 362a 5abd c1ae a0bc a08b 9c3c
00000330: ae06 5abe 0811 39be cde7 c4be 8d4f d33d
00000340: ee74 dcbe fbec 203e 1a74 e43d 1f71 37bf
00000350: b49f 4cbe 866b e7bd 4456 51bf f42a da3e
00000360: 6e1a 7fbe a22a 0c3e 766f e53e 86a7 6abf
00000370: 5029 b3bd 5a56 803d e77f fcbe a569 563e
00000380: e465 74bd 1a10 033d e2f3 14bd 5365 77bd
00000390: 6076 0d3d f90c b4bd f854 3abe 9b84 b23d
000003a0: 0f03 ef3d 7db2 01be cbcc 7a3e 5648 e4bd
000003b0: f3db 90be 40e3 713d 355f 96bc 8dae cabe
000003c0: 62cc ae3c dbb3 acbe 3f06 4c3d 4d2b ebbe
000003d0: c2e3 4f3d 5f1c 513d 1abf 3dbc 0960 94be
000003e0: df00 0cbd 0037 4dbe 281d edbd 393a d6bd
000003f0: 6f5e 88bc a6df bbbe d4ed b03c d255 b1be
-0.0017404058 0.06092325 -0.025451131 0.21177362 -0.055729654 -0.10040274 -0.04506032 -0.18550938
-0.017481467 0.056522142 0.077982046 0.1366588 -0.11237469 0.0343442 0.041635893 -0.060635448
-0.010998204 -0.015949404 -0.04359004 -0.0023960716 -0.16973723 -0.049823686 -0.08898525 -0.0413111
-0.16519539 -0.02506304 0.21621364 0.057105593 0.012644566 -0.0027414237 0.023561608 -0.02365794
-0.035869837 0.0500985 0.037865046 -0.104111396 0.117643066 0.0140770795 -0.007915926 0.105287455
0.056427084 -0.18215604 0.026759189 0.058642313 -0.17499828 -0.06133947 0.31391034 0.074950546
-0.15135224 -0.08133126 0.016687106 0.048196003 -0.26470944 -0.08946287 0.007930444 0.14874014
0.032544322 0.013887521 -0.0038967878 -0.012903088 -0.044019647 -0.04351231 -0.026025215 0.01157268
0.08783439 0.058170836 -0.0543654 -0.08381013 -0.12238963 -0.11653723 -0.03285291 -0.0690256
-0.045469623 0.17159382 0.121750005 0.07736554 -0.10915111 0.024460303 -0.00063391787 0.06561844
0.07597535 -0.1691924 -0.050705638 0.059529938 0.09813239 -0.0066252677 0.086450174 0.36142612
0.042436175 -0.13741483 -0.11342744 -0.42220262 0.20685498 -0.26350442 0.22886756 0.03007403
0.27895597 -0.25512773 0.27559292 -0.14410451 -0.24916273 -0.048157312 0.21801877 -0.2964536
0.15300226 -0.32591292 0.15952283 -0.096951604 -0.30746117 0.21292466 -0.18566185 0.047497634
-0.07905743 -0.23853339 0.036568295 -0.44074026 0.006782354 -0.080901325 -0.0099092 -0.056976203
0.056404084 0.2219911 -0.23791638 0.30630347 0.27212095 -0.049606416 -0.13777165 -0.008297907
-0.17291291 0.17025651 0.0067547085 -0.27655324 -0.29312512 0.08275026 0.21378773 -0.16713464
0.061876036 -0.022580734 -0.5475412 0.33457726 0.055053316 0.027321931 -0.0025544506 0.82259613
0.043881174 -0.09771307 -0.100310184 -0.3230435 0.08160271 -0.020642461 -0.12595767 -0.046619773
-0.09460848 -0.07130629 -0.22899018 0.27039132 0.2062802 -0.077947944 -0.13596083 0.2521229
0.11506602 -0.15090209 -0.10369671 0.11848016 -0.1945467 0.15250447 -0.046558913 0.07852453
0.0415896 -0.0098321345 0.0723568 -0.2863637 0.026786454 0.19813807 0.1363747 0.11274566
-0.0043439423 -0.259347 0.10240134 -0.2948343 -0.067847624 -0.13874303 0.20650893 -0.5056148
0.07740494 -0.26348487 0.040399134 -0.2696273 -0.035883226 0.00998129 0.1345529 -0.01413041
0.13729995 -0.24942337 -0.100451395 -0.27230972 -0.015472267 0.0068625556 -0.0042423382 -0.04198187
0.055214312 -0.05326291 -0.01961458 0.019109547 -0.2129161 -0.18072903 -0.384581 0.103179075
-0.4305796 0.15715401 0.11154957 -0.71656984 -0.19982797 -0.11299805 -0.81772256 0.42610896
-0.24912426 0.13688138 0.448116 -0.9166187 -0.08748114 0.0626647 -0.49316332 0.20938738
-0.059667483 0.031997778 -0.036365397 -0.060399365 0.03453672 -0.08791537 -0.18196476 0.08716699
0.11670505 -0.12665744 0.24492185 -0.111466095 -0.28292808 0.059054613 -0.018355945 -0.39586297
0.021337692 -0.3373097 0.049810644 -0.45931473 0.050754316 0.051052447 -0.011581207 -0.2897952
-0.03418052 -0.20040512 -0.11577827 -0.10460324 -0.016646592 -0.36694068 0.02159778 -0.34635788

fc1.bias f4 [200]
00000000: 21a3 9e3d a43b 9f3d 2299 da3b 9d9c 943d
00000010: c615 8d3d 5d65 4d3d f788 e6bd 9133 06be
00000020: 5ecb 84bd 8ac4 0c3e 3419 95be 4bbf 97bd
00000030: b643 da3c 926c 5fbe 21d1 1bbe 17eb 19be
00000040: addd e1bd 28ef 123e 0230 1b3d 4376 b43d
00000050: c0d4 5dbd 8963 bb3c 26a7 0cbe fdaa 29be
00000060: 143d 84bd ddcb b53c cfb1 afbd 39ea 68be
00000070: a659 5fbd ff6d 323d 9a46 03be 4533 1ebe
00000080: 2830 833d d959 91bc 0b99 ccbd 32c4 7d3c
00000090: ed1a de3d 3ec2 66ba a9ec 03be 8ad7 85be
000000a0: b0ed 3dbe 5826 0b3e 9a96 46be 6514 e2bd
000000b0: c02f 1f3e cc74 d8bd 35bb e3bd 4a48 f2bd
000000c0: 0760 23bd fac1 4fbe ac40 f1bd b35c d5bb
000000d0: fc30 463d c3be c43d 0b3e 85be fc98 46be
000000e0: 1efc e0bb 2e55 20be 07c9 06be 1f90 193d
000000f0: 698a d5bd 3979 8bbd b9af 58bd 84fd 613d
00000100: 46e9 89bd 733f 52be 3a22 c6bd 4bc1 22bd
00000110: 912d 1c3c f072 0a3d e622 1bbe 1d53 e4bd
00000120: e5cd 2bbe 3a50 60be 07af 59bd dc2e 49be
00000130: c148 64be be5f 9cbd b5eb 18be da78 b73d
00000140: a9af 1abe eaa7 24be 378c f83d e44f 70b8
00000150: 10c8 43be 029d bebd 5d28 d3bd 2b80 50bd
00000160: 72a9 43be 18e5 ff3d 4924 8cbd b760 64bc
00000170: 616c 11bd 8f78 67be f812 e63c 7e5e c7bd
00000180: cfe8 6ebe f850 263e aa9c 25bd df16 dfbd
00000190: 044c babd a23a 863d 7b08 4dbd 84db e9bb
000001a0: c114 81be bbb2 00be 9a64 9d3c 106f af3c
000001b0: 6a23 b639 2d06 22bd 8155 733c 88d0 d1bd
000001c0: 1b10 afbc 0af6 19bc 2fab 23be db68 6fbe
000001d0: 550b 80be 807d d13d 5fc2 7cbd d85c 563d
000001e0: 06fb b13c d2b3 33be 467d 09bd 7d0a 7ebd
000001f0: 2dc9 223d 838f f4bd 7c92 4cbe 7e9c a5bd
00000200: ae2c 57be 3a50 e2bd b835 c63d 1db0 e6bd
00000210: ad85 2cbe 82ad 23be e77a 40be e946 413d
00000220: c6b1 bcbd 0616 cbbd ba5e 4fbd 01c8 393e
00000230: fa01 5bbc 155c ac3b 039a 71be 563e 22be
00000240: 683a 51bc 014d 01be 5757 493d a2ab a63d
00000250: b390 ab3d 781f bcbd 58a1 6e3d 0eb6 563d
00000260: c38b babd 3ff7 423e fa0d d9bd d285 8a3d
00000270: f930 40bc c753 75be 4e9f 48bd e501 513d
00000280: d4a2 6ebd a52e 2f3e 8768 253e e2d1 3abe
00000290: 9a96 c0bd 6343 32be a695 b63c 22a7 913c
000002a0: 57a4 9ebd c9f7 f33d 7c74 e7bd d2c3 b53d
000002b0: d873 29be a33b cf3d 59f5 75bd 41d8 6c3b
000002c0: 279e ec3d be5b 08be 1ed9 04be 774a 6fbe
000002d0: 4c84 9e3c e817 503c 2d76 083e b559 fdbc
000002e0: de50 03be dfa0 6bbe 905c bd3c eb8d a33d
000002f0: 12fd 4bbe 7e3d 453d 9be6 05bd eb6a 8abd
00000300: 998c 5ebe ccad 17be ba45 1b3d 02d5 07be
00000310: 6ac8 52be bf48 e73d 64f0 15bd 9e1b 90bd
0.07745958 0.077750474 0.006671087 0.07256434 0.068889186 0.050145496 -0.11256593 -0.13105609
-0.06484102 0.13746849 -0.2912079 -0.07409533 0.026643615 -0.2181876 -0.15216495 -0.15031086
-0.110286094 0.14349043 0.03788758 0.08811619 -0.054157972 0.02287461 -0.13735637 -0.16569133
-0.06456962 0.022191936 -0.08578836 -0.22745599 -0.054528855 0.04356193 -0.12819901 -0.15449245
0.064056695 -0.017743038 -0.09990128 0.015488671 0.108449794 -0.0008802748 -0.12883247 -0.26141006
-0.18547702 0.13588846 -0.19393387 -0.11039046 0.15545559 -0.10569152 -0.11119691 -0.11830194
-0.0398865 -0.2028884 -0.11779913 -0.0065112947 0.04838656 0.096066974 -0.26023898 -0.19394296
-0.006865992 -0.15657493 -0.13162623 0.03749096 -0.1042679 -0.06810231 -0.052901957 0.055173412
-0.067339465 -0.20532016 -0.09674497 -0.03973512 0.009532348 0.03380102 -0.15150031 -0.11148665
-0.16777761 -0.21905604 -0.053145435 -0.19646782 -0.22293378 -0.07635449 -0.14933665 0.089585975
-0.15106072 -0.16079679 0.12136119 -5.7294863e-05 -0.19119287 -0.093072906 -0.10310433 -0.05090348
-0.19107607 0.12494868 -0.06842858 -0.013939074 -0.03550375 -0.22604583 0.028085217 -0.0973482
-0.23330997 0.16241825 -0.04043261 -0.10893034 -0.0909653 0.06554152 -0.050056916 -0.007136764
-0.25211146 -0.1256818 0.01921301 0.021415263 0.0003474013 -0.03955667 0.014851929 -0.10244852
-0.021369984 -0.009397039 -0.1598327 -0.23379843 -0.25008646 0.10229015 -0.061708804 0.052334636
0.021726143 -0.17549065 -0.033566736 -0.06202172 0.039742637 -0.11941435 -0.19977754 -0.08086489
-0.21013138 -0.11050458 0.09678215 -0.1126406 -0.16847868 -0.15984157 -0.18796884 0.047186766
-0.09213595 -0.0991631 -0.050627448 0.18142702 -0.0133671705 0.0052600005 -0.23593907 -0.15844092
-0.012770273 -0.12627031 0.04915556 0.08138205 0.083772086 -0.0918569 0.05825934 0.052419715
-0.09108689 0.1903963 -0.10598369 0.067638054 -0.011730426 -0.2395774 -0.04898005 0.051027197
-0.058260754 0.17107637 0.16153155 -0.18244126 -0.09403725 -0.17408518 0.022288155 0.01777989
-0.07746189 0.11912496 -0.113015145 0.088752404 -0.16548097 0.10118797 -0.060048435 0.003613964
0.11553603 -0.13316247 -0.12973449 -0.2336825 0.019350193 0.012701012 0.1332633 -0.030926565
-0.12823817 -0.23010586 0.023115426 0.07986053 -0.19920757 0.048154347 -0.032690626 -0.06758674
-0.21733321 -0.14812392 0.037908293 -0.1326485 -0.20584264 0.11293172 -0.036606207 -0.070365176

fc2a.weight f4 [4, 200]
00000000: 621d ccbc 4bcf 23bd 76a7 19ba 42bf 133d
00000010: 770f 3cbe 8ac7 503d 7dc3 663d 1798 dbbe
00000020: 720e c03d 2cbb d4bd 4474 a9bd aa4e b2bb
00000030: 7d7f 8a3e c76b 16be d12e 1d3c f837 74be
00000040: f850 90be e4c2 47bc 6cc9 ab3d 2757 c5bb
00000050: 52b1 8a3d 60ec b33d b05e 88bd a755 773d
00000060: af39 5a3e 673e dcbd a906 81be ad92 eabe
00000070: 1d94 da39 1413 0cbd 39d1 133d 356f f1ba
00000080: 9804 66bd eda7 193d aaab 5a3d c57e a33c
00000090: 9bc1 f23b d81d 1d3c 8e03 abbd 6503 40be
000000a0: 1c72 8fbe 547f 4d3c 20b0 5e3d 7875 f0bc
000000b0: 9102 8c3a 0a48 c5bc 727f 013e a0f9 083d
000000c0: 4ab2 443e 5590 76be cac6 91bc 3c8e 643e
000000d0: 1fdd 80be 4a03 83be 9920 18bd 100e bebd
000000e0: 3937 0ebe 24f2 f5bc a80b 06bd be9b 6cbe
000000f0: 02d4 bb3c 434c bdbd d139 b43a 35d6 7dbb
00000100: d0f8 aabb a819 29be 0df8 4dbe e118 9c3d
00000110: 4873 b5bd f6e1 823c 2617 d43c e29f ad3b
00000120: c9ad 0e3f ad50 54be e24c 563c 82e0 afbd
00000130: cb48 dc3d 1256 e0be 0e12 db3d 72ad 2d39
00000140: 18a4 063e f986 19bd aea0 823d bfed b53e
00000150: 40b8 b83e bdf4 4ebc d07e 19bd 33ea be3b
00000160: 78d4 9ebe 0552 fb3d c746 98bb 0d36 8b3d
00000170: 650d 04be f120 113d 6b45 c9bc 11b6 6a3e
00000180: 88c1 d6bc 9fa0 5bbd 4b82 463c d81e 663d
00000190: 87d9 913d f78a c93d 2cd9 3cbc 74cf 27bc
000001a0: 8a0d bd3e ea9e e83d f7b4 c73e 439f 1fbe
000001b0: ed5b 04bd 56e6 a0ba 0068 23bd d778 5dbc
000001c0: beb5 e53e d377 3fbd 66ba 0d3d b66f 313c
000001d0: 4c80 9cbe f1b3 debb 9da0 1a3d f4be 263c
000001e0: 9a8e 193d 59e2 ee3c b556 acbc 0917 593d
000001f0: 5f51 eebc 72a2 f5bb e128 a33b 2910 d03b
00000200: e010 0a3e 90ff 393d 0c07 f83d 6aec 9c3c
00000210: 08b8 85bb 057d fbba 65e5 ad3d 3717 6d3d
00000220: 0cdb f3be 06c6 86be ec2b 1bbb 47da 75bc
00000230: 67ec 30bc 528e 37be b8b9 a7bd a9ec 85bc
00000240: 4f01 90bd ea28 6a3c a785 e8bc 7132 0c3d
00000250: 62a0 013c 1b06 58bd 7a17 823c fc49 903d
00000260: 4567 303e 852d 5f3d 042f a73b 1044 35bd
00000270: e310 453c 747e 99bd 4099 9a3c e05c 7fbe
00000280: 8a62 623d 97a8 813d ff0c 233c fc2f 51bd
00000290: b3f3 a7bd 6ed9 d33c 5291 47bc 7654 3cbd
000002a0: f5c8 0dbd a1cc 92bb e9c9 9bbc 1fc9 0abd
000002b0: e074 34bf a8c1 d0bc 5e96 c83b 0864 ff3c
000002c0: 092d 823c a138 f63e 3ef6 dd3c 850b ed3e
000002d0: 244d 58bd a314 3fbd ae53 033b 180d ee3c
000002e0: 4aad 703c a6d8 7bbd a6fe b13c d68e 9cbc
000002f0: d753 87bd b283 653e 380b a13e 9ab9 ab3d
00000300: 3d39 c7bd 2736 b0bd 6fb9 9cbb 3e97 22bd
00000310: cdee b5bc 4313 493d dbc0 523b 8b04 173c
00000320: 7cab cdbc 7506 b3bc f26e 1bbd 4982 263d
00000330: 9732 2b3c 1331 a63c 3669 afbd 1aec d23d
00000340: 6f82 09bd bf0a 863d 2859 57be 2ca9 fcbc
00000350: 4467 98bc fa08 0d3e 1432 acbd 81a1 1abc
00000360: 11c3 05be 48f0 6c3c faa5 23be 3b0a c23d
00000370: a947 bbbc 8d49 7d3c 51d6 6dbd 3921 ed3c
00000380: f5ea 91bd fe72 833c 705a b23e 3a04 0ebe
00000390: 1f5c 25bd 2163 79bd 17f0 52bd 30aa dd3b
000003a0: 7059 ddbc 52c6 663d be78 203e e9a8 7abc
000003b0: 6638 a73d f832 8abc 4dff 14bd 3583 963e
000003c0: faf5 07bd 5711 b5ba 367b 9abe 6601 b83b
000003d0: c8bd 743d b228 183d 7f6d 0fbc 0049 75bc
000003e0: d990 35bd 6191 8abc e349 713a bd28 8b3d
000003f0: 0e02 09bd 68c2 1cbc 0a8a 3c3c 0fab eb3c
-0.024916355 -0.03999261 -0.00058614404 0.03607107 -0.18365274 0.050971545 0.056338776 -0.42889473
0.09377755 -0.10387263 -0.08274129 -0.0054415064 0.2705039 -0.14689551 0.009593681 -0.23849475
-0.28186774 -0.012192462 0.083880275 -0.0060223523 0.067721024 0.08785319 -0.06658685 0.06038442
0.21311067 -0.1075409 -0.25200394 -0.4581503 0.00041690553 -0.03419788 0.036088202 -0.0018419983
-0.056156725 0.037513662 0.053386368 0.01995791 0.0074083335 0.009589635 -0.083502874 -0.18751295
-0.28016746 0.012542564 0.054367185 -0.029352888 0.0010681917 -0.024082202 0.12646273 0.033441186
0.19208637 -0.24078496 -0.017794985 0.22319883 -0.25168702 -0.25588447 -0.037140463 -0.09280026
-0.13888253 -0.030022688 -0.03272596 -0.23106286 0.022928242 -0.092430614 0.0013750141 -0.0038732414
-0.005217649 -0.16513693 -0.20114155 0.07621933 -0.08859879 0.015976887 0.025889944 0.0052986005
0.55733925 -0.207339 0.013079854 -0.08587743 0.10756072 -0.43815666 0.10696803 0.00016563179
0.13148534 -0.037482236 0.063783035 0.35532948 0.36078072 -0.012631592 -0.037474453 0.0058262586
-0.31021476 0.12271503 -0.004647109 0.06797419 -0.12895735 0.035431806 -0.024569234 0.22921015
-0.02621533 -0.053619977 0.012116025 0.05618176 0.07121568 0.098409586 -0.011526387 -0.010242332
0.36924392 0.113584355 0.39005253 -0.15588097 -0.03231423 -0.0012275677 -0.039894104 -0.01351758
0.4486522 -0.046745133 0.03460159 0.010829857 -0.30566633 -0.006796353 0.03775083 0.010177363
0.03748951 0.029160665 -0.021037439 0.053000484 -0.029091535 -0.0074961716 0.0049792384 0.0063495827
0.13483 0.04540974 0.12110719 0.0191557 -0.004080776 -0.0019187039 0.08491019 0.057883468
-0.47628057 -0.26322955 -0.0023677303 -0.015005655 -0.01079855 -0.17925385 -0.0818972 -0.0163482
-0.070314996 0.014291981 -0.028384043 0.034227792 0.007911773 -0.052740198 0.015880335 0.070453614
0.17226894 0.05448677 0.0051020402 -0.044254363 0.012027952 -0.07494822 0.018871903 -0.24937773
0.055269755 0.06330984 0.009951829 -0.051071152 -0.08200779 0.025860514 -0.012180643 -0.045978986
-0.034615476 -0.00447996 -0.019017177 -0.03388321 -0.7049084 -0.025482967 0.006121441 0.031175628
0.015890615 0.4809008 0.027094956 0.4629785 -0.052807942 -0.04665054 0.002003889 0.029058978
0.014689753 -0.06148591 0.021727871 -0.019111078 -0.06607788 0.22413519 0.31453872 0.0838501
-0.09727714 -0.08604079 -0.0047828476 -0.039695017 -0.022208596 0.049090635 0.0032158408 0.009217392
-0.025106184 -0.021853665 -0.037947603 0.040651593 0.010449073 0.020287072 -0.08564989 0.10298939
-0.033571657 0.065450184 -0.21030104 -0.030842386 -0.018603928 0.13772956 -0.08407989 -0.00943792
-0.13062693 0.014461584 -0.15981284 0.094746076 -0.022861319 0.01545943 -0.058065716 0.028946506
-0.071248926 0.016046043 0.34834623 -0.138688 -0.040371057 -0.060885552 -0.0514985 0.0067646727
-0.027020186 0.056341477 0.1567106 -0.01529906 0.08165054 -0.016870007 -0.036376286 0.29396978
-0.033193566 -0.0013814372 -0.30172127 0.005615401 0.059751302 0.037148185 -0.008754133 -0.014971018
-0.04432759 -0.016915025 0.00092044304 0.067948796 -0.033449225 -0.009567834 0.01150752 0.02876809

fc2a.bias f4 [4]
00000000: b843 86bc 95f9 263e 46bd 94bd fbf5 2fbd
-0.016389713 0.16306145 -0.072626635 -0.042959195

fc2c.weight f4 [1, 200]
00000000: 8329 b9bb 56cf 493c 36d5 0a3c 3d11 693d
00000010: ca27 c03d 08f8 d63d f6ac 95bb 0649 fdbc
00000020: 1eb0 94bd 2f69 4a3e e2b5 9fbd 44bd df3b
00000030: 6c64 00bd a7d7 01bd 8478 88bd 6dd9 8a3d
00000040: c1dc 01bd f77e 193b 2fdb 05be 895e c0bd
00000050: 9f70 f13c f6c9 5f3d b999 ae3c 4827 ce3c
00000060: 4684 5a3d 42c3 693d 3451 633c 1dd5 a03d
00000070: 1fb8 23bd 1c00 3c3c cf12 0fbd 02a5 033e
00000080: 1aa3 513c 3750 cb3b e071 e7bd 28da e1ba
00000090: 6441 d53a 009f 453b 16e5 15bd 0e77 a9bc
000000a0: 030c 093d 3b4e f83b cf1e 20bd b9f8 ddbc
000000b0: e907 753c 4fb6 8cbc c10e 1fbb 7691 ff3b
000000c0: 6d7b 94bc 08ca 293d b95e 0cbc 1d65 de3d
000000d0: 401a 49bc cb8f 57bd 8ce9 253d e9ba 3ebd
000000e0: 273d 7abd c597 7fbc 771b a13d ac45 de3d
000000f0: eb17 523b cb0d dabd fe9f 7c3b bb1d a2bd
00000100: 72e6 983c 0468 603d 724f dd3c 73c5 eebc
00000110: d90f 873d 0ae9 bebc 0fb9 2cbc 0e47 743b
00000120: 6568 363d bb36 1c3d 9f8d 5ebd ef06 5cbc
00000130: db1e 57bd c7c9 3d3d efa3 3b3d fef9 473c
00000140: 5c9f aabd a362 d8bc 492c 40be 64ee 3e3c
00000150: c0c7 07be 991e 913c a5aa 9e3b 57c1 e0bd
00000160: 53b2 bf3d ed64 dabb 12cc 073b 5b2e 203e
00000170: 266e 8d3c 0e57 d23c 678e 60bd 2ceb 133d
00000180: aef8 1dbe 499f 073c eaaf 933d 57ce c6bc
00000190: daf2 913b 9f9b 803d e1ca 38bd 8343 f7ba
000001a0: 92f1 fabc 0e52 9cbc 3529 a4bd 57ed 643c
000001b0: 0fbc 7f3c 9c14 f6bb e5cc 91bc 6edd 3f3b
000001c0: e28c 41bd d870 7b3a 750c dd3c f6d5 d43c
000001d0: a148 88bd 4ce5 133c 9afd 86bd 8027 c33b
000001e0: c0f7 b13b 8cad fb3c 1032 173d 07cb 31bd
000001f0: b712 88bd 3b4a 15bc 14ed 893d fa65 8f3b
00000200: 4d0c 71bb 47ba b53d 43ae a73d 2785 87bc
00000210: 5e42 7bbc 0cd4 1d3b f747 1d3d fc52 2dbd
00000220: 86c8 e3bd 0c23 d9bb ea2c ca3c 66ba 88b9
00000230: caba 95bb c044 15bd e82d 143e 8265 f9bc
00000240: 067f 81bc b0d2 293b b7a5 d73b 716a eebc
00000250: 3927 57bc 374a 0d3b e190 f1ba 2644 673d
00000260: 03a8 7d3d e92a 4ebe 0933 76bd 9077 d4bc
00000270: 7b35 01bd 89e7 08bd 5a81 02bd 9c08 d9bc
00000280: 7df9 1f3b 5d94 093a b8f4 04bc f434 723d
00000290: 555c 90bd 36a9 04bd d5d6 9cbb b2bc 83ba
000002a0: 787d d839 554f de3d 9066 2fbc a169 8f3b
000002b0: aaac a2bd d0d2 a83b c8ca d1bc febc 1f3e
000002c0: e911 07bd 9cd7 643d ea7c af3a f587 76bd
000002d0: b26e 9ebb f253 5fbd 237f 4e3c dfd4 da39
000002e0: 2f27 3f3a d27d 833d 5b19 8f3c 8c1d d13a
000002f0: c0d1 42bd e29a c9bb 6ded 38bd d5e3 d83d
00000300: af7b 193d 237f 11be 64a5 9c3d aef1 dfbe
00000310: bd56 543d fa9e 273b 8c39 443c 3025 8fbb
-0.0056507005 0.012317499 0.008473685 0.056901205 0.09382589 0.10496527 -0.0045677377 -0.03091861
-0.07260154 0.19766687 -0.07798363 0.006827982 -0.03134577 -0.031699803 -0.066636115 0.06779752
-0.031704668 0.0023421624 -0.13071893 -0.09393031 0.029472647 0.054635964 0.021313535 0.025165215
0.053348802 0.057070978 0.013874341 0.07853148 -0.039970513 0.011474635 -0.034930047 0.12855914
0.012795234 0.0062046307 -0.11301017 -0.0017231153 0.0016270098 0.0030154586 -0.036595426 -0.020686653
0.03345872 0.007577685 -0.03909188 -0.02709614 0.014955499 -0.017176775 -0.0024270269 0.0077993227
-0.01812526 0.041452438 -0.0085675055 0.108591296 -0.012274325 -0.052627366 0.04050593 -0.04656497
-0.061093476 -0.0156001495 0.07866567 0.108531326 0.0032057713 -0.10647162 0.0038547511 -0.07915827
0.018664572 0.054786697 0.027015422 -0.029146885 0.065948196 -0.023304481 -0.010542168 0.0037273797
0.044533152 0.038138133 -0.05433428 -0.0134293875 -0.05251966 0.046335008 0.045810636 0.012205599
-0.08331177 -0.026414221 -0.18766893 0.011653516 -0.13259792 0.017714785 0.0048421198 -0.10974377
0.093601845 -0.0066648633 0.0020721 0.15642683 0.017264437 0.025676277 -0.054823305 0.03611295
-0.15426895 0.008277723 0.07211287 -0.024268312 0.004453999 0.06279682 -0.045115355 -0.0018864725
-0.030632768 -0.019082095 -0.08015672 0.013972602 0.0156088015 -0.007509781 -0.017797897 0.002927627
-0.047253497 0.0009591705 0.026983479 0.02598093 -0.06654478 0.009026837 -0.065913394 0.0059556365
0.0054311454 0.030722402 0.036912978 -0.043406513 -0.066441946 -0.009111936 0.06734672 0.00437617
-0.0036781013 0.0887342 0.08187535 -0.016542984 -0.015335647 0.0024082689 0.03839871 -0.04231547
-0.11122231 -0.0066264924 0.02467962 -0.0002607882 -0.004569386 -0.03644252 0.14470637 -0.03044391
-0.01580764 0.0025912933 0.006581034 -0.02910349 -0.01313191 0.0021559128 -0.0018430018 0.056461476
0.061927807 -0.20133556 -0.060107265 -0.025935918 -0.031545144 -0.033423934 -0.03186164 -0.026493363
0.0024410181 0.0005248243 -0.008114986 0.05913253 -0.07048861 -0.032387935 -0.004786352 -0.0010050742
0.00041292212 0.10854975 -0.010705605 0.0043766056 -0.07943089 0.005152084 -0.025609389 0.15599439
-0.032976065 0.055869684 0.0013388668 -0.060188252 -0.0048349733 -0.054523416 0.012603554 0.00041738802
0.00072919106 0.06420483 0.017468145 0.001595424 -0.047563314 -0.0061524967 -0.045148302 0.105903305
0.03747147 -0.14208655 0.07648733 -0.43739074 0.051840533 0.0025576935 0.011976611 -0.004368447
