test2/pth/vae_best.pth (torch, 55099 bytes, 14 tensors)

conv_enc1.weight f4 [8, 3, 3, 3]
000000 54 ea ad 3d d3 1c c8 be 2b ce 90 bc 99 eb 85 3c
       0.0849196 -0.3908449 -0.017676434 0.016347693
000010 25 47 a7 3d 07 5f 11 3e 93 96 2d bd 19 85 85 bd
       0.081678666 0.14196406 -0.042379927 -0.06519527
000020 09 db 0d 3e 08 26 e6 3d ca 12 a2 be 8e 1d a5 3e
       0.13853087 0.11237723 -0.3165496 0.3224911
000030 fe 13 6a 3d de 22 4d 3e de 3a 8d 3e 56 79 30 3e
       0.057147972 0.20032832 0.27583975 0.17233786
000040 32 be 0c 3e b8 f9 aa 3e c6 18 a6 3b 63 e2 21 be
       0.13744429 0.33393645 0.005068871 -0.15809016
000050 53 87 8b bd 1f d9 10 bd 4e 90 4a 3e dc 18 e2 3d
       -0.068129204 -0.035363313 0.1978161 0.11039898
000060 56 d5 51 3e fc 3f 40 bd 31 17 a4 bd b6 7d 06 3d
       0.20491537 -0.04693602 -0.08012236 0.03283473
000070 d7 11 58 be cc 70 bc bd cb 95 c3 3d 0d 8a 8f be
       -0.21100555 -0.09201202 0.09550055 -0.28035012
000080 d1 7e 20 3e 22 b8 ca 3d 6b 00 2a 3e 92 88 86 3b
       0.15673377 0.09898402 0.16601722 0.004105636
000090 42 78 ee 3d 73 ea 15 be ef 29 5d bd a7 ec d2 3d
       0.11644031 -0.14640217 -0.05399507 0.10299044
0000a0 d3 ad 43 be d8 c2 f4 3d 51 29 40 3d 7c 11 25 3e
       -0.19109277 0.11951226 0.046914402 0.16119951
0000b0 63 5d c2 3d 38 7a 23 3d 55 c3 c8 3d 91 84 61 bc
       0.09490468 0.03991148 0.09802882 -0.013764516
0000c0 43 81 16 3e 47 3d 86 be e0 27 8e bd 27 31 5c 3e
       0.14697747 -0.26218626 -0.06941199 0.21503125
0000d0 4c a4 8b 3d f7 86 7e 3e 6c 3a 2a be 4a 0f 93 3e
       0.068184465 0.24856173 -0.16623849 0.28722602
0000e0 d4 2f 4c be 8e 4c 21 be 64 82 f7 bc e4 e5 f6 3d
       -0.1994012 -0.1575186 -0.030213542 0.12055567
0000f0 37 02 6b be 3d c0 f2 bd 0e b1 ff bd 1c 14 a5 be
       -0.22950064 -0.11853073 -0.124849424 -0.32241905
000100 e5 7b 86 3d 9c 91 1d 3e e6 10 9e 3d 64 45 81 bd
       0.065666 0.15387577 0.07718067 -0.06312063
000110 de 19 c8 bd 2f 9f 39 be 66 95 85 3e 04 67 33 be
       -0.09770559 -0.1812713 0.26090544 -0.17519766
000120 1c 97 a9 bd 39 e4 0e 3e 25 08 0f 3e ad 48 23 bc
       -0.08280775 0.13954248 0.1396795 -0.009966058
000130 82 32 60 3e 45 b1 c1 3d 15 da c4 bd 30 39 41 3e
       0.21894267 0.094576396 -0.09611908 0.18869472
000140 42 25 ee bd 4a bb f1 bd 8c a2 f1 3d 7e 91 98 3d
       -0.116282 -0.11803301 0.117985815 0.074496254
000150 00 96 55 3c 7f 2b 58 3d 2c eb 48 3e bf 58 4c bb
       0.013036251 0.052775856 0.19620961 -0.0031180826
000160 14 aa 09 3e ea 30 14 be 34 4b ac 3c 4b d5 8b 3d
       0.13443786 -0.14471784 0.021031953 0.06827792
000170 f6 c8 fb bd b3 62 03 3d 2f 73 1d 3d 2a 06 fb bb
       -0.1229419 0.03207655 0.038439926 -0.007660647
000180 4c 3a ee 3d 5d 17 88 be de 8b 22 be 22 21 06 be
       0.11632213 -0.26580325 -0.15873668 -0.13098577
000190 9e ce 6e be 2f d2 e8 bd 5a bd 90 bd e7 74 c9 3d
       -0.23321006 -0.11368214 -0.07067366 0.098367505
0001a0 b4 8d 0d bd da b6 16 be 66 04 3a be e1 ea 55 3e
       -0.034558967 -0.1471819 -0.1816574 0.2089038
0001b0 7b 33 00 bd cd e8 74 3d d3 36 29 be 11 31 ba bd
       -0.031299096 0.05979233 -0.1652482 -0.0909139
0001c0 6a 27 2d be 34 a6 a6 be 0e 8e 80 3e 5b bf 91 3e
       -0.16909567 -0.32548678 0.2510838 0.28466305
0001d0 08 61 e1 bd a1 59 3f be b6 b9 9f 3d a1 8f 07 3e
       -0.11004835 -0.18686534 0.077990934 0.13238384
0001e0 0e 53 a0 3d c2 ee f0 bd e8 1b bb be 23 6f 97 3b
       0.078283414 -0.117642894 -0.36544728 0.004621403
0001f0 a5 b0 76 3e 69 0b cc 3d 99 db a5 be be a0 82 bd
       0.24090822 0.09963114 -0.32394102 -0.063783154
000200 c7 8e 34 be 16 35 cc 3d 5c 44 17 be 33 1d 5b be
       -0.1763259 0.09971063 -0.14772171 -0.21397857
000210 57 e7 88 3e 7d 10 49 3d b3 9a 11 be 49 0c 18 3e
       0.26738998 0.04908799 -0.1421917 0.14848436
000220 b8 5e 4f bd 1d fe 1b 3e 5e f3 3f 3e c3 ef 28 3e
       -0.05062744 0.15233655 0.18745181 0.16497712
000230 3f 20 39 3e 3b 52 32 3e 2f bd d2 bd ca c3 a0 bd
       0.18078707 0.17414181 -0.1028999 -0.07849844
000240 92 da 80 be c1 1b 79 3d 41 7c 40 3e 42 19 26 be
       -0.25166756 0.060817484 0.18797399 -0.16220573
000250 a2 3a 84 3d e4 10 9b bd b4 d8 e9 bd f5 20 24 3e
       0.06456496 -0.07571581 -0.11418286 0.16028197
000260 98 68 e4 3d be f8 18 be 62 c5 57 bd c1 bc 88 3e
       0.11152762 -0.14938638 -0.052678473 0.26706508
000270 e0 1a 53 3e 7a f0 8f 3d 64 1b 13 3e dd c1 65 3e
       0.20615721 0.07028289 0.14365917 0.22437234
000280 7a b9 33 3e 69 17 07 be b3 69 01 be 30 be f0 3b
       0.17551222 -0.13192524 -0.12637977 0.007346891
000290 04 6c 91 be 44 d7 85 3e 1a b4 2c bd a0 e0 83 bd
       -0.28402722 0.26140797 -0.042163946 -0.06439328
0002a0 33 a3 42 be 58 f1 0d be 33 6c 9b 3d 72 26 2d be
       -0.19007568 -0.13861597 0.07588997 -0.16909197
0002b0 ed e4 8d bd e9 8e 6b 3e d3 da 22 3e 37 0b 0e 3e
       -0.0692843 0.23003735 0.15903787 0.13871466
0002c0 e9 03 04 3d db 39 31 be 92 fe 9f 3e 1c a4 7f 3d
       0.03223029 -0.17307226 0.3124891 0.062412366
0002d0 8f 71 da 3d a7 cc 51 3e f7 29 1e bd f0 30 ad 3e
       0.10666191 0.20488225 -0.03861424 0.338264
0002e0 ab dd 51 bd 3c a5 14 3d 23 a7 6a bd 29 3f aa bd
       -0.05123679 0.036290392 -0.0572883 -0.08312828
0002f0 8c 78 11 be 45 80 86 3d 58 e9 1a 3e 7b 48 9f 3e
       -0.14206141 0.06567434 0.15128076 0.31109986
000300 39 bf fb bd e7 c8 10 be ef 90 af 3d aa dc 21 be
       -0.12292332 -0.14139138 0.08572566 -0.15806833
000310 6c eb 38 bc 0a 0d 6f 3e bf e4 ae 3c 6a 65 ce bd
       -0.011286598 0.23344818 0.021349309 -0.10077937
000320 42 d3 89 3e ef 46 21 3d 12 ee 21 be 11 3a a7 3e
       0.2691899 0.03937429 -0.15813473 0.3266149
000330 6c 8a 0b bd f7 9d 47 3e 51 ed 81 bd e3 d2 00 3d
       -0.034067556 0.19493853 -0.06344093 0.031451117
000340 be df 86 bc 42 b5 8f 3e fb 69 6f 3d 45 1f 26 3e
       -0.01646411 0.28067976 0.05845068 0.16222866
000350 44 e3 9c bd 97 9d 12 3e 8f 76 6b bd 96 2c c1 3d
       -0.07660535 0.14317928 -0.057486113 0.09432332

conv_enc1.bias f4 [8]
000000 61 e1 ee bd f6 63 39 3e 41 3d 26 3e 0c 2d 14 be
       -0.11664081 0.18104538 0.16234304 -0.14470309
000010 db f6 c0 bd 3f 07 7d bd 93 77 3b bc 5a 67 bc bd
       -0.09422084 -0.06177449 -0.011442083 -0.091994

conv_enc2.weight f4 [16, 8, 3, 3]
000000 72 43 a9 3d 7f 75 1e be 0a 7b 56 3e ca 86 85 3d
       0.08264817 -0.15474509 0.20945373 0.065198496
000010 eb a5 2a be b0 9f 1c be a1 32 7a be 07 8a 78 bc
       -0.16664855 -0.15295291 -0.24433376 -0.015169627
000020 fa b5 7b bc 3b 30 00 bc c7 a7 4d 3d f4 60 5e 3d
       -0.015363211 -0.007823999 0.050208833 0.05429168
000030 a6 bd 31 be 5f 8e 27 be 65 db 9d bd 5a 58 05 bd
       -0.17357501 -0.16362904 -0.07707862 -0.03255496
000040 0c 49 ba bc 9f c3 84 bd 43 a4 c5 3d 71 77 43 be
       -0.02273991 -0.06482624 0.09650471 -0.19088532
000050 b8 e9 5a bd a0 6d ff 3b d2 07 57 bc 1d 6a 86 3b
       -0.053445548 0.0077950507 -0.013124423 0.004102005
000060 42 b3 52 3c 2d 16 60 be 5b 41 7b bc 39 6f 88 bd
       0.012860121 -0.2188346 -0.015335406 -0.06661839
000070 56 da d3 3d 04 41 d9 3d 6a 13 03 be ef 19 1d bd
       0.10344379 0.10608104 -0.12800375 -0.03835481
000080 15 70 7d bd 95 84 9e 3d 66 61 87 bd f2 4c 32 bb
       -0.061874468 0.07740132 -0.06610374 -0.0027206508
000090 74 71 23 3e c9 d0 f0 3d 27 b1 49 bd 45 50 6e 3d
       0.15961248 0.117585726 -0.04924121 0.05818202
0000a0 ad c3 a7 bc a6 2d 90 be cf d8 b0 be 3c 96 81 bd
       -0.020479048 -0.28159827 -0.34540412 -0.06327483
0000b0 44 63 97 bd 15 03 29 3e 31 04 2c 3d fb 00 a1 3d
       -0.0739198 0.16505082 0.041996185 0.07861515
0000c0 b4 e7 0e 3e 93 91 ac bc e7 75 b3 3b a6 49 cd bd
       0.13955575 -0.021065509 0.0054767015 -0.10023813
0000d0 d1 17 6f be 0a d3 b7 bd d0 86 56 be 40 e9 0c bd
       -0.23348929 -0.089757994 -0.20949864 -0.034402132
0000e0 93 5e 9a 3c 39 dd 51 3e 07 1b 03 3d 1e 95 60 be
       0.018843925 0.20494546 0.032008197 -0.21931884
0000f0 4f 02 82 3b 77 b0 81 be 5d db 57 3a 8d b1 4d 3e
       0.0039675604 -0.25329944 0.0008234287 0.20087261
000100 31 10 2c be ed 86 0c 3e 4b 22 cc bd 36 69 42 be
       -0.16803052 0.13723345 -0.09967478 -0.18985447
000110 c7 f0 35 3e 19 78 69 3c f1 5f a5 3c 5d a5 47 be
       0.1776763 0.014249825 0.02018735 -0.19496675
000120 8e 4b e3 3d 7a 5e 04 bd 92 e1 91 3d 72 ba a2 3d
       0.11098395 -0.032316662 0.07123102 0.07945718
000130 03 a6 56 bd 92 d8 56 3e b7 88 81 bd 1a 39 08 be
       -0.052404415 0.20981053 -0.063249044 -0.13303033
000140 2f 34 1c 3d 0a 0f cb bd be 43 90 3d 21 cf 6d bd
       0.038135704 -0.09914978 0.07044171 -0.05805886
000150 9e 3b 9f bd 9e da 2c 3d 89 52 3d ba b1 a5 e7 bd
       -0.07775043 0.042200677 -0.00072220765 -0.113109
000160 24 e0 45 be 99 06 58 3d a5 e2 2f bd 97 78 1a be
       -0.19323784 0.052740667 -0.042940754 -0.15085064
000170 fc d3 98 bd 16 04 c7 3d 09 a6 ac 3b 08 98 69 be
       -0.07462308 0.09717576 0.0052688164 -0.22811902
000180 f3 a7 9e 3d 54 3f c9 bd 4d a3 c6 bd e0 5c 17 3e
       0.077468775 -0.09826532 -0.09699116 0.14781523
000190 8c 97 f1 bd cc 67 a8 3d 66 1a 5c 3d f1 8c 9f bd
       -0.117964834 0.08222923 0.053736113 -0.07790554
0001a0 1b 82 00 be 28 0f b6 3c 2c 98 4e bd 4e 2e c6 3d
       -0.12549631 0.022224024 -0.05043809 0.09676801
0001b0 a2 a3 84 bd 9c 1a 7d 3b d8 62 40 3d fd 8b bb bd
       -0.06476523 0.0038620597 0.046969265 -0.0915756
0001c0 f4 9e 17 be e7 ea 2e 3e bb 8c b2 3d 83 e5 b4 bd
       -0.1480673 0.17081796 0.087182485 -0.088328384
0001d0 52 00 8f 3c e2 da 45 bc 16 2f aa 3d 39 de 11 3d
       0.017456207 -0.0120761115 0.08309762 0.03561232
0001e0 13 e5 93 bd 7e a7 93 bb 1e 9c d3 bc 3d e7 9f 3d
       -0.07221427 -0.0045060506 -0.025831278 0.07807777
0001f0 bb 72 a7 3d a0 40 47 3d 72 49 0e bd 3c ba 7f 3d
       0.0817618 0.048645616 -0.03473801 0.062433466
000200 ae 4d 43 be 42 b8 b7 3d 78 34 14 3e 49 bc f3 3d
       -0.19072601 0.08970691 0.1447314 0.11901147
000210 61 5e 97 ba f4 b0 d3 bd 58 71 aa bc bb 6e 12 3e
       -0.0011548513 -0.103364855 -0.020806 0.14300053
000220 14 6b 21 bd 7a b2 87 3e 6e 36 be 3d b6 79 b5 bd
       -0.03940876 0.26503354 0.092877254 -0.08861105
000230 39 a3 0e be 65 ce de 3d 57 5f c1 3d a5 db 0e 3e
       -0.13929452 0.108792104 0.09442013 0.13950975
000240 a0 a5 5d 3e 5c 06 32 be 9b 2f 1d be f0 7e 00 3e
       0.21645212 -0.17385238 -0.15350191 0.12548423
000250 e6 4b c4 3c 41 cf 51 bc 84 14 03 bd c2 f7 2e 3c
       0.023961972 -0.012805761 -0.032001987 0.010679187
000260 ea 77 1f be 81 34 e7 3d 2c 1e 2d be 73 5d 9f bc
       -0.15573087 0.11289311 -0.16906041 -0.01945374
000270 89 66 9a 3b e1 fe 0e 3e 61 d2 e6 ba 13 20 34 be
       0.00471193 0.13964416 -0.0017610305 -0.1759036
000280 71 a8 4f 3e b1 ca 40 bc 4c 35 b5 3d ad 6c f6 bc
       0.20279099 -0.011767075 0.08848056 -0.030081118
000290 b0 b8 42 bd da 44 cc bd 82 2f 22 be bd f2 06 be
       -0.047539413 -0.0997407 -0.15838435 -0.13178535
0002a0 11 12 e9 bd 1b e3 02 be 0e 2b 00 3d 8d 41 92 bd
       -0.11380399 -0.12781946 0.03129106 -0.07141409
0002b0 ef d2 fb 3d bc 24 75 bd 3a 16 60 bd 51 fc 35 3b
       0.12296092 -0.059849486 -0.054708697 0.00277688
0002c0 9b 7b 9c 3d 8b f8 85 bd 92 f2 83 3c d3 95 de 3d
       0.07640763 -0.065415464 0.016106877 0.108684205
0002d0 f4 8d fe bc 6c 74 87 3c b4 cc 03 be 14 72 8d 3e
       -0.031073548 0.016535006 -0.12871057 0.27626097
0002e0 9e b5 12 3e eb eb ac 3d f0 a0 5e be f7 cb 69 3e
       0.14327094 0.08443435 -0.2174108 0.22831713
0002f0 21 ca 41 3e a5 f4 32 bc 5f 9a b4 3d 2d 8b 99 be
       0.18924762 -0.010922586 0.088185064 -0.29988995
000300 6f 5d e7 3d 7e 37 b5 bd 3c 64 2e be 78 44 38 3e
       0.11297118 -0.08848475 -0.17030424 0.17994869
000310 08 c7 24 bd ef 3c 0c be 56 53 07 3c 5e af d3 3d
       -0.040228873 -0.1369512 0.008259615 0.10336183
000320 1f 11 66 3b 70 c0 e8 3d 4d 60 4d 3d 8c ee 74 be
       0.003510542 0.113648295 0.050140668 -0.23919123
000330 3f 9e bf 3c f1 36 0e 3e 72 24 28 be 43 8b 82 3d
       0.023390887 0.13888146 -0.16420153 0.06374218
000340 e2 89 92 bd af 29 55 be a8 f2 c8 3d 57 32 88 bb
       -0.07155205 -0.20816682 0.09811908 -0.0041563916
000350 03 b8 97 be f6 04 e3 bd 1e 87 e0 bb 96 1d 80 be
       -0.29632577 -0.110849306 -0.0068520447 -0.25022572
000360 87 19 a8 3d 4b cd d2 3d 1a 00 fa bd 00 6c f2 3d
       0.08207994 0.10293063 -0.122070506 0.118370056
000370 ae d8 ba bd 09 7d 05 bd df de f2 bd 8e fe 3f be
       -0.091233596 -0.032589946 -0.118589155 -0.18749449
000380 26 dd 58 3c c4 4b ca 3c 56 8f d9 bd ca f1 05 3d
       0.01323632 0.024694331 -0.10623042 0.03270129
000390 f6 4b 6b bd 81 e2 0a bc 06 d3 cc 3b a2 00 91 be
       -0.05744549 -0.008476854 0.006250742 -0.28320795
0003a0 cf 3a b9 bd 82 de bc 3c 59 7d 89 3d 9e 20 47 be
       -0.0904442 0.023055319 0.06713361 -0.19446036
0003b0 59 ea 72 bd 26 91 8b bd cf a6 2b be 94 48 e5 bd
       -0.059305523 -0.06814794 -0.16762851 -0.11195484
0003c0 59 d2 0b 3e a0 29 b0 bd 17 7d 80 bd 0b f4 5f 3d
       0.1365446 -0.08601689 -0.06273859 0.054676097
0003d0 ee 0c c8 bd 0f b4 00 bd b2 5e 02 bd 38 52 a0 3d
       -0.09768091 -0.031421717 -0.03182859 0.07828182
0003e0 0a f2 9f bd 7c 92 b1 bd 6e 3b ae bd e0 9b c1 bd
       -0.07809837 -0.08670518 -0.08507429 -0.09453559
0003f0 b4 50 22 be 17 04 a4 3c 0c ea 27 3d 28 95 6f be
       -0.15851098 0.020021481 0.04099469 -0.23396742

conv_enc2.bias f4 [16]
000000 06 d3 f0 3c 03 19 8d 3d 28 54 0e be 5c a8 6e bd
       0.029397499 0.06889536 -0.1389929 -0.05826603
000010 ed d6 d4 bd 18 98 54 3d ec 3e 1f 3e 0a 30 9c 3c
       -0.10392556 0.05190286 0.15551347 0.019065876
000020 22 56 a0 bd 8b cc 46 bb 93 37 18 bd 8e db 8b 3d
       -0.078289285 -0.003033432 -0.037162375 0.06828986
000030 b3 9a fd bc c9 44 e5 bd b5 16 9d bd 6f f9 6e bd
       -0.030957555 -0.1119476 -0.07670347 -0.058343347

dense_encmean.weight f4 [8, 400]
000000 3a 27 5e 3d d6 b4 17 3d 65 be 2d bc 7b ba 45 3d
       0.054236628 0.037037693 -0.010604476 0.048273545
000010 fe 06 a8 3c 42 90 6d 3b c1 d3 71 bd b9 c6 98 bc
       0.020511147 0.0036249314 -0.059039835 -0.018649446
000020 df d3 b7 bc 75 cb 91 3d 14 c8 3a 3d d2 4a e4 3d
       -0.022439895 0.071188845 0.045600966 0.11147083
000030 b8 56 be 3d b7 59 57 bd 8e 54 5f 3c 59 7c 2c bd
       0.09293884 -0.052575793 0.013630999 -0.042110775
000040 0d 1b cd 3c 21 09 ab 3c 75 6e 8e 3d ef 67 88 3d
       0.025037313 0.020878376 0.06954662 0.06660449
000050 d4 97 5a b8 08 42 6b 3a 0c c6 c3 3d 71 d2 0b 3e
       -5.211665e-05 0.0008974378 0.09559259 0.13654496
000060 dd e7 b4 bd 82 09 3f bd 83 80 2f 3d 14 c4 eb 3c
       -0.08833287 -0.046639927 0.042847168 0.02878002
000070 73 91 b4 bc f5 29 45 bc 5e 33 82 bc 3c 9f da 3d
       -0.022042012 -0.012033929 -0.015893634 0.10674903
000080 0d f6 40 bd 27 ab 00 3d d2 f7 cf bc e6 3b 00 bd
       -0.047109652 0.031413224 -0.025386725 -0.031307124
000090 f7 d9 a5 3d bf 1a b7 3d 82 ad 6d 3d 56 d1 64 bd
       0.08098214 0.08940648 0.058026798 -0.0558637
0000a0 da 5c 27 bd 6c f9 e9 bc 21 e9 5b 3d 09 68 99 bc
       -0.040860035 -0.028561316 0.053689126 -0.018726366
0000b0 20 f1 2f be 1c d4 fb 3c 8d 05 2d bd 1a dc a3 3d
       -0.17181826 0.03074079 -0.04224162 0.080009654
0000c0 e0 00 ad 3d a0 3a 23 be 53 90 88 bd 32 fa d2 bd
       0.084474325 -0.15940332 -0.06668153 -0.10301627
0000d0 1d 3a 0a 3d 48 01 0c 3e 85 b9 00 be 6b 1c eb bc
       0.033746827 0.13672364 -0.1257077 -0.028700074
0000e0 0a f5 9e bc be 1b 6d 3e 6a bd 9c 3d aa 64 ec bd
       -0.019403953 0.23155114 0.07653315 -0.11542638
0000f0 a5 c5 8f 3c f6 7c 0c bd 91 55 d2 3b 38 59 41 3e
       0.017550299 -0.03429886 0.0064188917 0.1888169
000100 00 5e dd bc 7e 90 3a 3d 6b cf 39 bc e2 81 88 bd
       -0.027022362 0.045547955 -0.011340956 -0.06665398
000110 87 a7 2e 3d eb d6 3c 3b 0d 43 99 3b fd 31 f0 bd
       0.042640235 0.0028814625 0.0046771825 -0.117282845
000120 b2 2b 3e bd a1 d0 af bd 9d b5 07 3c ff 89 8e 3c
       -0.04642839 -0.08584715 0.008283046 0.017399786
000130 7c b2 7d 3d 77 e8 19 bd 3c c2 08 be f6 ca fc bc
       0.061937794 -0.03757521 -0.13355345 -0.030858498
000140 6a 39 ff bb f8 cd 8b bc 37 bd 13 3d 27 8e 89 bd
       -0.0077888267 -0.017065987 0.03606912 -0.067165665
000150 b5 bf 85 3d f8 98 8c bd 32 02 25 3c d9 94 43 bd
       0.06530706 -0.06865114 0.010071324 -0.047749374
000160 35 82 e0 bc 4f 52 2b bc f5 9c 1f bd 14 48 67 bd
       -0.027405838 -0.010456636 -0.038968045 -0.056465223
000170 6c 41 00 3e fb 89 17 3e 43 73 f0 bd a8 d8 e2 3a
       0.12524956 0.14798729 -0.117407344 0.0017307
000180 52 13 10 bd 75 c0 ac 3d fc cd 3e bc d0 0d 56 bd
       -0.035174675 0.08435146 -0.01164579 -0.052259266
000190 cd 40 25 3d 4e d6 b8 3a 99 63 2c 3d dd a0 da bd
       0.040345002 0.0014101954 0.04208717 -0.106752135
0001a0 41 2a 5c 3d 84 66 c6 bc 8e 5d 91 3c 16 fe bc bd
       0.053751234 -0.024218805 0.017744806 -0.092281505
0001b0 c0 d7 3b bd 1a 47 ec bc 59 40 98 bd 1e 8a b3 3d
       -0.045860052 -0.028842498 -0.07434148 0.08766578
0001c0 88 97 0e bd 90 6e 64 3d 8d 52 32 bb a8 99 20 bc
       -0.03481248 0.055769503 -0.0027209849 -0.0098022595
0001d0 9a 0d 3b bd fc 00 96 bd fd d1 2b bc 98 69 0e 3d
       -0.04566727 -0.073244065 -0.010487077 0.03476867
0001e0 d6 e5 a7 3c 89 f6 73 bd 4b 3e 46 bd 0e 06 07 bd
       0.020495337 -0.059561286 -0.04839925 -0.03296476
0001f0 08 ee 0b bd 2c c9 b2 bb 09 d3 f0 bc cc 03 2f 3d
       -0.03416255 -0.0054561105 -0.029397504 0.04272823
000200 1e 29 0e be d0 ba 45 bd 6f 5d 8a 3d 61 31 a1 3d
       -0.13882872 -0.04827386 0.06756102 0.078707464
000210 81 f4 22 3e 82 4a c4 3c 05 14 95 bd 09 95 14 3d
       0.15913583 0.02396131 -0.07279209 0.036274944
000220 8e ff 8b 3d ca 6c e2 3c 44 cf 7b 3c 2f 74 e1 bb
       0.068358526 0.027639765 0.01536924 -0.0068803052
000230 9c da 3d 3d 55 e2 e3 3d 6d 14 45 bd 9c bc c6 3b
       0.04635106 0.11127154 -0.048115183 0.0060649645
000240 8c fa 8b 3c 9b d4 89 3c 39 dc e6 bc 7f 4b 09 bd
       0.017087243 0.016825011 -0.028181182 -0.033519264
000250 b0 86 a5 bc 48 b5 f2 bd 54 9d cb bd df bd 6c bd
       -0.020205826 -0.11850983 -0.09942117 -0.057798263
000260 05 6d 81 bc 9d 3e af bc 3b 93 ac bd b0 53 3a bc
       -0.015799055 -0.021392161 -0.084265195 -0.011372492
000270 31 0c 28 bb 63 65 68 bd f0 2e 65 bd 48 84 07 bd
       -0.0025642032 -0.056737315 -0.055952966 -0.033085138
000280 48 39 4c bd 5b 36 38 3d e9 e4 57 bd 46 cc f5 bc
       -0.049859315 0.044973712 -0.05270854 -0.030004632
000290 c9 3d ae bd da 41 84 3c 3e 53 8b bd 24 8c ac bd
       -0.08507878 0.016144682 -0.068029866 -0.08425167
0002a0 e8 29 4a bb 84 1b 21 bd aa 76 08 be 6d 81 9b bd
       -0.0030847732 -0.03933288 -0.13326517 -0.075930454
0002b0 64 5b 8b bd 30 d0 43 3b 32 7a 7f bc d0 da 9e 3d
       -0.06804541 0.0029878728 -0.0155930985 0.07756579
0002c0 d9 fd 3c 3d d6 6d 9a bc ec 51 74 bb 18 ab 34 3c
       0.046140525 -0.018851202 -0.0037280275 0.01102712
0002d0 91 50 42 bd 2d d5 8a 3d ff c5 2a 3b ac f4 2e 3d
       -0.047440115 0.06778941 0.0026057956 0.042713806
0002e0 6a 7f b0 3c f6 86 f5 3c da c4 20 3c 7f 6f 2c bd
       0.02154513 0.029971581 0.009812558 -0.04209852
0002f0 fb 7e a7 3d 65 13 7f 3c 1d 73 74 bd f7 b8 e5 3c
       0.081785165 0.015568589 -0.059680093 0.0280423
000300 15 58 09 bd 67 c1 e7 bc e4 11 cd 3c 25 df 41 3d
       -0.033531267 -0.028290464 0.025032945 0.047331948
000310 28 32 d8 bc fd 60 91 bc ad 04 1d bd 07 52 37 bb
       -0.026391104 -0.017746443 -0.038334537 -0.0027972476
000320 16 94 bd 3d f3 fe 4c 3d be a4 6e bd 66 94 f2 3d
       0.09256761 0.050047826 -0.05826258 0.11844711
000330 96 e6 a7 39 82 02 25 bd dd c9 0b 3d 93 81 d0 bd
       0.00032024522 -0.040285595 0.03412806 -0.10180964
000340 4a 4f 40 3d 7f 99 2b bd c3 4b c2 bd 99 9a 93 3d
       0.046950616 -0.041894432 -0.09487107 0.072072215
000350 bf 19 0f bd f2 e0 20 3e 5f 86 19 3d 1b de ce bb
       -0.034936663 0.1571081 0.037481662 -0.006313098
000360 77 67 3a bd e1 4b f8 bc 43 1d 17 3e 58 dd ed bd
       -0.045508828 -0.03030962 0.14757256 -0.116144836
000370 7e e0 f4 3c e7 f9 d8 bc 07 80 de bc 71 dd da bd
       0.029892202 -0.02648635 -0.027160658 -0.10686768
000380 e6 3f b0 3d d8 fd 94 bd 6d 0f a0 bc 2c 61 17 bd
       0.08605938 -0.07274979 -0.019538606 -0.036957905
000390 fe 87 00 bd 7c 4d 40 3d db 88 ca bc a8 0c 40 3c
       -0.031379692 0.046948895 -0.02472346 0.0117217675
0003a0 51 d7 96 3d 2b 95 3d bd 7c 3a f1 bc c5 d3 61 3d
       0.07365287 -0.046284836 -0.029446833 0.0551336
0003b0 0a 3c 96 bb 4a 5b d3 3d f3 20 30 bc a6 ea 1d bd
       -0.004584794 0.103201464 -0.010750043 -0.038553856
0003c0 31 1a 01 3d 5a fe cd 3c c8 01 53 3d ac 69 0c bd
       0.03151912 0.025145698 0.05151537 -0.034280464
0003d0 ba a6 80 bd 8a 86 2d 3d 9a d7 b4 bc c6 88 95 3d
       -0.062818006 0.042364635 -0.022075463 0.07301478
0003e0 ec cb 02 bd 51 33 4f 3c 4b 78 86 bc 36 0d 82 3c
       -0.031932756 0.012646512 -0.016414782 0.01587544
0003f0 64 a7 22 3c bb c3 e0 3c 4f 28 06 3c ca 98 fe bc
       0.009927604 0.027437082 0.008188321 -0.031078715

dense_encmean.bias f4 [8]
000000 77 8f 2b bd 18 58 c8 3b dd 80 aa 3c 18 34 55 3d
       -0.041884866 0.006114017 0.0208134 0.052051634
000010 35 4b 55 3d e6 c7 48 3d f5 e2 32 bc 7f 9f e9 3b
       0.052073676 0.049018763 -0.010918369 0.007129609

dense_encvar.weight f4 [8, 400]
000000 6d 78 a9 bc cd fc 3f 3d 16 f1 d9 3d b9 d5 24 bc
       -0.020687306 0.04687195 0.106416866 -0.010060721
000010 d1 cc a2 3d 21 99 30 bc ed b8 9c 3d 4c 18 87 3d
       0.07949222 -0.010778696 0.07652459 0.06596431
000020 f2 18 23 3d 1d 00 ba 3d 43 ca 85 3c d3 1a fa 3c
       0.03981871 0.09082053 0.016331797 0.030530369
000030 1a d5 26 3d cc 2d 1f bc 63 86 0e 3e f6 6c fe 3c
       0.040730573 -0.009715509 0.13918452 0.031057816
000040 3a c2 49 3d 36 fe 2c 3d 37 c7 f9 3b ab 81 12 3d
       0.049257495 0.042234622 0.007622625 0.035768192
000050 01 78 cb 3c 47 18 87 3c b0 da 49 3c 9f c0 24 3e
       0.024837496 0.016491069 0.012320206 0.16089104
000060 cc 9b 0d bb 24 ac c1 3c eb 3e b1 3c 4a fb ae 3c
       -0.0021607755 0.023641653 0.021636447 0.021360058
000070 08 75 87 3d b7 6c b8 3d 46 9b 79 3d b9 f4 a8 bc
       0.06614119 0.09005111 0.060939096 -0.020624505
000080 4a 72 b1 bb 46 fc 78 3d 96 4f b7 3c f0 b3 97 3c
       -0.0054152356 0.06078746 0.022376817 0.018518418
000090 72 5f 4b bd 99 b5 a7 3c 65 63 61 bb eb f6 15 3d
       -0.04965157 0.020472335 -0.003439152 0.036612432
0000a0 bc 67 56 bc 4c a4 62 3b 3c 1c 00 bd 12 fc 27 3d
       -0.013086256 0.0034582792 -0.031276926 0.041011877
0000b0 61 f7 97 3d 2e a7 86 3d eb 90 48 3c 49 a5 07 3d
       0.07420231 0.06574856 0.012241582 0.033116613
0000c0 2e ae b5 3c 43 bd fb 3b 83 6d 66 bc c2 92 7f 3d
       0.022177782 0.007682474 -0.014064196 0.06239582
0000d0 90 7c cf 3d 2c 92 60 3d da b6 fd 3c e6 2d d2 3c
       0.1013118 0.0548269 0.03097098 0.025656652
0000e0 59 c5 26 bc e7 61 25 3d 88 0a 20 bc c8 bf 5f bd
       -0.010178887 0.04037657 -0.009768136 -0.054626256
0000f0 72 43 06 3d 4d f4 2b 3d 3b 2b 79 3d 01 38 07 3d
       0.032779165 0.04198103 0.060832243 0.033012394
000100 c2 ad 8c 3d 18 ab c9 3b df b4 ff 3c c4 3d 8f 3d
       0.06869079 0.006154429 0.031214176 0.06994203
000110 7e 9d 6b 3c 85 56 20 3d 94 3b 5e 3d f3 3e 0a 3c
       0.014380811 0.03914501 0.054256037 0.00843786
000120 f0 27 7e 3d 19 a7 52 3c 37 9c 92 3c e0 19 55 3c
       0.062049806 0.012857222 0.017896755 0.013006657
000130 09 e8 98 3c b8 79 80 bb 7d 7a 8a bc 9c cc 8b 3d
       0.01866533 -0.00392076 -0.01690411 0.068261355
000140 46 9d 29 3c b8 04 88 3c 79 2b 11 bd 1a 30 4a 3d
       0.010352438 0.016603813 -0.03544185 0.04936228
000150 f6 d4 65 3c d1 b2 67 3d d8 90 84 3d e9 8d d7 bc
       0.014027825 0.056567017 0.06472939 -0.026312785
000160 da 4b 2d 3d 69 9a 05 3d e9 a2 04 3c 3c 3b 13 3c
       0.042308666 0.03261796 0.008095481 0.008986291
000170 7f 95 bc 3d 3a ad 7b 3c ad e0 a2 bd 9d cb 4e 3c
       0.092082016 0.015361125 -0.0795301 0.012621787
000180 40 fd b3 3d ab 98 d4 bc f8 42 04 3d ee ef a4 bc
       0.08788538 -0.025951704 0.03229043 -0.020133939
000190 e0 78 99 3b c0 e0 ba 3d c7 dd c7 3c 7e 74 63 3d
       0.004683599 0.09124899 0.024397744 0.055531017
0001a0 b4 c8 b4 3c a0 9f 33 bb b6 f7 7b 3d 41 69 c0 3d
       0.022068359 -0.0027408376 0.061515532 0.093950756
0001b0 06 91 1d 3a e0 e5 1c 3d df f9 a8 3d c8 e8 4a 3d
       0.0006010685 0.038305163 0.08250784 0.049538404
0001c0 32 78 72 3d 78 83 d0 3c f3 de f3 3c a9 62 96 3c
       0.05919666 0.025453314 0.029769396 0.018357592
0001d0 bb af 2e 3c ab 18 9c 3d 09 4c 55 3d 0d e5 06 3c
       0.010662015 0.076218925 0.052074466 0.008233321
0001e0 6c fe 33 3d e7 5f 49 bd 7d 59 dc 3d ac 56 bb 3d
       0.043943807 -0.049163725 0.10759256 0.09147391
0001f0 8d f8 a1 3d 8e 0e 0b 3d 23 34 62 3c 4e 12 82 3c
       0.079087354 0.033949427 0.013806376 0.015877869
000200 f0 f8 29 3d 93 61 be 3d 6e 74 e3 3b f3 aa 8a 3d
       0.04149717 0.092959546 0.0069413697 0.06770887
000210 12 ca 9e 3d 6f 3f da bc cf db 1e 3d fe f9 b4 3d
       0.077533856 -0.026641576 0.038783845 0.08836745
000220 40 72 a5 3d 8d 3c a1 3d e8 6a 21 3d d5 2a f5 3d
       0.08078432 0.07872877 0.039408594 0.1197106
000230 4b a2 0c bc e2 c3 a8 3d c5 c9 02 3e 10 b3 a7 3b
       -0.0085836155 0.08240487 0.12772281 0.0051177815
000240 46 ab d0 bc 49 32 1a bd e6 f4 e8 3c 8a 7a 1f 3d
       -0.025472295 -0.037645612 0.02843709 0.03893522
000250 93 1b c8 bb 96 6f 87 3c 1e 0a 9d 3c 8c e4 87 3c
       -0.0061068027 0.0165327 0.019169863 0.016588472
000260 40 63 8a 3d da 80 d8 3c 66 dd 97 bb 73 73 c3 3d
       0.06757212 0.026428629 -0.004634547 0.095435046
000270 73 c5 0f 3d a8 0c 01 3d bf d6 6b 3d 59 ea ae 3d
       0.03510041 0.03150621 0.057577845 0.08540792
000280 36 e7 0f 3d e6 89 55 3d f6 83 8e 3d e4 ef d1 3d
       0.03513261 0.052133463 0.06958763 0.10250834
000290 fb 0b 50 3d 0c bb 2a 3d ed 6d b5 3d 30 58 6b 3d
       0.050792675 0.041682288 0.08858857 0.05745715
0002a0 1b f6 95 3d 0b 6c 1d 3d 58 c2 79 3d 6b 9f 51 3d
       0.073223315 0.038433116 0.060976356 0.051177423
0002b0 31 6e d4 3d 7b 86 8f 3c e1 af 13 3d dc e1 3a bb
       0.1037258 0.01752018 0.036056403 -0.002851597
0002c0 3d 48 85 3c 71 cd bf 3b aa 85 11 bc a5 67 8f 3b
       0.016269797 0.005853348 -0.008881966 0.004376369
0002d0 a3 e3 6c 3d f4 e2 62 bc 8d 20 cc 3b 6a d5 f9 bb
       0.05783428 -0.013848055 0.0062294663 -0.007624318
0002e0 a5 a9 20 bc 37 0e d6 3c eb 01 b8 3c 42 2b 31 3c
       -0.009806071 0.026129825 0.022461852 0.010813536
0002f0 e1 93 18 bd 72 cb b8 3c f3 5a 94 3d 59 da 72 3d
       -0.037250403 0.022557948 0.0724391 0.059290264
000300 a7 73 4a 3d f9 2c c0 3d 3c ed 2e 3d 31 01 74 3c
       0.0494267 0.09383578 0.042706713 0.014892862
000310 75 2c 20 3d ee b7 a9 3d a1 45 b5 3c 1f 9c 26 3b
       0.039104898 0.08287035 0.022127928 0.0025422645
000320 ae 0c 3b 3c 47 ad 46 3b 99 96 77 3d b8 8f 4e 3d
       0.011416597 0.0030315684 0.060446355 0.05043003
000330 8e 26 5e 3d 0a 4a cf 3c 75 7d bf bc 64 a5 18 3b
       0.054235987 0.02530386 -0.023375252 0.002329194
000340 c7 05 a0 3d fb 56 a0 bb 4e 79 d0 3c 3b a9 02 b9
       0.07813602 -0.0048931814 0.025448468 -0.0001246081
000350 aa af 26 3d 1f 40 39 3d a0 b8 34 3d b6 1a 95 3c
       0.04069487 0.045227166 0.044121385 0.018201213
000360 84 b1 83 3d d9 d2 ad 3d d0 98 a6 3d 9a 1c 07 3d
       0.06430343 0.084874816 0.081346154 0.03298626
000370 52 82 9f 3c 01 aa c0 3c 8b 70 9f 3d 36 cf c2 3d
       0.019471321 0.023518564 0.07785138 0.095121786
000380 c8 64 c2 3c b4 8c 31 3d 1e a1 41 3d 52 57 8c 3d
       0.023729697 0.043347076 0.047272794 0.068525925
000390 78 08 ff bb 12 f5 4d 3d ae a8 4d 3c e8 5e c0 3c
       -0.007782992 0.050282545 0.012552423 0.023482755
0003a0 2b ec 11 3d 0c fc cd bb bb 34 a4 3d b8 41 98 3b
       0.035625618 -0.00628615 0.0801787 0.004646506
0003b0 3d 21 2a bc a4 f1 ad ba 2e 97 41 3b a0 f4 dd 3c
       -0.010383901 -0.0013270867 0.0029539573 0.027094185
0003c0 fa f7 1d 3d 3e f6 15 bd 77 1a 8c bc 95 61 59 bd
       0.038566567 -0.036611788 -0.017102463 -0.053071577
0003d0 5a 20 ac bd fd ba 90 3d c6 36 fc 3c 22 18 03 3d
       -0.08404608 0.07066915 0.030787837 0.032005437
0003e0 a4 d9 27 3d 37 03 69 3b f4 49 9b bc 42 b0 76 3d
       0.040979043 0.0035554895 -0.018956162 0.060226686
0003f0 8b bf 4f 3d 7d 6c a9 bc de 11 0b 3d 9c 42 e3 3c
       0.05071978 -0.020681614 0.033952586 0.027741723

dense_encvar.bias f4 [8]
000000 d2 bb fc 3a 8c c3 78 bd ba 55 20 3d 06 b0 c5 bd
       0.0019282049 -0.060733363 0.039144255 -0.096527144
000010 13 ec 00 bd 89 00 5c bd ed a2 82 bd 49 de eb bd
       -0.031475138 -0.053711448 -0.06378732 -0.11517007

dense_dec.weight f4 [400, 8]
000000 ca 27 d6 bc 85 62 e0 3d 8b 2b 03 bd fc f3 91 be
       -0.02614202 0.10956291 -0.032023948 -0.28506458
000010 dc 40 3c 3d fb a3 f0 3b 1a a3 45 bf 91 f0 d2 be
       0.045960292 0.0073437667 -0.77202 -0.41199163
000020 ae 15 8f bb c8 7f 51 be 8d f7 2f 3d 16 c4 80 be
       -0.004366598 -0.20458901 0.042960692 -0.25149602
000030 f0 66 64 bd 83 3e a4 3d 07 5e fe be f5 f4 85 3f
       -0.05576223 0.08019736 -0.49681112 1.046538
000040 55 db c4 3c cd ad 17 bf 0e 0b 03 3d 38 e6 b6 bd
       0.024030367 -0.59249574 0.031992964 -0.089306295
000050 7b 0b 64 bd ad ea 2f 3c 90 d9 e7 3e 50 d8 c9 3e
       -0.05567501 0.010737103 0.45283175 0.39422846
000060 bc fc 86 3a b5 de c4 bd 7a da ca 3b c8 6c 1c 3f
       0.0010298709 -0.096127905 0.006190595 0.61103487
000070 05 93 78 bd 3b 57 3a bd 65 dd 27 3f 72 07 4f 3f
       -0.060687084 -0.045493346 0.65572196 0.80870736
000080 81 f0 3c bd ab f7 c1 3e ae c3 ea 3c 1a 09 b9 bf
       -0.0461278 0.37884268 0.02865776 -1.4455903
000090 87 fe 74 3c dd c7 86 bd 9e 6e e5 3e 96 0b b5 3f
       0.014953262 -0.0658109 0.44810957 1.4144161
0000a0 61 47 73 bc 17 50 33 bd d3 39 b9 3c c8 26 62 be
       -0.014848561 -0.04377755 0.02261058 -0.22085106
0000b0 00 b3 cf 3c 07 b6 62 3e 4c 3c 08 3f 14 06 7a bf
       0.025353909 0.2213975 0.53217006 -0.97665524
0000c0 e2 8f 4d 3c 73 0d 74 be 8e c4 55 bd 2e c0 72 bf
       0.012546511 -0.23833255 -0.052189402 -0.9482449
0000d0 31 5b 9a 3d 0d ad 6b 3e 9d 7d 22 3e 27 b5 82 3e
       0.07536925 0.23015232 0.1586823 0.25528833
0000e0 87 dc d0 bb 5c 73 c4 bd 96 76 07 bd 0a bd 30 bf
       -0.006373945 -0.095923156 -0.033072077 -0.6903845
0000f0 13 44 90 3c f0 0f 8e be b2 2e 97 3e a6 2f 36 3e
       0.017610585 -0.27746534 0.29527813 0.17791614
000100 05 01 c3 bc 05 b6 97 be e8 1f e9 3c 31 1b 56 bf
       -0.023804197 -0.29631057 0.028457597 -0.8363524
000110 d4 fe 91 bd 33 3c 07 bf 28 fb 6a be 1c a1 25 bf
       -0.07128683 -0.5282623 -0.22947371 -0.6469896
000120 25 ad 24 bd 40 b1 13 bf ac 59 df bd ec 4e a3 3e
       -0.040204186 -0.5769234 -0.109057754 0.3189615
000130 43 87 24 3e 6d c7 96 bd a4 91 35 3f 7e 1f f8 bd
       0.16067223 -0.07362256 0.70925355 -0.12115382
000140 02 d0 0f bc 09 dd 85 bc bc 2f a6 bc 9c 87 29 bf
       -0.00877762 -0.01634075 -0.020286433 -0.6622255
000150 3e 13 2f 3c 34 e1 99 3d bc 1a 43 be 7d a3 c8 3c
       0.01068574 0.07513657 -0.19053167 0.02449202
000160 03 8b 8a 3b e2 7d c8 bb 99 2e c5 3c a2 ce e5 be
       0.0042279973 -0.006118522 0.024070071 -0.4488421
000170 aa e8 13 bd 37 77 c3 3e c0 34 cc 3d 31 b1 f3 3e
       -0.036110558 0.3817689 0.09970999 0.47596124
000180 ba a4 8d 3c 6a d3 c3 3c fb a8 2a 3c 1b ea e3 3e
       0.017290462 0.023904521 0.010416265 0.44514546
000190 00 99 be 3b 22 1f 19 3e e3 b6 42 3e 60 59 b4 3e
       0.005816579 0.14953282 0.19015078 0.35224438
0001a0 00 63 6f b8 c0 5e 0c be e7 94 7c 3c 0e 84 f2 3d
       -5.707424e-05 -0.1370802 0.01541636 0.11841594
0001b0 d2 b3 89 bd 71 ef 34 be f4 eb 43 3e 11 d3 12 bd
       -0.06723751 -0.17669465 0.19132978 -0.03584582
0001c0 11 d0 38 3b 52 60 86 bd 52 54 95 3d b8 1a 0a 3d
       0.002820019 -0.065613404 0.072914734 0.033716887
0001d0 ca 2c 8a be c2 55 f4 bd 6a ed c1 3e 18 93 c9 bd
       -0.26987296 -0.119304195 0.37876445 -0.09842509
0001e0 98 02 be bc 45 00 84 3c 46 53 90 3b 66 67 7f 3f
       -0.023194596 0.01611341 0.004404458 0.9976715
0001f0 bb 8e 44 3d c7 b4 f9 bb 32 ae 1b be 7b 30 a1 be
       0.04798768 -0.0076204273 -0.15203169 -0.314823
000200 88 bf 56 bc 3d a6 5a bd d7 5d 88 bb 23 8a 60 3f
       -0.013107188 -0.053381193 -0.004161577 0.8771078
000210 53 99 a7 bc 5f 64 7a 3d 91 72 10 3e 66 fc 13 be
       -0.020458853 0.061130878 0.14106204 -0.14451751
000220 a4 cc 67 bb 6a 0b e0 3e 39 ad 50 bd 53 37 3d 3d
       -0.0035369778 0.43758708 -0.050946448 0.04619534
000230 33 b4 63 3d a7 ee 4b 3e 33 07 b3 bd 62 d8 8d bd
       0.055591773 0.19915257 -0.087416075 -0.06926037
000240 cc f9 c6 bc f3 9a ab bd d6 72 88 bd 4d 26 79 3f
       -0.024289034 -0.083791636 -0.06662528 0.9732407
000250 f1 d9 62 3d a2 ba 72 be 80 ca 10 3f 4c f8 1b 3f
       0.055383626 -0.23704007 0.5655899 0.60925746
000260 b7 70 a4 bc db b0 1d 3f 92 d9 ee 3d f8 0e 71 3f
       -0.020073278 0.61597985 0.11662592 0.94163465
000270 2c 8b 0f be 86 e7 21 bf 49 81 56 3e 18 15 5d bd
       -0.14017934 -0.632439 0.20947756 -0.053975195
000280 82 40 08 3c 68 82 06 bc 6e 52 2d bb 9c b6 d6 be
       0.008316161 -0.008209802 -0.0026446837 -0.41936195
000290 44 14 93 3a a0 64 70 be ae 23 cf 3c 03 97 32 3f
       0.001122125 -0.23475885 0.025285568 0.69761676
0002a0 a6 91 bf bc e7 dc 9f 3d 5c 47 9d 3d 35 67 00 bf
       -0.02338488 0.07805806 0.07679626 -0.5015748
0002b0 7d b0 e2 bc 67 38 64 be 68 20 45 3e 01 94 2d 3f
       -0.027672047 -0.22287141 0.19250643 0.6780396
0002c0 b4 88 a1 3c bd 83 15 3d f0 1c 44 3b f7 01 86 be
       0.019718505 0.03650259 0.0029924475 -0.26173374
0002d0 24 53 67 bd d3 09 06 3e e3 75 52 3e c5 14 e7 3e
       -0.056475773 0.13089685 0.20552783 0.45133033
0002e0 ac 85 22 bd fa 73 8b be c6 31 48 bd 5a 93 be 3e
       -0.03967826 -0.2723692 -0.048875593 0.37221795
0002f0 82 1f ca 3c 83 00 47 bf a7 2e 83 bc ce 50 6d 3e
       0.024673227 -0.77735156 -0.016013457 0.23175356
000300 76 0a 74 3d c0 dd 8f 3f c5 36 7d 3d 43 e9 6f bb
       0.05958029 1.1239548 0.06181981 -0.003660754
000310 47 68 9c 3d 6e 2c 1b 3e 03 72 8c 3e a1 2d 23 3f
       0.07637077 0.15153667 0.27430734 0.637415
000320 c0 94 36 b9 ff 62 4f 3c ec 96 b5 3b 26 c4 e0 be
       -0.00017412286 0.01265788 0.005541673 -0.4389965
000330 5e c8 82 3b 57 8e 79 bd 48 d9 3b 3e ff a7 7f 3e
       0.003991171 -0.06092676 0.18344605 0.24966429
000340 00 da 8b 3b 36 fa 43 be 56 34 c2 bc 81 4f 7d bf
       0.004267931 -0.19138417 -0.023706596 -0.9894944
000350 67 f7 5c 3d ee af 71 be b5 f6 d8 be 7a c0 0c bf
       0.05394688 -0.23602268 -0.42375723 -0.54981196
000360 1a 8a e3 3b 1b 88 3c be 36 66 4a 3d c6 2c de be
       0.006943953 -0.18411295 0.049413882 -0.43393534
000370 6c 20 01 bd 94 2b 08 3f cb c6 e5 3c ca fb ac be
       -0.03152506 0.53191495 0.028048893 -0.3378585
000380 f6 e4 1a 3d 70 51 ef 3d 16 ac 79 bd 7a e9 58 3e
       0.03781601 0.11685455 -0.06095513 0.21182814
000390 aa 3b ac 3d d2 7e 53 3b 29 76 b1 3e 6b 92 0d 40
       0.084098175 0.0032271636 0.34660462 2.2120616
0003a0 2b 4d 97 bb c3 01 f2 be 97 56 85 3d ec bf ca 3d
       -0.0046173534 -0.4726697 0.06510656 0.098998874
0003b0 76 03 08 be 95 e8 66 3e 13 44 40 3f 08 1b 96 3d
       -0.1328257 0.2254966 0.75103873 0.073293746
0003c0 05 19 33 bc 70 24 52 bb e6 1c 45 bd ce 13 ee bd
       -0.010931258 -0.0032065175 -0.048123263 -0.11624871
0003d0 35 d2 11 3d c5 eb f8 3e ba 25 ed bd 4e da 77 bd
       0.03560086 0.48617378 -0.115794614 -0.060510926
0003e0 5c b2 9c 3b ea 01 73 3d a5 f3 a9 3c d4 05 55 bf
       0.0047820043 0.059327997 0.020746062 -0.8321202
0003f0 07 63 3c bd af a6 0b be f1 c1 7c 3e 5f 1e 2c bd
       -0.045992877 -0.13637803 0.24683358 -0.04202115

dense_dec.bias f4 [400]
000000 46 98 e6 3d 39 00 f0 3e dd eb 8b 3e 1f cc 46 3d
       0.112595126 0.4687517 0.27328387 0.04853451
000010 b2 17 05 3f ed c1 f9 3e 74 40 e0 3e 4c 5e 84 3e
       0.5198928 0.48780766 0.43799174 0.25853193
000020 58 bd 16 3e 34 0e 24 3f 86 2a 28 3e b9 87 cd be
       0.14720666 0.6408417 0.16422471 -0.4014261
000030 af fd e7 bc 82 5d 81 be 79 ec 87 be d4 f7 b8 be
       -0.028319208 -0.25266653 -0.26547602 -0.36126578
000040 fe a6 20 bf 2b 3c e0 be dc 75 b8 3e 1a 6b f1 3e
       -0.6275481 -0.43795905 0.3602742 0.47152025
000050 f0 be c5 3d 24 d6 d2 ba 39 1d 8b 3d df 9e 52 be
       0.09655559 -0.0016085547 0.06792683 -0.20568417
000060 c2 e0 d0 3e bd fb 02 3e 13 22 ea 3e 78 af 9f be
       0.40796477 0.12791343 0.45729122 -0.3118856
000070 9b 1d 4d be bd 40 13 3f 8e af d8 be ea 77 48 be
       -0.20030825 0.5752066 -0.42321438 -0.19576994
000080 1a 48 39 be 4a 34 4a 3e 5c 58 27 3f 78 49 11 bf
       -0.18093911 0.19746509 0.653692 -0.5675273
000090 a9 f2 84 be ff e6 dd be aa 3f 7c be 7d 0d bf be
       -0.25966385 -0.433403 -0.24633661 -0.37314978
0000a0 54 ca d5 bd 14 89 ef be f8 5c c5 be 00 c4 9c 3e
       -0.10438982 -0.4678427 -0.38547492 0.30618286
0000b0 cf ae 04 3f f3 4f 45 3f f5 44 97 be ed 7e 1e 3d
       0.51829237 0.7707512 -0.29544798 0.038695265
0000c0 2b ec 11 3d 12 e1 8e 3e fa af 2a bf 46 c7 50 be
       0.035625618 0.2790609 -0.6667477 -0.20388517
0000d0 d6 5b 7d bc 8d 14 c3 3e 91 68 0c 3f 8a 32 e8 bb
       -0.01546379 0.38101617 0.54847056 -0.007086103
0000e0 3b d6 d0 be 1c 3a f2 bd 53 fd 6e 3e 98 3d dd 3e
       -0.40788445 -0.1182749 0.23338823 0.43211055
0000f0 9a b1 b8 3e 09 11 5f be 73 11 23 be 5f d3 47 be
       0.36073 -0.21783842 -0.15924625 -0.19514225
000100 b7 00 27 be c7 95 ab be 5c 1a 10 3f e6 0e 95 3e
       -0.16308866 -0.3351271 0.5629022 0.2911293
000110 01 f3 8c be 00 49 55 3e 9b 92 17 3f 4f 51 3b 3f
       -0.27529147 0.20828629 0.5920808 0.7317094
000120 72 05 c4 3d 83 30 46 3f 53 b1 67 3f 98 f4 65 bf
       0.09571351 0.77417773 0.9050495 -0.89826345
000130 9f 71 9e be cd 54 ba bd 96 2a 59 be 1f b9 49 3e
       -0.3094606 -0.09098206 -0.21207651 0.19699524
000140 93 36 48 be ee 2e 5b be 02 71 5d be cf 36 94 3d
       -0.19552068 -0.21404621 -0.2162514 0.072370164
000150 7d b2 bb 3e 37 2c 93 3e 5f ac 72 3e 72 e7 56 3d
       0.36659613 0.2874467 0.23698567 0.052466817
000160 a5 98 93 3e 32 ad b4 3d e8 f0 45 3f e1 0c 89 bd
       0.28827396 0.08822097 0.7732072 -0.066919096
000170 06 1b d0 3e 91 9f 97 3e 33 cd e6 3c 54 41 91 3f
       0.40645617 0.29613927 0.028174018 1.1348062
000180 9c a4 ab 3e cf 43 09 be b3 14 06 3d a4 f6 f5 3e
       0.33524024 -0.13404773 0.032734584 0.48039734
000190 38 c5 61 3f b3 67 bd 3e 42 b0 f7 3e d3 3f 91 3d
       0.88191557 0.3699318 0.48376662 0.07092252
0001a0 fe 93 5b bd 6a c1 04 3f f2 d8 be 3e 3d db 82 bd
       -0.053607933 0.51857626 0.3727489 -0.06389473
0001b0 9b 40 ea bc c1 3a e9 3d 2c 8b 83 3e 52 09 2c be
       -0.02859526 0.113881595 0.25692117 -0.1680043
0001c0 5d 6d 33 3e 2b e6 ad 3a 2c 37 d2 3d 11 f6 9f bd
       0.17522188 0.0013267448 0.102644295 -0.07810605
0001d0 41 7c 2e be 9d 6d 85 3e 0b ca 0a 3e 8e 83 d3 bd
       -0.17039587 0.2606019 0.13553636 -0.103278264
0001e0 c8 30 ef be db 40 b8 be 79 ae 5e 3d 6d ed e4 bc
       -0.46716905 -0.3598698 0.05436561 -0.027945245
0001f0 2f bd 46 3f 68 50 cf be 99 78 1b bf c4 72 ab bd
       0.7763242 -0.40491033 -0.6073089 -0.08371499
000200 3e 92 d4 3d e0 96 c6 3e 7f 38 16 be 23 48 38 3d
       0.10379456 0.38786983 -0.14669989 0.04499067
000210 8f 41 26 3e 4a 3f 11 3e 54 7f ba bb 8e 23 a6 be
       0.16235946 0.14184299 -0.005691448 -0.32449
000220 77 8c c4 3e e4 f4 5b 3d 6f fd 11 3d b2 8b 1f bc
       0.38388416 0.053700343 0.035642084 -0.009737896
000230 db ba f3 3e 2f ef c7 3e 79 21 b3 be 04 95 6d 3d
       0.47603497 0.3904967 -0.34986475 0.05800344
000240 1d 8d aa 3e 0b 97 0e 3f 94 b8 15 3f 91 9f 2c 3e
       0.33310786 0.55699223 0.5848477 0.16857745
000250 c6 ca c4 3e d4 7b 44 bd 11 f5 db be 2e 95 81 3e
       0.38435954 -0.047969654 -0.42960408 0.25309128
000260 ca 4c f7 bb b7 da 89 3e 78 c9 9e 3f 6c bb 44 3e
       -0.0075469958 0.2692468 1.2405233 0.19212121
000270 2e 6e ef 3e 81 cd 94 3e ed 9f 93 3d 8c b8 5b 3e
       0.46763748 0.29063037 0.07208238 0.21457118
000280 9f 1a d4 bc 92 1c dd bd cb fe 14 be 39 a4 16 be
       -0.0258916 -0.10796465 -0.14550321 -0.14711083
000290 ea 7d 93 3b 27 de 02 bc 1b ac ca bd 27 7b b6 bd
       0.004501094 -0.007987536 -0.09896108 -0.08910208
0002a0 34 a7 93 be 75 89 10 3f cb 1a 2f 3f 28 2e a4 be
       -0.28838503 0.5645974 0.6840026 -0.32066464
0002b0 f8 35 57 be fd 50 12 be 8a f0 b9 3d 8b 0a 40 3f
       -0.21016681 -0.14288707 0.09079082 0.7501609
0002c0 b7 72 86 3e 6c e3 d0 3d d9 e8 ad 3e a2 c7 6e 3f
       0.26259395 0.10199627 0.3396671 0.93273365
0002d0 71 5b 14 bf 86 79 0b 3f 5f 50 a3 be 8e c2 42 3c
       -0.5795203 0.54482305 -0.31897256 0.011887206
0002e0 33 5d 2f 3f 7a 0f e1 be 73 30 0a bf 59 34 c3 3d
       0.68501586 -0.4395712 -0.5398018 0.09531469
0002f0 8a b8 82 be b8 99 e1 3d 5e 4c da be 2e 76 88 be
       -0.25531417 0.11015648 -0.4263639 -0.26652664
000300 f4 22 8e be df 1a 0e 3e 9a 08 bb be c2 56 3d 3e
       -0.27761042 0.13877438 -0.3653 0.18490127
000310 18 a6 66 3e 0d 41 06 bd 88 cc 5b 3f a8 8a a0 3f
       0.22524297 -0.03277688 0.85858965 1.2542315
000320 23 f2 00 bf fc 46 7c 3e d3 0e 02 be 7c b0 bd bd
       -0.5036947 0.24636453 -0.12700967 -0.09262177
000330 13 d2 26 3e 32 47 b5 be 9b 87 72 be 99 f6 07 3f
       0.16291074 -0.3540588 -0.23684542 0.53110653
000340 7d cc fc be 0e 4e 93 bb bc dc 53 be 11 05 17 3c
       -0.49374762 -0.004495389 -0.20689672 0.0092175165
000350 92 42 b6 be d1 ef 01 be fa 6b e5 be 80 16 ca bd
       -0.35597664 -0.12689139 -0.44808942 -0.09867573
000360 22 aa ba bd d4 f1 52 3e 05 d6 ff bd 63 59 bb 3e
       -0.091144815 0.20600063 -0.12491993 0.36591634
000370 e4 22 73 be cf 77 aa be 4f 81 f1 bd be 4a a7 3e
       -0.23743778 -0.33294532 -0.11792242 0.3267421
000380 31 a3 2f 3f ba 30 20 be 54 be 01 bf 1a 90 d2 be
       0.68608385 -0.15643588 -0.5068104 -0.41125566
000390 65 1a 0f be 39 25 de be 64 78 f5 bd c0 d2 49 be
       -0.13974912 -0.43387774 -0.11985853 -0.19709301
0003a0 f7 ac c5 bd 95 60 6f bc c3 7f ac 3e 81 f0 0a bf
       -0.09652131 -0.014610429 0.33691224 -0.5427323
0003b0 11 e8 d1 be ac 1f 3b bd a4 2a a2 3d 3d 78 bd 3e
       -0.40997365 -0.0456845 0.07918289 0.37005797
0003c0 fe ef 40 bc 2c bc f1 3e c9 62 dc be ca e0 e7 3e
       -0.011775969 0.47213876 -0.43044117 0.45288688
0003d0 67 0e 74 3e b2 c6 af 3e c5 2f b3 be 28 8f b1 be
       0.23833619 0.3433128 -0.34997383 -0.34679532
0003e0 46 88 1b 3f 98 b2 0f 3f 6c 47 27 bf 96 42 d4 be
       0.6075481 0.5613189 -0.65343356 -0.4145705
0003f0 62 52 87 3d 9b 8b ac 3e 19 3f 78 3f a5 1e 95 3e
       0.0660751 0.3370026 0.9697128 0.29124942

conv_dec1.weight f4 [16, 8, 3, 3]
000000 96 44 52 3f 9a 42 05 3f 22 6d 1c 3f 5f 49 3c 3e
       0.82135904 0.5205475 0.61104023 0.18387364
000010 43 1e c5 3c 6e 73 a8 3e 76 6f 02 3e 86 53 67 be
       0.024062281 0.32900566 0.12737831 -0.22590455
000020 99 df 53 be 49 03 09 3f ca 85 b3 be 9c 01 db be
       -0.20690764 0.5352064 -0.3506301 -0.42774665
000030 7e e8 c3 bd de 88 a6 3b 97 7e 5f 3e ab 8a 92 be
       -0.09565829 0.005082234 0.21825634 -0.2862142
000040 33 0e 47 be 48 04 27 bd 52 e2 9f 3e 88 b1 31 3e
       -0.1943901 -0.040775567 0.31227356 0.17352879
000050 c5 26 c9 3d 8f 91 d6 bd dc fe 6b 3c 99 20 43 bd
       0.09821848 -0.10476982 0.014404025 -0.04763851
000060 21 91 11 3f 02 e1 e4 3d 07 98 1a 3f 3e a9 a0 3e
       0.56862074 0.11175729 0.60388225 0.31379122
000070 38 e5 2e 3f 29 1a f7 3d e1 a0 45 3d 3d 9f 13 3e
       0.6831851 0.120655365 0.04824913 0.14416213
000080 bb 5e 06 3c 9d 9e ee bd 62 44 0f 3e 1f 91 bd be
       0.008201296 -0.11651347 0.1399093 -0.3702478
000090 4f 3d 58 be a8 6f d2 bd 70 d4 84 3e f7 0b e4 be
       -0.21117137 -0.10275203 0.25943327 -0.44540378
0000a0 11 42 28 be c4 7b 17 bf ee 0c b3 3e a9 98 0b be
       -0.16431452 -0.59173226 0.34970802 -0.13632454
0000b0 65 15 b0 3e 97 93 ca 3e 8c 88 37 3f 71 f6 b0 3e
       0.34391323 0.39565727 0.7169273 0.3456302
0000c0 74 5e ed 3d 21 d9 18 3f 8f cc 80 3e 7b c6 16 3e
       0.11590281 0.5970631 0.25156066 0.14724152
0000d0 72 1c 40 3f 78 68 8d 3e 24 ce 3f 3f 0c 77 b3 3e
       0.75043404 0.27618766 0.7492392 0.35051763
0000e0 7c 95 ba 3e f2 29 99 3e 73 2d ac bc 08 95 1f 3e
       0.36442173 0.29914814 -0.021017766 0.15584195
0000f0 8a e4 1c 3e 98 6a 87 3e 98 76 7c 3e 3e e5 00 3e
       0.15321556 0.26448512 0.24654615 0.12587449
000100 e0 09 f8 bd 2d 77 85 3d de 1d e2 3d 03 62 8a 3e
       -0.121112585 0.065168716 0.11040853 0.27027902
000110 7c 8e 1b 3f f0 66 8c 3c 9c cb 88 be 54 69 e0 3d
       0.6076429 0.017138928 -0.26717842 0.1095759
000120 83 81 df 3d 55 38 0b 3f 64 b9 91 bd 48 76 3b 3f
       0.10913374 0.5438283 -0.071154386 0.7322736
000130 dc 08 64 3e c9 34 ac 3e 63 7d f6 3e 56 e1 47 3e
       0.22269005 0.33634022 0.48142537 0.19519553
000140 e2 1a a8 3e 54 a3 09 3f 11 20 39 bf 49 92 be be
       0.3283301 0.53764844 -0.72314554 -0.37220982
000150 75 f2 46 3f 4b 5d 14 3f d4 89 43 be f2 39 27 3f
       0.7771371 0.57954854 -0.19095546 0.6532279
000160 dc eb 43 3f 78 73 e9 3e 7a 03 ad 3e 2c ac 62 3f
       0.7653177 0.45595908 0.33791715 0.88543963
000170 68 72 77 3b f9 a0 a2 3e 37 ff b7 3e 2e 24 84 3f
       0.00377574 0.31763437 0.359369 1.0323541
000180 f1 79 6b 3e e1 ea 26 3f ed 4f 00 3f 51 67 0f bf
       0.22995736 0.65202147 0.5012196 -0.56017023
000190 41 c4 52 3e 3e 06 5f 3e 1f a6 9f be 72 6f 80 be
       0.20582677 0.21779725 -0.31181428 -0.25085026
0001a0 80 74 1a 3e 63 a6 95 be 6f 33 53 be 4c d5 e2 bd
       0.15083504 -0.29228505 -0.20625089 -0.110758394
0001b0 82 e9 23 3e 1d eb b7 bd b9 a0 31 be 1f c4 c6 3e
       0.16007045 -0.08980391 -0.17346467 0.38821504
0001c0 ad ca b3 3e 10 61 55 3e 33 34 75 3f 5f 02 0c 3f
       0.35115567 0.20837808 0.95782775 0.5469112
0001d0 1b b9 b7 3e 31 ff 97 be 95 73 85 3e 41 92 13 3f
       0.35883412 -0.29686883 0.26064745 0.5764504
0001e0 fa 82 cb 3e c6 b6 cc 3e 1b a2 0f 3f e2 70 2b be
       0.39748365 0.39983195 0.5610673 -0.1674228
0001f0 42 58 66 3e 7d e7 35 3f 0f 00 56 be f4 46 ec be
       0.22494605 0.7105635 -0.2089846 -0.46147883
000200 f5 8b d1 3d f4 75 53 bd bc cc f0 3e 35 df 08 3d
       0.10231773 -0.05162616 0.470312 0.03341599
000210 83 0a df be f3 43 cc be 7f 54 dd bd b9 3d ba 3e
       -0.43562707 -0.3989559 -0.10807132 0.36375216
000220 d1 b5 37 3d d4 80 c1 3e 52 71 e3 3e 80 6e 09 3f
       0.044851128 0.377936 0.44422394 0.53684235
000230 a9 9c c7 3e ef 4b c7 3e bd 2a 0e 3f d5 c1 0f 3f
       0.3898671 0.3892512 0.55533963 0.5615514
000240 ea 80 15 bf d7 8a 2d 3d 0f 24 be be 22 62 6b 3d
       -0.5839983 0.042368736 -0.37136886 0.057466634
000250 6b d2 6c 3e 70 e2 8f 3e 24 87 74 3e 91 20 9c 3d
       0.23127143 0.28102446 0.23879677 0.07623399
000260 19 2e 79 bd bc f3 65 bd ba 0e 1b 3e b6 10 00 3e
       -0.060834978 -0.056140646 0.15142336 0.12506375
000270 7c 8b 91 3e 64 1f 13 3e a1 96 01 3f 60 6a 81 3e
       0.2842673 0.14367443 0.50620466 0.2527647
000280 ef 05 b4 3c c1 73 83 3e 41 6c ab bd 92 2d b9 be
       0.021975486 0.2567425 -0.08370257 -0.3616758
000290 86 b6 d1 bd 43 b4 ec bd 35 f2 6d 3e cc 9e b6 3d
       -0.10239892 -0.1155782 0.23236926 0.08917007
0002a0 f6 55 6c 3d 08 fa be 3e f3 ce 2b 3e 4f 00 25 be
       0.057699166 0.37300134 0.16778164 -0.16113399
0002b0 7b 4a 88 be 81 4a 0a 3e 74 f3 5c 3e 1a 96 7f be
       -0.26619324 0.13504983 0.21577245 -0.24959603
0002c0 6d bb fa 3e aa 65 ff 3e 1b 09 aa be f1 25 21 3f
       0.4897112 0.4988225 -0.33210072 0.6294852
0002d0 60 a1 75 3d f5 c8 93 3e 82 fa 28 3c 86 b0 b8 3e
       0.059968352 0.28864256 0.010313632 0.36072177
0002e0 ea bf 97 3e 53 d7 ee 3e 0a ce 69 3e 97 86 4d 3e
       0.29638606 0.46648654 0.22832504 0.20070873
0002f0 5b c1 12 3f 96 72 8e 3d c1 cb 70 be 0a 94 cf 3e
       0.5732629 0.06955449 -0.23515226 0.40542632
000300 07 4e 60 be e7 fa 42 be ee 99 b8 3e 75 b0 1d 3e
       -0.21904765 -0.19041024 0.3605494 0.15399344
000310 6d a2 9a 3c aa b9 81 3f 3e 74 d0 be ed 09 72 be
       0.018876279 1.0134785 -0.40713686 -0.23636599
000320 dd 99 89 3e de 0c 81 be 9c cb b8 3e cb cc 2d be
       0.268752 -0.2520513 0.36092842 -0.16972654
000330 43 4f ab 3d 27 f5 c7 bc c4 da ca 3e 87 9b 00 bf
       0.08364727 -0.02440889 0.3962003 -0.50237316
000340 a8 ab 65 3e 4f ac e2 bd f9 04 05 3c dd 88 ef 3e
       0.22428763 -0.110680215 0.008118861 0.46784106
000350 a1 79 7f 3e 81 f5 b1 3e 8e ab 56 3e 49 8b 40 3f
       0.24948741 0.34757617 0.2096388 0.7521253
000360 b3 67 05 bf aa b8 02 bf fa 88 c7 be c3 ca 90 be
       -0.5211136 -0.51063025 -0.38971692 -0.28279695
000370 92 d2 9b bd 9b c3 a1 bd e5 b7 ae bd f0 d3 81 3e
       -0.076085225 -0.07898637 -0.08531169 0.25357008
000380 03 a5 fd bc 02 93 37 bd 35 1b 78 be bc ec 7a bd
       -0.030962473 -0.044817932 -0.24229129 -0.061260924
000390 e7 d8 a7 3e 35 1e 97 3e b6 c4 fc bd ab c1 7d 3e
       0.3278267 0.29515234 -0.12342207 0.2478091
0003a0 56 e5 09 3f 5b 40 08 3e 2a 72 b3 be 2e 05 09 be
       0.53865564 0.133058 -0.35048038 -0.13380882
0003b0 f3 75 8d 3d 22 63 76 3e f5 4f a2 3e c5 f5 b6 be
       0.06907263 0.24061254 0.31701627 -0.35734382
0003c0 ca 54 24 3e 48 b3 e4 bc e5 28 63 3e fd 2f 46 bf
       0.1604797 -0.02791752 0.22183569 -0.77416974
0003d0 ff 1f b4 bd 0e 18 8a be 86 0f 73 bd ba 35 1b 3f
       -0.08795165 -0.26971477 -0.059340976 0.60628855
0003e0 de b3 e0 be 92 1c 0e bf 3e 63 64 bf 09 73 0c bf
       -0.43887228 -0.55512345 -0.8921393 -0.5486303
0003f0 5c f4 96 3e c0 80 4b be 03 4f 18 3e 49 be db 3e
       0.29483306 -0.19873333 0.1487389 0.42918614

conv_dec1.bias f4 [8]
000000 7a 73 37 3e 41 06 83 bd 2e 2d 88 be c0 6c 30 3e
       0.17915145 -0.06397677 -0.2659697 0.17228985
000010 77 d6 d9 bd c1 1b 88 3c d9 81 a9 3e f4 29 11 3e
       -0.10636609 0.016614797 0.33106878 0.1417616
