test1/pth/controller_best.pth (torch, 29143 bytes, 5 tensors)

fc1.weight f4 [200, 28]
000000 b5 c8 12 bd 7e eb c6 3d ea f7 fd bc 4e 8e aa 3e
       -0.03583594 0.09712885 -0.031002004 0.33311695
000010 4a 60 09 3d c6 1a 22 be 60 6e d7 bd 5c 45 5d be
       0.033539094 -0.15830526 -0.10519099 -0.2160849
000020 08 7e 83 bd 50 50 e5 3d 9a bb b3 3d b6 2b 0b 3e
       -0.06420523 0.11196959 0.087760165 0.13590893
000030 88 5a b1 bd 97 c5 a4 3c e8 86 5c 3d 5c b2 84 bd
       -0.086598456 0.02011375 0.053839594 -0.06479332
000040 c2 cc 5f bc 74 7b 55 b7 86 d1 4e bd 88 7d 1e 3c
       -0.013659658 -1.2724533e-05 -0.050492786 0.009673484
000050 ea 31 07 be 22 5e 96 bd cd 8f ec bd ba b2 8d bb
       -0.13202634 -0.07342173 -0.11550865 -0.0043242844
000060 52 27 26 be bf 03 82 bc c0 5a 50 3e bc cb a0 3d
       -0.16225937 -0.015870927 0.20347118 0.07851359
000070 5d da 89 3d 3a 24 8a bc d4 bf 53 3d f5 02 c7 bc
       0.067311026 -0.016862977 0.051696613 -0.024293402
000080 aa 8e 7b bd e7 66 89 bc 8e 71 77 bd 4a 41 77 be
       -0.061415352 -0.0167727 -0.06041103 -0.24146
000090 c1 6a c4 3d 7b 7e 63 3c c0 77 c1 bd ef 8a 28 3e
       0.09590674 0.013885136 -0.094466686 0.16459249
0000a0 18 30 08 3e b5 6c 86 be 8c b2 c0 3b fd 1d 80 3d
       0.13299596 -0.26254812 0.0058806594 0.0625572
0000b0 ca 9c 1e be 58 50 cb bd b0 d5 8e 3e a6 ac b9 3d
       -0.15489498 -0.09927434 0.27897406 0.09066133
0000c0 57 69 49 be 39 4a 70 bd e8 42 8e 3c 26 df e6 3c
       -0.1966909 -0.058664534 0.017365888 0.028182577
0000d0 b7 ff 77 be 62 02 09 be 12 be 6d bd 9c 32 46 3e
       -0.24218641 -0.13379815 -0.058042593 0.19355243
0000e0 2b e0 79 3d 88 9b bb bb 66 af e2 3c 81 7b 00 3d
       0.0610048 -0.005725328 0.027671527 0.031367783
0000f0 a2 a0 5e 3c 1e da c2 bc 30 b0 09 bd 9e f5 10 bc
       0.013588103 -0.023785647 -0.03361529 -0.008847622
000100 b3 d7 af 3d 8e 38 99 3d 56 f5 a1 bd 15 ce 6f bd
       0.08586063 0.0748149 -0.07908122 -0.058546145
000110 5a 1f f0 bd 85 aa e5 bd 99 4e 6e bc 50 b7 9e bd
       -0.1172473 -0.11214165 -0.014545106 -0.07749808
000120 8f c9 85 bd 75 0a 4b 3e 08 cf ee 3d 65 7e c3 3d
       -0.06532585 0.19828208 0.11660582 0.09545592
000130 af 6a ee bd 4d 69 19 3d 88 9a 46 3c 6e d0 86 3d
       -0.11641442 0.03745394 0.012121804 0.065827236
000140 b0 df 9f 3d 9d 7c 27 be 22 08 69 bc dd f8 a8 3c
       0.07806337 -0.1635613 -0.01422313 0.02062648
000150 69 1d da 3d 38 1e 65 bd 59 41 d7 3d 49 6a a0 3e
       0.10650141 -0.055937022 0.10510511 0.3133109
000160 b1 01 ee 3c fb 0b 04 be 4f 3f f2 bd 47 18 d4 be
       0.02905354 -0.12895195 -0.118284814 -0.41424772
000170 0c df 46 3e ef f2 85 be 31 b9 85 3e f4 64 e5 bb
       0.19421023 -0.26161906 0.26117852 -0.00700056
000180 95 cc 8a 3e ab a4 7c be 22 69 97 3e c2 b3 34 be
       0.2710921 -0.24672191 0.29572397 -0.17646697
000190 c6 5a 86 be a9 44 31 bd 19 6f 1c 3e a9 46 78 be
       -0.2624113 -0.04327837 0.15276755 -0.24245705
0001a0 6f d6 82 3d 30 f1 8a be 73 dd 23 3e dc 38 02 be
       0.06388556 -0.27137136 0.16002445 -0.12717003
0001b0 47 69 93 be 4e 2a 40 3e 37 99 6d be ba a3 a4 3d
       -0.28791258 0.18766138 -0.23202978 0.08039041
0001c0 a0 ae f8 bc 35 97 94 be c9 bd 05 3b 23 39 c0 be
       -0.030356705 -0.29021612 0.002040731 -0.37543592
0001d0 f6 82 59 3d 7c c8 0d be 38 9b d3 bc 76 6f 50 bd
       0.05310341 -0.1384601 -0.02583085 -0.050887547
0001e0 34 b0 4f 3d 85 e1 5d 3e 01 b2 8e be e8 56 a2 3e
       0.05070515 0.2166806 -0.2787018 0.3170693
0001f0 04 4c 90 3e f3 95 81 bd cb 71 2f be 51 3d 53 bc
       0.28182995 -0.06327429 -0.17133252 -0.012893037
000200 f2 80 13 be 61 f8 fb 3d 86 b2 4a bd e7 a6 80 be
       -0.14404657 0.12303234 -0.04948666 -0.25127336
000210 ca ea 90 be d1 e8 64 3d b3 5c 45 3e ce 25 31 be
       -0.2830413 0.055886094 0.19273643 -0.17299578
000220 9b 5d a2 3d 29 52 6f bd 1e da ea be 3d d2 62 3e
       0.0792801 -0.058427963 -0.45869535 0.22150512
000230 8b c3 ad 3d 2e 66 ba 3a 4e 80 9f bb d2 28 32 3f
       0.084845625 0.0014221126 -0.00486759 0.69593537
000240 8d 01 0a 3d 49 0b df bd 49 6e 95 bd 4e 79 b6 be
       0.033692885 -0.10890824 -0.07296426 -0.35639423
000250 4c a1 a3 3d 80 b2 28 bd cc 6a dc bd ae 2d 81 bd
       0.07989749 -0.041185856 -0.107625574 -0.06307541
000260 5f 9b 8d bd 3b 2b a7 bd 8e 63 3a be 03 f3 65 3e
       -0.069144 -0.081625424 -0.1820204 0.22455983
000270 07 85 2e 3e bf 24 0b bd 72 a4 0d be f4 39 74 3e
       0.17042933 -0.03397059 -0.13832262 0.23850232
000280 4d 34 ae 3d 74 7c eb bd 8f 52 61 bd f7 4a 75 3d
       0.08506069 -0.11498347 -0.055010375 0.059885945
000290 86 4a 33 be c0 3f 02 3e 3f f5 e4 bc 10 8c 8a 3d
       -0.17508897 0.12719631 -0.027948974 0.06764996
0002a0 07 6f 23 3d b8 ab 4b bd 42 05 e5 3c 2b 03 8d be
       0.039900806 -0.04972431 0.027956609 -0.2754148
0002b0 be fa 17 3b 64 6d 72 3e 94 d1 41 3e fb 15 ca 3d
       0.0023190225 0.23674542 0.18927604 0.09867474
0002c0 91 d7 6a bb 5c 13 78 be f7 b0 f1 3d b3 ff 97 be
       -0.0035834054 -0.24226135 0.118013315 -0.2968727
0002d0 41 19 ae bd af 97 e6 bd 09 39 5a 3e 89 6c f8 be
       -0.085009106 -0.112594 0.2131082 -0.48520306
0002e0 c5 d8 87 3d bb 6a 6c be a5 c5 a1 3d 29 c8 89 be
       0.066331424 -0.2308759 0.07899026 -0.26910523
0002f0 ca e9 c8 bc 0a 9b e3 3c 1b 38 fe 3d fa 78 1c 3d
       -0.024525542 0.02778389 0.12413045 0.03820131
000300 6a d4 0b 3e f3 ac 64 be 91 4d 1e be ee bf 32 be
       0.13655248 -0.223316 -0.15459277 -0.17456028
000310 eb ae 92 bd a3 fb ea 3c 21 39 a9 3c 05 2f 88 bd
       -0.07162269 0.028684443 0.020657124 -0.06649593
000320 e2 91 81 3d e7 e1 0b be 17 fd 86 bd 75 f2 fb 3c
       0.06326653 -0.13660394 -0.06591242 0.030755261
000330 a7 70 13 be 2a 90 3b be 07 e3 c7 be ed 18 47 3e
       -0.14398442 -0.18316713 -0.39040396 0.19443102
000340 ca e5 8e be 39 24 07 3e 57 4d f2 3d a8 1f 20 bf
       -0.2790969 0.13197412 0.11831158 -0.62548304
000350 86 67 e7 bd 73 98 e6 bd 12 03 47 bf 56 89 d8 3e
       -0.112990424 -0.11259546 -0.7773906 0.4229228
000360 e6 aa 2d be d9 26 26 3e 04 9f eb 3e 0e d2 5d bf
       -0.16959724 0.16225757 0.46019757 -0.86648643
000370 53 c4 04 bd aa a6 a2 3d 7c f7 a4 be ec fa 8d 3d
       -0.032413792 0.07941945 -0.32220066 0.06932625
000380 cf 30 be bd f5 b0 e4 3b 29 95 57 bd 4b 7f 9f bd
       -0.09286653 0.0069791027 -0.052632485 -0.07787951
000390 19 76 4d 3d 24 e3 16 bc d5 b1 d3 bd 50 26 c3 3d
       0.050161455 -0.009209428 -0.10336653 0.09528792
0003a0 45 6e 12 3e 6e 55 13 be bb df 88 3e 4a 84 01 be
       0.14299877 -0.14388058 0.26733193 -0.1264812
0003b0 05 3b 86 be ff 38 81 3d 48 b2 f4 39 c2 c4 c5 be
       -0.26216903 0.06309699 0.00046672137 -0.38626677
0003c0 ce 31 c5 bc c9 25 8a be ce 69 80 3d 3d 46 e3 be
       -0.0240716 -0.26981953 0.06270181 -0.44389525
0003d0 59 88 bd 3c bd 29 c3 3d 1f 8e f6 3b b3 7d 8c be
       0.023136305 0.09529445 0.0075242664 -0.2743965
0003e0 2b 1d 9d bc 27 8a 3c be f1 0d 13 be d9 f3 2a bd
       -0.019178947 -0.18412076 -0.14360787 -0.041736457
0003f0 09 27 01 3c ad 0c d2 be 67 5c b0 bc c8 2b 9d be
       0.007882842 -0.41025296 -0.021528436 -0.30697465

fc1.bias f4 [200]
000000 71 c6 ac 3d 23 1d 86 3d bf c1 61 3c 34 ab 8a 3d
       0.08436287 0.06548526 0.013779103 0.06770936
000010 37 ea 7d 3d 4f ae 6b 3d 76 ca c5 bd 86 a9 d9 bd
       0.061990943 0.05753928 -0.09657757 -0.10628037
000020 41 64 55 bd 72 cb 1b 3e 77 22 87 be 22 95 99 bd
       -0.052097563 0.15214327 -0.26393482 -0.07499148
000030 16 7c ef 3c 9a 88 56 be 24 0f 1a be 60 25 0c be
       0.029233973 -0.20950547 -0.15044838 -0.13686132
000040 c1 d8 f7 bd 2d 4b 04 3e 14 76 73 3d 3d 49 9d 3d
       -0.121018894 0.12919302 0.05943878 0.07679985
000050 a8 be 67 bd 72 52 08 3d bf 9a 07 be e8 3f 28 be
       -0.05657831 0.03328175 -0.13242625 -0.16430628
000060 dd c3 11 bd f9 2d eb 3c b9 d6 b2 bd bb e3 5e be
       -0.03558718 0.028708445 -0.08732361 -0.2176656
000070 15 5f 95 bd b0 e3 90 3d 1d 23 02 be 81 83 16 be
       -0.07293526 0.07074678 -0.12708707 -0.14698602
000080 f1 1a 24 3d e6 b8 08 bd 95 ab cf bd 69 b3 09 3d
       0.040064756 -0.033379458 -0.101401486 0.033618364
000090 20 76 d8 3d cb 7e a3 bb aa 21 05 be 35 55 81 be
       0.105694056 -0.00498948 -0.13001123 -0.2526032
0000a0 01 4e 39 be 9f c3 12 3e 0b 23 34 be d9 56 db bd
       -0.18096162 0.14332436 -0.17591493 -0.10709924
0000b0 3b c4 11 3e 8f d6 07 be 04 ac df bd 45 11 e8 bd
       0.14235012 -0.13265441 -0.10921481 -0.11331419
0000c0 23 98 2f bd f5 e7 2c be a9 03 00 be 6b 43 9f 3c
       -0.0428697 -0.1688536 -0.12501396 0.019441327
0000d0 07 9b ab 3c 8b 16 84 3d 68 54 85 be 6a fb 31 be
       0.020947946 0.06449612 -0.2604096 -0.17381063
0000e0 a5 34 4d bc 16 30 1d be 16 a8 de bd 04 df 38 3d
       -0.012524758 -0.15350375 -0.108719036 0.04513456
0000f0 65 83 ae bd c2 c0 9b bd 53 ae 2e bd b3 b1 8a 3d
       -0.08521155 -0.07605125 -0.042646717 0.06772175
000100 37 2c 4e bd f7 26 5e be ee ba d3 bd 20 aa 38 bd
       -0.050335135 -0.21694551 -0.103383884 -0.04508412
000110 eb 25 3b 3d b3 44 3b 3d de cf 1d be 5e 9d d2 bd
       0.04569046 0.045719814 -0.15411326 -0.10283922
000120 8d 38 1a be 30 52 3f be 47 01 e2 bc 38 64 42 be
       -0.15060635 -0.18683696 -0.0275885 -0.18983543
000130 8d 97 4b be 11 5a c5 bd e6 7b 1d be ee 20 a7 3d
       -0.19882031 -0.096363194 -0.15379295 0.08160578
000140 8d 9a 1b be 95 ee 05 be ac 35 e7 3d d5 7b 0e 3c
       -0.15195675 -0.13079293 0.11289534 0.008696516
000150 ab 91 38 be ab b5 b4 bd 92 f7 c4 bd 2c 53 73 bd
       -0.18024318 -0.08823713 -0.09617533 -0.05940549
000160 b0 c1 26 be 2e 9a 05 3e 20 32 ac bd 5e 00 df ba
       -0.16284823 0.13047096 -0.08407998 -0.0017013659
000170 8a 67 35 bd 3a ef 65 be 5c df fd 3c 15 c3 b6 bd
       -0.044288196 -0.22454539 0.030990295 -0.08923928
000180 0d 46 68 be 35 24 1a 3e 32 ff 11 bd 1b e6 d8 bd
       -0.22682972 0.15052874 -0.035643764 -0.10590764
000190 c6 ec a3 bd cc da 75 3d f9 00 7e bd b0 dd cb bc
       -0.08004145 0.060023114 -0.062012646 -0.024885982
0001a0 ac b3 74 be cd a9 f8 bd 95 d8 00 3d 55 0a 27 3d
       -0.23896664 -0.12141762 0.03145655 0.040781338
0001b0 be b1 01 bc 18 4d 1c bd 08 0c 8f bb 4d 31 eb bd
       -0.007915912 -0.03815946 -0.004365448 -0.11484013
0001c0 18 49 f8 bc 61 a6 e8 bc 85 ce 2a be 4a 98 5b be
       -0.030308291 -0.028399648 -0.16680343 -0.21444812
0001d0 f3 2b 85 be fa aa d5 3d e5 86 9d bd 2e e0 46 3d
       -0.26010093 0.10433002 -0.07691745 0.04855364
0001e0 fc bf c0 bb 94 f6 22 be 69 0e 34 bd 5d c5 86 bd
       -0.0058822613 -0.15914375 -0.043959055 -0.06580613
0001f0 ad 8f 11 3d ea 3d 16 be 83 d7 49 be bf b8 84 bd
       0.03553741 -0.14672056 -0.19711117 -0.0648055
000200 7d e3 52 be fa f3 c7 bd 38 d0 d1 3d 13 26 f4 bd
       -0.20594592 -0.09763332 0.10244793 -0.119213246
000210 e9 d2 46 be a2 6b 22 be 09 00 41 be 61 82 6f 3d
       -0.19416393 -0.15861371 -0.1884767 0.05847395
000220 ab 6f e3 bd 9c bb a6 bd 2c 26 3f bd d3 40 2a 3e
       -0.11105283 -0.081412524 -0.046667263 0.16626291
000230 ac 3a ab bb 53 35 91 3c de 81 41 be 9c d4 ff bd
       -0.0052255 0.017725622 -0.18897197 -0.12491724
000240 79 55 27 bd 8b af ec bd 10 bf 30 3d 11 15 af 3d
       -0.040852997 -0.1155692 0.04315096 0.0854894
000250 7d a0 af 3d 4b 08 c8 bd 62 63 8d 3d 77 f9 88 3d
       0.085755326 -0.09767207 0.069037214 0.06688207
000260 ce 8b 9d bd 11 80 47 3e 87 aa ff bd a3 3d 75 3d
       -0.07692681 0.19482447 -0.124836974 0.059873234
000270 a0 d4 0b bd 67 a0 65 be 21 52 8c bd d7 65 20 3d
       -0.034138322 -0.2242447 -0.06851602 0.039159622
000280 dd 4e 80 bd b3 7b 23 3e df f1 22 3e 05 96 2c be
       -0.06265042 0.15965156 0.15912579 -0.16854103
000290 b4 57 c4 bd 7f aa 0f be 2b 61 e4 3c 65 98 3c 3c
       -0.095870405 -0.14029883 0.027878365 0.011510943
0002a0 98 4e 94 bd 86 83 f6 3d a2 66 0b be d4 46 bc 3d
       -0.07241553 0.12036805 -0.1361337 0.09193197
0002b0 c6 21 37 be 83 98 b4 3d 2b 4e 87 bd f6 e6 94 3c
       -0.17883977 0.08818152 -0.06606706 0.018176537
0002c0 49 ee ec 3d 93 08 fe bd 83 66 fd bd 66 01 5c be
       0.11568887 -0.12403979 -0.12373068 -0.21484908
0002d0 8d eb bb 3c 74 80 0e 3d 13 c9 09 3e 03 9b c9 bc
       0.022939468 0.03479047 0.1345561 -0.024610048
0002e0 0b 16 fd bd 94 ce 46 be b4 70 a1 3c fc a9 81 3d
       -0.1235772 -0.19414741 0.019707061 0.0633125
0002f0 2d d6 4a be ff 26 0f 3d d5 a3 14 bd a4 b1 66 bd
       -0.19808264 0.0349493 -0.036289055 -0.056321755
000300 5f 87 4f be 9e ea 1f be e0 cd 14 3d e7 8c 0e be
       -0.20266484 -0.15616843 0.03632915 -0.13920937
000310 20 46 4f be 9a 12 ee 3d d7 0b 4e bd 92 bd a9 bd
       -0.20241594 0.11624642 -0.05030426 -0.08288111

fc2a.weight f4 [4, 200]
000000 34 a1 10 bd 69 3c 00 bd d9 6b 03 bd 1d eb 35 3d
       -0.035309985 -0.03130761 -0.032085273 0.044413675
000010 fa 17 1c be 06 f4 bc bb 66 60 b1 3d 87 f7 c4 be
       -0.15243521 -0.0057663945 0.08660965 -0.38470098
000020 bc 53 d7 3d c6 05 ea bd 03 2c b7 bd 22 b0 3e bd
       0.10514018 -0.114268824 -0.089439414 -0.046554692
000030 41 d5 80 3e 2d ac 04 be 2f 77 93 bb 98 33 7f be
       0.251627 -0.12956305 -0.004500292 -0.24922025
000040 96 d7 81 be db db 64 3c 27 32 8b 3d 89 04 fc bc
       -0.25359792 0.013968433 0.06796675 -0.030763881
000050 70 25 6f 3d e7 94 bf 3d 2a c0 19 bb fa 01 88 3d
       0.058385313 0.09354573 -0.0023460486 0.06641002
000060 8e 8e 7d 3e 97 95 e3 bd a1 7a 7e be 1d 0f cf be
       0.24761412 -0.111125164 -0.24851467 -0.40441218
000070 92 c0 f3 bb 29 f3 52 bd 65 44 95 3c f4 60 25 bd
       -0.0074387277 -0.051501427 0.01822109 -0.040375665
000080 f5 26 d3 3a 79 a9 43 3d 58 e1 ce 3d 53 76 08 3c
       0.0016109633 0.047769044 0.10101575 0.008328992
000090 6e fc 06 bc a2 74 4b bc 28 ab a9 bd 54 bd 48 be
       -0.008238895 -0.012417944 -0.082845986 -0.19603473
0000a0 8d 87 95 be af 25 37 3d 24 d7 a4 bc 51 ca 08 3c
       -0.2920498 0.044713672 -0.020122118 0.008349017
0000b0 e9 f3 70 3d 28 5c 27 bd 73 fe 07 3e e5 c4 ef 3a
       0.05882636 -0.04085937 0.13280658 0.0018292932
0000c0 5e b1 37 3e 09 71 7c be 7e 22 a7 3c 35 47 59 3e
       0.17938754 -0.24652494 0.02040219 0.2121857
0000d0 38 5d 71 be b1 89 7d be b8 4b 34 bd ac a7 d7 bd
       -0.23570716 -0.24759556 -0.044017524 -0.10530028
0000e0 bd 76 0e be 36 51 ca bc ef ac 20 bd a2 2b 68 be
       -0.13912483 -0.024696928 -0.039227422 -0.22672895
0000f0 c0 d2 86 bb f0 74 a2 bd 66 c7 e1 bc a2 6c 03 bd
       -0.004114479 -0.0793246 -0.0275609 -0.032086022
000100 cd 76 12 bd 1b 36 32 be 61 60 1a be ac 56 bd 3d
       -0.03575783 -0.17403452 -0.15075828 0.09245047
000110 47 8e e9 bd a3 11 41 3d fa 29 ed bb 62 53 01 ba
       -0.114040904 0.04713596 -0.00723767 -0.00049333845
000120 4d 70 00 3f ed e9 6f be 50 05 79 bc 48 b8 43 bd
       0.5017136 -0.2342908 -0.0151990205 -0.047783166
000130 ea b6 ea 3d 53 c0 cf be 08 50 08 3e 1d b6 45 bc
       0.11460669 -0.4057642 0.1331178 -0.012067345
000140 ca bf 26 3e 74 da 55 bd 65 30 ed 3d c4 7c 94 3e
       0.16284099 -0.052210286 0.11581496 0.2900144
000150 ab 53 ab 3e 1f fc b6 bc 96 5c 7d bd 5d ba f6 bc
       0.3346227 -0.022337018 -0.061855875 -0.030118162
000160 1b 31 8f be 33 3a 1b 3e e9 de 6c 3c 7a 51 b1 3d
       -0.27967152 0.1515892 0.014457443 0.086581185
000170 1b 38 e7 bd 46 75 52 3d 9f 7d 8e bd 1f 14 25 3e
       -0.11289998 0.051381372 -0.06957554 0.16120957
000180 86 1f ec bb 8a f9 d7 bc e2 db 83 3d 94 8e 8c 3d
       -0.0072059063 -0.026364107 0.06438424 0.06863132
000190 c4 db e5 3d 22 dd ab 3d 31 9b 10 bc ec 6c 34 bd
       0.112235576 0.08391787 -0.008826063 -0.04404919
0001a0 f5 ff b9 3e a9 79 b9 3d a3 7c a1 3e f8 ed 3b be
       0.36328092 0.09056408 0.31540403 -0.18352497
0001b0 17 8c f9 3b 5e 3b 08 ba 1c 36 88 bc 03 6e 67 3b
       0.007615577 -0.00051968347 -0.016627364 0.0035313375
0001c0 b7 a0 ea 3e 4b d3 13 bd 8d 42 51 3d 00 10 48 3c
       0.4582574 -0.036090177 0.05108886 0.012210846
0001d0 1a d1 81 be 8a 30 cf 3b fe 73 bd 3c 20 55 44 bc
       -0.25354844 0.006322925 0.023126598 -0.011983186
0001e0 fe 69 97 3d 76 56 49 3c 28 3e 2e bb c8 e1 0d 3d
       0.07393263 0.01228868 -0.002658734 0.03463915
0001f0 11 65 1e 3d 40 28 0f 3d 96 a2 77 3d 39 3f a2 bb
       0.038670603 0.034950495 0.06045779 -0.0049513844
000200 00 0e 1c 3e d0 27 bd 3b c4 c3 1c 3e 9a be d4 39
       0.15239716 0.0057725683 0.15309054 0.000405778
000210 85 46 f4 3c b0 c0 06 bd f4 eb 76 3d 65 8b b0 3c
       0.029818783 -0.032898605 0.060283616 0.021550843
000220 ba dd c7 be 6a 91 80 be 63 fb 5c 3d ec 6e 2f bd
       -0.3903635 -0.25110942 0.05395068 -0.042830393
000230 12 4f a9 3a 50 aa 3f be d9 20 b7 bd 7f dd 74 bd
       0.0012917242 -0.18717313 -0.08941812 -0.059781548
000240 ca a0 02 bc bb b4 e4 ba d1 a9 8d bc 31 08 86 3d
       -0.007972905 -0.0017448881 -0.017292889 0.06544531
000250 f6 db fa bc aa 17 8e 3c 08 a2 9b bc 8e 55 f4 3c
       -0.030622464 0.017345268 -0.018998161 0.029825952
000260 89 cd 3f 3e ab 83 3c 3d e2 1e 11 3d 18 2c 28 bd
       0.18730749 0.046024006 0.035429843 -0.041057676
000270 69 0d f3 3c 32 48 c1 bd ec 7a d6 ba 98 bc 79 be
       0.02966948 -0.09437598 -0.0016363538 -0.24388349
000280 05 b4 fe 3c a0 68 74 3d e0 37 f0 3c 71 fa 7b bd
       0.0310917 0.05967009 0.029323518 -0.061518136
000290 62 23 5c bd 3a 6c 11 bc b1 6f 37 3c 29 da 8b bd
       -0.05374468 -0.008875901 0.011196063 -0.0682872
0002a0 69 98 eb bc c0 46 f5 3c b9 20 14 bd 00 03 6b bc
       -0.028759198 0.029940963 -0.03616402 -0.014343977
0002b0 65 f0 15 bf f6 86 9e ba 43 d4 18 3b 76 6a ce 3c
       -0.5856994 -0.0012094665 0.0023319877 0.025197249
0002c0 12 b3 24 bb ae 6e fe 3e 20 0b 74 3c 53 1d ca 3e
       -0.0025131148 0.49693817 0.0148952305 0.39475498
0002d0 bb 40 c2 bc 56 53 b0 bd e5 1d b6 3c b1 f9 b5 3c
       -0.023712507 -0.08609645 0.022231052 0.022213789
0002e0 df fc 9d 3a bd bf 97 bd 5d d5 8d 3d b4 82 2b bc
       0.0012053511 -0.07409618 0.069254614 -0.010468174
0002f0 37 03 84 bd 4a 64 32 3e 83 20 a2 3e 83 52 0b 3e
       -0.06445926 0.1742107 0.3166543 0.13605694
000300 be a9 a9 bd 95 88 c8 bd 1b 58 30 3d fb e6 f0 bc
       -0.08284329 -0.09791676 0.043052774 -0.029407015
000310 64 cc d0 3c 5c 9a 55 3b 75 f9 68 3c 9f 50 d8 3c
       0.025488086 0.0032593226 0.014219631 0.02640563
000320 c4 5e 1d bd b2 58 ba bc e4 7f 5a bb cb 3c 77 3d
       -0.038420454 -0.022747371 -0.003334039 0.06036071
000330 15 1b dc 3c 2b aa 36 3b b8 34 8b bd 3c 18 d2 3d
       0.026868382 0.0027872424 -0.06797165 0.102585286
000340 42 f0 11 bd d2 99 94 3d ff dd 26 be ca e5 02 3b
       -0.03562952 0.072559014 -0.16295622 0.001997339
000350 67 a4 0d bd 44 4c e3 3d d8 63 92 bd c7 fd da 3c
       -0.034580614 0.11098531 -0.0714795 0.026732339
000360 55 4c fa bd f1 18 98 bc 96 a4 06 be 1a f6 c5 3d
       -0.122215904 -0.01856658 -0.13148722 0.09666081
000370 07 b1 53 3d de ed 9a 3c 31 b2 5c bd 26 ab 63 3d
       0.0516825 0.018912252 -0.053880874 0.05558314
000380 69 fd 84 bd 87 d4 79 3d 20 1e 8b 3e 55 4f fb bd
       -0.06493647 0.060993697 0.2717142 -0.12270991
000390 93 58 85 bc 6c a7 6b bd de 89 3f bd 91 4d 85 bc
       -0.016277587 -0.057532713 -0.04676234 -0.016272338
0003a0 f3 d9 54 bd a5 0f 7d 3d 18 65 13 3e b7 7f 0f 3c
       -0.051965665 0.061782498 0.14394033 0.008758477
0003b0 74 4f 48 3d 4a 10 ff bc 49 27 b1 bc 42 73 64 3e
       0.048903897 -0.031135697 -0.021625178 0.22309592
0003c0 4a 59 88 3c c7 88 c5 bb 73 2b 6f be 6f e4 78 bc
       0.016644139 -0.006028268 -0.23356418 -0.015191182
0003d0 f8 7f fb 3c 92 fd ef 3c 4e 78 5f bc a3 fa 98 bb
       0.030700669 0.029295716 -0.013639523 -0.00466855
0003e0 d7 34 0e bd 94 07 87 3c 3c 5b 9e 3b 40 ae 3c 3d
       -0.03471836 0.016483106 0.0048326533 0.046064615
0003f0 2d 79 88 bc a4 d8 c0 3c 2d 85 03 3d c3 79 90 3d
       -0.016659344 0.023540802 0.03210943 0.07054474

fc2a.bias f4 [4]
000000 bc 1d 9e bc 52 f2 01 3e 05 f1 8c bd e4 a4 cc bc
       -0.019301288 0.12690094 -0.06881908 -0.02498097

fc2c.weight f4 [1, 200]
000000 61 c1 95 bb 23 2a 68 bc a4 32 51 bb ae 77 fe 3c
       -0.0045701717 -0.014170202 -0.0031921053 0.031062927
000010 f1 22 ac 3d 33 fd c5 3d a0 7e 29 bc c0 09 3d bd
       0.08405102 0.096674345 -0.010345131 -0.046151876
000020 a5 d9 73 bd 25 36 41 3e 30 75 b9 bd 14 9b 4c bb
       -0.059533734 0.18868311 -0.09055555 -0.0031220363
000030 d7 ad 4c bd 59 c4 c7 3a 9e 39 14 bd ee a0 39 3d
       -0.049970474 0.0015241011 -0.03618776 0.04531949
000040 92 ea 93 bd ad 93 22 bb 86 8c 26 be f7 b3 b6 bd
       -0.07222475 -0.002480726 -0.16264543 -0.08921044
000050 0b 87 8e 3c b6 24 4c 3d 5e 12 2e 3c e5 23 5b 3d
       0.017398378 0.049839698 0.010624496 0.05350103
000060 fa 58 20 3d 15 97 5f 3d 69 26 22 3d 78 92 90 3d
       0.039147355 0.054587442 0.039587412 0.07059187
000070 1e 02 94 bd 44 fe 89 3c 58 af b8 bc fe 87 db 3d
       -0.07226966 0.016844876 -0.022544548 0.10719298
000080 01 79 d4 3c 2b 2b d7 bb 4b 61 eb bd 5a 3c e8 3a
       0.025936605 -0.0065664253 -0.114931665 0.0017718181
000090 4f 4b f8 bb 6e 06 a6 3c 4e a4 2e bd b3 eb 3b bc
       -0.007577337 0.020266738 -0.042637162 -0.011469769
0000a0 e6 dc 9d 3c 63 64 88 3b be 82 ff bc e0 7d 82 bc
       0.019270372 0.0041623577 -0.031190272 -0.015929163
0000b0 38 90 24 3c 65 6f a2 bb a2 82 3c bb e0 f9 77 3b
       0.01004415 -0.004957127 -0.0028764387 0.0037838146
0000c0 9d 7b 13 bd 0b f2 c2 3c 12 d1 87 bc 60 e4 08 3e
       -0.03600656 0.023797056 -0.016579185 0.13368368
0000d0 d0 79 8e bc 8e e3 2e bd da b5 4a 3d 5f 7d 4e bd
       -0.01739207 -0.04269748 0.049489833 -0.050412532
0000e0 b3 ae a4 bd 26 a2 13 bc 30 ad 89 3d dd a3 cb 3d
       -0.08041134 -0.009010827 0.06722486 0.09943364
0000f0 55 4f ab 3b f1 e0 9e bd 52 c5 b4 ba 49 02 89 bd
       0.005227963 -0.07757748 -0.0013791716 -0.06689889
000100 da 95 43 38 ac 8a be 3d 21 b1 90 3c 50 bd ae bb
       4.6631183e-05 0.09303793 0.017662587 -0.0053326264
000110 07 c1 86 3d 88 ae 3b bc e0 f4 58 bc 0a 3e 2d 3c
       0.06579786 -0.011455186 -0.0132419765 0.010573873
000120 fc 8f 09 3d 67 d6 4d 3d 50 c9 84 bd 10 58 4c bd
       0.03358458 0.050253298 -0.0648371 -0.04988867
000130 4b 79 6f bd 3c a0 38 3d 74 75 3c 3d 3b 9d 21 ba
       -0.058465283 0.045074686 0.04601045 -0.0006165092
000140 33 7a a1 bd 37 db e9 bc f3 a7 36 be 06 86 59 bb
       -0.07884636 -0.028546913 -0.17837505 -0.0033191456
000150 48 6f 0b be 46 9c b3 3b 3c 5d a6 3b ac bf cd bd
       -0.13616669 0.0054812757 0.0050770324 -0.10046324
000160 c9 5c c1 3d 59 f2 a9 3c 72 51 c1 bb 13 56 12 3e
       0.094415255 0.020745443 -0.0058996016 0.14290647
000170 67 31 37 3c fa 29 a4 3b 10 fc 83 bd 56 1b d5 3c
       0.011181212 0.005009887 -0.064445615 0.026014011
000180 e2 56 16 be 86 cc 35 3b 1d d4 88 3d f7 82 3f bc
       -0.1468158 0.0027740314 0.066810824 -0.011688939
000190 8b 26 0c 3d fa f9 85 3d f6 9f c0 bd 7c 15 b5 bc
       0.034216445 0.0654182 -0.0940551 -0.022104971
0001a0 ff 76 29 bd 09 b2 f9 bc e3 b9 ac bd bc 25 b8 3c
       -0.04137325 -0.030480402 -0.084338926 0.02247893
0001b0 1c 58 0c 3c b6 59 f2 bb d3 f1 5e bc fb a3 38 bc
       0.008565929 -0.0073959483 -0.01360746 -0.011269565
0001c0 5b b3 43 bc a6 43 27 bc 30 f4 96 3c 46 b0 05 3d
       -0.011944617 -0.010209 0.018426985 0.03263881
0001d0 10 46 97 bd cb 7a 86 3b ba 1e 92 bd bc 97 f5 bb
       -0.0738641 0.0041039935 -0.07134767 -0.007494895
0001e0 15 f5 76 3c e9 76 af 3c df 49 13 3d af 73 cc bc
       0.015073081 0.021419005 0.03595912 -0.024957506
0001f0 36 0c a1 bd ef 60 15 bc ee fe 61 3d 8d 76 e1 3b
       -0.07863657 -0.009117349 0.05517476 0.0068805874
000200 b4 3b c5 b9 23 22 b8 3d b1 fa cf 3d b3 d4 71 bc
       -0.0003761925 0.08990886 0.101552375 -0.014760184
000210 c2 3d d3 3a 83 b5 64 bb 0f d3 c9 3c 9f 44 db bb
       0.0016116428 -0.0034898228 0.024636773 -0.00669153
000220 a2 19 d6 bd 7c eb b7 3c f2 44 45 3b 00 36 a7 bc
       -0.10454108 0.022451155 0.003010091 -0.020411491
000230 90 69 16 3c de cc 71 bd fc 50 f4 3d ad 0f 27 bd
       0.0091804415 -0.059033267 0.11929509 -0.040786434
000240 52 22 ad bc c4 96 04 3c 95 8f f8 3b 83 45 06 bd
       -0.02113453 0.008092586 0.0075854757 -0.032781135
000250 a8 7b 85 3c 6e 16 4d ba 41 a2 79 ba 39 c3 88 3d
       0.016294315 -0.00078234717 -0.0009522774 0.06677861
000260 32 7f 74 3d a0 9b 5a be 65 b1 8a bd e6 a3 ce bc
       0.059691615 -0.21348429 -0.067721166 -0.025224637
000270 c9 a0 38 bd 2f 9d 0a bd 0e 4e 83 bc c9 3c 87 bc
       -0.04507521 -0.03384131 -0.01602843 -0.016508477
000280 71 10 6c 3b a1 26 9e bc ce dd 07 bc c4 b1 9f 3d
       0.0036020542 -0.01930553 -0.008292628 0.07797578
000290 5c 41 b3 bd 06 52 ae bc e9 24 82 bb f2 93 96 bb
       -0.08752701 -0.021279346 -0.003971685 -0.004595273
0002a0 3a 8e 39 bb 95 53 ea 3d c7 ad 6a bc 96 45 42 3d
       -0.0028313533 0.11441723 -0.014323658 0.047429644
0002b0 30 12 c6 bd 4e 0f 20 3b 31 01 bf bc d1 be f8 3d
       -0.09671438 0.0024423185 -0.023315998 0.1214577
0002c0 ab 9a 12 bd 38 f3 9f 3d 6a 67 1d 3c 60 86 98 bd
       -0.035792034 0.07810062 0.009607175 -0.07447505
0002d0 34 1f b7 3b 09 1d 12 bd 23 bd 06 3c d5 a1 57 3b
       0.0055884365 -0.03567222 0.008223805 0.0032902856
0002e0 4e 5b a8 3b 39 66 44 3d 22 6f cc 3c 80 2f cd bb
       0.0051378375 0.04794905 0.024955336 -0.006261766
0002f0 a9 4d 3d bd fd 37 e3 bb 56 bf d2 bc 79 a6 b3 3d
       -0.04621664 -0.0069341646 -0.025726002 0.087719865
000300 10 19 fd 3c cb fe f3 bd 34 98 8e 3d 63 63 ba be
       0.03089574 -0.11913832 0.06962624 -0.3640395
000310 60 90 87 3d 09 dd dd 3a 69 14 42 3a 05 55 d8 bb
       0.06619334 0.0016926836 0.0007403554 -0.006601932
