test1/pth/controller_best.pth (torch, 21207 bytes, 5 tensors)

fc1.weight f4 [200, 18]
000000 71 47 50 3e 25 2e 94 bd 1d 9e bf be dd 45 f5 bd
       0.20339753 -0.07235364 -0.37425318 -0.11976216
000010 eb 9f 20 3d 0e 50 61 be 96 75 8a 3e 2f 79 a8 3d
       0.03921501 -0.22003195 0.27042836 0.08226239
000020 8e 04 37 3e df e6 60 bd 0d 72 16 be ea 03 e0 3d
       0.17872831 -0.054907676 -0.14691944 0.109382465
000030 d9 3c 20 3e c3 02 d7 bd cc 52 37 be f9 b5 96 bd
       0.15648212 -0.10498574 -0.17902678 -0.07358927
000040 48 64 8a bd bc 5a 50 3d 4e e9 1d bd 36 ae 4a be
       -0.067574084 0.05086778 -0.038552575 -0.19793019
000050 dd 64 bb be 2c 77 c8 3d 57 59 80 bd e2 7d 1e 3d
       -0.3660039 0.09788355 -0.0626704 0.03869427
000060 44 52 1e 3e 75 2b 9f 3e a7 44 2f 3d 75 51 be bd
       0.1546107 0.31087843 0.04279008 -0.092928804
000070 29 44 1c be 51 9f 02 be e1 b1 ce bd a9 cc 0f 3e
       -0.15260376 -0.12756087 -0.100925215 0.14042915
000080 3d fe 42 be e6 7f 49 be b5 80 b8 bc 2d ab 4b bd
       -0.19042297 -0.19677696 -0.02252231 -0.049723793
000090 46 58 50 3d ec 6f 1d 3e e8 87 b1 bd 0a 88 03 3e
       0.050865434 0.15374726 -0.086685 0.12844864
0000a0 29 15 4b be 2d 93 77 3e 9d 28 b6 bd 3e 32 1b be
       -0.1983229 0.24177237 -0.08894465 -0.15155885
0000b0 5f 6e 58 bd 7c c5 25 3e a1 5a 4e bd 50 60 6f 3c
       -0.052839633 0.16188616 -0.0503794 0.014610365
0000c0 fa 27 18 3e 5a 3e f9 bd 85 d9 39 be cc c5 b8 bd
       0.14859 -0.12170096 -0.18149383 -0.09022102
0000d0 71 3c 57 3d 8c aa 3a 3d e0 21 8d be a3 4d bf 3d
       0.052547876 0.045572802 -0.27564907 0.0934098
0000e0 95 ed 21 3f 55 8b 1f 3d 43 9a a5 bd db 11 92 3a
       0.63253146 0.038951237 -0.08086064 0.0011144237
0000f0 7d 3e 7b 3d 42 fe 67 3e ef b8 55 be 09 f6 c7 bd
       0.06133889 0.22655585 -0.20871328 -0.09763724
000100 52 16 c6 3d 8d 04 36 bb ac 87 5f 3d da 51 87 bd
       0.09672226 -0.0027773709 0.054572746 -0.06607409
000110 ec 8b fd bc 97 64 ee bb 3d a8 f1 bc 5f 18 ed 3d
       -0.030950509 -0.007275175 -0.029499168 0.11576914
000120 a8 e9 a5 be 65 3a a9 3d 46 df 0b 3f b6 c7 85 3d
       -0.32404828 0.08263091 0.54637563 0.065322325
000130 48 62 9b bd c4 02 f4 3c b6 bb a3 bd ef 1a 25 be
       -0.07587105 0.029786475 -0.079947874 -0.16123556
000140 88 59 42 3d 53 0f 34 3e 63 8e d8 3d 4b 86 15 3e
       0.047448665 0.1758397 0.10574033 0.1460201
000150 2a 24 00 be ed fa 0c 3e 15 62 fb 3d 5e e9 ad 3d
       -0.12513795 0.13767596 0.12274567 0.08491777
000160 b8 1b 0d bd 39 aa e1 3c 1c 2d 9d be fb 72 82 be
       -0.034450263 0.027546989 -0.30698478 -0.25478348
000170 de 83 d3 3d 36 e2 23 3e cf 9b 7e be 5d ec 6d bc
       0.10327886 0.16004261 -0.24864124 -0.014521685
000180 aa 4e d9 3d d0 2e 8e be 0f fd b0 bc 0c 59 15 3e
       0.10610707 -0.2777009 -0.021605043 0.1458475
000190 7e 5c 9a 3d 9a 20 11 3e 88 a9 d1 3c ea 65 21 3e
       0.07537173 0.14172593 0.025593534 0.15761533
0001a0 a6 f0 0a be 26 9f 36 3e 1f 92 81 bd 5d c3 d1 3d
       -0.13568363 0.17834148 -0.063266985 0.10242341
0001b0 de 1a bc 3d 82 f4 e3 bd 27 3c 03 bf ac c5 d7 3e
       0.09184812 -0.111306205 -0.5126366 0.42143
0001c0 30 4a 91 be 48 0b a0 bd 6e a0 0a bd d7 26 53 bd
       -0.28376913 -0.07814652 -0.033844404 -0.051550712
0001d0 c8 05 80 bd 09 9f ba bd 49 5c 26 be 05 46 9b 3c
       -0.06251103 -0.09112365 -0.16246141 0.018954286
0001e0 71 be 9f bd 07 65 b3 3d db 40 65 be 8c c6 f9 bd
       -0.07799996 0.08759504 -0.22388022 -0.12196073
0001f0 51 33 81 be 6f 28 53 be b6 5a 1f 3e fc 7f f2 bd
       -0.25234464 -0.20620893 0.15561947 -0.11840817
000200 6c 50 96 3e 6d 36 52 be 5e ef 84 bc 1d 40 e0 bd
       0.29358232 -0.20528574 -0.01622742 -0.10949729
000210 58 e7 9d 3e 32 ab 53 bd 84 c2 18 3e f7 33 1b 3d
       0.30840564 -0.051676936 0.14917952 0.037891354
000220 80 6a 9d 3d c8 80 cb 3d 4c 9b 52 3e a9 b6 1f be
       0.07686329 0.099366724 0.20567054 -0.15597023
000230 9e 42 a5 bd 8d c0 df bd c4 45 71 bd f7 1f ca 3d
       -0.08069347 -0.10925398 -0.058904424 0.09869378
000240 93 80 48 be 44 ef 60 3c 5b a3 69 be f6 db 56 3e
       -0.19580297 0.01372892 -0.22816221 0.20982346
000250 4c 15 74 3d 40 c4 ae bd 2d b0 0e 3d 76 71 82 3e
       0.059590623 -0.085335255 0.034835983 0.2547719
000260 a4 42 42 3e 92 8f c4 bb 40 54 96 3d ed 78 11 3e
       0.18970734 -0.00599856 0.07340288 0.14206286
000270 55 b7 15 be 3a e2 50 be 40 eb 0f be 88 3b a4 3d
       -0.14620717 -0.20398799 -0.14054585 0.08019167
000280 95 9c f9 3c c1 85 a2 3d e3 04 71 be 1d 5e fa bd
       0.030470172 0.07935668 -0.2353702 -0.12224982
000290 c2 96 72 3c 06 65 fc 3c ae 10 e8 be ec b8 de 3e
       0.014806451 0.03080989 -0.45325226 0.4350046
0002a0 6c 2f a0 be f3 b8 a8 be 19 c4 72 3e 90 15 0f be
       -0.3128618 -0.32953605 0.23707618 -0.13973069
0002b0 15 aa ff 3d 7e 9b e8 bd b6 76 7d 3d d5 ac 18 bd
       0.124836124 -0.11357783 0.06188079 -0.0372742
0002c0 5b 13 44 3d 65 f1 29 3e 0d 6b 03 3e 20 63 42 bc
       0.04787002 0.16595991 0.12833805 -0.011864454
0002d0 16 6e 0a 3e fd 6f a1 3e 27 38 d7 be 21 76 80 be
       0.13518557 0.31530753 -0.42035028 -0.25090125
0002e0 26 82 bb 3b 8f 02 53 bd e1 78 01 be 55 93 84 3e
       0.005722302 -0.051516112 -0.12643768 0.25893655
0002f0 e4 55 02 bb 26 de 1d bb dd ac d3 bd 9a 4f 3f be
       -0.001988762 -0.002408871 -0.103357054 -0.1868271
000300 13 02 e2 3d 8d 9a 24 be da e5 35 3e 5f 39 95 bd
       0.11035552 -0.16074581 0.17763463 -0.07286333
000310 be fd f0 3d 4c dd a6 bc f0 76 3d 3e a7 55 0b be
       0.117671475 -0.020369194 0.18502402 -0.13606893
000320 8c 81 03 bf 98 92 b7 be f8 a6 16 be c9 45 3f be
       -0.5136955 -0.3585403 -0.14712131 -0.18678965
000330 05 4e 44 be 84 9f 04 be a6 6b dd 3d 3a 24 6d 3d
       -0.19170387 -0.12951475 0.10811548 0.057895876
000340 0a ca aa 3d 47 00 04 3e e1 c0 45 3e 64 46 a3 bd
       0.08339317 0.12890731 0.19311859 -0.0797241
000350 d4 23 ec 3c 4e 32 2a be d8 1e 11 be 16 1d 33 3e
       0.028825678 -0.16620752 -0.14171922 0.17491564
000360 c4 31 70 3e 8c 59 1d be 12 50 f7 be 97 f9 ab bd
       0.23456484 -0.1536619 -0.48303276 -0.08397215
000370 ea ee da 3d 59 75 06 bd 81 14 bf bd b2 ab 6b bd
       0.106901005 -0.032826755 -0.09330083 -0.05753679
000380 d2 73 0d bd 07 79 cc bd 9a e5 28 be dc fd 37 3d
       -0.034534283 -0.09984022 -0.16493836 0.044919834
000390 99 09 5c 3e 65 ed 1d 3e c0 91 03 be 6e 04 0d 3e
       0.21488036 0.1542259 -0.12848568 0.13771221
0003a0 73 c6 0f 3e 19 20 eb 3d c8 2e a7 be 96 1e 07 be
       0.14040546 0.114807315 -0.3265288 -0.13195261
0003b0 4b fe c2 be c8 75 4a 3d 7e d6 01 3e 5f 83 0b 3e
       -0.38084635 0.04942873 0.12679479 0.13624333
0003c0 12 57 20 3e 7e 45 c4 3e 0b c8 a6 3d bf a8 f7 bd
       0.15658215 0.38334268 0.08143624 -0.12092733
0003d0 75 dc 22 3e 6c ec 4b be 5d 05 1a be c5 1c 20 3e
       0.1590441 -0.19914407 -0.15041108 0.15635975
0003e0 5b ec 7a bd 1f d7 ae bd 22 e0 80 3d dc 15 5b 3d
       -0.061260562 -0.08537125 0.0629275 0.053487644
0003f0 35 f3 7e be fb 2c 17 be 54 ad 92 3e 54 a8 6f 3e
       -0.24897464 -0.14763252 0.28647864 0.23404056

fc1.bias f4 [200]
000000 46 e6 b0 3e 2c 59 a8 3c 50 29 ac 3d 25 c4 f2 bd
       0.34550685 0.020550333 0.08406317 -0.11853818
000010 56 58 b2 be 96 4e f1 bd af 90 82 3e e2 e9 94 3e
       -0.3483302 -0.11782567 0.2550101 0.29084688
000020 1b 0f 53 be 20 d3 6a 3e 2c 81 8a 3d 96 31 d8 bd
       -0.20611231 0.229321 0.06762919 -0.10556333
000030 2b a9 a2 3e 61 97 57 bb a3 8d 13 3e 89 a8 12 3e
       0.3176969 -0.0032896625 0.14409499 0.14322104
000040 eb 5b 12 3e 1e aa 14 be 45 97 ae be ff 0e ca 3d
       0.14292876 -0.1451802 -0.34099784 0.098661415
000050 1d 9b d2 3e b0 0e a3 3e 2c b1 80 bb 19 64 ca 3e
       0.41133967 0.31847143 -0.0039273705 0.39529493
000060 34 18 b5 3d d7 4e 4f 3d 47 70 bc be 0f 63 d2 3d
       0.08842507 0.050612297 -0.3680441 0.102728
000070 41 44 9e be ef fe 17 be 5f 27 2a 3e e3 b7 32 3e
       -0.3091145 -0.14843343 0.16616581 0.1745296
000080 5f 04 3a be 72 e6 76 bd dd 53 95 3e 58 3a 57 3d
       -0.1816573 -0.060278364 0.29165545 0.052545875
000090 b7 fa 64 3e d2 35 3d be f4 0f 39 3e d8 8e bf be
       0.22361265 -0.18477562 0.18072492 -0.3741367
0000a0 52 f5 c2 3c 2f 4f ee bd 22 ca 43 bd ed b0 45 3e
       0.023798618 -0.11636197 -0.04780019 0.19305773
0000b0 db b9 44 3e a9 2d ca be 22 b8 82 3e 7a a1 02 be
       0.19211523 -0.3948796 0.25531107 -0.12756911
0000c0 bb 26 8c 3d 33 95 5d 3e 94 89 e8 3c 55 aa 8d 3e
       0.06843325 0.21638946 0.028385915 0.27669016
0000d0 99 60 4b bc 2d b5 ce be 4a fe 15 3e bc 40 ae be
       -0.012413167 -0.403726 0.14647785 -0.34033763
0000e0 4f 41 66 3e 53 c8 c0 3e 4e f9 8b be c6 06 10 bd
       0.22485851 0.37652835 -0.27338642 -0.03516271
0000f0 fe fa 09 be a6 5f a7 3e 48 82 d5 3d b0 91 27 be
       -0.13474652 0.3269016 0.1042524 -0.16364169
000100 dd 68 ec 3d c2 4b 11 bd 59 ac be 3e 2f 7b 99 bd
       0.115434386 -0.03547264 0.37240866 -0.074941985
000110 3d 9d c1 be 8a b5 90 be db 56 2e be 48 26 ab bd
       -0.37815276 -0.28263503 -0.1702532 -0.08356911
000120 18 0f bd be 54 0b b0 3e 54 4d 66 3e 37 4a 9f be
       -0.36925578 0.34383643 0.22490436 -0.3111131
000130 84 48 8a be 8a 44 88 be b3 db 53 3e 03 cc 44 3e
       -0.2700845 -0.2661479 0.20689277 0.1921845
000140 b9 a4 5e be f0 98 22 bd 55 36 a2 be b9 57 bc be
       -0.21742524 -0.039696634 -0.31682077 -0.36785677
000150 6c 60 34 be 16 4f 99 3c ca 98 32 3e 34 2f 9e bd
       -0.17614907 0.018714469 0.17441097 -0.07723847
000160 6c 5c f7 3d 77 dd 97 be a1 b5 d9 bc de 34 bd be
       0.12078175 -0.29661152 -0.026575865 -0.36954397
000170 0b 1f 96 3e 94 12 cb bd 0f e6 9f bd ab c8 0b 3e
       0.2932056 -0.09915653 -0.07807552 0.13650768
000180 71 76 bf be f0 22 94 3e b5 27 15 bd fc a6 c2 be
       -0.3739505 0.28932905 -0.03641482 -0.38018024
000190 63 06 4c be ab c3 b6 3e a6 b6 56 bd bf 92 d6 3d
       -0.19924311 0.35696158 -0.05242028 0.10477208
0001a0 36 2e 1b be a2 fa aa be 1a 4f 61 3e 75 91 8d 3e
       -0.15154347 -0.33394343 0.22002831 0.27650037
0001b0 97 e4 4b 3e 9d 06 f5 bd 41 13 e6 bc ff f8 da 3d
       0.19911419 -0.11964152 -0.028085353 0.106920235
0001c0 a6 f4 1f be 7d 31 1f 3e bb 26 bd 3d a0 9b da be
       -0.1562067 0.15546222 0.09235903 -0.42696857
0001d0 6b d9 9c be 2d 59 2c be 78 2a af bd 3f ed 12 3e
       -0.30634627 -0.16830893 -0.08553022 0.14348315
0001e0 6b ba 95 3e 6c 6e 52 3e 9e 64 72 bc d1 21 a4 bc
       0.29243788 0.20549935 -0.014794497 -0.020035656
0001f0 3c 57 06 3e 4c aa b7 3d f7 c7 c1 bd 86 73 dc bd
       0.13119215 0.089680284 -0.094619684 -0.10764222
000200 61 cf 55 3e e3 11 f4 bc d1 e6 d3 3c 25 83 1e be
       0.2087989 -0.029793685 0.025866898 -0.15479715
000210 e3 1d 7a bd 06 45 bd be 56 87 16 be 19 3a 42 be
       -0.06106366 -0.36966723 -0.14700064 -0.18967475
000220 33 26 03 3d a8 db ba be d3 9e 1b be 4b 57 47 3e
       0.03201885 -0.3649571 -0.15197305 0.19466893
000230 09 71 aa 3d 99 81 29 be da 5b 17 3d f3 ed 6f bd
       0.08322341 -0.16553344 0.03695283 -0.058576535
000240 fc f0 9a be f9 da a5 3e cb cd b9 bd 78 bc 4d 3e
       -0.3026198 0.32393625 -0.09072455 0.20091426
000250 f7 bf ba bc a6 94 c4 bd 04 eb 6d 3e 70 6b ca 3e
       -0.022796614 -0.09598665 0.23234183 0.39535093
000260 72 73 22 3e 90 ed dc bb d5 b0 f9 bd d3 06 e0 bd
       0.15864351 -0.006742187 -0.12191931 -0.109388016
000270 27 1a 3f be 42 ff 7e 3e 73 fc 9f 3e f4 58 41 be
       -0.1866232 0.2490206 0.3124729 -0.18881589
000280 e9 1d 4f 3d bd 99 09 be 22 98 75 3e fc ff 4e be
       0.050565634 -0.13437553 0.23983815 -0.20214838
000290 e8 a5 44 3e ba 3b c8 bc a7 a4 41 be f6 f2 a0 3d
       0.19203913 -0.024442542 -0.18910466 0.07858841
0002a0 c1 22 b1 be 49 d9 2d be 3f b4 32 3e 02 b0 85 3e
       -0.34596828 -0.16977419 0.17451571 0.26110846
0002b0 77 f9 0b 3e f4 09 c7 be 7f 6d 43 be 8d 3d fe be
       0.13669382 -0.3887478 -0.19084738 -0.49656335
0002c0 1b 2e c7 3d 70 ac 50 bd 8e b2 2c 3e d5 67 a8 bd
       0.09725591 -0.0509457 0.16864988 -0.082229294
0002d0 23 29 b2 3d 7f de 40 3d db 30 8d 3d 85 1a 97 3e
       0.086992525 0.04708719 0.06894084 0.2951242
0002e0 e7 6c d9 3e 6a c5 ab be f7 d3 42 be 6e ef bb bc
       0.42465898 -0.33549052 -0.1902617 -0.022941317
0002f0 cc 4e f7 bd 40 b0 83 3d 94 57 da be e2 de 65 be
       -0.12075576 0.064301014 -0.42644942 -0.22448304
000300 0f 93 8c 3e b6 61 16 be 0a 25 da 3c 6d f9 ce 3e
       0.27455947 -0.14685711 0.02662899 0.40424672
000310 e4 d2 36 bd 05 62 b5 3d 6c 91 a6 3e aa b2 9b 3e
       -0.044634715 0.08856586 0.32532823 0.30409747

fc2a.weight f4 [4, 200]
000000 98 c7 8a bd cd 99 4e bd 07 ac d0 bd 67 18 3b 3e
       -0.06776351 -0.050439645 -0.101890616 0.18271028
000010 82 d5 8a 3d 97 65 21 bd 8e 8d a0 be 26 17 13 3d
       0.06779005 -0.039403524 -0.31357998 0.035910748
000020 f5 d5 2e 3b 95 a9 91 be e6 84 85 3c a7 d8 ec bd
       0.0026677821 -0.28449693 0.016298722 -0.11564761
000030 a1 72 88 bd f6 60 52 bc 71 3d 8e bd a1 25 75 be
       -0.06662489 -0.0128405 -0.06945313 -0.23940136
000040 30 07 24 be 22 8f 3f 3e 4e 35 e0 3d a6 f5 f3 bd
       -0.16018367 0.18706945 0.10947667 -0.11912088
000050 4a e2 03 be ba 7d 6c bd d9 02 93 be e9 40 da bd
       -0.12879291 -0.05773709 -0.2871311 -0.10656912
000060 4c 4a 14 3e 7a ef 79 be 7c 93 50 3e f9 ab eb bb
       0.14481467 -0.2440776 0.20368761 -0.0071921316
000070 68 7c 8a bd 5b f0 94 3d 1a f6 77 bd 65 1f ca bc
       -0.0676201 0.07272407 -0.060537435 -0.024673173
000080 f7 d0 0c 3e b0 00 a6 bd db ae 44 be b6 75 03 be
       0.13751589 -0.081056 -0.19207327 -0.12837872
000090 91 cc db bd 90 d7 76 3e 27 6b fe bd 0e f1 84 3d
       -0.10732377 0.24105668 -0.124227814 0.0649129
0000a0 4f 62 5c 3e 1a 13 35 3e 1d 9e 2d 3e 2f b8 46 be
       0.21521877 0.17683068 0.16954847 -0.19406198
0000b0 f3 87 2e be 43 8b b6 3e 58 1e 8e bd 59 91 0e 3e
       -0.17044048 0.35653123 -0.06939381 0.13922633
0000c0 f3 d2 40 bc 28 6e 1e bd e0 f4 82 bd 51 be a3 3c
       -0.011769044 -0.038679272 -0.063943624 0.01998821
0000d0 ed 60 5f 3e 6e 2f 7c 3d ac 6e a1 3a e1 c4 03 be
       0.21814318 0.06156867 0.0012316308 -0.12868072
0000e0 e4 86 b8 bd 56 9e 97 bd 98 8e 86 3d 54 32 0b bd
       -0.09010103 -0.07403247 0.06570166 -0.033983544
0000f0 ce a5 6d 3e 94 59 ab 3d 34 06 03 be 33 cd 6e 3d
       0.2320778 0.08366695 -0.12795335 0.058301162
000100 24 cb 11 3e f5 80 2e 3e 65 a2 7d be 09 6f 70 3d
       0.14237648 0.1704138 -0.2476898 0.05869964
000110 9f a5 1b 3c c5 12 a4 3b c0 65 eb bd c8 c8 8c bd
       0.009499936 0.0050071203 -0.11494017 -0.068742335
000120 a9 8d 2f bd 59 2a 98 be 7e fa 8b be dc 76 52 bc
       -0.042859707 -0.2971981 -0.27339548 -0.012845721
000130 bc 42 a0 bb 88 27 90 bd 49 16 87 3d d5 99 04 be
       -0.004890768 -0.0703879 0.065960474 -0.12949307
000140 25 5b 43 3e 8d f2 7a bd 3c 5e 7e 3e 35 93 48 3d
       0.19077738 -0.06126647 0.24840635 0.048968513
000150 07 93 d7 bd d6 10 5a bb e0 f4 22 be 56 20 0c 3e
       -0.1052609 -0.0033274195 -0.15913725 0.1368421
000160 b3 dd eb bd 93 ec e5 3d c9 a9 05 ba 52 c0 c8 3d
       -0.11516895 0.112267636 -0.00050988473 0.09802307
000170 3d 75 c7 bd 11 ee 23 3e cb 48 10 bd 3b 3a 26 3d
       -0.09739158 0.16008784 -0.03522567 0.040582877
000180 36 23 df 3b 5a 44 02 be 6b bc 44 bc 28 5f ce 3d
       0.0068096174 -0.12721387 -0.012007813 0.10076743
000190 e3 c5 1b 3e 10 1f 78 be 0f 83 51 bd ec b1 9a 3d
       0.15212207 -0.242306 -0.051150378 0.07553467
0001a0 aa 97 4a 3d d5 a5 52 bd a7 f8 59 be cd 8b 8c 3d
       0.049461044 -0.05142768 -0.2128626 0.068626024
0001b0 34 91 f9 3d 17 94 1e 3e 99 7b 4d bc a2 61 7f 3c
       0.121858984 0.1548618 -0.012541675 0.015587242
0001c0 6c a1 29 bd a4 67 6c bd 71 64 f8 3d ed 4e a8 3d
       -0.04141371 -0.057716027 0.12128533 0.08218179
0001d0 9f 0b fe bd 59 e9 90 bd c8 52 11 3e 02 95 df bc
       -0.1240456 -0.070757575 0.14191735 -0.027292732
0001e0 0d 15 1a be e1 a8 48 be 4c 82 bf bd c2 e6 dd 3d
       -0.15047093 -0.19595672 -0.09351024 0.10835029
0001f0 28 21 34 bd 0b 48 48 be 63 c2 c7 3c d5 19 93 3d
       -0.043976933 -0.19558732 0.024384683 0.071826614
000200 d9 88 8b 3d ae 54 1f 3e 87 39 44 be 5c a6 01 bc
       0.06813211 0.15559646 -0.1916257 -0.007913198
000210 27 cf db 3d 0d 83 b3 3c 5e 18 27 3d d8 69 1b be
       0.107328705 0.021913076 0.040794723 -0.15177095
000220 95 a3 10 be f6 4c 2f 3e ca f1 98 bd 59 4c c6 bd
       -0.14124902 0.17119202 -0.074679926 -0.09682531
000230 d4 a1 10 be 92 c8 dc bc 43 2e 13 3d de 73 0e 3d
       -0.14124233 -0.026951108 0.03593279 0.03477847
000240 c9 34 b3 3d cc 03 d6 bd 50 84 95 3d 44 b4 eb 3c
       0.08750302 -0.10449943 0.07300627 0.02877248
000250 35 31 8f 3d 5c d0 08 3d ac aa 3e be e3 3c 54 bc
       0.06991807 0.033401832 -0.18619794 -0.01295397
000260 61 a5 47 3d 1b ff 62 3e 7a 06 3b 3e e1 b5 23 be
       0.048741702 0.22167628 0.1826419 -0.1598735
000270 57 0a 44 3d b6 c4 97 bd 15 ea a4 3c 3e a1 b9 bd
       0.047861423 -0.074105665 0.02013115 -0.09063958
000280 c7 72 28 3d 9b cd 4a 3d 17 16 52 3c 0d 05 91 bd
       0.041125085 0.049512487 0.012822649 -0.070810415
000290 34 d8 b2 bd 85 f8 8a 3d 1b 83 8c bc 2a ca c1 bd
       -0.08732644 0.067856826 -0.01715236 -0.09462388
0002a0 ff 03 87 bd 29 03 4a bd 0e c1 e2 bb 1f c4 95 bd
       -0.06592559 -0.04931942 -0.0069199866 -0.07312798
0002b0 6c 78 0f 3e d0 7d a1 3e 28 fb ec 3b 10 f6 fa 3d
       0.14010781 0.315413 0.0072320886 0.12253964
0002c0 0e 7a 66 be 62 61 84 bd db d7 fd 3d ba 19 89 bd
       -0.22507498 -0.06463887 0.12394687 -0.0669436
0002d0 4c 8a 10 3d e3 b3 29 3e 63 d3 40 bd bf a0 29 3e
       0.03528814 0.16572528 -0.047076594 0.16565226
0002e0 f2 10 27 bd 92 c7 82 3d ea e2 2d bd 81 55 94 3c
       -0.040787645 0.06385721 -0.04245273 0.018107178
0002f0 f9 15 d3 bc a6 49 7b 3e 28 32 98 3d e6 83 18 3e
       -0.025767313 0.24539813 0.074314415 0.14894065
000300 91 aa d2 3d ac fa a3 bd 3f 22 57 3e 89 a1 ec bc
       0.10286439 -0.08006796 0.21009158 -0.02888562
000310 38 39 0c be 68 73 88 be 8b e6 68 bc af c4 b3 bd
       -0.13693702 -0.26650548 -0.014215122 -0.08777749
000320 0b e9 1b 3d f3 c7 ac 3d c5 36 16 3d 30 3e 19 be
       0.038064044 0.08436575 0.036673326 -0.14965129
000330 27 c3 4a bd bc 13 af bc a7 bf 0d 3e 92 77 4c be
       -0.049502518 -0.021371715 0.13842641 -0.19967487
000340 aa b9 84 3d 48 f7 70 bd bb ac 28 3e 52 1f f6 3d
       0.06480725 -0.058829576 0.16472141 0.120176926
000350 51 15 89 3d ef dc ba 3d 0b d4 f6 bd 52 cf 6c 3b
       0.06693519 0.09124171 -0.12052163 0.0036134315
000360 cf f8 a0 bd 05 9f 7c bd b8 f7 12 bd 50 8b 5d 3c
       -0.078599565 -0.06167509 -0.035880774 0.013521984
000370 05 46 0f 3d 1c e5 90 bd e7 46 03 3d 91 e8 b3 3d
       0.034978885 -0.07074949 0.03205004 0.08784593
000380 b3 d4 2f bc 0b c2 31 3e 60 f3 24 bd ee 70 2a be
       -0.010731864 0.17359178 -0.040271163 -0.16644642
000390 27 5a 34 bc e6 cf 6a 3d cd 2a d3 3d c5 5e 0e 3e
       -0.011007822 0.057327174 0.10310898 0.13903339
0003a0 c6 87 ed bd 7c e1 67 bd 8c fa a9 3d 2f b3 0d 3e
       -0.11598162 -0.056611523 0.08299741 0.13837884
0003b0 23 0f 50 bd 4e cc 18 be af 96 0c be ac 4b 6c 3d
       -0.050795685 -0.14921686 -0.13729356 0.057689354
0003c0 5f db c6 bd 11 e3 33 be bb 5e 3a be f9 2b 64 bd
       -0.097098105 -0.17567088 -0.182002 -0.055705998
0003d0 dc 1e 9d 3b e1 6d f8 bc 6e 39 4c 3d 11 0e 13 be
       0.0047949385 -0.030325832 0.049859457 -0.14360835
0003e0 06 2c 0d be 1e e4 55 bd 3a 43 73 3e 88 b9 fb 3b
       -0.13786325 -0.052219503 0.23756114 0.007682029
0003f0 50 69 6e bd a2 f3 30 3d 8d 0f 88 bd d6 bb 67 3c
       -0.058205903 0.043201096 -0.06643591 0.014143905

fc2a.bias f4 [4]
000000 04 38 8e bd c4 57 27 be 51 6f f9 bd 5b ad a0 3e
       -0.06944278 -0.16342074 -0.12179435 0.3138226

fc2c.weight f4 [1, 200]
000000 89 a3 2d 3d 13 9b 5d bb 05 af 43 3c ce cf 75 bd
       0.042392287 -0.0033814355 0.011943583 -0.06001263
000010 0c 8e 8b bd f4 8f 69 bd 64 3d 1d bd 76 17 b9 3c
       -0.06814203 -0.05702205 -0.038388625 0.022594195
000020 65 31 30 bc d6 5f 1c 3e 88 8d 30 3d 7c 52 7c bd
       -0.010753964 0.15270934 0.043103725 -0.0616021
000030 8c 17 48 3d 2d 7a f3 3c a7 db db 3b 6a 1e 9c 3d
       0.04885058 0.029721344 0.006709534 0.076229885
000040 34 86 15 3d 4e c6 b3 bc d6 d4 07 bd 36 79 23 bd
       0.03650494 -0.021945145 -0.03316196 -0.039910518
000050 d4 4b 1c 3d 58 44 0c 3d fc b7 67 bd 0e e5 0b 3d
       0.038158253 0.034244865 -0.056571946 0.03415399
000060 f4 71 c3 3b 28 5c 04 be 15 21 70 bd f3 87 54 3d
       0.005964512 -0.1292578 -0.0586253 0.051887464
000070 05 22 8f bd dc 3d 0e 3d 59 4c fb bc 5b c8 23 3d
       -0.069889106 0.034726962 -0.030676054 0.039985996
000080 b8 2d af bc 43 20 2b 3c a9 f8 1e 3c 1c 18 b6 bc
       -0.021384105 0.0104447035 0.00970284 -0.022228293
000090 26 31 22 3d d6 ce 10 bd d7 75 be bc e0 bb 3b bc
       0.039597653 -0.035353504 -0.02324955 -0.011458367
0000a0 c8 d3 57 3b 28 3d f5 3c 6b 88 7c 3c d2 85 94 3c
       0.0032932628 0.029936388 0.015413384 0.018130217
0000b0 3f a2 15 3d b8 87 7b bd 61 e6 3f bc e9 a9 c6 3c
       0.036531683 -0.06140873 -0.011712641 0.024250941
0000c0 ee 9f 7a bc 43 28 34 3d 47 c4 cd 3b f7 d9 ae bc
       -0.015296919 0.04398371 0.0062795016 -0.021344168
0000d0 00 46 43 bd c3 36 ba bc fb ca 0e 3c bc 38 ae bd
       -0.04767418 -0.02273119 0.0087153865 -0.08506915
0000e0 79 93 dd 3c 83 07 0e 3d 07 23 15 bc 37 e0 10 bd
       0.02704786 0.034675132 -0.009102589 -0.035370078
0000f0 1a 7c ae bd b3 90 ea bb 23 61 f9 bc 69 0f 2b bd
       -0.08519764 -0.007158363 -0.030441826 -0.041762743
000100 34 45 34 bd 88 ff 56 bd dd fd 95 3d ac 23 8c 3c
       -0.04401131 -0.052489787 0.07323811 0.017106853
000110 4f 1f 9a bd 3f fc 8f 3c 36 75 e8 3a 7c 66 b6 bb
       -0.07525503 0.017576335 0.0017735127 -0.0055664163
000120 94 ae 6f bd 81 87 0f 3c 81 e1 8e bc 37 66 d8 bd
       -0.0585161 0.008760334 -0.017441513 -0.10566371
000130 35 f8 6f 3c 3d c2 c8 bd 30 a8 dc b9 41 64 30 bc
       0.0146465795 -0.09802673 -0.0004208698 -0.01076609
000140 5e 37 91 bd 09 17 16 3d 5a f1 2f bc 68 9d 44 bb
       -0.070906386 0.03664306 -0.010738695 -0.0030001048
000150 86 b2 79 bd 9e c3 12 3d b4 11 96 3c c4 59 df bc
       -0.06096127 0.035831086 0.018318988 -0.027264483
000160 f9 2c 2a 3d 58 87 1f 3d 59 f6 d1 bc a5 19 ed bd
       0.041546796 0.038947433 -0.025630163 -0.11577157
000170 7d c3 d0 39 f3 df bc bc 4e f2 0b bd d6 0b 29 bd
       0.00039818502 -0.023056006 -0.034166627 -0.041271053
000180 16 b0 1d bd d1 de 4c 3d 03 ae 00 bd ca f7 53 bd
       -0.038498007 0.05001718 -0.03141595 -0.051749982
000190 0b f9 88 bd ec cb fd 3a 3d 9d ec bd fd 38 53 3c
       -0.06688126 0.0019363142 -0.11553428 0.012892005
0001a0 70 09 25 3d 4c 74 91 bc 1d 25 21 bd 97 f2 db 3a
       0.040292203 -0.01775565 -0.039342035 0.0016780671
0001b0 bc 7f cb 3d 51 d9 6c 3d a6 83 a1 3c 07 ff 2b bd
       0.09936473 0.057824437 0.019716095 -0.04199126
0001c0 ae 2b 63 bd 0e 60 94 bd fa 00 9b 3c bf 6b d2 bd
       -0.055461578 -0.072448835 0.018921364 -0.10274457
0001d0 49 44 f3 bc 79 62 b2 b9 cd 3f 84 39 a3 e3 c0 3b
       -0.029695647 -0.00034024174 0.00025224537 0.0058865114
0001e0 1e d1 3b 3c ed 9c 69 3d ea 93 4b 3d b0 b4 39 bd
       0.011463432 0.05703442 0.04970161 -0.045338333
0001f0 f0 87 0b 3d 12 08 a1 bd 61 0e 64 bc 8d c4 1e 3d
       0.034065187 -0.078628674 -0.013919444 0.038761664
000200 d3 c4 85 3c 32 34 9d 3c d4 40 72 bd 86 e0 31 3b
       0.016329205 0.019189928 -0.059143856 0.0027141883
000210 e1 2c b9 bc 5e 2b 0b bd 49 8c 07 3d 03 9c 9c bd
       -0.022604408 -0.033976905 0.03309277 -0.076469444
000220 2e 47 63 bb c8 6c 98 3c 86 e7 53 bc f1 3b a2 bc
       -0.0034679878 0.018606558 -0.012933617 -0.019803973
000230 88 67 d1 3b f4 96 d4 bc 73 23 2f 3c 08 df 21 bd
       0.0063905157 -0.025950886 0.010689604 -0.03951934
000240 3c dd ff bc 6f 3d 6c 3d 77 95 59 3c a5 76 83 3c
       -0.031233422 0.057675775 0.013280264 0.016047785
000250 26 73 a6 bc 68 01 97 3c e4 6b f0 bc e6 2d 8d 3d
       -0.020318579 0.018433288 -0.029348321 0.0689352
000260 f7 05 ac 3c e0 3c 88 3d a6 34 c5 3c 29 58 01 3d
       0.020998938 0.06652236 0.024072956 0.031578217
000270 9d 4e 61 bd b1 0e ea bb c0 56 eb bc 76 85 01 3d
       -0.055006612 -0.0071428646 -0.028727889 0.03162142
000280 19 b8 9f bd da 25 99 bd 7a 97 8a 3c 6e 98 8d 3c
       -0.07798786 -0.07477923 0.016917933 0.017284598
000290 3a 68 6a bd 3e 28 4a bb a5 28 ba bc c4 4b 1c 3d
       -0.057228304 -0.003084674 -0.022724459 0.038158193
0002a0 1f ea 3f bd e2 00 ab bd 33 20 4b bb d2 40 8a 3d
       -0.046854135 -0.08349778 -0.0030994534 0.06750645
0002b0 45 71 49 3d 64 3f 71 bb ba c2 d9 bc 6e 90 71 bd
       0.049180288 -0.0036811465 -0.02658211 -0.05897563
0002c0 6d a2 e2 3c b8 b1 4c bc c3 db c2 3c d3 54 dc bd
       0.027665341 -0.012493543 0.023786431 -0.107583664
0002d0 ef ad fa bb da b4 5b 3d d9 e9 4a bd 5b 52 48 3d
       -0.007650129 0.05363927 -0.04953942 0.048906665
0002e0 83 d7 47 3d f5 a1 43 bc 4b 0b 15 bd bd fe 2c bd
       0.048789512 -0.011940469 -0.036387723 -0.042235125
0002f0 1c 99 a5 3c d1 12 1a 3d be 31 f2 bc d0 93 98 bb
       0.02021461 0.0376156 -0.029564735 -0.0046562925
000300 bf 1d 7a 3d 4e da 0b 3d 42 bb 85 3d c4 31 89 3c
       0.061063524 0.03414374 0.06529857 0.016747363
000310 4a 2a 83 3c fe 20 e0 bc 36 25 d8 3b 2f 87 b7 3b
       0.016011376 -0.027359482 0.0065962328 0.005600832
