test1/pth/controller_last.pth (torch, 21207 bytes, 5 tensors)

fc1.weight f4 [200, 18]
000000 f0 8f 58 3e eb e9 7b bd c9 d6 bf be 91 15 e4 bd
       0.21148658 -0.06150238 -0.37468556 -0.11136926
000010 b7 cc 0e 3d 73 97 6c be ff 4f 90 3e 1f 40 9b 3d
       0.0348632 -0.23104648 0.28186032 0.075805895
000020 38 20 37 3e 3b a7 17 bd 07 1c 23 be 5a 2a d0 3d
       0.17883384 -0.037024718 -0.1592866 0.10164328
000030 ac a0 20 3e 42 62 d8 bd 74 8a 40 be 9f 79 9c bd
       0.15686291 -0.10565616 -0.18802816 -0.07640385
000040 cd af 87 bd f5 ca 59 3d 60 3d fb bc a4 bd 33 be
       -0.06625328 0.05317207 -0.030668914 -0.17552811
000050 3c a6 bc be c7 13 bb 3d 29 f7 67 bd f9 e5 2f 3d
       -0.36845577 0.091346316 -0.056632195 0.04294393
000060 85 b0 20 3e 0a 1a 9e 3e a2 25 63 3d bc ed 97 bd
       0.15692337 0.3087924 0.05545581 -0.07418391
000070 04 20 29 be 69 35 15 be b9 c4 f1 bd a9 bf 07 3e
       -0.16516119 -0.14571156 -0.118051 0.13256706
000080 42 92 3d be 3f d2 4a be 56 ca 67 bc 6c 1c 4b bd
       -0.18512824 -0.19806765 -0.014147362 -0.049587652
000090 7f 76 74 3d ab fa 2b 3e e3 c7 b0 bd b0 a2 01 3e
       0.05968332 0.16794841 -0.08631875 0.12659717
0000a0 92 aa 3e be e2 15 78 3e 99 97 da bd 09 6d 14 be
       -0.18619755 0.24227098 -0.10673446 -0.14494719
0000b0 38 8f 8b bd da 29 18 3e f1 78 64 bd e7 45 ab 3c
       -0.06814426 0.14859715 -0.0557794 0.020907355
0000c0 b0 aa 1e 3e 68 8b 07 be 91 7b 2e be 67 8e ad bd
       0.154948 -0.13236773 -0.17039324 -0.08474427
0000d0 09 aa 76 3d 26 f6 8e 3d a5 96 91 be ee 01 9b 3d
       0.060220752 0.06980543 -0.28435245 0.075687274
0000e0 55 ae 21 3f 37 bb 24 3d 47 b6 97 bd ef b0 11 3c
       0.63156635 0.040217604 -0.074078135 0.008892282
0000f0 2e bb 8b 3d 21 b3 6b 3e 0a ea 50 be 2f 89 db bd
       0.06822811 0.23017551 -0.20401779 -0.10719525
000100 35 29 dd 3d 50 9c 60 3b 6b d0 4a 3d e2 6e 7e bd
       0.10798875 0.0034272857 0.04951517 -0.062117465
000110 32 2b 01 bd 6b b1 eb bb 6e 80 0a bd af 9e c9 3d
       -0.031535335 -0.0071927807 -0.033813886 0.098447196
000120 cf 7b a7 be 95 30 92 3d 08 7e 0c 3f d7 96 7b 3d
       -0.32711646 0.071381725 0.5487981 0.06142315
000130 bb f0 87 bd c2 06 13 3d 81 39 a4 bd f7 8c 1f be
       -0.066377126 0.035895117 -0.080187805 -0.15581118
000140 7f 27 2e 3d 25 c8 22 3e c4 b4 e9 3d 53 39 24 3e
       0.042518135 0.15896662 0.114114314 0.16037492
000150 a4 b2 0d be 4f 92 0f 3e d2 35 06 3e ce 4e b3 3d
       -0.13837677 0.14020656 0.13106468 0.08755265
000160 3d 6c 1b bd 38 89 cd 3c cb 35 9e be 8c 14 86 be
       -0.03794502 0.025089845 -0.30900416 -0.2618755
000170 d0 15 ca 3d b1 67 24 3e a0 79 80 be 58 41 7b bc
       0.09867442 0.1605518 -0.25092793 -0.015335403
000180 05 c9 c6 3d 72 24 8a be c9 08 51 bd 39 a4 0d 3e
       0.0970631 -0.2698093 -0.05103377 0.13832177
000190 ee 7e ad 3d 0c 08 26 3e 51 52 25 3d 37 3e 22 3e
       0.084714755 0.16214007 0.040361706 0.15844046
0001a0 b3 0c 0e be 22 87 30 3e db 33 91 bd 6a fb f4 3d
       -0.13872032 0.17239049 -0.07089969 0.11962016
0001b0 aa a6 d6 3d 24 35 bc bd 85 3f 04 bf 18 77 d4 3e
       0.104810074 -0.09189823 -0.51659423 0.4149711
0001c0 ae aa 91 be e0 e5 ae bd 2e 03 38 bd d0 48 6a bd
       -0.2845053 -0.08539939 -0.044924907 -0.057198346
0001d0 3e 66 96 bd 3d 81 b7 bd d5 c9 2e be 7b 84 64 3c
       -0.0734372 -0.08960197 -0.1706918 0.013947601
0001e0 e2 49 9a bd 57 7f 92 3d f4 45 60 be 79 c9 fa bd
       -0.07533623 0.071531944 -0.21901685 -0.12245459
0001f0 9c f3 7f be 01 e2 3b be fd 41 17 3e 59 64 fc bd
       -0.24995273 -0.18347932 0.14771266 -0.12323827
000200 9d c3 96 3e b5 5e 49 be 08 d2 19 bd 8c c2 f3 bd
       0.29446116 -0.19665034 -0.037553817 -0.11902341
000210 49 95 a3 3e b4 7b 54 bd fc a2 08 3e cb 87 4b 3d
       0.31949833 -0.051875785 0.13343424 0.04969005
000220 d6 9e 9e 3d 56 2c dd 3d a6 c1 5a 3e 6c af 1c be
       0.07745139 0.10799472 0.21362934 -0.15301293
000230 1b 05 ca bd 18 7a fd bd be 26 87 bd ad 3d d4 3d
       -0.09864255 -0.12376803 -0.06599186 0.10363326
000240 89 8a 3f be 0a 0b bd 3c fc 0b 6e be c9 38 54 3e
       -0.1870519 0.023076553 -0.23246759 0.20724787
000250 f0 a8 87 3d 4f db a2 bd 3c 61 11 3d 61 a6 80 3e
       0.06624019 -0.07951986 0.03549312 0.25126937
000260 36 ee 57 3e 97 11 5a ba be a7 7e 3d d4 0f f6 3d
       0.21086964 -0.0008318661 0.06217169 0.12014738
000270 fd d8 28 be f0 e9 51 be 83 33 02 be 8a 48 c7 3d
       -0.16489024 -0.20499396 -0.12714963 0.097306326
000280 13 2b 29 3d 3b 61 a2 3d 62 22 73 be 9a fe f9 bd
       0.041300844 0.079287015 -0.23743585 -0.122067645
000290 d8 85 94 3c 06 7b 1b 3d 19 bf e9 be 47 4c dd 3e
       0.018130228 0.03795912 -0.45653608 0.43222257
0002a0 67 d0 a7 be 2e ec a4 be 1d a0 56 3e 12 d4 16 be
       -0.32776186 -0.3221144 0.20959516 -0.14729336
0002b0 cf cc 05 3e 9f e6 d6 bd 8b de a0 3d 95 d7 1f bd
       0.1306641 -0.10493206 0.07854947 -0.039023954
0002c0 30 da 3c 3d 5c 80 24 3e b7 e2 04 3e e8 8d 88 3c
       0.046106517 0.1606459 0.1297711 0.016669229
0002d0 c8 eb 13 3e 36 0b a6 3e df ba d7 be c8 28 7c be
       0.14445412 0.32430428 -0.4213476 -0.24624932
0002e0 ef 4c 78 3c 6f c7 49 bd 27 50 02 be 53 56 82 3e
       0.015155061 -0.04926246 -0.12725888 0.25456485
0002f0 6a 3e 94 3c 84 70 0a 3b 12 70 e5 bd d4 16 5a be
       0.018096168 0.0021124193 -0.11203016 -0.2129777
000300 04 55 cf 3d 1a 1d 1c be 35 3e 4a 3e 7a 0c 86 bd
       0.10123637 -0.15245476 0.19750293 -0.065453485
000310 a3 d8 01 3e b2 cb 00 bd b3 b6 49 3e e4 4d f5 bd
       0.12680297 -0.03144426 0.196986 -0.11977747
000320 9a 3c 02 bf 2f 52 b3 be 60 b6 09 be 7e 77 49 be
       -0.5087372 -0.3502364 -0.13448477 -0.19674489
000330 1b ef 51 be 42 f5 0b be f1 8b d6 3d 84 09 7c 3d
       -0.20501368 -0.13667777 0.104759105 0.061532512
000340 27 78 9b 3d cc d9 f5 3d 81 4d 4c 3e 9b f3 b7 bd
       0.075912766 0.12004432 0.1995144 -0.08982011
000350 9f a2 32 3d 1c d3 25 be 71 51 11 be f8 19 36 3e
       0.04361212 -0.16193813 -0.14191224 0.17783344
000360 62 d0 78 3e 62 55 0a be 2d 1f f8 be fb 2c a2 bd
       0.24298242 -0.13509133 -0.48461285 -0.079187356
000370 73 40 d7 3d 93 80 41 bd ed 99 ba bd 49 e3 88 bd
       0.105103396 -0.04724176 -0.0911139 -0.06683976
000380 48 55 de bc ec bc b6 bd 0c 9e 30 be 70 23 0e 3d
       -0.027140275 -0.08922753 -0.1724779 0.034701765
000390 d2 8f 63 3e 25 67 1f 3e 97 9b 02 be db 0e 0c 3e
       0.22222832 0.1556669 -0.12754665 0.13677542
0003a0 a0 1a 12 3e 27 f8 f4 3d 3b 3f a2 be 27 1c e9 bd
       0.14267969 0.11961394 -0.31688866 -0.11382323
0003b0 01 93 c6 be 1d 98 3c 3d 08 a9 08 3e 92 61 16 3e
       -0.3878403 0.046043504 0.1334573 0.14685658
0003c0 9b a0 24 3e 83 3f c3 3e b4 06 dd 3d 43 6c e5 bd
       0.16076891 0.38134393 0.10792294 -0.1120229
0003d0 40 b8 12 3e 4f 61 5e be 08 b6 2b be ab 4b 22 3e
       0.14328098 -0.21716808 -0.16768658 0.15849178
0003e0 06 1c 42 bd d9 57 a5 bd be dc 97 3d 6e 34 4c 3d
       -0.047390006 -0.08073396 0.0741515 0.04985469
0003f0 fe 37 83 be 28 dc 1b be af e6 94 3e bc ab 73 3e
       -0.25628656 -0.15220702 0.29082248 0.2379598

fc1.bias f4 [200]
000000 e3 af aa 3e a5 01 57 3c 48 69 bf 3d 16 20 e2 bd
       0.33337316 0.013122951 0.09346253 -0.11041276
000010 26 0a ac be e6 72 e5 bd 50 9d 7f 3e a3 40 92 3e
       -0.33601493 -0.11203556 0.24962354 0.2856494
000020 a5 c9 51 be 55 33 6b 3e 24 6c 8b 3d a1 90 d6 bd
       -0.20487078 0.229688 0.068077356 -0.104768045
000030 47 bb 9b 3e de 95 cd bb 71 60 14 3e 49 22 17 3e
       0.3041632 -0.006273969 0.14489914 0.14759172
000040 33 7e 0a 3e 98 09 1c be 2f ea a7 be e8 53 bd 3d
       0.13524704 -0.15238035 -0.32795855 0.092445195
000050 e6 9c cd 3e 23 4a 9d 3e 3b fb 2a bb f1 97 c6 3e
       0.40158767 0.30720624 -0.0026089686 0.38787797
000060 49 a2 a1 3d 9f 1c 4a 3d 7c eb b7 be 54 13 d4 3d
       0.078922816 0.0493437 -0.35921848 0.10355249
000070 b8 f9 99 be ac 23 15 be f1 f0 22 3e 36 a2 2a 3e
       -0.30073333 -0.14564389 0.15912224 0.16663441
000080 5b 74 3d be 06 b1 56 bd c1 34 91 3e ac 63 54 3d
       -0.18501417 -0.052414916 0.2836056 0.051852867
000090 ba 51 63 3e 2c 78 3d be c5 ff 2f 3e 5a 19 bc be
       0.22199145 -0.18502873 0.17187412 -0.36738092
0000a0 85 ef 54 3c 14 62 e8 bd bf 1d 2c bd 89 74 4a 3e
       0.012996559 -0.11346832 -0.042020556 0.19771017
0000b0 d5 ae 41 3e 81 50 c8 be b1 86 7b 3e 25 a6 07 be
       0.1891435 -0.3912392 0.245631 -0.13246973
0000c0 70 7f 8f 3d 79 a5 59 3e 59 51 d2 3c 1c 7b 88 3e
       0.07006729 0.21254529 0.025673555 0.26656425
0000d0 19 44 95 bc 00 6f cc be 7b 2a 0b 3e d7 9a a7 be
       -0.018220948 -0.39928436 0.13590424 -0.3273532
0000e0 24 08 65 3e b6 12 ba 3e f2 f2 8b be 9b 20 23 bd
       0.22366387 0.363424 -0.2733379 -0.039826017
0000f0 b5 31 0f be 62 a9 a2 3e d9 5a cb 3d 29 6a 1e be
       -0.13983805 0.31769854 0.09929437 -0.15470184
000100 21 ad d5 3d 1c a0 1d bd 58 2a ba 3e db a2 93 bd
       0.10433412 -0.03848277 0.3636043 -0.072087966
000110 76 42 bc be 2b 65 8b be 93 03 23 be ac 47 9f bd
       -0.36769456 -0.27225623 -0.15919332 -0.07777342
000120 0c 07 ba be 18 b9 ac 3e c8 e0 65 3e ac e1 9b be
       -0.363335 0.33734965 0.22449028 -0.3044561
000130 f2 85 84 be 58 81 85 be 82 4c 44 3e d7 c7 47 3e
       -0.25883442 -0.26075244 0.1916981 0.19509827
000140 1a 04 5f be 6b b6 1b bd cf 00 9f be f9 ca b6 be
       -0.21778908 -0.038015764 -0.31055304 -0.3570173
000150 98 df 26 be 48 d9 8a 3c c3 f8 2f 3e 90 95 97 bd
       -0.16296232 0.01694931 0.17184739 -0.07401574
000160 03 4b f6 3d d8 0a 91 be 38 e5 05 bd ed 97 b7 be
       0.12026026 -0.28328586 -0.032689303 -0.35858098
000170 e8 41 92 3e e5 fa c4 bd 48 57 9c bd 58 43 fc 3d
       0.28565907 -0.09618167 -0.07633835 0.12317532
000180 a5 ba bb be 3a c9 8f 3e 6c ef 0c bd fe 2a bc be
       -0.36665836 0.2808321 -0.034408018 -0.3675155
000190 58 be 51 be de 3f b4 3e 7a 7e 6d bd 3b fa c9 3d
       -0.20482767 0.35204977 -0.057981946 0.09862181
0001a0 f7 b3 1a be b5 25 a6 be d5 3c 5d 3e a8 1f 88 3e
       -0.15107714 -0.32450643 0.21605237 0.26586652
0001b0 f8 67 44 3e 75 13 ff bd 16 1d d2 bc 04 9d d3 3d
       0.19180286 -0.12454883 -0.025648635 0.10332683
0001c0 e7 de 20 be 77 08 1a 3e 32 12 b0 3d 6f 62 d5 be
       -0.1571003 0.15042292 0.085972205 -0.4167666
0001d0 7c d4 99 be c8 35 20 be ec 0f b6 bd 9a 69 0a 3e
       -0.30044925 -0.15645516 -0.088897556 0.13516846
0001e0 e6 85 91 3e 9e 80 4e 3e b7 48 ff bb a5 de d5 bc
       0.2842247 0.20166251 -0.0077906507 -0.026107142
0001f0 01 bd f2 3d 29 0e b5 3d 8c aa b2 bd ca b7 dd bd
       0.11852456 0.088405915 -0.087239355 -0.108260706
000200 ad 57 53 3e d7 94 0e bd 70 14 b4 3c cc 6e 13 be
       0.20638914 -0.034809913 0.021982402 -0.14397734
000210 9a 96 81 bd ea 9b b6 be 28 56 11 be d6 69 3c be
       -0.06327553 -0.35665828 -0.14193022 -0.18399748
000220 dc 07 20 3d 45 da b6 be ce 00 18 be 9e ae 42 3e
       0.039069995 -0.357134 -0.14844057 0.19011924
000230 dd a3 ae 3d ae d7 26 be 42 f5 ee 3c 4d 16 8c bd
       0.08527348 -0.16293213 0.029169682 -0.06840191
000240 df f4 96 be 8b 15 a2 3e aa 0a a6 bd 22 28 44 3e
       -0.29483697 0.3165706 -0.08107503 0.19155934
000250 ce f0 c3 bc 10 27 bd bd 54 2b 69 3e 56 e5 c3 3e
       -0.023918536 -0.09235966 0.22770435 0.38260907
000260 7a 30 18 3e 6e cb 64 bc 71 6a fc bd 60 9f d4 bd
       0.14862242 -0.013964517 -0.123249896 -0.10381961
000270 01 90 36 be c8 e5 7a 3e 78 b1 96 3e d1 0d 37 be
       -0.1782837 0.24501717 0.29432273 -0.17876364
000280 4d e8 39 3d af 39 12 be 18 f1 6a 3e 26 a0 4c be
       0.045387555 -0.14279817 0.22943532 -0.19982967
000290 a0 df 3f 3e b9 7e d3 bc 51 2d 3c be ac ee a0 3d
       0.1873765 -0.025817262 -0.18376662 0.07858023
0002a0 f4 7b ab be 60 e8 25 be 43 ab 24 3e 75 63 85 3e
       -0.33493006 -0.16201925 0.16080956 0.26052442
0002b0 46 93 07 3e 0e bc c5 be 86 f0 3d be 19 7c fb be
       0.13239774 -0.38620037 -0.18548784 -0.49118116
0002c0 8c 1e c8 3d bd 69 80 bd e6 f4 20 3e 96 69 b1 bd
       0.09771451 -0.06270168 0.15718421 -0.08662717
0002d0 90 7d a2 3d 66 d0 42 3d 51 94 74 3d 3e 1f 90 3e
       0.079341054 0.047562025 0.059711758 0.28148836
0002e0 a7 6b d5 3e 8c fa a6 be bd a0 40 be 7d 76 e1 bc
       0.41683695 -0.32613027 -0.18811317 -0.02752232
0002f0 66 ce e4 bd 28 26 61 3d e1 5b d6 be 62 17 65 be
       -0.1117218 0.05496803 -0.41866973 -0.22372201
000300 5e f4 86 3e e2 23 0a be 8c 10 85 3c 71 9c ca 3e
       0.26358312 -0.1349025 0.016243242 0.3957248
000310 22 ae 1a bd 07 1c be 3d 75 23 a0 3e 04 0e 96 3e
       -0.037763722 0.092826895 0.31277052 0.29307568

fc2a.weight f4 [4, 200]
000000 d9 af 80 bd 35 2a 0f bd a7 20 ef bd 0b a6 2a 3e
       -0.0628354 -0.03495236 -0.1167615 0.16664903
000010 e0 2e 8d 3d 5e a5 0a bd 56 55 9b be b7 e2 1c 3d
       0.06893706 -0.033849113 -0.30338544 0.03830215
000020 17 26 f8 3b 64 fe 8f be 2d 45 4a ba 44 cd 00 be
       0.0075729 -0.28123772 -0.00077159965 -0.12578303
000030 4a ca a0 bd 02 cf 39 3b 6d fc 9a bd 9f 69 7c be
       -0.078510836 0.0028352146 -0.07567678 -0.24649666
000040 b1 22 12 be 7d 53 2a 3e e6 01 d1 3d 1c 1c da bd
       -0.14271046 0.16633411 0.1020544 -0.10649893
000050 5a 78 18 be 09 67 25 bd 59 ea 91 be 8a ba e0 bd
       -0.1488966 -0.040381465 -0.28499106 -0.109730795
000060 60 3e 0f 3e b3 e9 71 be 68 5c 3f 3e cd 71 b8 bb
       0.13988638 -0.23624305 0.18687594 -0.0056288005
000070 4f a3 64 bd 3a 08 6c 3d 0b c0 90 bd fe 57 08 bd
       -0.055819806 0.057625033 -0.07067879 -0.03328704
000080 98 98 17 3e a8 da a6 bd 1c 13 3c be f4 a3 0f be
       0.14804304 -0.08147174 -0.18366665 -0.14027387
000090 03 a9 ca bd 7d 5e 7d 3e c3 5f b8 bd de 74 72 3d
       -0.09895518 0.24743076 -0.0900264 0.059193484
0000a0 c8 4a 59 3e 2b e6 27 3e be 1d 30 3e cc 35 4d be
       0.21219933 0.16396396 0.17198846 -0.20040053
0000b0 f3 f8 29 be 94 c1 b3 3e e9 47 63 bd 4c f8 0f 3e
       -0.16598873 0.35108626 -0.0554885 0.14059561
0000c0 48 9b 89 bc 26 0e 10 bd c6 23 94 bd 79 f5 f1 3c
       -0.016797677 -0.035169743 -0.07233386 0.029535996
0000d0 5d 9e 57 3e 9a 9b 73 3d a0 c4 ff bb 80 b8 02 be
       0.21056505 0.059474565 -0.007805422 -0.12765694
0000e0 55 3e d3 bd bd 73 72 bd dc a6 4d 3d 4d b7 1e bd
       -0.10314623 -0.059192408 0.050207958 -0.038749028
0000f0 e2 a4 66 3e 47 61 ad 3d 12 af 06 be a4 5d 5b 3d
       0.22523835 0.0846582 -0.13152722 0.0535561
000100 7c 1b 1f 3e 1a 7d 26 3e 0c 87 7b be 1a 70 98 3d
       0.15537828 0.1625866 -0.24563235 0.07443257
000110 47 bc 25 3c e9 59 77 3b d1 72 f4 bd ef f7 59 bd
       0.01011569 0.00377428 -0.11935962 -0.053214964
000120 ae 45 4a bd 02 44 92 be 62 50 86 be c9 1c 0a bc
       -0.049382858 -0.2856751 -0.26233202 -0.0084297145
000130 04 65 9d bc 4d 69 97 bd 6e 02 6c 3d 84 01 0d be
       -0.019213207 -0.073931314 0.057619505 -0.1377011
000140 eb 31 49 3e 51 7d 81 bd 3d ef 83 3e 84 3d ee 3c
       0.19647948 -0.0632273 0.25768462 0.029082067
000150 ec be fd bd 66 40 22 bb 39 84 0f be 06 c8 09 3e
       -0.12389931 -0.0024757623 -0.14015283 0.13455209
000160 a0 6b eb bd 27 bc e2 3d 5a f0 86 b9 02 3e bf 3d
       -0.11495137 0.110710435 -0.00025737548 0.09337999
000170 dc 09 d2 bd b3 fc 23 3e d8 9c be bc 71 ac 32 3d
       -0.10255787 0.16014366 -0.023268148 0.043621484
000180 e4 b9 79 3a 5a 4c 07 be 09 fc db bb 60 f6 c4 3d
       0.0009526296 -0.1321272 -0.0067133945 0.09617305
000190 86 47 18 3e 92 ef 6b be 88 43 5b bd d6 5f 97 3d
       0.14871034 -0.23040608 -0.0535312 0.07391326
0001a0 08 c4 2c 3d 1c 0f 5d bd 8b 9f 61 be c7 41 97 3d
       0.042179137 -0.053969488 -0.22033517 0.07385593
0001b0 79 44 04 3e d6 7a 03 3e 30 22 f5 3b 4c 5a f7 3c
       0.12916745 0.12839827 0.007480882 0.030194424
0001c0 2c 3b 05 bd db 0f 8b bd 44 92 d6 3d 3f ae a8 3d
       -0.032527134 -0.067901336 0.10477117 0.0823636
0001d0 6b 13 fa bd c3 ef 91 bd 17 2f 14 3e 3c 90 c5 bc
       -0.12210735 -0.07125809 0.14471088 -0.024116628
0001e0 75 0f 21 be f7 55 42 be 3b 1d dc bd 4a 91 da 3d
       -0.15728553 -0.18978105 -0.10747763 0.10672243
0001f0 f1 09 2c bd a2 8f 47 be 81 af a0 3c 12 2a 91 3d
       -0.04200167 -0.19488385 0.019614937 0.070881024
000200 59 db 99 3d 7b 0e 19 3e e2 26 43 be 79 8b a2 bc
       0.0751254 0.1494693 -0.19057801 -0.019841896
000210 8c d2 ec 3d 0f ca 97 3c 3a 24 ff 3c 79 6b 13 be
       0.11563596 0.018528966 0.031145204 -0.14396466
000220 d4 8a 1e be 72 ff 24 3e 8d 1b 94 bd b9 78 cf bd
       -0.15482646 0.1611307 -0.072318174 -0.10130448
000230 1a 1b 15 be ee de 02 bd 5a 27 30 3d 6a 69 3c 3d
       -0.1456112 -0.031950884 0.04300628 0.04599897
000240 b0 a5 73 3d e2 4b eb bd 96 f9 6c 3d 67 d9 be 3c
       0.059484184 -0.11489083 0.05785521 0.023297025
000250 0e e5 6f 3d dd 42 00 3d 86 58 33 be 8d 6b 79 bc
       0.058568053 0.031313766 -0.17514238 -0.015223396
000260 21 9c 63 3d f6 7c 59 3e 30 22 25 3e 5b 66 1e be
       0.055568818 0.21239075 0.16126323 -0.15468733
000270 63 8b 4c 3d 0d ed 97 bd 57 14 6c 3c 59 6d bc bd
       0.049937617 -0.07418261 0.014409146 -0.09200544
000280 58 4e 12 3d e0 51 4a 3d 1d a7 d3 3a 6e 90 61 bd
       0.035719246 0.04939449 0.0016147826 -0.05506938
000290 a3 89 af bd 19 75 82 3d 47 a3 d2 3a 14 9c df bd
       -0.08571174 0.06369991 0.0016070389 -0.109184414
0002a0 40 af 87 bd 1c 3c 64 bd e2 04 00 bc 43 29 b2 bd
       -0.06625223 -0.055721387 -0.007813664 -0.08699276
0002b0 04 bd 0d 3e 3b fb 91 3e 94 09 76 3c f4 71 e1 3d
       0.13841635 0.28511986 0.015016932 0.11008063
0002c0 ee ad 64 be 82 9f 39 bd ef fb 01 3e 0e d4 68 bd
       -0.22331974 -0.045318134 0.12693761 -0.056842856
0002d0 e9 60 33 3d b3 5d 26 3e 41 f6 19 bd 88 03 25 3e
       0.043793593 0.16246681 -0.03758836 0.16114628
0002e0 60 ae 51 bd ee 26 76 3d 34 01 4d bd 74 6d 8c 3c
       -0.051191688 0.06009572 -0.050049976 0.017142035
0002f0 ee 95 9d bc 41 4c 78 3e 6c 17 7c 3d 7b 85 0c 3e
       -0.019236531 0.24247839 0.061545774 0.13722794
000300 5b bd d0 3d 28 37 b0 bd f1 30 56 3e 92 e3 f7 bc
       0.10192367 -0.0860427 0.20917107 -0.030259881
000310 b6 00 14 be 1d 25 88 be 4e 54 88 bc ab 62 9c bd
       -0.14453396 -0.26590815 -0.016641762 -0.07636007
000320 15 67 0a 3d 32 04 9c 3d 50 62 dd 3c 88 40 23 be
       0.033789713 0.07617988 0.027024418 -0.15942585
000330 35 ea 48 bd 9f ce 46 bd bf 69 01 3e c1 a4 5b be
       -0.049051482 -0.048536893 0.12637995 -0.21449567
000340 9d c6 80 3d cb 76 63 bd d0 a3 40 3e 6d 6b ed 3d
       0.062878825 -0.05553321 0.1881249 0.115927555
000350 bc 5a 8f 3d 79 d1 b9 3d 61 7c df bd 3b b8 9c bb
       0.06999728 0.09073157 -0.10912395 -0.004782704
000360 b3 eb bd bd 9a 48 7b bd b9 72 0c bd 10 85 86 3c
       -0.09273472 -0.061348535 -0.034289096 0.016420871
000370 26 be 35 3d 1d 47 92 bd 3b a6 db 3c 19 95 cd 3d
       0.044370793 -0.0714247 0.026812663 0.10038204
000380 48 87 1e bc b0 3a 2b 3e 82 77 28 bd 43 19 26 be
       -0.009675808 0.16721606 -0.041129597 -0.16220574
000390 1d 19 c6 bc 53 44 82 3d 0e e9 ea 3d 33 d7 0e 3e
       -0.024181897 0.06360688 0.11470233 0.1394928
0003a0 06 08 dd bd a3 13 9e bd e0 25 a7 3d 64 00 16 3e
       -0.10792546 -0.07718589 0.08161521 0.14648587
0003b0 4b a6 2b bd 00 6c 20 be 1d 65 13 be ce c4 6d 3d
       -0.041906636 -0.15666199 -0.1439404 0.058049016
0003c0 66 63 c1 bd 6f 8a 3b be 8b 70 42 be 6f 33 95 bd
       -0.09442787 -0.18314527 -0.18988244 -0.07285201
0003d0 98 67 f6 bb bd 1d 0f bd 98 5e 46 3d c8 15 18 be
       -0.0075196736 -0.03494047 0.048430055 -0.14852059
0003e0 3d a4 fa bd 4d 59 8a bd b8 b9 6c 3e 02 3f 84 3c
       -0.12238357 -0.06755314 0.23117721 0.016143326
0003f0 c6 e8 52 bd a1 e5 14 3d a8 90 7c bd 25 76 b2 3b
       -0.05149152 0.036351804 -0.061661392 0.005446213

fc2a.bias f4 [4]
000000 5b 7b 90 bd b4 cf 21 be 04 09 e4 bd 1e 27 9b 3e
       -0.07054778 -0.15801889 -0.11134532 0.30303282

fc2c.weight f4 [1, 200]
000000 10 00 40 3d b7 05 5e 3b 2d 99 08 3c 4e 4b 81 bd
       0.04687506 0.0033877918 0.008337301 -0.06313191
000010 e3 bb 96 bd 96 a1 6a bd bf c8 17 bd 9d be ae 3c
       -0.07360055 -0.057283007 -0.03705668 0.021331126
000020 c3 9c 31 bc df db 1b 3e 5b 78 30 3d f1 3a 85 bd
       -0.010840598 0.15220593 0.04308353 -0.06505383
000030 31 d7 59 3d 23 02 0a 3d b9 c1 e8 3b 06 9f 9b 3d
       0.05318374 0.033693444 0.0071031717 0.07598691
000040 92 b1 02 3d 16 a2 df bc 9c 5c 02 bd 88 b6 27 bd
       0.031907625 -0.027298968 -0.0318266 -0.04094556
000050 f3 48 31 3d cc 3a 1c 3d a7 b3 5e bd 42 31 03 3d
       0.04328246 0.03814201 -0.05437055 0.032029398
000060 15 50 11 bb 18 f0 fc bd 3f 08 7b bd 69 32 4d 3d
       -0.0022172977 -0.12350482 -0.06128716 0.050096903
000070 7c 06 89 bd d1 d4 d9 3c e2 ce 07 bd 23 a1 23 3d
       -0.0669069 0.026590737 -0.033156283 0.039948594
000080 24 9d 51 bc cd 71 14 3b 8d 9f 3e 3c b2 17 be bc
       -0.012793813 0.0022650838 0.01163472 -0.023204658
000090 db e5 13 3d fa 10 18 bd 96 3b 93 bc e7 a6 81 bc
       0.03610788 -0.037125565 -0.017972749 -0.015826656
0000a0 c4 84 28 3b bb 40 e5 3c 5a c7 2f 3c 1d 83 55 3c
       0.00257139 0.027984967 0.010728681 0.013031748
0000b0 75 2f 1e 3d ce d4 74 bd d7 aa d4 bb 9a f8 ba 3c
       0.038619477 -0.05977326 -0.0064900923 0.02282362
0000c0 79 95 22 bc 77 b1 2f 3d 4f ca d2 3b a9 e3 92 bc
       -0.009923332 0.042893853 0.0064328085 -0.017930822
0000d0 4b c8 2f bd 6e 83 d3 bc a8 eb 32 3c 24 cc b4 bd
       -0.042915624 -0.025819506 0.010920443 -0.08827999
0000e0 91 c7 d7 3c 5e bd 0d 3d 62 e6 f4 bb c7 66 2c bd
       0.026340278 0.034604423 -0.007473753 -0.042090204
0000f0 37 ee b0 bd c1 42 24 bc c2 51 e0 bc b7 82 20 bd
       -0.08639186 -0.010025681 -0.027382735 -0.03918716
000100 e7 7f 1d bd 3a 84 72 bd 6f 0e 94 3d a9 81 79 3c
       -0.038452055 -0.059208132 0.072293155 0.015228667
000110 35 ff 87 bd 59 16 16 3c 6a 98 c6 3b ce ee 0c bb
       -0.06640474 0.0091606015 0.0060606496 -0.0021504643
000120 79 a2 75 bd f0 d8 3d 3c 75 69 8f bc 88 ef c5 bd
       -0.0599694 0.011587366 -0.01750634 -0.096648276
000130 56 e9 a8 3a 1a 64 c4 bd 42 a4 df 3b 01 b7 99 bc
       0.0012886922 -0.09589405 0.006825001 -0.01876402
000140 4b 9d 92 bd 68 b3 da 3c 95 c4 78 bc d6 92 cd bb
       -0.071589075 0.026696876 -0.015183588 -0.0062736077
000150 d9 72 5b bd 2f 25 1a 3d 8c 5e 97 3c d5 4b c4 bc
       -0.053576324 0.037633117 0.0184777 -0.02396194
000160 84 6a 09 3d 2f 18 06 3d 39 4f 5b bc ab 64 e9 bd
       0.033548847 0.032737907 -0.013385587 -0.11396154
000170 df 3c 8d 3b 5d 1b cf bc 8c 3f 06 bd 07 57 27 bd
       0.004310235 -0.025281603 -0.032775447 -0.04085448
000180 9b f0 23 bd e3 47 52 3d c0 ba c0 bc 6c 6f 7d bd
       -0.04002438 0.051338088 -0.02352655 -0.06187384
000190 97 bd 97 bd de 11 05 3b 59 a8 fa bd 54 0d d2 3b
       -0.07409208 0.002030484 -0.12239141 0.0064102802
0001a0 bb c8 23 3d cd 61 8b bc 6a 21 08 bd 99 e8 53 bb
       0.039986353 -0.017014408 -0.03323499 -0.0032334684
0001b0 c6 69 c6 3d c6 a1 6f 3d 03 23 b9 3c 79 01 1b bd
       0.096881434 0.05850389 0.022599703 -0.0378432
0001c0 98 c5 43 bd 15 45 9a bd 03 bb ad 3c 1d 04 d5 bd
       -0.047795862 -0.075327076 0.021207338 -0.10401175
0001d0 1c 12 08 bd ca 81 e4 bb 4d 6e fd bb a2 46 80 3c
       -0.033220395 -0.00697348 -0.007734096 0.01565868
0001e0 46 5c a1 3c 51 ac 44 3d a5 bb 37 3d 6e 9c 4a bd
       0.01969732 0.048015896 0.044856686 -0.04946559
0001f0 71 a3 20 3d c7 5c 92 bd dd ee 95 bc 84 b9 24 3d
       0.03921837 -0.07146602 -0.018302375 0.040215984
000200 ad d5 66 3c 01 d8 a4 3c 54 d9 4b bd 3c de b4 ba
       0.01408903 0.02012253 -0.049767807 -0.0013799141
000210 8e 34 c5 bc 01 d3 06 bd 76 29 09 3d a5 56 97 bd
       -0.024072912 -0.032916073 0.033486806 -0.07389573
000220 eb 44 8a bb d2 b0 9f 3c c4 48 a5 bb 9e 3d 66 bc
       -0.0042196414 0.019493494 -0.0050440747 -0.014052777
000230 b4 95 a4 3b ce 2b dd bc 94 2a 9c 3c 8b 4a dd bc
       0.005022729 -0.026998427 0.019063272 -0.027013084
000240 40 48 13 bd eb 68 67 3d 1a 07 d5 3b 1b 7f 2c 3c
       -0.035957575 0.056496542 0.0065010907 0.010528351
000250 49 81 60 bc 4e e6 81 3c ec 6b b5 bc 51 df 96 3d
       -0.013702699 0.015856888 -0.022146188 0.07366813
000260 e0 cf e1 3c 02 f0 8e 3d 23 c3 95 3c fb 49 ec 3c
       0.027564943 0.069793716 0.018281525 0.02884387
000270 5d 1f 54 bd 5f e1 04 bb c4 09 e7 bc 0d ba e9 3c
       -0.051787723 -0.0020275933 -0.028202899 0.028531099
000280 3e 4d a9 bd 6f 36 9d bd 4c 90 4d 3c 66 11 46 3c
       -0.08266686 -0.07676398 0.01254661 0.012089109
000290 86 e2 60 bd e8 20 81 ba ac 3c b6 bc f5 98 1f 3d
       -0.05490353 -0.0009851726 -0.022245727 0.03896423
0002a0 ae 97 38 bd f2 12 b1 bd e0 1d 86 3a f0 dc 70 3d
       -0.045066528 -0.08646192 0.0010232292 0.058804452
0002b0 68 a1 55 3d 12 2a 01 bc 25 47 0c bd 9e 08 85 bd
       0.052155882 -0.0078835655 -0.034247536 -0.06495784
0002c0 a0 9e f6 3c 39 2d 45 bc e0 12 ab 3c 1c 76 cb bd
       0.030104935 -0.012034708 0.020883024 -0.09934637
0002d0 9a 4f b0 bb d7 53 5f 3d 2d 92 32 bd ff fa 66 3d
       -0.005380583 0.054523315 -0.043596435 0.056391712
0002e0 92 98 4e 3d ed e5 89 bc c6 3d 1d bd ea a9 20 bd
       0.05043847 -0.01683327 -0.03838899 -0.039224543
0002f0 5c 0b 86 3c 31 e3 1d 3d cd dd f2 bc c6 fe 12 3a
       0.016362838 0.038546745 -0.029646778 0.0005607422
000300 90 5c 6e 3d 40 ca 0a 3d b0 9f 8c 3d 10 35 8f 3c
       0.058193743 0.033884287 0.068663955 0.017481357
000310 97 de ae 3c 0f ff e6 bc ba 23 14 3c c2 4f ca 3b
       0.021346373 -0.028197793 0.009041721 0.0061740587
