test1/pth/vae_best.pth (torch, 55227 bytes, 14 tensors)

conv_enc1.weight f4 [8, 3, 3, 3]
0.042632814 0.17014746 -0.028670797 -0.1202843 -0.042055335 0.052482296 0.036978334 -0.09530621
0.16565406 0.10525085 0.14350785 -0.025354939 -0.19132367 0.11042208 0.12100499 0.037686914
0.103519596 0.17476034 -0.21141553 0.038558375 0.061503973 0.08334103 -0.02529482 0.017833266
0.12340505 0.15246017 0.0999787 -0.051811047 -0.048050184 -0.11508542 -0.13544466 -0.06366588
-0.14231855 0.008006929 0.22239509 -0.06498662 0.03868797 -0.2513812 0.08619187 -0.17896901
-0.16649495 0.001064369 0.31231436 0.21806036 0.059695076 0.1281441 -0.07963183 -0.012663524
0.20253563 -0.067330986 -0.014886445 0.117311746 0.2086836 -0.0291023 0.15007457 -0.13936314
-0.19176327 -0.043560665 0.06347867 -0.08008649 -0.086952396 -0.017718395 -0.22019243 0.21604645
-0.12583292 0.23363042 0.33672336 -0.026257988 0.13213438 -0.2062658 -0.077503316 -0.21591079
0.035974998 0.06956307 -0.10725366 -0.046713207 0.16947581 -0.073809944 0.14361817 0.17673539
-0.30072036 -0.101973124 -0.020360831 -0.0128371725 -0.0066728066 0.22175692 0.13643923 0.052102473
-0.09349016 -0.15552816 -0.18215613 -0.012186727 0.11807004 -0.20007874 0.20899267 -0.015593942
-0.004649575 -0.03692197 -0.09326562 0.21559106 0.11968837 -0.08644142 0.2718137 0.059715677
-0.114485264 0.19437537 0.14825471 -0.2501098 -0.12895009 0.1477703 -0.059507333 0.07016753
-0.20213833 0.073950775 -0.14451523 0.21779723 0.047789037 0.12984686 0.1487614 -0.24841532
-0.0037494309 0.092493385 0.3029395 0.16862321 0.399118 -0.15592442 0.06124686 -0.024254965
0.058581173 -0.10298529 -0.028153531 0.016188232 0.102900304 -0.12096312 0.018631583 -0.016004378
0.035913266 -0.12915742 -0.10439442 -0.023321414 -0.065028116 -0.1369023 0.03986687 0.10805099
-0.16823821 0.039472353 0.17864816 0.087847225 -0.242025 -0.096659385 0.22684671 0.12101476
-0.0012611047 -0.021008937 0.068731986 0.04543351 0.19181952 0.057257313 0.20408826 0.10837287
-0.14714615 -0.2281758 -0.08020902 0.19752765 0.10928603 0.21319015 -0.055960886 -0.112089336
0.13038687 0.18434377 -0.07968855 0.14910248 0.11773988 -0.045816783 0.04530939 0.1046143
0.07279558 0.19710034 -0.01274411 -0.15771554 0.063715175 0.14439155 -0.14720607 0.23849533
0.15737145 0.0031201807 0.21092583 0.13387349 -0.0071667884 0.21158843 0.29476476 -0.10761353
-0.27199638 0.08350066 0.034833558 -0.10878628 0.1043089 -0.034007527 0.12903418 0.21851358
0.058728006 -0.29082757 -0.14753687 -0.06848651 0.10771555 0.00976131 -0.19501962 -0.04481282
0.24945249 -0.1561865 0.024850843 0.10519564 0.23188366 -0.09186728 -0.06752512 0.030233553
00000000: bf9f 2e3d 233b 2e3e 05df eabc 9d57 f6bd
00000010: 3742 2cbd adf7 563d 9876 173d e72f c3bd
00000020: 38a1 293e c28d d73d b9f3 123e 29b5 cfbc
00000030: 5aea 43be f924 e23d 77d1 f73d 985d 1a3d
00000040: 1502 d43d 60f4 323e 507d 58be 63ef 1d3d
00000050: 97eb 7b3d b4ae aa3d 1537 cfbc 1217 923c
00000060: c9bb fc3d 851e 1c3e a2c1 cc3d d237 54bd
00000070: 45d0 44bd e8b1 ebbd 01b2 0abe 4263 82bd
00000080: f4bb 11be 7f2f 033c 8abb 633e b417 85bd
00000090: 4777 1e3d 09b5 80be 5d85 b03d a743 37be
000000a0: a77d 2abe 4c82 8b3a abe7 9f3e 374b 5f3e
000000b0: d382 743d 3538 033e 0316 a3bd ab7a 4fbc
000000c0: 8065 4f3e d4e4 89bd 47e6 73bc 2441 f03d
000000d0: 27b1 553e f267 eebc 26ad 193e 36b5 0ebe
000000e0: 975d 44be ab6c 32bd 1b01 823d 6304 a4bd
000000f0: 1914 b2bd 2b26 91bc 207a 61be 483b 5d3e
00000100: 58da 00be d03c 6f3e 0167 ac3e fe1a d7bc
00000110: 3c4e 073e 5837 53be 0fba 9ebd b817 5dbe
00000120: 855a 133d 1577 8e3d cfa7 dbbd 5956 3fbd
00000130: 118b 2d3e ab29 97bd a410 133e 1ffa 343e
00000140: 05f8 99be 49d7 d0bd c2cb a6bc 0153 52bc
00000150: 8fa7 dabb 3f14 633e bab6 0b3e 6769 553d
00000160: c577 bfbd c642 1fbe 2387 3abe d6aa 47bc
00000170: b5ce f13d 71e1 4cbe 2d02 563e bc7d 7fbc
00000180: 765b 98bb 7e3b 17bd 0c02 bfbd e7c3 5c3e
00000190: 2d1f f53d 3308 b1bd 2a2b 8b3e 6d98 743d
000001a0: 4077 eabd 560a 473e 15d0 173e 640e 80be
000001b0: 7e0b 04be 1951 173e f6bd 73bd feb3 8f3d
000001c0: 5afd 4ebe 8173 973d cdfb 13be 3d06 5f3e
000001d0: 70be 433d 93f6 043e e954 183e 9660 7ebe
000001e0: 03b9 75bb 2c6d bd3d e31a 9b3e 90ab 2c3e
000001f0: 3259 cc3e a7aa 1fbe fddd 7a3d 59b2 c6bc
00000200: d0f2 6f3d f4e9 d2bd 3ca2 e6bc 2f9d 843c
00000210: 65bd d23d 83bb f7bd 43a1 983c 9d1b 83bc
00000220: ca19 133d d841 04be becc d5bd 8d0c bfbc
00000230: 762d 85bd 1e30 0cbe 714b 233d d649 dd3d
00000240: a346 2cbe c3ad 213d 8bef 363e 3fe9 b33d
00000250: 67d5 77be 5bf5 c5bd 814a 683e 96d6 f73d
00000260: a74b a5ba ef1a acbc 5bc3 8c3d 7d18 3a3d
00000270: 566c 443e a586 6a3d 83fc 503e 98f2 dd3d
00000280: 7bad 16be eba6 69be a044 a4bd b044 4a3e
00000290: 5bd1 df3d 854e 5a3e 3e37 65bd 188f e5bd
000002a0: 2384 053e 9dc4 3c3e c033 a3bd 52ae 183e
000002b0: 9b21 f13d 61aa 3bbd 5796 393d 0640 d63d
000002c0: d915 953d acd4 493e accc 50bc 2f80 21be
000002d0: 1a7d 823d 61db 133e 30bd 16be 1f38 743e
000002e0: fb25 213e f27b 4c3b f1fc 573e 2216 093e
000002f0: 61d7 eabb a3aa 583e 68eb 963e 7b64 dcbd
00000300: 1c43 8bbe 6502 ab3d a2ad 0e3d 57cb debd
00000310: e89f d53d 7a4b 0bbd 8921 043e 06c2 5f3e
00000320: c78c 703d 5ae7 94be e813 17be a842 8cbd
00000330: f899 dc3d e7ed 1f3c 39b3 47be a68d 37bd
00000340: 7970 7f3e 5bef 1fbe ff93 cb3c d070 d73d
00000350: e972 6d3e ea24 bcbd 9c4a 8abd 5bac f73c

conv_enc1.bias f4 [8]
0.15799935 -0.02387172 0.054892723 -0.02812528 0.03241939 0.09562932 0.05779926 -0.037335042
00000000: 95ca 213e a08e c3bc 31d7 603d fd66 e6bc
00000010: 32ca 043d 4ed9 c33d ebbe 6c3d a1ec 18bd

conv_enc2.weight f4 [16, 8, 3, 3]
0.06538252 -0.06708943 -0.03446464 0.054553878 0.075429924 0.050712038 0.026587361 0.10738561
0.019588625 0.17426883 0.07072593 -0.003918626 -0.10967737 -0.08304306 -0.071607985 0.101996034
0.0023220652 -0.056834362 0.04086506 0.059383042 0.0076178056 -0.055112716 -0.0033900312 0.012344216
0.13015006 -0.08958008 0.13622653 0.06553884 0.12577608 -0.04461447 -0.013115398 0.0921858
-0.035479397 -0.06536784 0.1580078 -0.033566497 -0.007126314 0.09762906 -0.057914086 -0.14129665
-0.09621032 0.0138587495 0.037719302 0.0016459469 -0.043689705 -0.13702348 0.009811731 0.058252715
-0.12938575 -0.097226374 0.115648896 0.043897863 -0.02235429 -0.10134369 0.042127408 -0.11745632
-0.07177925 -0.040670052 0.060873974 0.015777282 -0.053915206 -0.01356136 -0.14959596 -0.30125847
-0.17298718 -0.0733801 -0.13259172 0.037060734 -0.05654109 0.1213345 0.13571191 0.0071518547
0.11088821 0.066069596 -0.012371274 -0.0065921647 -0.04668876 -0.1250882 0.017332178 -0.015143031
-0.06778883 -0.043580208 0.013173565 0.009784229 -0.10243423 -0.024601836 -0.08458029 -0.14227255
-0.10469335 -0.25567406 0.06930449 0.022125743 0.026944999 0.0902488 -0.013490631 -0.074123986
0.070551835 -0.09047978 0.10625768 -0.05638956 0.1551654 -0.018341877 0.13253659 0.08491268
0.0249203 -0.06564418 0.056193292 -0.12187326 -0.07658573 0.14210218 -0.06571867 -0.09407637
-0.04466777 0.10954441 0.01443197 -0.03504741 -0.21678592 0.072610125 0.09471248 -0.14759044
0.031991407 0.07267293 0.073187314 -0.16023251 -0.12740369 -0.09143841 0.0870376 0.03909991
0.016707681 0.028786894 0.0145686865 0.04770269 -0.03382684 -0.115109354 -0.13601954 0.02558257
0.2480503 -0.09292248 0.0025846362 -0.0053471047 0.02629748 0.15169762 0.115627155 -0.03434886
0.10465089 -0.088567056 -0.10212236 0.01597425 -0.022146383 0.035082426 0.01344216 -0.21537928
-0.03668913 0.047361877 0.042638224 -0.22631533 0.1372034 0.11380681 0.063417874 -0.07963106
-0.15544477 -0.103142254 0.013755002 0.057203237 0.1293392 -0.0786277 -0.03230219 0.07682261
-0.16227585 0.2530858 -0.017199615 -0.032225598 0.0903037 -0.13198188 0.2296369 -0.040424075
-0.072702795 0.20223393 0.056622762 -0.096703544 0.15724064 -0.07419262 -0.28077084 -0.026937177
0.15028003 -0.024822041 -0.06753146 0.048385713 -0.15629931 -0.009421687 0.0499671 -0.031960826
0.07228204 0.11963085 -0.06576971 -0.15505612 0.0056880396 -0.15437272 0.14125517 0.08107319
-0.13748114 -0.10962923 -0.04655256 -0.03525376 0.07939011 0.03662078 -0.105648994 0.09880453
-0.005082015 -0.08967692 0.04230754 -0.077788204 0.08538539 -0.05234726 0.010621464 -0.093838975
-0.0757381 -0.028692547 0.092832536 -0.10922296 0.13866131 -0.14231285 0.00990363 -0.093436636
-0.0034312392 0.00058391324 -0.07829393 -0.04883544 -0.17834528 0.083056144 -0.023655977 0.07057294
0.020538494 0.08745486 -0.25595325 0.17725252 0.13041899 0.09328662 -0.11083693 -0.05793382
-0.08666935 -0.21486782 0.020111244 0.108294904 0.14385723 -0.0687025 0.080417104 0.045547873
-0.0015891151 0.093327366 0.15514448 -0.033300865 -0.13997826 0.082320735 0.11244027 -0.14610581
00000000: 45e7 853d 2f66 89bd cb2a 0dbd e373 5f3d
00000010: 017b 9a3d 6db7 4f3d bdcd d93c fdec db3d
00000020: 5378 a03c 8773 323e c2d8 903d d167 80bb
00000030: 879e e0bd 7b12 aabd 35a7 92bd 4ce3 d03d
00000040: ca2d 183b 26cb 68bd 1f62 273d a23b 733d
00000050: c99e f93b dfbd 61bd 492b 5ebb 653f 4a3c
00000060: 0f46 053e c375 b7bd f87e 0b3e 3a39 863d
00000070: 72cb 003e aabd 36bd f7e1 56bc e9cb bc3d
00000080: d852 11bd 93df 85bd cccc 213e 067d 09bd
00000090: db83 e9bb bff1 c73d 5237 6dbd 12b0 10be
000000a0: eb09 c5bd cf0f 633c 8e7f 1a3d d0bc d73a
000000b0: faf3 32bd e24f 0cbe 62c1 203c 669a 6e3d
000000c0: b37d 04be 9f1e c7bd 54d9 ec3d 3fce 333d
000000d0: 5820 b7bc 488d cfbd ca8d 2c3d f08c f0bd
000000e0: 0001 93bd a495 26bd fd56 793d 5c3f 813c
000000f0: 31d6 5cbd 7730 5ebc af2f 19be 8d3e 9abe
00000100: 8d23 31be 4e48 96bd 20c6 07be ffcc 173d
00000110: a197 67bd 397e f83d 10f8 0a3e 1b5a ea3b
00000120: 5c19 e33d 7f4f 873d e2b0 4abc 1603 d8bb
00000130: b73c 3fbd 1f17 00be 36fc 8d3c 7a1a 78bc
00000140: dfd4 8abd 2981 32bd f0d5 573c 084e 203c
00000150: 0ac9 d1bd ca89 c9bc 6e38 adbd e5af 11be
00000160: 7869 d6bd b6e7 82be 83ef 8d3d 0c41 b53c
00000170: c2bb dc3c 5dd4 b83d cf07 5dbc 51ce 97bd
00000180: 7b7d 903d 774d b9bd a09d d93d bdf8 66bd
00000190: aee3 1e3e b441 96bc acb7 073e b3e6 ad3d
000001a0: a825 cc3c 7570 86bd f02a 663d b098 f9bd
000001b0: fbd8 9cbd 3c83 113e 8397 86bd 1dab c0bd
000001c0: 8df5 36bd d258 e03d 1274 6c3c df8d 0fbd
000001d0: 21fd 5dbe 9eb4 943d 9ef8 c13d f321 17be
000001e0: 6c09 033d 8cd5 943d 3be3 953d fe13 24be
000001f0: 1d76 02be 1044 bbbd c540 b23d 3a27 203d
00000200: 8cde 883c 7ed2 eb3c 80b1 6e3c e563 433d
00000210: 038e 0abd 74be ebbd b548 0bbe 8a92 d13c
00000220: e600 7e3e 244e bebd 0063 293b c436 afbb
00000230: d06d d73c 9f56 1b3e eecd ec3d 64b1 0cbd
00000240: 3553 d63d a562 b5bd 8725 d1bd 6edc 823c
00000250: 556c b5bc 97b2 0f3d 813c 5c3c 638c 5cbe
00000260: 5747 16bd 87fe 413d 6ba5 2e3d 35bf 67be
00000270: 0c7f 0c3e 8b13 e93d 3be1 813d 9c15 a3bd
00000280: ea2c 1fbe 3f3c d3bd a95c 613c f14d 6a3d
00000290: 7f71 043e 8f07 a1bd 4d4f 04bd 2c55 9d3d
000002a0: a42b 26be 7694 813e 35e6 8cbc fdfe 03bd
000002b0: 25f1 b83d 4226 07be ef25 6b3e b793 25bd
000002c0: 34e5 94bd 6916 4f3e 45ed 673d 820c c6bd
000002d0: b103 213e 4df2 97bd 32c1 8fbe 5bab dcbc
000002e0: 02e3 193e 9857 cbbc ef4d 8abd 1930 463d
000002f0: ed0c 20be 6b5d 1abc 4daa 4c3d 5be9 02bd
00000300: 9b08 943d 0501 f53d 45b2 86bd 08c7 1ebe
00000310: bc62 ba3b e213 1ebe 32a5 103e b309 a63d
00000320: dbc7 0cbe 4a85 e0bd e6ad 3ebd 3f66 10bd
00000330: 4897 a23d acff 153d 805e d8bd 085a ca3d
00000340: 0887 a6bb 88a8 b7bd ac4a 2d3d 6c4f 9fbd
00000350: 89de ae3d 156a 56bd a605 2e3c a62e c0bd
00000360: 941c 9bbd a20c ebbc fc1e be3d 4ab0 dfbd
00000370: 3bfd 0d3e 76ba 11be d642 223c b55b bfbd
00000380: a4de 60bb c111 193a 9158 a0bd ac07 48bd
00000390: 25a0 36be 5719 aa3d 2eca c1bc 8c88 903d
000003a0: 5840 a83c 891b b33d 4e0c 83be af81 353e
000003b0: 8e8c 053e 0e0d bf3d 79fe e2bd 034c 6dbd
000003c0: b37f b1bd 4f06 5cbe 56c0 a43c b8c9 dd3d
000003d0: 4f4f 133e e5b3 8cbd b9b1 a43d 6890 3a3d
000003e0: db49 d0ba 6b22 bf3d 32de 1e3e 7d66 08bd
000003f0: 7656 0fbe c697 a83d 1647 e63d c39c 15be

conv_enc2.bias f4 [16]
-0.027688116 0.031670038 0.017559918 0.03441183 -0.028995795 0.052164398 -0.007865853 -0.10486855
0.05097155 0.038397823 0.033432152 -0.12275012 0.09180914 -0.17570955 -0.072723374 -0.011224276
00000000: 30d2 e2bc 71b8 013d d1d9 8f3c 6bf3 0c3d
00000010: 9788 edbc 56aa 553d c7df 00bc 53c5 d6bd
00000020: 8bc7 503d 0947 1d3d 27f0 083d 6a64 fbbd
00000030: 6e06 bc3d 34ed 33be feef 94bd 07e6 37bc

dense_encmean.weight f4 [8, 400]
-0.014357366 0.029991852 -0.032382194 0.001535818 -0.006645093 -0.06248459 0.07871841 -0.13883495
0.07232906 -0.06829494 -0.042430695 0.052795704 0.0861994 -0.11327552 0.02153222 -0.17963155
0.07529966 -0.00259086 -0.11018013 0.12871352 -0.030127667 0.051393997 -0.026606299 0.12256121
-0.08458234 -0.23218526 -0.19632867 -0.1868278 0.08716277 -0.008398433 -0.24815498 -0.001020566
-0.04933935 0.07891436 0.046785824 0.07001944 0.07540508 0.034683768 0.017612264 0.0056899083
-0.051427566 0.038708344 -0.03923705 -0.04645835 -0.056743395 0.018366657 -0.004740067 0.00407064
-0.11940865 -0.023878135 0.15493228 -0.11815123 0.063143484 -0.06440316 0.07375933 -0.0031521304
-0.07270153 0.10061846 -0.002148812 0.07497874 -0.025776312 0.07424303 0.09245053 -0.10975246
0.020325786 -0.13510981 0.07042837 0.053259637 -0.031104164 0.0005138988 0.05039489 -0.011068822
0.07062874 -0.03438657 -0.021214537 -0.2686595 -0.024130339 0.15152867 -0.0321753 -0.047121394
-0.12707956 0.13627446 0.0022775563 0.10805175 -0.11075237 -0.024378404 -0.017956082 -0.06604327
0.03643116 -0.102735154 -0.0036389686 0.0798013 -0.026790228 -0.091898255 0.07046311 0.03483427
0.03925394 -0.07177982 -0.027166175 0.06041721 0.040832233 -0.04250242 -0.021613056 0.07581262
-0.03432077 -0.10879674 0.021181123 -0.009331188 0.019406244 -0.08004479 0.0063123056 -0.082425654
-0.058767106 -0.029923148 -0.072774105 0.11249488 0.15183678 -0.07680984 0.073207125 -0.0653993
-0.09455988 0.109979756 0.07759772 0.017174821 -0.028011369 -0.23996922 -0.17462586 -0.14890692
0.037373643 0.081375435 -0.037969384 0.041792877 -0.059326198 0.10033614 -0.07315184 -0.00397744
0.11929099 -0.072176345 0.12132111 -0.09707459 -0.003440177 -0.06624398 -0.080310136 -0.056595102
-0.06656409 0.026503254 0.037202183 -0.00095976394 -0.112562954 -0.05676954 0.032449868 -0.033131868
-0.018462168 0.031997047 -0.010134666 0.032529503 0.033439122 0.00047097215 -0.038558096 -0.01599942
0.06875214 -0.060143765 -0.06328925 -0.014584119 -0.035827488 0.0076870043 0.033481255 -0.032447003
-0.039143782 -0.07920546 0.038936064 -0.009126337 0.0059528165 -0.09188351 -0.08991061 -0.05006349
0.022742528 0.008314667 0.036867484 -0.10126174 0.14209142 -0.077951364 0.116444096 -0.16069792
-0.012425425 -0.022948159 -0.051883873 0.07811502 -0.04477492 -0.046765618 -0.0018531664 -0.074253425
-0.06611933 0.011581438 -0.1375192 0.02569627 -0.023481946 -0.105433054 0.042342532 0.014864477
-0.0031825812 -0.030627714 0.023523053 -0.040199354 -0.021408798 0.02917157 -0.024318745 0.10921761
-0.06780017 0.05109742 0.037866723 -0.10120529 0.008835679 -0.13403769 0.083377756 0.051619004
0.019044569 -0.038603894 -0.12492748 -0.046325088 0.03919634 -0.023719965 -0.10994403 -0.036745466
-0.04159187 -0.096516326 -0.13452002 0.018235086 -0.034712832 0.05029255 0.1617084 -0.06334473
0.059217524 -0.07639232 0.043920353 -0.0067758895 0.032691844 0.06806986 -0.110772274 -0.006778845
0.015346706 0.0054145143 0.045273557 -0.049234036 0.010088719 0.09061395 0.12676509 0.121782914
0.008130297 -0.05208922 -0.07142645 0.044557936 -0.047492933 0.061450772 -0.041914996 -0.0887479
00000000: 283b 6bbc 79b1 f53c 31a3 04bd 804d c93a
00000010: 15bf d9bb d7ef 7fbd 1e37 a13d c02a 0ebe
00000020: 4221 943d 38de 8bbd cfcb 2dbd 4f40 583d
00000030: 5089 b03d fffc e7bd 5764 b03c 55f1 37be
00000040: b536 9a3d 6bcb 29bb 1fa6 e1bd 7acd 033e
00000050: 4cce f6bc 8382 523d 74f5 d9bc 5f01 fb3d
00000060: 8239 adbd f9c1 6dbe 620a 49be c94f 3fbe
00000070: 6582 b23d 9599 09bc 571c 7ebe 83c4 85ba
00000080: 0f18 4abd da9d a13d 7ea2 3f3d 5a66 8f3d
00000090: fb6d 9a3d 9110 0e3d 9847 903c 6972 ba3b
000000a0: b6a5 52bd a48c 1e3d 07b7 20bd 1c4b 3ebd
000000b0: c36b 68bd ac75 963c 9052 9bbb 0163 853b
000000c0: 868c f4bd 149c c3bc 91a6 1e3e 46f9 f1bd
000000d0: 5f51 813d cee5 83bd 220f 973d f993 4ebb
000000e0: 8ae4 94bd 0d11 ce3d 15d3 0cbb 748e 993d
000000f0: d828 d3bc bb0c 983d b456 bd3d e6c5 e0bd
00000100: 4382 a63c 3a5a 0abe c03c 903d c726 5a3d
00000110: 29ce febc 2ab7 063a df6a 4e3d 015a 35bc
00000120: cda5 903d efd8 0cbd 1cca adbc bd8d 89be
00000130: fdac c5bc 552a 1b3e 3fca 03bd 5d02 41bd
00000140: 2521 02be 888b 0b3e 0e43 153b 3c4a dd3d
00000150: 23d2 e2bd 38b5 c7bc a218 93bc b241 87bd
00000160: d738 153d cf66 d2bd c37b 6ebb dd6e a33d
00000170: 2e77 dbbc 2735 bcbd f74e 903d 61ae 0e3d
00000180: bdc8 203d 4c01 93bd 998b debc 0978 773d
00000190: b33f 273d 0417 2ebd dd0d b1bc a643 9b3d
000001a0: f093 0cbd d3d0 debd 0984 ad3c d7e1 18bc
000001b0: d8f9 9e3c 86ee a3bd 75d7 ce3b c8ce a8bd
000001c0: c7b5 70bd 6421 f5bc 970a 95bd b763 e63d
000001d0: 1a7b 1b3e 7a4e 9dbd 9eed 953d 11f0 85bd
000001e0: 9ca8 c1bd 113d e13d 8eeb 9e3d 36b2 8c3c
000001f0: 1978 e5bc 7eba 75be 1fd1 32be 0e7b 18be
00000200: 1b15 193d 2aa8 a63d c985 1bbd 022f 2b3d
00000210: 0700 73bd 097d cd3d a2d0 95bd 2f55 82bb
00000220: d64e f43d 31d1 93bd 3477 f83d 0bcf c6bd
00000230: 9874 61bb ecaa 87bd a479 a4bd 44d0 67bd
00000240: c152 88bd 5a1d d93c 5161 183d ab98 7bba
00000250: 6887 e6bd 2d87 68bd 27ea 043d 48b5 07bd
00000260: f93d 97bc 560f 033d df0b 26bc a83d 053d
00000270: 76f7 083d d0ec f639 18ef 1dbd 3711 83bc
00000280: eccd 8c3d 4f59 76bd cb9d 81bd 3bf2 6ebc
00000290: d8bf 12bd 44e3 fb3b a423 093d 26e7 04bd
000002a0: 3b55 20bd 7936 a2bd 6c7b 1f3d a286 15bc
000002b0: d80f c33b 6c2d bcbd 0e23 b8bd 600f 4dbd
000002c0: 8a4e ba3c 3e3a 083c 5c02 173d 5162 cfbd
000002d0: 6a80 113e f7a4 9fbd 3e7a ee3d ff8d 24be
000002e0: 0394 4bbc c7fd bbbc 2f84 54bd c5fa 9f3d
000002f0: e865 37bd 4e8d 3fbd f2e5 f2ba 2e12 98bd
00000300: 9269 87bd 12c0 3d3c d5d1 0cbe fc80 d23c
00000310: 365d c0bc 49ed d7bd 5d6f 2d3d 238a 733c
00000320: da92 50bb f9e6 fabc 6bb3 c03c 14a8 24bd
00000330: 8161 afbc 37f9 ee3c 1b38 c7bc 7bad df3d
00000340: d1da 8abd 874b 513d 231a 1b3d b844 cfbd
00000350: 86c3 103c 2d41 09be f5c1 aa3d 736e 533d
00000360: 5b03 9c3c 1e1f 1ebd fbd9 ffbd 60bf 3dbd
00000370: 578c 203d 5f50 c2bc 562a e1bd 6a82 16bd
00000380: 3d5c 2abd 5aaa c5bd 9ebf 09be bf61 953c
00000390: 0b2f 0ebd 90ff 4d3d e396 253e e2ba 81bd
000003a0: 138e 723d 9473 9cbd d4e5 333d 4808 debb
000003b0: e2e7 053d 3668 8b3d 93dc e2bd 1321 debb
000003c0: c070 7b3c 3d6c b13b c470 393d a1a9 49bd
000003d0: 284b 253c ce93 b93d b5ce 013e 5269 f93d
000003e0: f034 053c 825b 55bd 0848 92bd 6282 363d
000003f0: f387 42bd ceb3 7b3d 0faf 2bbd 76c1 b5bd

dense_encmean.bias f4 [8]
-0.015702745 0.105483435 -0.03516776 -0.0014772749 0.017468743 0.055248264 -0.07670215 0.071115546
00000000: 0ba3 80bc b307 d83d 120c 10bd 1fa1 c1ba
00000010: 9c1a 8f3c 014c 623d 0416 9dbd 07a5 913d

dense_encvar.weight f4 [8, 400]
0.066454366 -0.01455022 -0.013493405 0.072566226 0.019356126 0.03176167 0.0146536995 -0.0071792854
0.04172224 0.01666752 0.10170789 0.025803536 -0.0013472659 -0.08116183 0.09276883 0.013907183
0.1012308 0.008798542 0.07844619 0.027215652 -0.05489117 0.06193752 -0.023704955 0.039265368
0.06094086 -0.14080873 -0.07035391 -0.15010051 0.0036204893 -0.012729129 -0.120010175 -0.06546996
-0.019634008 0.010125039 -0.008424755 0.03298948 0.023230659 -0.045787472 -0.048673138 0.01090769
0.0082088495 0.03843228 0.0022787435 0.00061054854 -0.039581433 0.025392218 0.013617284 0.045438744
0.024734559 -0.06369512 0.084300146 -0.023733316 -0.021908963 0.05634855 0.049111504 -0.060369983
-0.0377165 -0.061729923 0.018693076 0.053163506 0.047314666 0.06338587 0.03018322 0.044707168
0.028378803 0.02375095 0.06296684 0.058447998 0.029823199 0.07553613 0.07696242 0.09181024
0.028689772 -0.01051144 0.002016271 -0.10549263 -0.00081041385 0.011631667 -0.058814634 0.0334975
-0.016894374 -0.02247742 0.044831242 -0.0037793163 -0.06660397 0.0116773015 -0.038423914 0.052842572
-0.049743343 -0.08751321 0.07972066 0.0037273145 0.026369361 0.058233194 -0.064707026 0.010167896
0.100160085 0.02679531 0.07579545 -0.062850356 0.022344707 -0.0044302098 -0.020833846 -0.013285168
-0.035593305 0.04997432 -0.0034851576 0.019956727 -0.03249164 -0.023638064 -0.113609985 0.025714358
0.107669316 -0.039041772 -0.05866128 7.63638e-05 -0.0350799 -0.037046477 -0.008790082 0.014105636
-0.0550724 -0.03972508 0.03260845 0.01335344 -0.07856679 -0.19986652 -0.13540033 -0.11559032
0.09021957 0.09224305 0.024167119 -0.05115115 -0.03529296 -0.07266759 0.029804984 0.07798341
0.02117572 0.026021168 0.019192567 -0.008942061 0.08190189 0.026266208 0.05631396 0.042680003
-0.054654278 0.028420199 -0.018944107 -0.0084184725 -0.0047101625 -0.068847895 -0.019281486 -0.07262241
-0.002840998 -0.0833391 -0.0151175745 0.011096312 -0.049704712 -0.024977392 -0.07427 -0.085798316
-0.035522826 0.019091502 -0.04635716 -0.052747995 -0.06392364 -0.017534403 -0.020083044 -0.023993574
-0.07654282 -0.11884722 -0.019070692 -0.03832621 -0.04005347 -0.024952998 -0.09169939 0.012946878
-0.057344433 -0.0014262057 -0.047769386 0.015887765 -0.032079894 0.02181776 -0.05806564 0.020005787
-0.035302795 -0.051404096 0.003178425 0.06531816 0.02824455 -0.045452293 0.005490668 0.06881077
0.0993309 -0.006947041 -0.010190047 0.07114437 0.023196932 0.011785724 -0.06443047 -0.06599988
-0.011674514 -0.031702224 0.0037957176 -0.027530855 -0.035513524 -0.036546882 -0.08136717 -0.07871235
-0.0065161367 -0.05611586 0.020752305 -0.07520798 -0.061010472 -0.05404256 -0.05430279 0.011721901
0.022588704 -0.049226645 -0.028616235 -0.047184248 0.035641808 -0.009129531 -0.028833326 -0.040295977
-0.06312286 0.12578493 0.037194792 0.058855124 -0.004660766 0.009835145 0.06276931 -0.0024289945
-0.0865785 0.052699257 0.06885839 0.007192531 0.04599904 -0.01286499 0.025222812 0.0017758552
0.026551642 0.014870072 -0.02888661 0.0488134 0.0074854987 0.018908147 0.08792881 0.09804206
-0.034378044 0.049663197 0.026567977 0.035281967 0.0017020424 0.016626155 -0.005861045 0.07452322
00000000: 3a19 883d 0c64 6ebc 7113 5dbc 9a9d 943d
00000010: bd90 9e3c 8618 023d 1216 703c 3640 ebbb
00000020: f1e4 2a3d 538a 883c 3a4c d03d f061 d33c
00000030: be96 b0ba 2c38 a6bd 96fd bd3d f4da 633c
00000040: 1852 cf3d c327 103c 65a8 a03d 5cf3 de3c
00000050: 90d5 60bd 32b2 7d3d e530 c2bc b9d4 203d
00000060: 209d 793d 2a30 10be b615 90bd f3b3 19be
00000070: bb45 6d3b d68d 50bc e5c7 f5bd 1d15 86bd
00000080: 80d7 a0bc 7ee3 253c fc07 0abc fa1f 073d
00000090: 394e be3c a58b 3bbd 7c5d 47bd 2bb6 323c
000000a0: 697e 063c 2b6b 1d3d f956 153b 380d 203a
000000b0: 2420 22bd 5703 d03c 071b 5f3c fa1d 3a3d
000000c0: 21a0 ca3c 9672 82bd 8ea5 ac3d 5f6c c2bc
000000d0: 6d7a b3bc bdcd 663d 2529 493d 8446 77bd
000000e0: 9e7c 1abd 84d8 7cbd 3922 993c fac1 593d
000000f0: 06cd 413d 73d0 813d cd42 f73c dd1e 373d
00000100: aa7a e83c 5a91 c23c c2f4 803d 2b67 6f3d
00000110: c84f f43c b0b2 9a3d 799e 9d3d 0207 bc3d
00000120: d006 eb3c 2d38 2cbc 6a23 043b 850c d8bd
00000130: f471 54ba bf92 3e3c 9de7 70bd ad34 093d
00000140: 1266 8abc 9122 b8bc f7a0 373d 68ae 77bb
00000150: aa67 88bd 2752 3f3c 6562 1dbd 7471 583d
00000160: adbf 4bbd 203a b3bd 9644 a33d f645 743b
00000170: 8f04 d83c ee85 6e3d 1e85 84bd 3f97 263c
00000180: bb20 cd3d d781 db3c a53a 9b3d b0b7 80bd
00000190: 3f0c b73c 4b2b 91bb beab aabc 09aa 59bc
000001a0: 49ca 11bd dfb1 4c3d 3e67 64bb 4a7c a33c
000001b0: f415 05bd 9da4 c1bc 5aac e8bd eba6 d23c
000001c0: bb81 dc3d 44ea 1fbd cf46 70bd 8125 a038
000001d0: f1af 0fbd 0cbe 17bd 4704 10bc 531b 673c
000001e0: 9993 61bd c4b6 22bd 7090 053d 63c8 5a3c
000001f0: a0e7 a0bd cfa9 4cbe 62a6 0abe 9eba ecbd
00000200: 0ac5 b83d ede9 bc3d 1ffa c53c de83 51bd
00000210: 5a8f 10bd bfd2 94bd 9529 f43c c4b5 9f3d
00000220: b478 ad3c 582a d53c bb39 9d3c b981 12bc
00000230: 2ebc a73d 3b2c d73c 78a9 663d 3ad1 2e3d
00000240: 2add 5fbd 7ad1 e83c ac30 9bbc a2ed 09bc
00000250: b557 9abb 2000 8dbd 35f4 9dbc 0fbb 94bd
00000260: 0930 3abb b1ad aabd b4af 77bc 4ecd 353c
00000270: 2b97 4bbd 639d ccbc df1a 98bd 07b7 afbd
00000280: 6280 11bd c865 9c3c 01e1 3dbd 480e 58bd
00000290: 66ea 82bd 4fa4 8fbc 3285 a4bc 2c8e c4bc
000002a0: 7bc2 9cbd 2c66 f3bd 243a 9cbc f2fb 1cbd
000002b0: 1b0f 24bd 3b6a ccbc e4cc bbbd 241f 543c
000002c0: ffe1 6abd 86ef baba d5a9 43bd 0f27 823c
000002d0: 3566 03bd 29bb b23c 3dd6 6dbd 2de3 a33c
000002e0: aa99 10bd 1a8d 52bd 1f4d 503b 87c5 853d
000002f0: 1d61 e73c 2f2c 3abd 10eb b33b a9ec 8c3d
00000300: 006e cb3d 01a4 e3bb 28f4 26bc 24b4 913d
00000310: 7e07 be3c e918 413c 1ff4 83bd f22a 87bd
00000320: 7646 3fbc 31da 01bd 93c1 783b 6388 e1bc
00000330: a176 11bd 2fb2 15bd d5a3 a6bd f133 a1bd
00000340: 5185 d5bb bed9 65bd bd00 aa3c a406 9abd
00000350: 1ee6 79bd bb5b 5dbd 9a6c 5ebd 370d 403c
00000360: f20b b93c e1a1 49bd 986c eabc 4544 41bd
00000370: 25fd 113d 0794 15bc de33 ecbc 650d 25bd
00000380: 8f46 81bd c4cd 003e 9159 183d 1212 713d
00000390: 57b9 98bb 9723 213c 328d 803d c42f 1fbb
000003a0: 1250 b1bd 2ddb 573d a105 8d3d 53af eb3b
000003b0: 7d69 3c3d aec7 52bc 12a0 ce3c d0c3 e83a
000003c0: d482 d93c 9aa1 733c 9da3 ecbc 8ff0 473d
000003d0: ea48 f53b 42e5 9a3c 0514 b43d 47ca c83d
000003e0: fecf 0cbd a36b 4b3d 16a5 d93c d383 103d
000003f0: 1117 df3a 9333 883c 020e c0bb a19f 983d

dense_encvar.bias f4 [8]
-0.036551494 -0.059648268 -0.046782967 -0.08721991 0.02732712 -0.03450023 0.021712057 -0.04757206
00000000: 05b7 15bd be51 74bd 7f9f 3fbd 5aa0 b2bd
00000010: 20dd df3c 1d50 0dbd 7cdd b13c ecda 42bd

dense_dec.weight f4 [400, 8]
0.20330104 0.042045765 1.1338055 -0.14856632 0.2718598 -0.25600314 -0.08904052 0.17914481
-0.26996657 0.086874306 0.41750014 -0.08059197 -0.19286253 0.3907174 0.045664854 0.2794563
0.019599073 0.43133214 0.3085518 -0.6895277 -0.1792167 0.47075543 0.054888256 0.0055606114
0.1974054 0.41466087 -0.501033 0.20078182 -0.09241473 0.4427536 -0.25428894 0.19163555
-1.0271236 -0.20768626 -0.273529 -0.2000172 -0.18780276 -0.665966 0.24120888 -0.18431921
-0.028992502 0.2685622 -0.22972102 0.16466856 0.05485226 0.03129562 0.16035043 -0.017887164
-0.100309305 -0.09342796 0.65899426 -1.0658993 -0.13510016 0.00047928063 0.14439507 -0.30020866
-0.0006863434 -0.15040068 -0.13259682 -0.029358964 0.1279432 -0.03513941 -0.033534788 -0.13122717
-0.40601033 -0.19993436 0.2875601 0.32748017 -0.14548539 0.5106426 0.22384997 -0.2784507
-0.15673926 0.04161768 -0.073415495 -0.6734283 -0.31725466 0.55973226 0.37523803 0.206593
-0.2059475 -0.1562517 -0.051655896 0.020072607 -0.010281509 0.21171412 -0.123507224 0.011883569
0.088107176 0.24749354 -0.14842206 -0.46563888 0.030101659 0.054343615 0.10551655 0.16396348
0.1394721 0.013958419 0.2217049 0.21565811 -0.11791115 -0.11824441 0.08975732 0.29334944
-0.3284094 -0.06200011 0.20519748 0.30603507 0.11575436 0.20467056 0.0025758373 -0.06285878
1.0510452 0.05523162 0.14222938 0.58002704 -0.3237607 -0.38609087 -0.08932294 -0.025731176
-0.16965732 -0.10738446 0.12682563 0.44042778 0.13911103 -0.09373425 -0.027168928 -0.0061111767
0.035499476 0.13755909 0.11435134 0.3147074 0.023719214 0.0318408 0.030698745 0.026736531
-0.2669004 -0.25601423 -0.29324958 -0.39790478 -0.08493897 0.07301303 -0.046195757 0.0052897846
0.32723424 -0.026802192 0.9572916 -0.12495561 0.10886224 0.3791208 0.20959057 -0.24199043
0.6999603 -0.13189556 -0.060457837 0.40086037 0.11841799 0.27769333 0.24728154 0.002930505
0.072743766 0.0059033246 -0.18072818 0.09472037 -0.07335153 -0.059789006 -0.0262987 0.014557636
-0.0687079 -0.1982005 0.6883085 -0.25381076 0.19602674 -0.003200419 0.027498774 0.00757656
0.18738437 -0.14872025 0.39720866 -0.15402539 -0.09578222 0.10158163 0.1003541 -0.1325141
-0.15569156 0.079902105 0.97333425 -0.33573925 0.17054723 -0.20409517 0.24341334 -0.19146888
0.6178991 -0.2372079 0.33520442 0.12978578 -0.0010964347 0.4358416 0.37713808 -0.07441542
0.20361254 -0.22757833 1.0043975 0.76757115 -0.037993696 -0.0079802945 0.12525998 -0.069381975
0.6246063 -0.20471357 0.20220049 0.7811828 0.018631691 0.25193986 0.08340629 -0.059890974
0.17266671 0.04726362 0.3512377 0.23126402 -0.04020503 0.30092615 0.021830628 -0.16363426
0.45927352 -0.048962332 -0.20281571 0.18509355 -0.18364097 -0.18461181 0.35523927 -0.020615334
-0.45164248 -0.44964123 0.6333659 0.23423946 0.015719816 0.025685191 0.2689122 -0.35472783
0.1117088 -0.026489263 0.44829905 0.14150958 -0.02191032 -0.10015672 -0.084737554 -0.07631417
0.4061592 0.051877506 0.3110965 0.18711686 -0.10589777 -0.14297032 -0.07015133 -0.09729096
00000000: 262e 503e 2e38 2c3d 8a20 913f c521 18be
00000010: 3531 8b3e d812 83be e05a b6bd bd71 373e
00000020: 0f39 8abe 28eb b13d 94c2 d53e 670d a5bd
00000030: c17d 45be 1c0c c83e 120b 3b3d e514 8f3e
00000040: 3c8e a03c 91d7 dc3e 80fa 9d3e e384 30bf
00000050: 9584 37be db06 f13e 82d2 603d ca35 b63b
00000060: a424 4a3e 6e4e d43e b343 00bf c099 4d3e
00000070: ef43 bdbd 9ab0 e23e 2932 82be 1c3c 443e
00000080: c978 83bf b5ab 54be fe0b 8cbe 4fd1 4cbe
00000090: 5e4f 40be bf7c 2abf 76ff 763e 2dbe 3cbe
000000a0: af81 edbc fc80 893e fd3b 6bbe e09e 283e
000000b0: c3ac 603d d62f 003d e732 243e 1a88 92bc
000000c0: f76e cdbd 2957 bfbd d9b3 283f 636f 88bf
000000d0: b257 0abe f547 fb39 4ddc 133e f3b4 99be
000000e0: baeb 33ba a302 1abe 76c7 07be 3682 f0bc
000000f0: 8b03 033e 58ee 0fbd c65b 09bd 6a60 06be
00000100: 96e0 cfbe 98bb 4cbe 143b 933e 7bab a73e
00000110: 1ffa 14be 79b9 023f ed38 653e 1791 8ebe
00000120: 4280 20be 4d77 2a3d dd5a 96bd cc65 2cbf
00000130: 346f a2be 9d4a 0f3f 331f c03e 1e8d 533e
00000140: e7e3 52be 7200 20be 2295 53bd 4f6f a43c
00000150: c673 28bc 96cb 583e 5bf1 fcbd 4db3 423c
00000160: 8971 b43d f26e 7d3e f4fb 17be 3868 eebe
00000170: c197 f63c 6997 5e3d 1019 d83d 0be6 273e
00000180: c6d1 0e3e dab1 643c 9c06 633e 7bd5 5c3e
00000190: 677b f1bd 202a f2bd b0d2 b73d e631 963e
000001a0: 4725 a8be d4f3 7dbd 4a1f 523e a1b0 9c3e
000001b0: 9f10 ed3d 2995 513e 61cf 283b 1bbc 80bd
000001c0: a688 863f 8d3a 623d 94a4 113e a77c 143f
000001d0: f6c3 a5be b4ad c5be f2ee b6bd 30ca d2bc
000001e0: a6ba 2dbe 62ec dbbd 94de 013e c07f e13e
000001f0: 1f73 0e3e bef7 bfbd 5f91 debc 4440 c8bb
00000200: e667 113d 4adc 0c3e 0931 ea3d 5421 a13e
00000210: cc4e c23c 806b 023d ef7b fb3c 9206 db3c
00000220: 2ba7 88be 4c14 83be cf24 96be 2dba cbbe
00000230: 7cf4 adbd db87 953d c337 3dbd ee55 ad3b
00000240: 3f8b a73e 4590 dbbc 1011 753f bae8 ffbd
00000250: 2bf3 de3d 1f1c c23e e99e 563e 57cc 77be
00000260: 9930 333f a10f 07be a3a2 77bd 923d cd3e
00000270: 2285 f23d d22d 8e3e 5f37 7d3e b70d 403b
00000280: affa 943d ad70 c13b cf10 39be c1fc c13d
00000290: 5439 96bd 51e5 74bd 5f70 d7bc 2783 6e3c
000002a0: bab6 8cbd 12f5 4abe fc34 303f 7cf3 81be
000002b0: 3cbb 483e 1fbe 51bb 1c45 e13c cb44 f83b
000002c0: b0e1 3f3e 1f4a 18be ef5e cb3e d5b8 1dbe
000002d0: 7829 c4bd 080a d03d 7386 cd3d c7b1 07be
000002e0: 9c6d 1fbe b7a3 a33d 6f2c 793f 04e6 abbe
000002f0: efa3 2e3e 53fe 50be 5941 793e 6b10 44be
00000300: a32e 1e3f a1e6 72be ea9f ab3e 90e6 043e
00000310: 3eb6 8fba a126 df3e 3e18 c13e 1d67 98bd
00000320: ce7f 503e 4b0a 69be 1990 803f 8b7f 443f
00000330: 479f 1bbd c8bf 02bc 2744 003e 2318 8ebd
00000340: 33e6 1f3f 6fa0 51be a50d 4f3e 99fb 473f
00000350: 7da1 983c 43fe 803e ebd0 aa3d 3d50 75bd
00000360: 8bcf 303e 7f97 413d 6ed5 b33e 7ad0 6c3e
00000370: 08ae 24bd fe12 9a3e 25d6 b23c bd8f 27be
00000380: e625 eb3e ba8c 48bd ecae 4fbe 2a89 3d3e
00000390: 610c 3cbe e10a 3dbe ece1 b53e 7de1 a8bc
000003a0: af3d e7be 6037 e6be 4524 223f 78dc 6f3e
000003b0: d8c6 803c c069 d23c dcae 893e e39e b5be
000003c0: 95c7 e43d 0300 d9bc 7487 e53e e3e7 103e
000003d0: 457d b3bc f71e cdbd e28a adbd 9b4a 9cbd
000003e0: 19f4 cf3e 827d 543d 0a48 9f3e 909b 3f3e
000003f0: eee0 d8bd d066 12be 80ab 8fbd 7c40 c7bd

dense_dec.bias f4 [400]
0.88411695 0.52186835 0.08914802 -0.056521453 0.9841957 -0.36245742 0.546968 -0.42525703
0.49586105 0.27283406 -0.25684682 -0.021812618 -0.38110632 -0.09411852 0.33612996 -0.19278648
-0.20407961 -0.14472418 -0.079478085 0.43296343 -0.37909633 0.04931111 0.0007877565 -0.04273373
0.43054467 0.8686904 0.21906677 0.44351628 0.5722983 0.9708443 0.071277946 0.34960774
0.124459095 0.45146954 0.049744297 0.41416916 -0.07684457 -0.091099575 0.28814664 0.21656837
-0.5785562 -0.15413405 0.49344638 -0.18860751 0.46778333 -0.29650575 -0.18271194 -0.07380659
-0.03820351 1.3243992 0.8388632 -0.0060269255 -0.5007545 -0.10044407 0.11205096 -0.10684137
-0.41944924 -0.5065147 -0.05212941 0.17479031 -0.1654121 -0.18777382 -0.38511202 0.32458192
0.22902791 -0.101266846 -0.1897153 -0.39214665 0.57136446 0.35689098 0.58944094 -0.103230886
0.23264895 0.49693713 0.0475251 0.451476 0.16477664 -0.083284214 -0.06402356 -0.47251815
-0.05963866 -0.28189194 -0.49361688 0.2391516 0.3828904 -0.06966923 0.49502695 -0.30973208
0.28627172 0.23433782 0.35946503 0.17807266 -0.06221569 -0.09849351 0.50213087 1.4807887
0.53257143 -0.016383497 0.21682988 0.3906446 -0.47410575 0.1948914 0.07063368 0.5656582
0.52364445 -0.18004282 -0.000866763 -0.17122732 -0.15058333 0.39137685 0.48198608 0.17375308
-0.46731365 0.12910609 0.11318575 0.3678764 0.006559002 -0.37962538 0.22871248 -0.20532468
0.07360721 -0.11772426 0.1304005 0.4548313 0.7949417 1.0596712 0.11079032 0.66057116
0.9009727 0.77599615 0.56647307 0.49427745 -0.2874088 -0.18335593 0.36621672 -0.33950293
-0.07659191 -0.30795965 0.20201823 -0.18637167 -0.5818548 -0.332701 -0.06542494 -0.08004056
0.0077178115 -0.44243705 0.20640932 -0.07035474 0.013563234 0.74785215 0.6652915 -0.021026036
0.61725974 0.7708553 1.1140977 -0.14994033 -0.446302 0.26968586 -0.28409007 0.24261993
-0.03052972 -0.49038374 0.08868656 0.36093533 0.73369145 -0.51327455 0.038368784 -0.06453304
0.22973588 0.34511074 0.53491217 -0.19338441 -0.27240485 0.4778726 0.56596315 -0.1880394
-0.24454786 0.20496047 0.09669032 1.2767154 -0.4246329 -0.0520783 -0.08951188 -0.13219655
0.27819183 -0.2833223 -0.5240075 0.45077187 -0.18105987 0.17496233 0.05163315 0.042562313
-0.2106718 0.45586964 0.13526618 0.61649907 0.18054058 -0.08814303 0.06310433 1.314704
-0.30272707 -0.15820813 -0.3443393 -0.18294778 1.0501109 -0.24291995 -0.22760646 0.1993962
0.026388252 0.26914644 0.29308456 -0.15750983 0.18597157 0.1987246 0.5736611 0.48048767
0.60492355 0.512016 -0.30141538 0.4967519 0.44026428 -0.21492852 0.25097647 0.5643437
1.2512337 1.5485972 0.32016352 -0.28917983 0.67450583 1.3548764 0.9343125 -0.23156756
-0.3971036 0.030145906 0.3993024 -0.35106224 -0.28280434 -0.16381845 0.46512705 0.48012388
-0.2824738 -0.25145927 -0.6180702 0.48401508 0.26381692 -0.6144291 -0.4954991 -0.33605722
0.30309653 0.6248556 0.18672015 0.1644027 0.06198781 0.19979498 -0.46267062 -0.115714796
00000000: 7d55 623f 2a99 053f 3d93 b63d 0a83 67bd
00000010: 40f4 7b3f 0594 b9be 1806 0c3f 4abb d9be
00000020: 80e1 fd3e e8b0 8b3e 6d81 83be 60b0 b2bc
00000030: 5e20 c3be 36c1 c0bd 3a19 ac3e d269 45be
00000040: 3ffa 50be 9332 14be 68c5 a2bd 62ad dd3e
00000050: ea18 c2be 72fa 493d 7281 4e3a 9009 2fbd
00000060: 5a70 dc3e 7e62 5e3f 0a53 603e 9114 e33e
00000070: 2482 123f 4189 783f 2cfa 913d c9ff b23e
00000080: 69e4 fe3d 0427 e73e adc0 4b3d fb0d d43e
00000090: b060 9dbd 6a92 babd f587 933e 19c4 5d3e
000000a0: 421c 14bf 51d5 1dbe 01a5 fc3e 5422 41be
000000b0: 4c81 ef3e 9acf 97be d718 3bbe e927 97bd
000000c0: 497b 1cbd ea85 a93f bdbf 563f 847d c5bb
000000d0: 7231 00bf 9fb5 cdbd f97a e53d a6cf dabd
000000e0: 0dc2 d6be f3aa 01bf a685 55bd 3bfc 323e
000000f0: ca61 29be c847 40be 672d c5be 9a2f a63e
00000100: 4b86 6a3e fe64 cfbd ba44 42be 72c7 c8be
00000110: f144 123f 6aba b63e 9ae5 163f b76a d3bd
00000120: 873b 6e3e 8b6e fe3e aea9 423d dd27 e73e
00000130: 35bb 283e ea90 aabd c91e 83bd e6ed f1be
00000140: ab47 74bd 2454 90be 5abb fcbe 28e4 743e
00000150: 360a c43e beae 8ebd 2c74 fd3e 3495 9ebe
00000160: 3592 923e 41f6 6f3e cd0b b83e ae58 363e
00000170: e1d5 7ebd f7b6 c9bd a68b 003f 7c8a bd3f
00000180: 9a56 083f af36 86bc a708 5e3e 9202 c83e
00000190: fdbd f2be 9c91 473e 64a8 903d face 103f
000001a0: 900d 063f 255d 38be 7b37 63ba 3756 2fbe
000001b0: 8432 1abe 8c62 c83e e1c6 f63e 54ec 313e
000001c0: bc43 efbe 6334 043e eecd e73d 4c5a bc3e
000001d0: e6ec d63b 425e c2be 9b33 6a3e a240 52be
000001e0: 60bf 963d 6b19 f1bd b587 053e a6df e83e
000001f0: 4d81 4b3f 4ea3 873f 09e6 e23d 311b 293f
00000200: 26a6 663f afa7 463f 6104 113f ef11 fd3e
00000210: 3f27 93be a8c1 3bbe c280 bb3e 54d3 adbe
00000220: 38dc 9cbd e3ac 9dbe dedd 4e3e 37d8 3ebe
00000230: 70f4 14bf c957 aabe 83fd 85bd 4eec a3bd
00000240: b2e5 fc3b 1c87 e2be f75c 533e 2516 90bd
00000250: 5438 5e3c 3d73 3f3f 8b50 2a3f cb3e acbc
00000260: bc04 1e3f c656 453f c19a 8e3f f589 19be
00000270: b281 e4be 4414 8a3e 4174 91be 5c71 783e
00000280: 7719 fabc 9413 fbbe 4da1 b53d 84cc b83e
00000290: 34d3 3b3f f665 03bf 9628 1d3d e629 84bd
000002a0: e23f 6b3e 5bb2 b03e 01f0 083f 9006 46be
000002b0: a678 8bbe b8ab f43e f6e2 103f 678d 40be
000002c0: c16a 7abe 28e1 513e 9305 c63d 696b a33f
000002d0: 7c69 d9be 0e50 55bd 0152 b7bd 885e 07be
000002e0: 296f 8e3e 9f0f 91be 5b25 06bf 92cb e63e
000002f0: c267 39be 5329 333e 487d 533d d255 2e3d
00000300: 59ba 57be bf67 e93e 3883 0a3e e2d2 1d3f
00000310: a1df 383e 5584 b4bd d83c 813d 3848 a83f
00000320: 0bff 9abe 5001 22be 3e4d b0be aa56 3bbe
00000330: 096a 863f 02c0 78be ab11 69be 842e 4c3e
00000340: 2d2c d83c 90cd 893e 2e0f 963e 424a 21be
00000350: 556f 3e3e 767e 4b3e 74db 123f 7b02 f63e
00000360: 45dc 1a3f 7b13 033f 1e53 9abe 4456 fe3e
00000370: 526a e13e 3916 5cbe fd7f 803e d478 103f
00000380: 6d28 a03f 6f38 c63f 79ec a33e 610f 94be
00000390: 6aac 2c3f 976c ad3f 1b2f 6f3f 0c20 6dbe
000003a0: 2a51 cbbe 8cf4 f63c 5d71 cc3e 6ebe b3be
000003b0: bbcb 90be 06c0 27be 2225 ee3e ccd2 f53e
000003c0: 68a0 90be 45bf 80be d939 1ebf d3d0 f73e
000003d0: 0313 873e 3a4b 1dbf 0fb2 fdbe b10f acbe
000003e0: 782f 9b3e 89f6 1f3f 9133 3f3e 2e59 283e
000003f0: eee6 7d3d 0e97 4c3e 2ae3 ecbe e1fb ecbd

conv_dec1.weight f4 [16, 8, 3, 3]
0.52690715 0.19386698 0.40581813 0.4421222 -0.24225678 0.46527055 0.1376299 -0.1944095
0.015071961 -0.016674822 -0.08638627 0.015661567 -0.07134863 0.11287025 -0.094651036 0.22766832
0.15937749 0.21889602 0.0022380585 0.20362952 0.22952206 -0.21978945 -0.085331365 -0.21306916
-0.050686277 0.08442444 0.091594644 0.4084586 0.34590816 0.46381754 0.22777784 -0.18474327
0.3547739 -0.29834706 -0.07388124 0.13868721 0.57305485 0.2116774 0.340517 0.09850313
0.2131397 -0.072811 -0.00673739 -0.31190884 0.026654508 0.26607484 0.23486699 0.12945715
0.031629734 -0.17134237 -0.052712165 0.12422059 -0.04353804 0.010270298 0.1729183 0.19190699
0.33911416 0.20744395 0.037771165 0.22598492 -0.24781473 -0.05091567 0.10940477 0.26246583
0.3965687 -0.007357291 -0.31751344 -0.231609 -0.12043063 -0.28639153 -0.097496204 0.03258515
0.5773856 0.19823657 0.3654802 0.16923298 -0.0036715276 0.2873502 -0.17709137 -0.24828234
0.10877684 -0.035019092 0.07255587 -0.014721421 -0.2973906 0.3444888 -0.020836925 -0.17192852
0.091413684 0.102135755 -0.48508406 0.42506328 0.2439392 -0.65662557 -0.017261354 0.17297238
-0.28377387 -0.12358249 0.30067673 0.39541894 0.44113988 0.6429758 -0.06246292 -0.01350977
0.6797618 0.011146155 0.027459074 0.54211575 0.28493324 0.25069737 0.3067443 -0.2516435
0.40978813 0.1408703 -0.18219921 0.25005957 -0.2009093 -0.24801086 0.12314646 0.051130153
-0.47766358 -0.2893645 -0.04267582 -0.13146761 -0.40866962 0.26545426 -0.16037881 0.014561439
0.121022485 0.21436727 -0.059380084 0.2361829 0.023317127 -0.28013504 0.6018147 -0.2906956
0.10016043 0.47440848 -0.38406938 -0.44338915 0.092774585 -0.21375202 -0.012685334 0.047180396
0.24825862 0.19183554 0.17497541 -0.054740094 0.012046777 -0.12639464 0.24615379 -0.24967523
0.07593755 -0.057484407 -0.10560084 -0.11688027 0.29199198 -0.055682488 0.0103046745 -0.085564084
0.25911114 0.19626498 0.78785473 0.3139159 0.10759363 0.68360764 0.36283758 -0.19076608
0.55508894 0.2266245 0.12167053 0.03464636 -0.047969226 0.08770067 -0.18754792 -0.18423977
0.03245402 0.29328033 0.1977594 -0.010334605 0.43587074 0.18830054 -0.032661393 0.44366482
0.1807314 -0.11892461 0.39446932 0.28393456 -0.14369893 -0.265788 -0.2494527 -0.08576388
0.28922924 0.12685731 0.09787561 0.56821054 0.35736427 -0.017329799 -0.10323527 -0.16529538
-0.16565564 -0.21827933 -0.13589914 -0.102762476 -0.09067621 -0.195364 -0.48604113 0.31834307
0.11827917 -0.18239558 0.39416876 0.0982983 -0.17994316 0.27654275 0.18328959 0.13643527
-0.20426258 -0.089293495 -0.37466264 -0.27324593 -0.19181561 -0.10988564 0.114647694 -0.62388855
0.30074334 0.27111593 0.0028789174 -0.27759898 0.15989141 0.42554516 0.19632336 0.4291946
0.047431413 0.18635511 0.048982754 -0.18273903 0.0043660486 0.07295537 -0.018153809 -0.11205896
0.24144536 0.22001375 -0.0749696 -0.25749385 -0.010109551 -0.015271452 -0.030916914 0.051971998
0.13722725 -0.35695106 -0.40905324 0.33475718 0.370241 -0.044621445 -0.19061673 0.2290907
00000000: 63e3 063f 1185 463e 65c7 cf3e d75d e23e
00000010: 2912 78be f137 ee3e daee 0c3e 4913 47be
00000020: 63f0 763c a399 88bc 49eb b0bd b04c 803c
00000030: 3b1f 92bd 8528 e73d 67d8 c1bd e221 693e
00000040: da33 233e 4726 603e 64ac 123b 4284 503e
00000050: d507 6b3e 7c10 61be 36c2 aebd cd2e 5abe
00000060: 6a9c 4fbd b9e6 ac3d f995 bb3d 7c21 d13e
00000070: e01a b13e 7e79 ed3e 983e 693e 572d 3dbe
00000080: eda4 b53e f2c0 98be 0c4f 97bd 0504 0e3e
00000090: b9b3 123f f6c1 583e 3f58 ae3e 02bc c93d
000000a0: 4b41 5a3e ef1d 95bd 53c5 dcbb 84b2 9fbe
000000b0: 8e5a da3c f63a 883e f980 703e 6a90 043e
000000c0: 2e8e 013d 6074 2fbe b6e8 57bd 5d67 fe3d
000000d0: f254 32bd c144 283c 7f11 313e 4483 443e
000000e0: 5fa0 ad3e 306c 543e f0b5 1a3d 9768 673e
000000f0: 25c3 7dbe f38c 50bd 9c0f e03d ec61 863e
00000100: 0d0b cb3e 6e15 f1bb 1f91 a2be e92a 6dbe
00000110: 56a4 f6bd e9a1 92be 17ac c7bd 0278 053d
00000120: 8bcf 133f 87fe 4a3e 3920 bb3e 694b 2d3e
00000130: 039e 70bb 911f 933e 7157 35be ba3d 7ebe
00000140: 64c6 de3d 2e70 0fbd 2c98 943d 1d32 71bc
00000150: 9543 98be d660 b03e 33b2 aabc 080e 30be
00000160: 1937 bb3d 8d2c d13d f05c f8be e5a1 d93e
00000170: 33cb 793e 9d18 28bf af67 8dbc ac1f 313e
00000180: cf4a 91be d118 fdbd 4df2 993e 5a74 ca3e
00000190: 16dd e13e 109a 243f 1ed9 7fbd 1558 5dbc
000001a0: df04 2e3f 5d9e 363c daf1 e03c 19c8 0a3f
000001b0: c5e2 913e 685b 803e 970d 9d3e 6bd7 80be
000001c0: c0cf d13e 4e40 103e 6e92 3abe cf07 803e
000001d0: 2bbb 4dbe 8ff6 7dbe 3634 fc3d da6d 513d
000001e0: 5290 f4be 9527 94be d7cc 2ebd 729f 06be
000001f0: 253d d1be 9fe9 873e 583a 24be 1a93 6e3c
00000200: a3da f73d 1883 5b3e 8838 73bd eed9 713e
00000210: 8f03 bf3c dc6d 8fbe 8710 1a3f 0ed6 94be
00000220: e920 cd3d abe5 f23e bea4 c4be e703 e3be
00000230: 9a00 be3d cfe1 5abe 26d6 4fbc 3b40 413d
00000240: 8237 7e3e 8970 443e c12c 333e 2637 60bd
00000250: d85f 453c 996d 01be bd0f 7c3e ddaa 7fbe
00000260: 2585 9b3d c574 6bbd 4145 d8bd ec5e efbd
00000270: f97f 953e 5213 64bd f0d4 283c 393c afbd
00000280: 37aa 843e b0f9 483e d9b0 493f 96b9 a03e
00000290: 0d5a dc3d e900 2f3f d9c5 b93e 2f58 43be
000002a0: 4f1a 0e3f 4110 683e 662e f93d 57e9 0d3d
000002b0: 617b 44bd 699c b33d 900c 40be 5aa9 3cbe
000002c0: 82ee 043d d728 963e 7181 4a3e 7a52 29bc
000002d0: 732a df3e dbd1 403e f4c7 05bd 0928 e33e
000002e0: a711 393e bf8e f3bd e2f7 c93e df5f 913e
000002f0: d025 13be 5d15 88be 8770 7fbe f9a4 afbd
00000300: db15 943e e2e6 013e 0273 c83d 3f76 113f
00000310: 73f8 b63e 39f7 8dbc 036d d3bd 3143 29be
00000320: a2a1 29be 9e84 5fbe 2529 0bbe 2275 d2bd
00000330: 73b4 b9bd 800d 48be 62da f8be ddfd a23e
00000340: 593c f23d e8c5 3abe 7dd0 c93e 9e50 c93d
00000350: 0543 38be 0397 8d3e 44b0 3b3e b0b5 0b3e
00000360: 362a 51be 82df b6bd c8d3 bfbe e4e6 8bbe
00000370: 506b 44be b90b e1bd 69cc ea3d 29b7 1fbf
00000380: 08fb 993e b5cf 8a3e 38ac 3c3b 7421 8ebe
00000390: 93ba 233e 0ee1 d93e fe08 493e 65bf db3e
000003a0: 7147 423d e0d3 3e3e 24a2 483d f11f 3bbe
000003b0: 1211 8f3b a069 953d 4cb7 94bc 2b7f e5bd
000003c0: 743d 773e 494b 613e a989 99bd 3cd6 83be
000003d0: 88a2 25bc 1d35 7abc 7845 fdbc 97e0 543d
000003e0: 4d85 0c3e 4ac2 b6be 6d6f d1be 4b65 ab3e
000003f0: 3a90 bd3e fac4 36bd 0831 43be c196 6a3e

conv_dec1.bias f4 [8]
0.6343076 0.67038214 0.1225049 0.31634203 0.2744471 0.19982861 0.08485634 0.119557425
00000000: fc61 223f 2a9e 2b3f d9e3 fa3d 95f7 a13e
00000010: 5584 8c3e df9f 4c3e 29c9 ad3d 86da f43d

conv_dec2.weight f4 [8, 3, 3, 3]
-1.2774656 -2.1343582 -0.25699154 -0.16828221 0.13606462 0.06563652 0.37644926 -0.030067952
-0.17860602 -1.4431688 -2.034027 -0.61736107 -0.12474556 0.25388503 0.057926428 0.3642095
-0.10941692 -0.25535873 -1.3223939 -1.9969583 -0.45990464 -0.063515656 -0.10394624 -0.1323238
0.26318878 0.25487754 -0.09285747 0.40592518 0.022193415 -0.20302257 0.2542442 0.45573798
0.13536666 -0.37182948 -0.14745016 -0.27537674 0.19530383 0.124301024 -0.05800047 0.29616037
0.35404474 0.094819546 -0.5296537 -0.1387023 -0.1754094 0.47063664 0.18573725 -0.115938894
0.35932103 0.22354685 0.15865879 -0.14055815 -0.23807229 -0.34076506 -0.16611937 0.2412878
-0.19183695 -1.04664 0.28008768 0.053961214 -1.2678266 0.4149226 -0.41136515 -0.080782466
0.21521802 -0.11514215 -1.0000253 0.22356792 0.029588437 -0.860969 0.33218795 -0.5192251
-0.36472437 0.21941446 -0.093769915 -0.9290065 0.14712696 -0.16599333 -1.4053329 -0.01640526
-0.045988623 -0.14646335 -0.16654739 -1.7822489 -0.018883737 -0.42955104 -0.52782094 0.5198215
0.04265426 -0.462865 -0.19780585 -0.240777 -1.3292696 0.106024176 -0.3683476 -0.54808974
0.576024 0.09058286 -0.35597947 -0.09655125 -0.14397274 -1.0532556 -0.15460868 -0.23488934
-0.4872582 0.39774477 -0.15076813 -0.39855883 -1.3668973 -0.07403887 -0.4196948 -0.22033453
0.5130414 0.19727422 -0.5253591 0.23858081 0.0051893312 -1.2283396 0.19776301 -0.32195514
-0.32361588 0.4580635 0.13463195 -0.5246771 0.14869355 0.025236906 -0.66624665 0.041197877
-0.15934117 -0.32993147 0.4993528 0.24479063 -0.38990515 0.33658138 -0.049750637 0.21681939
0.33006805 -0.06442645 -0.3206842 -0.18626896 -0.13624457 -1.4379288 -1.3922324 -0.88234025
0.29273272 0.043429878 -0.18169376 -0.3094416 0.07602604 -0.051373377 -1.4577498 -1.0940614
-0.71745366 0.005739688 0.12209117 0.33051744 -0.26358637 -0.07562386 -0.36639315 -1.658895
-1.2558223 -0.69148606 0.30347005 -0.40593392 -0.11955841 0.054201055 0.26559398 -0.21593842
-0.34289348 -0.32977787 -0.5035763 0.41131064 -0.2706334 -0.14963764 -0.010955073 0.101267435
-0.511017 -0.35333014 -0.82883936 -0.78207743 -0.044964474 -0.062066678 -0.20291734 0.21162257
0.21191932 0.06552169 -0.21200441 -1.3469937 -0.6447435 -0.48401725 -0.16690558 -0.1561813
0.4069681 0.15780978 -0.032320227 -1.1148447 -0.40796635 0.02961776 -0.48880535 -0.2722414
-0.33844036 0.4263565 0.20614529 0.013324158 -0.9348411 -0.3623091 0.1452869 -0.2584376
-0.2676701 -0.19033325 0.20357636 0.1367842 -0.1862911 -1.0318258 -0.2726809 -0.03150939
00000000: fe83 a3bf 5399 08c0 6594 83be 2c52 2cbe
00000010: 8654 0b3e 716c 863d f5bd c03e 1151 f6bc
00000020: 7fe4 36be c1b9 b8bf 802d 02c0 600b 1ebf
00000030: 9a7a ffbd 38fd 813e 4344 6d3d ab79 ba3e
00000040: fa15 e0bd 61be 82be 3444 a9bf 549c ffbf
00000050: 9f78 ebbe 7f14 82bd c4e1 d4bd e47f 07be
00000060: aec0 863e 4f7f 823e 0f2c bebd 6dd5 cf3e
00000070: f7ce b53c 26e5 4fbe 4c2c 823e 7d56 e93e
00000080: 8f9d 0a3e 6f60 bebe 2dfd 16be 2efe 8cbe
00000090: bafd 473e 8991 fe3d e791 6dbd 55a2 973e
000000a0: 5a45 b53e c030 c23d 6397 07bf fa07 0ebe
000000b0: 869e 33be 49f7 f03e e831 3e3e 5f71 edbd
000000c0: edf8 b73e 77e9 643e 7377 223e 7aee 0fbe
000000d0: 39c9 73be c278 aebe 321b 2abe 2614 773e
000000e0: e870 44be 4df8 85bf a767 8f3e 6f06 5d3d
000000f0: 2448 a2bf bc70 d43e 749e d2be 4771 a5bd
00000100: 1d62 5c3e a6cf ebbd d400 80bf fdee 643e
00000110: 7363 f23c 7768 5cbf 8a14 aa3e f0eb 04bf
00000120: 27bd babe 2fae 603e 710a c0bd 5fd3 6dbf
00000130: 73a8 163e 28fa 29be f3e1 b3bf 5364 86bc
00000140: 915e 3cbd 7dfa 15be 668b 2abe bb20 e4bf
00000150: 11b2 9abc 1dee dbbe 461f 07bf 0613 053f
00000160: 3cb6 2e3d a4fc ecbe 9e8d 4abe 3f8e 76be
00000170: 8225 aabf 3423 d93d 0e98 bcbe 9c4f 0cbf
00000180: 4f76 133f 8283 b93d f142 b6be a9bc c5bd
00000190: 976d 13be 14d1 86bf bd51 1ebe d586 70be
000001a0: e879 f9be 34a5 cb3e f662 1abe e70f ccbe
000001b0: 7ef6 aebf b1a1 97bd 3de2 d6be 609f 61be
000001c0: ae56 033f 4102 4a3e ef7d 06bf 874e 743e
000001d0: 440b aa3b 3b3a 9dbf 6382 4a3e 4ed7 a4be
000001e0: fbb0 a5be 4d87 ea3e f5dc 093e 3d51 06bf
000001f0: 1f43 183e a1bd ce3c 248f 2abf 1bbf 283d
00000200: 552a 23be c7ec a8be 2cab ff3e 65aa 7a3e
00000210: a6a1 c7be 6554 ac3e 53c7 4bbd e705 5e3e
00000220: aefe a83e 04f2 83bd b830 a4be 4abd 3ebe
00000230: b283 0bbe 0d0e b8bf ac34 b2bf 0de1 61bf
00000240: 10e1 953e 87e3 313d ee0d 3abe 216f 9ebe
00000250: 8ab3 9b3d e46c 52bd 8c97 babf 340a 8cbf
00000260: 0bab 37bf fe13 bc3b ef0a fa3d 9539 a93e
00000270: cbf4 86be afe0 9abd e297 bbbe ac56 d4bf
00000280: c9be a0bf 3b05 31bf 6d60 9b3e 92d6 cfbe
00000290: 0adb f4bd ed01 5e3d effb 873e f61e 5dbe
000002a0: bc8f afbe a5d8 a8be 60ea 00bf 4f97 d23e
000002b0: 7690 8abe 9c3a 19be e87c 33bc 4d65 cf3d
000002c0: 03d2 02bf b0e7 b4be d12e 54bf 3a36 48bf
000002d0: ab2c 38bd a139 7ebd 90c9 4fbe 96b3 583e
000002e0: 6101 593e 3c30 863d af17 59be 4a6a acbf
000002f0: e90d 25bf 1cd1 f7be 4ce9 2abe feed 1fbe
00000300: 1f5e d03e e398 213e 3762 04bd 3bb3 8ebf
00000310: f7e0 d0be f2a0 f23c b244 fabe 3a63 8bbe
00000320: 0e48 adbe 664b da3e c017 533e 924d 5a3c
00000330: bf51 6fbf 9480 b9be 17c6 143e ef51 84be
00000340: 0e0c 89be b8e6 42be 5276 503e 2811 0c3e
00000350: 18c3 3ebe de12 84bf d59c 8bbe fd0f 01bd

conv_dec2.bias f4 [3]
0.026912134 -0.02163553 -0.028780635
00000000: d676 dc3c ff3c b1bc 5ec5 ebbc
