test1/pth/vae_last.pth (torch, 55227 bytes, 14 tensors)

conv_enc1.weight f4 [8, 3, 3, 3]
00000000: 8802 343d 84f9 2b3e 2591 04bd 51a2 efbd
00000010: 41d5 32bd e8c3 483d fce0 1e3d fa76 bfbd
00000020: 86bd 283e 1227 da3d ba6d 123e fee0 e6bc
00000030: 6cdc 3fbe 1ee6 e43d 0dec f33d 661d 243d
00000040: 0e31 d53d 5601 313e 0c9b 58be 5606 1a3d
00000050: aa60 6f3d 8b16 ad3d 4674 dfbc 75a5 863c
00000060: e785 ff3d 6ba1 1d3e 5e5a cf3d 0b65 46bd
00000070: 68d0 36bd 29a5 efbd ac19 07be 9f7d 83bd
00000080: aa1e 12be 2520 453c ae1b 623e 8fdc 88bd
00000090: f0db 293d 18ae 78be 6ecc a73d 5e54 33be
000000a0: ad04 2dbe 99b6 ebbb 9bf5 a13e d814 5f3e
000000b0: 707f 683d e9ac 063e 1216 9cbd cc14 6fbc
000000c0: a88c 513e 1eab 88bd 9099 52bc e2e3 f73d
000000d0: 37f7 563e f9c4 0cbd 46b2 173e 1479 12be
000000e0: 4f42 44be c41c 39bd 0ed3 713d 56b8 a7bd
000000f0: 6d2e b8bd f300 b5bc 2698 64be afc9 5d3e
00000100: 2cd1 07be fafa 703e e6ad ac3e f506 f3bc
00000110: cf96 073e 2ec7 57be 8d11 a0bd 426f 60be
00000120: 90a1 0f3d 1b88 833d 0420 debd db4e 46bd
00000130: a1f4 293e 9ddd 9abd ce7f 0f3e 2aad 2f3e
00000140: c743 9cbe e570 cdbd 1a51 aebc bef6 51bc
00000150: d9e6 9abb cfdf 623e 5f72 0a3e e091 5b3d
00000160: 1b53 bebd 0743 1ebe a2cb 36be 5d21 18bc
00000170: 945f ed3d 7bbe 48be 19db 573e c15c 95bc
00000180: 32ae 3fbb 1486 14bd a506 b8bd 7cd7 5c3e
00000190: dfce f43d 0175 b0bd 6469 8b3e 4361 783d
000001a0: dfa0 e9bd 4fee 463e c823 173e 5eef 7fbe
000001b0: 0a3f 04be a530 1a3e 0af2 73bd 8dc8 903d
000001c0: 4f9e 4fbe f647 933d 7bbd 0fbe ede4 5c3e
000001d0: 9b4b 4d3d 2c83 053e e214 1c3e de62 7dbe
000001e0: ba3a 88bb 44cb ba3d 3a45 993e dba2 313e
000001f0: d12a cb3e 38b1 1fbe b01d 7d3d 4a94 b7bc
00000200: 2319 723d acf0 cebd 925a d5bc 6abd 663c
00000210: 72de d93d da99 f4bd d84b 9d3c d02c 74bc
00000220: f0fd 1f3d 4276 06be 1768 d3bd 647a a9bc
00000230: 92ea 87bd 235f 0bbe 5bb7 223d 8889 e03d
00000240: fdf5 25be 4760 3f3d 721b 333e 8166 b53d
00000250: 0e3f 72be 7ee0 c1bd 1de3 683e a278 f23d
00000260: 9de1 b1ba 5977 9cbc 8ed5 903d ba4f 313d
00000270: afde 443e f4b6 6a3d a9f8 4f3e 49cd df3d
00000280: 1615 17be 1607 68be 1669 a2bd 210d 4a3e
00000290: 394c db3d 7d24 5c3e 7f05 66bd 3e2b edbd
000002a0: 7858 073e 3229 3d3e b158 a2bd bafe 1b3e
000002b0: c0b5 f83d 8f25 3ebd 42a8 473d 7686 dc3d
000002c0: d7c2 8c3d 5d5e 4c3e 666c 4fbc ed27 22be
000002d0: 33bf 843d 2ab5 143e 56ab 18be 6dab 753e
000002e0: acac 203e c444 4b3a 0611 593e b528 093e
000002f0: f522 f7bb 5ae5 583e 0b2f 983e 7c72 dbbd
00000300: 33c0 89be 3efb ac3d 241e 163d 7bca d7bd
00000310: 4b9c df3d 04a0 f2bc f9e5 043e b667 603e
00000320: 31b9 713d 6631 94be 1c76 13be 6855 8cbd
00000330: 98c4 e33d cea1 443c 73ac 42be 131a 38bd
00000340: b596 803e 4fef 1ebe c376 c13c 07fc d83d
00000350: e2f1 6e3e 0e24 b5bd 364e 80bd 4bfd 113d
0.043947726 0.16794401 -0.032364983 -0.11700881 -0.043660406 0.049014956 0.03878878 -0.09348865
0.16478547 0.10651983 0.1429967 -0.028183457 -0.18736428 0.11176704 0.119102575 0.0400671
0.10409747 0.17285666 -0.21152896 0.0376037 0.058441795 0.08451565 -0.027277123 0.016436318
0.12476712 0.15393607 0.10124658 -0.048436206 -0.044632345 -0.11701424 -0.13193387 -0.06420445
-0.1426951 0.01203159 0.22080871 -0.06682693 0.041469514 -0.24285161 0.08193289 -0.17512652
-0.16896315 -0.007193398 0.31632695 0.21785295 0.05676216 0.13151897 -0.07621397 -0.014592361
0.20463812 -0.06673263 -0.012853995 0.12104012 0.20992742 -0.034367535 0.148141 -0.14304
-0.1916592 -0.04519345 0.059039168 -0.08189456 -0.0899323 -0.02209518 -0.22323665 0.21658967
-0.13263386 0.2353324 0.33726424 -0.029666403 0.13241123 -0.21072075 -0.078158475 -0.21917441
0.035066187 0.064224444 -0.1084595 -0.048415046 0.16597225 -0.07561801 0.14013597 0.171559
-0.3052046 -0.100312985 -0.021278907 -0.012815176 -0.004727226 0.22155689 0.13520192 0.053605914
-0.09293195 -0.15455256 -0.17851117 -0.009285298 0.11590496 -0.19603913 0.21079673 -0.018232705
-0.0029248116 -0.03626068 -0.08985642 0.21566576 0.1195352 -0.08616067 0.27228844 0.06063963
-0.11407637 0.19426845 0.14759743 -0.24993655 -0.12914672 0.15057619 -0.059557 0.07069502
-0.20275234 0.0719146 -0.14037125 0.21571703 0.05012093 0.1303832 0.15242341 -0.24744746
-0.0041573914 0.09120801 0.29935628 0.1734728 0.39681104 -0.15594947 0.06179589 -0.022409577
0.059106003 -0.10104498 -0.026044164 0.014083246 0.10638131 -0.11943407 0.019201204 -0.014903262
0.039060533 -0.1313105 -0.10322588 -0.020688243 -0.066365376 -0.1361051 0.039725643 0.10963732
-0.16207118 0.046722677 0.17490938 0.08857442 -0.23656866 -0.094666466 0.22742887 0.11839415
-0.0013571266 -0.019099878 0.07071982 0.043288924 0.19225572 0.057303384 0.203097 0.10927827
-0.14754137 -0.22658953 -0.079302 0.19731571 0.10707898 0.21498294 -0.056157585 -0.115805134
0.13217342 0.18472746 -0.07927073 0.15233889 0.12144041 -0.046422537 0.048744448 0.10767834
0.068731 0.19957872 -0.012660122 -0.15835543 0.06481781 0.14522234 -0.1490911 0.23991175
0.15690869 0.00077540823 0.211979 0.13394435 -0.007542009 0.2118124 0.2972339 -0.107151955
-0.2690445 0.08446358 0.036649838 -0.10536667 0.109184824 -0.029617317 0.12978353 0.21914563
0.059014503 -0.28943938 -0.14400524 -0.068522274 0.11121482 0.012001468 -0.19011097 -0.04494674
0.2511498 -0.15520976 0.0236162 0.105949454 0.23334458 -0.088447675 -0.062649176 0.03564195

conv_enc1.bias f4 [8]
00000000: bdd0 223e d2c3 a9bc ca47 5a3d 34c8 e8bc
00000010: dc8d 053d 136c c63d bef3 723d ca4e 14bd
0.1589994 -0.020723257 0.05329112 -0.028415777 0.03260599 0.09688582 0.059314482 -0.03620795

conv_enc2.weight f4 [16, 8, 3, 3]
00000000: 35d3 843d f2aa 88bd df59 05bd 6edb 523d
00000010: 2629 903d 30d5 4e3d e090 ca3c 0e5e d83d
00000020: 1415 963c 5b63 353e 37a8 953d 9284 afbb
00000030: 0e34 d8bd f6d8 afbd 202b 9dbd 9b3c c63d
00000040: f68a f2b9 c76a 6cbd 395c 163d 207b 573d
00000050: 198f 723b 7c42 5fbd 74aa 83bb b3c8 043c
00000060: 3ba1 053e 98b8 abbd d5dc 093e 8384 823d
00000070: e564 f83d eb55 42bd 38a0 23bc 5651 b73d
00000080: ff8a 1dbd d128 84bd 8403 1e3e 1587 11bd
00000090: a209 babb 7d43 cc3d 1eb3 77bd 0d1b 0fbe
000000a0: e060 cebd c1ec 333c 6217 123d 5e7f a6b9
000000b0: de98 3fbd b835 06be 6257 ff3b 81f5 623d
000000c0: 1c6b 05be 5533 c3bd bfa6 ed3d 4e7e 243d
000000d0: 67e9 d6bc 2b31 d4bd c947 293d fdf0 f6bd
000000e0: bdfd 99bd 11c1 23bd f058 6e3d 8b88 5d3c
000000f0: 1ee5 5bbd 426f 80bc a89c 1bbe 92e7 98be
00000100: e2e7 33be 4e48 96bd 3550 10be 1be9 043d
00000110: aa57 5ebd c782 f53d c984 0b3e cf5a 323b
00000120: 0fab e23d 3801 863d ee54 45bc ca82 b2bb
00000130: c47c 3cbd 7646 febd a889 8f3c 92a9 72bc
00000140: c84b 8dbd 545e 32bd 43e6 433c d08c 2f3c
00000150: 9904 d3bd c59e c1bc f773 a7bd a98b 17be
00000160: a430 d5bd 1e18 80be c598 8a3d 6261 be3c
00000170: 412d d73c 107d b63d 046d 46bc 7577 98bd
00000180: 186e 913d c41d b9bd a840 d93d bba0 63bd
00000190: a321 1c3e 94ae a2bc 72d6 073e 16f3 aa3d
000001a0: cba1 de3c 8c5b 86bd 2abf 6b3d 9312 f3bd
000001b0: 46ab 9bbd dcf9 103e 4dee 86bd ff78 c4bd
000001c0: fe8e 32bd e844 dd3d c18f 823c dda8 10bd
000001d0: 5309 5cbe ff43 8d3d a06e c03d e73c 15be
000001e0: daac 113d edd7 8d3d 2b09 9b3d 6203 24be
000001f0: 13f3 01be 1774 b3bd 0432 b23d 831c 1f3d
00000200: ce9f 7a3c 13ba ef3c 3f44 763c c6bb 443d
00000210: c7b9 06bd 9b41 eabd ed94 09be 8006 ba3c
00000220: d88f 7a3e d766 c0bd 16ad ad3b 07d7 efbb
00000230: 5bb6 ec3c bd70 1b3e 8de4 ec3d 0fa2 0fbd
00000240: df40 d53d 89b0 bdbd 8178 d1bd 46b3 723c
00000250: f722 c7bc 48f9 053d 6000 3e3c 393d 60be
00000260: 5cec 16bd a5ca 483d 89e0 2b3d cd32 6cbe
00000270: 663a 0d3e 2a67 ed3d 7892 783d d1ff a6bd
00000280: 2716 1dbe a0ff cebd 2a6e 423c f27c 783d
00000290: 5ed9 013e 36a2 a4bd 8bdd efbc 5efd 903d
000002a0: 41e2 21be aaa3 813e 4c53 a7bc 94c9 efbc
000002b0: 24a1 af3d ebab 10be a3e7 6a3e 24f2 2cbd
000002c0: 5a39 9bbd de78 4d3e 2bd6 673d 43cd d2bd
000002d0: 40dc 1e3e b8dc 98bd b780 92be 51f1 c0bc
000002e0: 979c 193e 70dc f6bc 36b7 8bbd 8723 463d
000002f0: 9d27 22be 40d1 32bc d120 553d 034c 19bd
00000300: 0acd 953d 934a f23d 9f94 89bd 607c 24be
00000310: 955b 093c 0b80 1cbe 0260 113e 7b4c a33d
00000320: f65a 13be c68e ddbd 46e5 42bd 0539 24bd
00000330: 875d a23d 1443 133d d3f1 ddbd 4f57 cb3d
00000340: e968 c1bb 397c bebd 036e 2b3d 111d 9ebd
00000350: c9ca 9c3d d009 5ebd 6a04 053c 79da cfbd
00000360: 54a3 93bd d84a d2bc a425 c83d b9c2 dbbd
00000370: 2308 0f3e 8935 0ebe a477 603c a21d b7bd
00000380: c170 383b a8be e23b f854 98bd 9db2 35bd
00000390: 1a96 3cbe 0fc2 a23d bcbc c0bc 36cb 963d
000003a0: d26f ab3c 3ba8 b03d d201 81be ba1f 383e
000003b0: d934 033e c089 c93d 0f1b d9bd 5cfc 64bd
000003c0: b2f0 a8bd 4cf2 57be efb4 cf3c 4637 e23d
000003d0: 701c 123e cefe 8dbd 5dc1 a83d 3c03 383d
000003e0: 205b 30bb 7c6b be3d a04c 1d3e 33c2 0cbd
000003f0: 5eb9 0abe a4b2 b23d 2df9 eb3d c7a3 11be
0.06485597 -0.0667323 -0.03255641 0.051478796 0.070390984 0.05049628 0.024727285 0.105648145
0.018320598 0.17713682 0.07307475 -0.00535638 -0.10556804 -0.08586304 -0.07674241 0.09679528
-0.0004626137 -0.05771902 0.036709044 0.052607656 0.0037011562 -0.054506764 -0.0040181223 0.008104491
0.13049786 -0.08384818 0.13463147 0.06372931 0.12128619 -0.04744522 -0.00998693 0.089510605
-0.038462635 -0.064530976 0.15431029 -0.035529215 -0.005677418 0.0997381 -0.060473554 -0.13975163
-0.10077071 0.0109817395 0.03566683 -0.00031756883 -0.046776645 -0.1310643 0.0077923993 0.055409912
-0.1302914 -0.09531275 0.1160407 0.040159516 -0.026234342 -0.103609405 0.041328225 -0.120576836
-0.075191 -0.039979044 0.058190286 0.013521324 -0.0536853 -0.015678052 -0.15196478 -0.29864174
-0.17568925 -0.0733801 -0.14093097 0.03244887 -0.05428282 0.119878344 0.13624872 0.002721477
0.11067783 0.06543201 -0.012044175 -0.00544772 -0.046017423 -0.12415783 0.017521694 -0.0148109365
-0.0689922 -0.04354699 0.011956754 0.010714725 -0.10303611 -0.023635278 -0.081764154 -0.1479937
-0.10409668 -0.250184 0.0676742 0.023239795 0.026266696 0.089105725 -0.012110952 -0.074446596
0.07101077 -0.090388805 0.10608035 -0.055573206 0.15247206 -0.019858636 0.13265398 0.08347146
0.027176758 -0.0656043 0.057555355 -0.11868777 -0.07601027 0.14157814 -0.06588421 -0.09593391
-0.0435934 0.108041584 0.015937688 -0.03531729 -0.21487932 0.06897735 0.093961 -0.14574014
0.035565235 0.0692595 0.07570108 -0.16016915 -0.12690382 -0.08762377 0.08700946 0.03884555
0.0152968895 0.029263532 0.01503092 0.048030637 -0.032892015 -0.114382945 -0.13435717 0.022708178
0.24468935 -0.09394615 0.0053001745 -0.0073193344 0.028895548 0.15179725 0.1156703 -0.03506666
0.10412764 -0.09262187 -0.102280624 0.01481325 -0.024308665 0.032708436 0.011596769 -0.21898355
-0.036846504 0.049021382 0.04196218 -0.23066254 0.13791808 0.115919426 0.06068656 -0.08154262
-0.15340482 -0.1010735 0.0118670855 0.060666032 0.12680575 -0.08038752 -0.029280445 0.07079576
-0.15808965 0.25320178 -0.020425461 -0.029270925 0.08575657 -0.14128082 0.22939925 -0.04222311
-0.07579298 0.20065638 0.05660073 -0.10293057 0.15513706 -0.07463974 -0.28613827 -0.023552569
0.1500114 -0.03013441 -0.06822054 0.048373725 -0.15835424 -0.010914147 0.05203325 -0.037426006
0.07314499 0.1183063 -0.067178 -0.1606307 0.008383651 -0.1528322 0.1419678 0.07973572
-0.14390168 -0.108182475 -0.047581933 -0.04009344 0.07927995 0.035952643 -0.1083714 0.09928762
-0.005902399 -0.09301037 0.041852962 -0.07720388 0.07655866 -0.054208577 0.008118728 -0.10149092
-0.07208887 -0.025670454 0.097728044 -0.107305 0.13967948 -0.1388761 0.0137004 -0.08941199
0.0028143378 0.0069197007 -0.074380815 -0.044359792 -0.18416634 0.0794717 -0.023527496 0.07362978
0.020927344 0.086258374 -0.251967 0.17980853 0.12813129 0.09840727 -0.10600864 -0.05590473
-0.08249034 -0.21088523 0.02535483 0.11045699 0.1426866 -0.06933366 0.08240006 0.04492496
-0.0026909783 0.09297845 0.15361261 -0.03436489 -0.13547274 0.08725479 0.11522136 -0.14222632

conv_enc2.bias f4 [16]
00000000: 948e ebbc 9f19 023d fc64 883c d9de 1f3d
00000010: e3ed e2bc 1a04 5e3d 0a5d f9bb 9585 d0bd
00000020: fded 503d 30a2 1a3d 85f0 003d a91e fcbd
00000030: 3f4c bb3d 8863 32be 3101 91bd e4ba 6dbc
-0.02875451 0.031762715 0.016649716 0.039030883 -0.027701324 0.05420313 -0.007609968 -0.10181729
0.051008213 0.03775233 0.031479377 -0.123105355 0.09145402 -0.1742078 -0.07080305 -0.01450989

dense_encmean.weight f4 [8, 400]
00000000: c080 3ebc 1c56 fc3c e633 18bd 18fd 6c3b
00000010: 3a90 24bc 0c61 72bd 42ca 9f3d bdee 0cbe
00000020: 7417 9c3d f71b 8cbd 5f34 2abd 245d 553d
00000030: 8621 b13d 4934 f0bd 1bf9 983c 72f9 3abe
00000040: 956a 883d c768 44bb 5a09 f2bd b7f8 003e
00000050: f720 f8bc 6be6 5d3d 420c e6bc 5d46 033e
00000060: a846 acbd 3bfd 68be fcd2 43be 3a79 3bbe
00000070: b95e b63d 5c39 16bc 4766 7cbe 62e7 abba
00000080: a21d 47bd cff1 a43d a1f7 483d f171 933d
00000090: e919 993d 0b37 0c3d 27fc 9d3c 4cfe 083c
000000a0: 40a8 53bd f385 1e3d 11c0 19bd 6800 3cbd
000000b0: 0754 77bd a65d 9b3c 5164 48bb a58e 903b
000000c0: 59bd f8bd 722c ebbc 6ecd 223e 8838 ecbd
000000d0: 825b 813d 1116 83bd 9aff 9d3d d635 1e3b
000000e0: 2f4a 94bd 6c24 ce3d 2266 08bb b04e a03d
000000f0: 177c d1bc 4a3f 9c3d 1028 bc3d 192e debd
00000100: 14f8 9c3c 31bb 07be 746a 873d cdb4 683d
00000110: 84b4 fabc bad8 51bb a37d 3e3d d8d3 84bc
00000120: f4ff 943d a956 13bd f1ac d2bc 7dfa 89be
00000130: 28a2 dabc 8449 1a3e 8de0 09bd ee0b 4abd
00000140: 18f7 fbbd 9b02 0a3e f905 453a 2a9f e33d
00000150: a1b3 e1bd 6467 c7bc 8291 93bc c090 86bd
00000160: 0df8 243d 005a d1bd c1c9 1dbb 1cd9 a33d
00000170: 4d7a e6bc 4929 c0bd 2bc6 913d f699 043d
00000180: f58a 1e3d f427 96bd c5e6 01bd 8783 713d
00000190: 5e69 273d 5f52 2abd 1aca a5bc 080c 9b3d
000001a0: fed0 06bd 653b d7bd a388 913c 2366 2fbc
000001b0: e5c1 8a3c b2d2 a9bd 55b2 993a f2e8 b1bd
000001c0: f57e 7cbd 1d18 ebbc f9b4 98bd f9cf e13d
000001d0: b523 193e 9b29 9ebd 0e31 9c3d 46bf 83bd
000001e0: a20f c7bd edac d63d b668 9c3d 84ec 9b3c
000001f0: d75f d8bc ceea 73be 64b3 2ebe 8e55 15be
00000200: d220 193d bdae a63d c620 10bd 4e3b 2f3d
00000210: 0897 71bd d63a d13d 5de7 95bd 4351 59bb
00000220: 328d f33d dc89 94bd 9019 fb3d 714e c5bd
00000230: c5ce bbbb e064 85bd 678f a4bd 4c51 70bd
00000240: 1040 88bd 1797 b63c 1104 173d c83e 06bb
00000250: 43b7 eebd 6b3e 73bd 8724 0b3d e4a3 06bd
00000260: 3bdc 8abc 3a00 0c3d 0342 00bc c590 083d
00000270: 4e51 0d3d 4cb2 b13a 21ff 17bd aa07 70bc
00000280: 9da0 8d3d b3de 73bd d658 80bd db3c 6fbc
00000290: a8a8 12bd e24a fa3b 4018 0c3d a967 03bd
000002a0: fadf 25bd c0f0 a3bd 809b 1c3d 7a61 1ebc
000002b0: 0876 a83b cbed bdbd 9df1 b7bd d054 4abd
000002c0: 37f0 953c f50e 383c 97f7 1a3d c048 d1bd
000002d0: ea17 123e 0ef3 9abd c5f2 f03d 3b7d 24be
000002e0: 91d8 1bbc be89 bdbc 1e58 46bd ecc6 a03d
000002f0: 0b40 3fbd 6538 3bbd f895 4fbb d531 99bd
00000300: 1160 8fbd 72d1 3a3c b181 12be 639a ce3c
00000310: 4419 c9bc 8136 e5bd 1677 233d cd4e f93b
00000320: 4b3a cfba b46e e3bc 23bd c83c 5edd 16bd
00000330: 783a a6bc bd83 f73c 1e8f b7bc 278b e13d
00000340: 9abe 85bd 2f27 5b3d 301d 1c3d f01e cdbd
00000350: 5d9e 183c e5f8 08be a101 b03d 8455 553d
00000360: 26de a23c 4131 1dbd 007e 00be e954 3abd
00000370: 716d 223d 6ee7 bbbc 6d52 e0bd 6272 19bd
00000380: b23d 2bbd df7e c7bd a560 08be bbce 963c
00000390: 1b54 0dbd 3a07 5a3d 1046 2b3e cb25 7bbd
000003a0: 5a4d 703d 1f66 9dbd 1cae 403d b021 08bc
000003b0: c427 013d 6488 8b3d a9df e2bd f6dc efbb
000003c0: 1fd5 7c3c 2533 763b 9d75 443d d9bd 43bd
000003d0: b4fe f63b 68db b13d 6c58 f73d c85b fd3d
000003e0: e2ed f73b e4e6 6cbd 887f 95bd 8d1f 2e3d
000003f0: cf9e 3bbd 6912 7d3d d5df 22bd 66e7 afbd
-0.011627376 0.030802779 -0.03715887 0.0036161598 -0.010044152 -0.059174582 0.078022495 -0.13762946
0.07621661 -0.06841271 -0.04155385 0.05209078 0.08648972 -0.117287226 0.01867347 -0.18259218
0.06660954 -0.0029969679 -0.1181819 0.12594877 -0.030289156 0.05417482 -0.028082017 0.1281981
-0.08411914 -0.2275285 -0.19123453 -0.18307963 0.08904786 -0.009168949 -0.2464839 -0.0013115222
-0.048612244 0.08053934 0.049064282 0.07199467 0.07475645 0.03423218 0.019285275 0.00836141
-0.051674128 0.038701963 -0.037536684 -0.045898825 -0.06038287 0.018965553 -0.0030577371 0.004411536
-0.1214549 -0.028707717 0.15898678 -0.1153422 0.06316282 -0.06400693 0.07714768 0.0024140975
-0.07240712 0.10065541 -0.002081283 0.078275084 -0.025571866 0.07629259 0.09187329 -0.10848636
0.019161262 -0.13255002 0.06612101 0.05681305 -0.030603655 -0.0032020048 0.046506535 -0.016214296
0.07275382 -0.035971317 -0.02571723 -0.2694892 -0.02668865 0.15067106 -0.033661414 -0.049327783
-0.12302989 0.13477556 0.00075158436 0.111143425 -0.110205896 -0.024341293 -0.01801372 -0.065705776
0.040275622 -0.10222244 -0.0024076554 0.08000395 -0.02813449 -0.093828745 0.07117876 0.03237339
0.03870674 -0.07331839 -0.03171422 0.058963325 0.04087197 -0.04158246 -0.020237971 0.07570654
-0.032914154 -0.105093755 0.017765349 -0.010705504 0.01693816 -0.0829214 0.0011726121 -0.08687009
-0.061644513 -0.028698022 -0.07456393 0.11025996 0.14955027 -0.07722779 0.07626544 -0.06432967
-0.097197786 0.10482202 0.076371595 0.019033678 -0.026412887 -0.2382004 -0.1706062 -0.14583418
0.037384816 0.081387974 -0.035187505 0.042781167 -0.058981925 0.102163 -0.0731952 -0.0033160008
0.11892165 -0.07252857 0.12260735 -0.09634102 -0.005731436 -0.06513381 -0.08035164 -0.05867128
-0.06652844 0.022288842 0.036869112 -0.0020484198 -0.11656048 -0.0593857 0.033970382 -0.032871142
-0.016950717 0.034179904 -0.007828238 0.033341188 0.034501366 0.0013557165 -0.037108544 -0.014650265
0.069154 -0.059538554 -0.06266944 -0.014601911 -0.035805374 0.0076383213 0.034202814 -0.03208128
-0.040496804 -0.08004904 0.038234234 -0.009666795 0.0051410235 -0.09273871 -0.08981631 -0.04939729
0.01830302 0.011234035 0.037833776 -0.10218954 0.14266935 -0.0756589 0.117650546 -0.16063397
-0.009512083 -0.02313697 -0.04842388 0.07850441 -0.046691936 -0.04570808 -0.0031675082 -0.07480208
-0.07000745 0.011402475 -0.14307286 0.025220102 -0.02454818 -0.111920364 0.03990849 0.0076082707
-0.0015810219 -0.027762748 0.02450425 -0.036832206 -0.020291552 0.030214185 -0.02240711 0.11012869
-0.06530495 0.053504165 0.038113773 -0.100156665 0.0093151005 -0.13376196 0.08594061 0.052083507
0.01988132 -0.03837705 -0.12548065 -0.045491133 0.039655153 -0.022937503 -0.109532215 -0.0374626
-0.041806884 -0.097409956 -0.13318117 0.018409124 -0.034504037 0.053229548 0.16725945 -0.06131534
0.05866752 -0.07685494 0.047041044 -0.008308813 0.031532064 0.06813124 -0.11077816 -0.007320042
0.015431671 0.0037567106 0.047963727 -0.047788475 0.007537687 0.086844265 0.12077412 0.123710215
0.0075661996 -0.057837382 -0.07299715 0.042510558 -0.04580575 0.061785135 -0.039764244 -0.085890576

dense_encmean.bias f4 [8]
00000000: 3e25 64bc 6a44 d53d 8fab 10bd eff2 21bb
00000010: e863 953c d65b 613d e0b6 97bd 7c01 913d
-0.013924895 0.104134396 -0.03531986 -0.002471145 0.018236116 0.055019222 -0.074079275 0.07080361

dense_encvar.weight f4 [8, 400]
00000000: b6bc 773d 1e26 81bc 0e18 45bc c8cf 933d
00000010: 5b4f 8e3c 7742 0d3d 0f28 843c ee28 33bb
00000020: 3077 2c3d 6475 8c3c a49d b93d 2a3d e63c
00000030: 06f9 d3bb 89d9 a3bd c7d3 b53d a025 663c
00000040: 62fa d73d 676c d33b d9fe 973d cfef bb3c
00000050: d11b 5fbd ad43 863d cb16 f4bc a68d 043d
00000060: 58dc 793d 1be3 0cbe 8fea 88bd 43c5 17be
00000070: 843b 453b e6b5 16bc 72ab fabd 9d0a 85bd
00000080: da22 85bc bfdc 633c 0671 c5bb 7477 013d
00000090: c4a5 c53c 4f89 2dbd faa1 37bd 96f5 583c
000000a0: 0391 073c efbe 2b3d b94b bb3b 019d 013b
000000b0: bbe8 33bd 0bef cd3c 8c00 7f3c 432d 373d
000000c0: 356f be3c 3cb7 8ebd 5020 a83d 921a eabc
000000d0: a776 afbc 545c 723d 559e 4c3d 57e1 77bd
000000e0: 60dd 25bd 1e8a 78bd df83 a73c 3a51 593d
000000f0: 185d 353d a3e3 763d b4fb 0e3d 5ee2 313d
00000100: ee48 d53c 0c81 b33c 2627 773d 8c87 823d
00000110: 10b1 d63c df90 953d c9d6 903d 7c46 b73d
00000120: 1d5a ff3c a2c8 7abc 7582 94ba b60c ddbd
00000130: f9eb 27ba 808e 703c c4d9 5bbd fad8 063d
00000140: 6477 7dbc 13a0 aebc 66ff 3c3d 013c a9ba
00000150: 8bb7 85bd f89c 523c 4941 14bd 216a 643d
00000160: e2cc 46bd 0cbe afbd 3b64 a03d 39d1 d43b
00000170: f6b1 af3c 19e7 703d 9e40 88bd 0273 fb3b
00000180: 9373 cf3d ea7d ad3c 4549 8e3d 50d8 7bbd
00000190: bf61 d33c 3bf8 62bb 9ea1 a9bc b579 3dbc
000001a0: 57c1 09bd f3ea 3e3d 1b09 cdbb a0d8 a43c
000001b0: c2a5 07bd 39c7 cbbc 60f9 e6bd 106d c23c
000001c0: 32cb dc3d 0712 1dbd e028 7abd 8938 04bb
000001d0: e754 2dbd 7392 31bd f53d e2bb ce5b 613c
000001e0: aeed 68bd b95a 2abd 4de5 ed3c 270a 763c
000001f0: 0c63 9ebd d965 4dbe 6f85 08be a784 edbd
00000200: d9b6 b83d 0f67 bc3d 66c1 a53c 5454 4bbd
00000210: 6309 04bd 80e4 8ebd a2f1 003d 5451 9d3d
00000220: 840a b43c e40f e83c 3cc4 b23c e0a1 edbb
00000230: b4e5 9d3d 4d39 f53c 34ec 5f3d 3bef 3c3d
00000240: 2bb6 6dbd 0a68 c63c 156d 7bbc 59c7 3fbc
00000250: cca3 8fbb 06ad 99bd 5fbe 95bc fba7 8fbd
00000260: 7a01 e039 8482 a5bd f3b5 5bbc 62a3 4c3c
00000270: 4e9f 43bd a6dc b8bc 4fa1 94bd 024b aebd
00000280: b7d6 09bd 7417 b23c ca55 39bd 6347 57bd
00000290: e855 84bd 1a9d 8cbc ea0c 9dbc 34e2 cfbc
000002a0: ce20 a0bd d905 f5bd 6b92 98bc 3129 1fbd
000002b0: 78a5 28bd 5038 d7bc 25a5 bbbd 6310 673c
000002c0: e5a6 5dbd f065 93bb de6e 41bd 245c 813c
000002d0: bb7d fbbc f89b c73c b4bb 66bd 1cb5 ae3c
000002e0: dc19 13bd e418 4abd daa9 de3b f780 883d
000002f0: 4e66 fc3c 2847 46bd 16e1 203c 28d3 783d
00000300: 9eee ce3d 5f66 3bbc 6a2d 6abc e5d6 983d
00000310: 91d9 963c f92e 3f3c ce74 91bd 5e7e 95bd
00000320: d4f5 21bc 97a7 e8bc 7229 ac3b 33cc e5bc
00000330: 8ca4 0fbd 5ac1 0ebd 8d72 a0bd 93f9 9bbd
00000340: 15b9 bdbb b955 61bd 2adc b73c a18b 94bd
00000350: bd6b 72bd f528 5ebd 798a 58bd a0a8 613c
00000360: 9d80 ba3c 109f 43bd 48f2 00bd 9738 3cbd
00000370: 106b 1a3d 20fc 2bbc 2678 e2bc 792d 33bd
00000380: fbb1 7dbd 0205 f63d 379e 073d 0b94 703d
00000390: a4f6 26bb 5321 293c 0374 763d e21d 99bb
000003a0: 186d acbd 75b6 5e3d 2d56 8d3d d553 b43b
000003b0: 9df2 303d bc4a 15bc e615 c53c 768a 5ab9
000003c0: bed0 b43c 25fc 583c 3a22 c1bc 9718 3e3d
000003d0: 2a86 b63b a9ea 8b3c 58ce ae3d f96b cf3d
000003e0: 1353 20bd 6a54 3c3d 1932 c33c 2ffc 0b3d
000003f0: 838e 0d3b f98a a13c 21e1 7ebb 1fc5 8f3d
0.060482703 -0.015765246 -0.012029661 0.072173655 0.017371824 0.034487214 0.016132383 -0.0027337628
0.042105854 0.01714582 0.09063271 0.028105337 -0.006468895 -0.08000476 0.08878284 0.014047056
0.105458036 0.0064521316 0.07421655 0.022941498 -0.054469887 0.06555877 -0.029796025 0.03236165
0.06100115 -0.13758509 -0.066853635 -0.14821343 0.0030095289 -0.009198641 -0.12239732 -0.06496165
-0.01625197 0.01390761 -0.0060254363 0.03160806 0.024126895 -0.042367276 -0.044832207 0.013242146
0.00827432 0.041930135 0.005715814 0.001977742 -0.04392312 0.025138399 0.015564095 0.0447209
0.023246387 -0.06968543 0.08209288 -0.028577123 -0.021418883 0.059170082 0.049955685 -0.060517635
-0.040494323 -0.060678594 0.020448623 0.05305598 0.044278234 0.060275685 0.03490801 0.04342877
0.026035752 0.02191212 0.06034007 0.0637351 0.026207477 0.073030226 0.07072217 0.08948991
0.031170899 -0.015306624 -0.0011330383 -0.1079344 -0.0006405707 0.014682412 -0.053674474 0.03292177
-0.0154703595 -0.021316564 0.046142004 -0.0012911559 -0.06529149 0.012854807 -0.036195073 0.055765275
-0.048535235 -0.085811704 0.078316174 0.006494668 0.021447163 0.058814142 -0.0665295 0.007673622
0.10129466 0.021178205 0.06947569 -0.06148559 0.025803445 -0.003463282 -0.020706948 -0.011564662
-0.03363165 0.046610784 -0.006257189 0.020122826 -0.033117063 -0.02487527 -0.11278033 0.023733646
0.10780944 -0.03834727 -0.061074138 -0.00201753 -0.042317297 -0.043352555 -0.0069043585 0.013754798
-0.056867294 -0.041590426 0.029040003 0.015017069 -0.077337354 -0.20058383 -0.13332151 -0.11597567
0.090192504 0.09199344 0.020233821 -0.04964097 -0.032235514 -0.06977177 0.03148044 0.07681528
0.02197767 0.02832789 0.021822087 -0.007251963 0.07709828 0.02993455 0.05466862 0.046126585
-0.058035057 0.024219532 -0.015345831 -0.011705243 -0.00438354 -0.07503705 -0.018279253 -0.070144616
0.0004272571 -0.080815345 -0.013410079 0.012490125 -0.047759347 -0.02256615 -0.0725733 -0.085104
-0.033652034 0.021739699 -0.04524783 -0.052558314 -0.06461698 -0.017164756 -0.019171197 -0.025376417
-0.07818757 -0.11964006 -0.018624505 -0.038857643 -0.04117343 -0.02627197 -0.09162358 0.014103028
-0.05411424 -0.004498236 -0.04722487 0.015791006 -0.030699601 0.024366364 -0.05633135 0.021326594
-0.035913333 -0.049340144 0.00679515 0.06665223 0.030810501 -0.048407704 0.00981929 0.06074825
0.10104106 -0.011437981 -0.014293054 0.07462863 0.01841429 0.011668914 -0.07102357 -0.07299493
-0.00988527 -0.028400226 0.005253964 -0.028051471 -0.035069034 -0.034852363 -0.07834349 -0.07615962
-0.0057898858 -0.055013392 0.02244385 -0.072531946 -0.05918478 -0.05423828 -0.052866433 0.0137731135
0.022766406 -0.047759116 -0.031481057 -0.045952406 0.03769976 -0.010497123 -0.027645182 -0.043744538
-0.061937314 0.12012674 0.03310987 0.058734935 -0.00254766 0.0103228865 0.06016923 -0.0046727518
-0.084192455 0.054373223 0.06901202 0.0055031576 0.043200124 -0.009112056 0.024058294 -0.00020841681
0.022072192 0.01324371 -0.02357589 0.04641017 0.005570193 0.017079668 0.08535451 0.10128016
-0.039141726 0.04597894 0.0238276 0.034176048 0.0021599836 0.019719588 -0.0038891512 0.0702002

dense_encvar.bias f4 [8]
00000000: 5718 10bd 4b03 77bd 027f 46bd 9021 b0bd
00000010: 5125 ef3c cda6 07bd e9d9 ba3c ae90 3ebd
-0.035179462 -0.060305875 -0.048460968 -0.086001515 0.029192599 -0.033118058 0.022808986 -0.046524696

dense_dec.weight f4 [400, 8]
00000000: 4bbe 4e3e c432 2b3d 9aba 8e3f c9d1 12be
00000010: bfd0 8c3e 072a 88be 28fa c4bd ca6e 323e
00000020: b269 8dbe 1ddf b53d be6d d83e 60f6 9bbd
00000030: be42 40be 5511 c53e b333 343d f3bc 933e
00000040: ed4c b93c f67f dc3e 3055 9d3e afc3 2ebf
00000050: 6b46 2ebe da26 f23e 1c4f 6c3d 0779 843c
00000060: 8c44 463e 6e18 ce3e 8c29 00bf c2da 543e
00000070: e92f bfbd dd8e e23e 4c5a 80be fa23 463e
00000080: 5d56 83bf 5416 53be 07df 8abe 4cee 45be
00000090: a6b0 35be 9b2c 2bbf c791 803e baa9 2fbe
000000a0: c52c d6bc 2b80 8b3e 8121 6bbe 8d3c 2a3e
000000b0: 594e 223d 72a7 1b3d 027d 1f3e f9f0 60bc
000000c0: 5795 e3bd 0f72 babd 8dc7 2a3f e522 88bf
000000d0: 4ba1 08be bf1a bfbb 0617 103e 0121 9bbe
000000e0: 7533 ebba 3914 15be 9574 07be 7079 2abd
000000f0: 773a f83d c23a 0bbd acb2 1abd 4246 00be
00000100: 89e4 cfbe 5e69 56be 3080 973e 775a a63e
00000110: a17f 1bbe d6d1 023f 1189 5f3e 8a1e 8ebe
00000120: 5177 1dbe 64f3 593d 1ba4 aabd a8fb 2bbf
00000130: 77c0 a3be 49b6 0f3f 9e4b ba3e f79f 5e3e
00000140: 917d 50be 89b3 18be 7455 56bd d7b5 8f3c
00000150: 40d8 4fbc b854 553e 5439 ffbd c1a7 cb3c
00000160: 5287 8e3d 6211 7d3e 7e55 1abe 313e edbe
00000170: eb62 133d 7db3 563d e2c7 c23d 43bc 2e3e
00000180: 8761 0c3e 1994 b23c 718b 603e 5d3e 543e
00000190: ed03 ffbd 5f3a e2bd a015 b23d fb15 933e
000001a0: 74f1 a5be 31c8 99bd 8236 513e 41f9 9c3e
000001b0: 6b2b f03d 4a83 4b3e 3583 113b e313 72bd
000001c0: 8262 863f fda4 6c3d 2366 103e eb06 123f
000001d0: 601d a5be 9983 c2be 6204 cbbd 6a1b cfbc
000001e0: de61 31be de6c e7bd 283b fd3d bcb5 e03e
000001f0: a4f7 053e 17fd b6bd 037b bbbc b292 7d3b
00000200: 8cd2 013d 0a0c 0f3e 600f fc3d f064 9f3e
00000210: f96c cb3c 531e 273d 5d7c 0a3d f917 b43c
00000220: 05e1 88be 473f 83be 2a8e 95be 25c1 c6be
00000230: 53ee b8bd 8586 833d bf12 4cbd 48b6 4e3c
00000240: 4f5e a63e bab1 22bd 7458 753f 479c f7bd
00000250: 9e2e e23d 8081 c23e 2ae4 553e afa3 77be
00000260: 1a62 343f 1606 06be 8aea 74bd b3df c63e
00000270: bb98 eb3d 44da 8d3e f06a 763e a8be e23b
00000280: b851 933d 1604 543b e381 33be 7c9b bd3d
00000290: 7ecb 8dbd e2f9 82bd e570 d7bc 359c 983c
000002a0: 420a 98bd ac9c 49be dc40 303f 16d0 81be
000002b0: 661c 4e3e f67e f1bb 17a7 d93c 4a02 c0b9
000002c0: 6e6d 413e 0f0a 11be 21c2 c73e b26b 20be
000002d0: 3f3a c9bd ca4b d73d 55fb bd3d 5a31 14be
000002e0: 899d 1abe 39c8 a63d 44c0 773f 2876 acbe
000002f0: ca5f 313e 2f9c 54be 78f3 753e 5bd4 44be
00000300: e829 1c3f 5025 7fbe 1968 ac3e 701e ff3d
00000310: c928 b3bb 96f8 d63e 2bb4 c33e 7219 a3bd
00000320: 014f 553e 8b5b 67be 42c6 7c3f e4f9 453f
00000330: f22a 2fbd 0455 f7bb 4825 073e bbf0 94bd
00000340: 97b9 1f3f 2ba3 55be 077a 503e edf9 463f
00000350: af12 953c f8e7 833e 3a85 bc3d 3dc3 76bd
00000360: 961e 303e de45 383d 7952 b23e 8697 6d3e
00000370: 43ea 13bd 6519 993e 8a63 ad3c 47ba 2abe
00000380: a24d ed3e 8288 5cbd 23fc 4abe 9b2d 3f3e
00000390: df04 3bbe 41f7 36be 373c b83e 9786 94bc
000003a0: 6ac8 e7be 9109 eabe 86ac 203f 7125 7b3e
000003b0: a539 d13c 2c6a bb3c 5830 8e3e d39c babe
000003c0: bfa8 e13d faaa e1bc b9dc e53e 71b9 0f3e
000003d0: f8e7 d5bc 6840 d8bd 8019 b4bd df0f c9bd
000003e0: dab9 cf3e 7e7b 653d 8e92 a13e 9cae 393e
000003f0: 5c95 e8bd 71cb 19be 501b 87bd 799c c5bd
0.20189779 0.04179646 1.1150696 -0.14337839 0.2750301 -0.26594564 -0.09618026 0.17425075
-0.27619702 0.08880446 0.42271227 -0.07615352 -0.1877546 0.38489786 0.043994617 0.28855094
0.022619689 0.43066376 0.30729055 -0.6826734 -0.1701905 0.47295266 0.057692632 0.016170992
0.19362086 0.40253013 -0.50063396 0.20786574 -0.0933531 0.4424962 -0.2506889 0.19349661
-1.0260731 -0.20613986 -0.2712328 -0.19329184 -0.17743167 -0.6686494 0.2511122 -0.1715459
-0.026144395 0.27246222 -0.22962 0.16624661 0.0396255 0.038001485 0.1557503 -0.013729327
-0.11112469 -0.09103786 0.6671074 -1.0635649 -0.13342778 -0.005832046 0.14071283 -0.30298617
-0.0017944413 -0.14558496 -0.13228066 -0.041619718 0.12120526 -0.033991583 -0.03776805 -0.12526801
-0.40604046 -0.20938632 0.29589987 0.32490894 -0.15185405 0.51101434 0.2182963 -0.27757674
-0.15377547 0.05321063 -0.08332082 -0.6718087 -0.31982777 0.5613752 0.36385816 0.21740709
-0.203604 -0.14912237 -0.05232759 0.017542763 -0.012685835 0.20833099 -0.12462106 0.024860265
0.06959404 0.24713662 -0.15071675 -0.4633651 0.035983007 0.052417267 0.09510781 0.17064004
0.13709079 0.021799134 0.21928193 0.20726915 -0.12451921 -0.1104629 0.08695531 0.28727707
-0.32410777 -0.075088866 0.2043095 0.30658916 0.11727031 0.19874302 0.002220345 -0.059100997
1.0498812 0.057774533 0.14101462 0.57041806 -0.32248974 -0.37991026 -0.09912945 -0.025281627
-0.1732249 -0.11300062 0.12364799 0.43888652 0.13082749 -0.08934992 -0.022885805 0.0038692174
0.031694934 0.13969436 0.1230762 0.31131697 0.024832236 0.040800404 0.03381001 0.021984087
-0.26734176 -0.25634214 -0.29210025 -0.38819233 -0.09029832 0.06422142 -0.049822565 0.012616701
0.32493827 -0.039720275 0.95838094 -0.120903544 0.11044048 0.37989426 0.20887819 -0.24183534
0.7046219 -0.13088259 -0.059793986 0.38842544 0.115037404 0.27705586 0.24064231 0.0069197007
0.07193321 0.0032351068 -0.17530017 0.09258172 -0.06923579 -0.063953176 -0.02629895 0.018629173
-0.074238315 -0.19688672 0.6884897 -0.2535407 0.2012802 -0.0073698713 0.026568932 -0.000366228
0.188894 -0.14163993 0.39015296 -0.15666083 -0.09825563 0.105125025 0.092764534 -0.14471951
-0.15099157 0.08143658 0.9677775 -0.33683896 0.17321697 -0.20762704 0.24018657 -0.19221632
0.61001444 -0.24916577 0.3367317 0.12456977 -0.0054675085 0.4198653 0.38223395 -0.07963838
0.20830919 -0.22593515 0.9874002 0.7733443 -0.042765565 -0.0075479764 0.13197815 -0.07272478
0.6239256 -0.20863025 0.2035905 0.77725106 0.018197386 0.25762916 0.092050985 -0.060244787
0.17199168 0.044988506 0.34828547 0.23202333 -0.03611208 0.29902187 0.021165628 -0.16672622
0.46348292 -0.05384112 -0.19822745 0.18669741 -0.18263577 -0.17867757 0.3598344 -0.018130584
-0.4527009 -0.45710424 0.6276325 0.24526002 0.025540182 0.022877775 0.27771258 -0.36447772
0.11018514 -0.027547348 0.4489496 0.14035584 -0.026111588 -0.105591595 -0.08793926 -0.0981748
0.4057148 0.056025974 0.31557125 0.18133014 -0.11356613 -0.15019013 -0.06597006 -0.096489854

dense_dec.bias f4 [400]
00000000: a620 633f 864c 053f c588 a73d ed7e 57bd
00000010: ea2e 7b3f 1b4f b9be c7b7 0c3f 2708 dcbe
00000020: aa22 fa3e fd3d 903e 00c9 85be 5cd7 adbc
00000030: 98b8 c6be 7543 c2bd acfe ab3e 4c95 47be
00000040: be0a 50be ed25 15be 7e4a abbd 4c78 db3e
00000050: b1c9 c3be f285 463d 2684 d73b f138 41bd
00000060: 89a0 da3e 78c9 5e3f 3707 5a3e 3ea5 e03e
00000070: eb9b 123f 05ea 793f ed0b 983d 6950 b13e
00000080: 8e0f 003e 1f89 e73e 31ca 333d 31ba d23e
00000090: 1460 94bd 3387 abbd 0f5f 943e 38bf 573e
000000a0: 421c 14bf 6da0 1dbe fa1b fc3e b88b 3ebe
000000b0: a428 f13e 9acf 97be bd93 40be 2c86 8ebd
000000c0: 1dbc 17bd 8942 a93f c4e7 563f 5626 85bb
000000d0: 044b 00bf e63a d8bd 9658 dd3d 7061 dcbd
000000e0: 69f4 d4be b6e3 00bf db27 60bd f094 2e3e
000000f0: 3046 2cbe 8093 44be fc60 c5be c0d3 a33e
00000100: 8e54 703e 009e c5bd f7d5 3cbe e979 c9be
00000110: bc71 103f a257 b83e 6f93 163f 0588 c9bd
00000120: 89fd 643e 2102 fc3e 3788 513d ad5f e43e
00000130: 95a4 2e3e 5835 a5bd 02cd 89bd 7a0f f2be
00000140: 07df 76bd 95cf 91be 151e fbbe b98b 733e
00000150: 4a5d c63e 1ed8 8fbd 530f fb3e 8e87 9dbe
00000160: 1b99 8e3e cce1 6a3e fef3 b63e a544 353e
00000170: b996 78bd f2b0 c4bd 5d9c 013f 98b1 bc3f
00000180: c0dd 083f 65f7 76bc 2cf2 553e 4702 c93e
00000190: 49de f3be 69f0 493e 8454 8e3d cd2c 123f
000001a0: 47d9 063f 4fd9 35be a1a1 90bb 7c53 33be
000001b0: 0f65 22be 3196 c83e bd25 f43e 0467 363e
000001c0: d7e2 edbe 1a3f 073e 6efa f13d 8761 bd3e
000001d0: 27d3 02bb 467f bebe aab8 6a3e 1db7 55be
000001e0: d5e2 a13d 4906 ebbd 5f5a 023e 7295 e93e
000001f0: 6713 4b3f c68b 873f c881 e73d 2b7a 273f
00000200: 2efd 663f c9f9 473f 7fa6 113f 5037 fc3e
00000210: 4b92 95be 1593 35be 2fa4 b93e 041e aabe
00000220: e100 98bd de12 9ebe b9b2 4e3e 1597 3cbe
00000230: 0a93 14bf 91ae a9be ae54 6bbd e038 94bd
00000240: 07d4 ca3a 1c87 e2be 7c11 493e a77e 95bd
00000250: 0be4 253c ab64 3e3f 8f44 2a3f 2f27 6fbc
00000260: 5583 1d3f ef8a 463f 1897 8e3f 4cac 14be
00000270: 2ae5 e4be 577b 853e 9cb6 8fbe 483a 7c3e
00000280: 05df e6bc a65b 00bf 49ca b33d de44 bb3e
00000290: 6f09 3c3f abc3 01bf a73a fc3c a14f 84bd
000002a0: d0b1 6b3e 4ad6 b03e ae8a 083f 8345 42be
000002b0: eabc 8bbe 3ad2 f23e 15e5 0f3f 2d06 3ebe
000002c0: 0ab9 73be 26b0 513e 6dac bd3d b650 a23f
000002d0: 3a32 d7be c8ee 4dbd 53a6 bfbd 952d 0ebe
000002e0: f8d8 8c3e 98b6 95be 8b40 05bf 4ee8 e33e
000002f0: 056d 38be 0f6d 333e f6bc 4a3d 7def 253d
00000300: 2040 54be 3b86 ea3e 67d3 0f3e 2569 1e3f
00000310: 10e1 343e b0fe b7bd 9cb5 8c3d 71c7 a73f
00000320: 32ce 99be 4066 20be 0bb2 aebe 4b11 3dbe
00000330: 141d 863f e97d 75be 6da6 6bbe 971b 453e
00000340: 048d d53c 4cf9 8a3e fb2b 953e c4d5 21be
00000350: 8fbc 393e 4fe2 4b3e dfde 123f e02e f83e
00000360: 3d09 1a3f 2383 043f 9058 97be dac4 fb3e
00000370: 60ad e13e 5df3 54be 54e0 7b3e 9e4c 103f
00000380: e9b2 9f3f ec0c c63f 2f93 a43e 0617 8ebe
00000390: cf2d 2b3f 2a44 ad3f a9d3 6e3f 4df0 69be
000003a0: 20d2 c8be cf23 d93c 2d58 ca3e 5f01 b4be
000003b0: 1fee 8ebe f570 2dbe cca5 e93e 88a7 f33e
000003c0: d53d 8dbe 134a 81be d939 1ebf 2750 f33e
000003d0: 25c3 893e 6044 1ebf 7b56 fabe 83c2 abbe
000003e0: c90b 983e b2f2 1f3f e9bf 403e 03b9 293e
000003f0: d6fd 693d 73f9 483e 2ae3 ecbe f9c8 f4bd
0.8872169 0.5206989 0.081803836 -0.05261128 0.9811846 -0.36193165 0.5496792 -0.4297497
0.48854572 0.28172293 -0.26129913 -0.021220855 -0.3881271 -0.09485523 0.33592737 -0.19490546
-0.20316598 -0.14565249 -0.08363818 0.42865217 -0.38239816 0.048467584 0.0065770326 -0.047173444
0.42700604 0.87026167 0.21291815 0.4387607 0.5726916 0.9762271 0.0742415 0.3463166
0.12505934 0.45221803 0.043893997 0.41157678 -0.07244888 -0.083753966 0.28978774 0.21069038
-0.5785562 -0.15393229 0.49240094 -0.18607986 0.4710132 -0.29650575 -0.18806358 -0.06959185
-0.037044633 1.322343 0.83947396 -0.004063408 -0.50114465 -0.10558109 0.10807912 -0.10760772
-0.4159272 -0.5034746 -0.05472551 0.17049003 -0.1682365 -0.19196892 -0.38550556 0.3199749
0.23469755 -0.09649277 -0.18440996 -0.39350823 0.56423545 0.3600436 0.58818716 -0.09840397
0.22362341 0.49220374 0.051155295 0.44604245 0.1705497 -0.08066815 -0.06728555 -0.47277433
-0.06027129 -0.28478685 -0.49046388 0.23783769 0.3874305 -0.07023643 0.4903513 -0.30767483
0.27851185 0.22937697 0.35733026 0.17701967 -0.060690615 -0.09604062 0.50629216 1.4741697
0.53463364 -0.015073632 0.20893162 0.3925955 -0.47630528 0.19720615 0.06949714 0.5709961
0.5267529 -0.17758678 -0.004413799 -0.17512316 -0.15858863 0.39177087 0.47685042 0.17812735
-0.46462128 0.13207665 0.11815344 0.3698847 -0.0019962282 -0.37206477 0.22922006 -0.20870633
0.07904593 -0.11475808 0.12729786 0.4562183 0.7932648 1.058953 0.11304051 0.6542079
0.9023007 0.78115517 0.5689468 0.4926095 -0.29213175 -0.17731889 0.36258075 -0.33226025
-0.07422043 -0.3087377 0.20185365 -0.18417008 -0.58036864 -0.33140996 -0.057453804 -0.072374105
0.0015474566 -0.44243705 0.19635576 -0.07299548 0.01012517 0.7437236 0.6651086 -0.014596744
0.6152852 0.77555746 1.113986 -0.14518851 -0.44706088 0.26070663 -0.28069007 0.24631608
-0.028182516 -0.50139844 0.08778817 0.3657598 0.73451895 -0.5068919 0.030789686 -0.064605005
0.23017049 0.3453849 0.5333661 -0.18971829 -0.27292567 0.47426015 0.56208926 -0.18557043
-0.23801056 0.20477352 0.09261403 1.2680881 -0.42030507 -0.050276548 -0.09357896 -0.13884576
0.27509284 -0.2924087 -0.5205161 0.44513172 -0.18010338 0.17522071 0.049496613 0.040511597
-0.20727587 0.45805535 0.14045487 0.6187919 0.1766398 -0.08984125 0.06870577 1.310774
-0.30040127 -0.15664005 -0.3412021 -0.18463628 1.0477624 -0.23973812 -0.23012705 0.19248806
0.026068218 0.27143323 0.29135117 -0.15804201 0.18138336 0.19910549 0.57371324 0.48473263
0.60170346 0.517626 -0.29559755 0.49173623 0.44077587 -0.2079596 0.24597293 0.5636691
1.2476474 1.5472693 0.32143542 -0.2775194 0.66866773 1.3536427 0.9329172 -0.22845574
-0.39222813 0.026506333 0.39520398 -0.35157296 -0.27916047 -0.16937621 0.45634305 0.47588754
-0.27586237 -0.25251827 -0.6180702 0.4752209 0.26906696 -0.6182308 -0.48894104 -0.33546838
0.2969649 0.624797 0.18823208 0.16574483 0.057126842 0.19626407 -0.46267062 -0.11952395

conv_dec1.weight f4 [16, 8, 3, 3]
00000000: dcc4 073f 692b 493e 38ea d03e 5c39 df3e
00000010: 1e04 73be ad7a e93e e04f 113e 4d06 44be
00000020: c47d 2e3c e831 b0bc 4542 a7bd d3cc 9f3b
00000030: 6e41 77bd 8e98 e23d e236 b7bd 43b4 663e
00000040: d743 1f3e b9b1 5d3e 53a7 cebb 9071 503e
00000050: d5bb 6b3e 2a8e 5bbe 7e3d afbd cb96 53be
00000060: a41a 51bd 6bf8 b53d 5cf9 be3d b6be d03e
00000070: 08ea ad3e 1480 f03e 4890 6a3e c5ee 39be
00000080: d854 b23e 01b3 96be bf9e 8ebd b069 0b3e
00000090: 152b 123f cf39 5f3e ef81 ac3e f1b8 cb3d
000000a0: 24a3 593e 1a7a 8cbd 0737 8fba c060 9ebe
000000b0: 5d5e c73c 6f85 853e 8117 743e f1b1 013e
000000c0: a662 1a3d f411 2bbe 1edd 39bd 16ca 003e
000000d0: 7dca 29bd c0f7 853c 966b 343e 1801 453e
000000e0: 95f1 a83e eef5 553e 3585 233d 1f0e 6e3e
000000f0: 1eae 7abe dc28 56bd 1218 d83d c746 863e
00000100: 1d91 cd3e 8338 ebbb 4935 a2be be74 69be
00000110: 2c70 eabd c02d 91be 1103 c6bd 1b8b 003d
00000120: 78cf 143f e846 523e 1845 ba3e f87a 2b3e
00000130: 958a 2e3b ac92 913e 7eb8 36be a92f 7fbe
00000140: 4171 d93d fb9a 1bbd c72a 873d 15ff a1bc
00000150: fc3c 96be 3ddb ad3e cf6f babc c678 2dbe
00000160: 7f54 be3d 4a8e d43d a15d fabe 92b7 d93e
00000170: d7ce 7a3e 51e2 28bf 7b52 adbc d88e 313e
00000180: 66a6 93be f0f7 04be b266 973e b5c5 cd3e
00000190: eb6e e53e a2b3 243f dd42 6dbd 72f7 eebb
000001a0: f7b9 2d3f 5e74 2e3b a0bd cb3c 6791 0a3f
000001b0: 638b 953e 77e0 7c3e f280 9d3e 0587 7dbe
000001c0: 66be d03e a799 113e c047 36be 11e6 7b3e
000001d0: e5e5 4ebe 274e 7fbe ec4f ff3d 8cd2 543d
000001e0: 2c4b f5be 7c82 92be 9a44 10bd 7aaf 08be
000001f0: 9788 d1be 5715 873e 3eda 23be b62f 693c
00000200: 34d3 ef3d 838a 5a3e 055b 7dbd 37c0 6d3e
00000210: ef7c 933c a0f0 90be b38a 183f ed7d 95be
00000220: 2e76 d13d 8485 ef3e c86a c6be f19e e1be
00000230: 3e86 c03d dc09 58be c1ef 58bc c6e2 443d
00000240: 4598 813e 6dac 483e bc2d 353e 272e 4dbd
00000250: e0f6 2d3c d6e1 00be 191e 803e c1eb 7ebe
00000260: 01f9 983d 0e0b 73bd af14 d1bd 36d6 ebbd
00000270: 65dd 943e f6b0 5ebd 71ba 833c a49a b4bd
00000280: 5e5c 823e feeb 473e 725b 463f 64d3 a13e
00000290: 1868 d23d a2e3 2b3f d696 b93e 3a7a 41be
000002a0: 23f5 0a3f 54d6 673e 0968 fa3d bd83 153d
000002b0: fe41 4abd b612 b43d 35c4 42be bb5a 3ebe
000002c0: 5dfa 023d fd0e 943e 6238 4b3e 82de 09bc
000002d0: acb2 dd3e 9c3b 473e eae2 00bd f993 e03e
000002e0: 7440 403e af8b f3bd 4a24 c93e 05ca 903e
000002f0: 9287 15be f0a3 8bbe 3ac7 80be fa5e b2bd
00000300: 532e 923e e8b8 f83d 4ff1 cd3d e4e8 113f
00000310: a681 b43e aaa1 97bc 5179 e1bd de1f 23be
00000320: 9153 2bbe a867 61be c8db 0cbe 7da7 dcbd
00000330: cc0b a7bd 5b3a 44be 04cd f9be 4046 9f3e
00000340: db23 f13d 60ad 37be 0100 c73e e08b c53d
00000350: 0d0e 39be 06b8 903e 3adf 3e3e fde5 0c3e
00000360: a62b 4abe 8e14 bfbd 9513 c0be 428c 89be
00000370: 87fd 3cbe 6e22 f1bd bf42 ef3d e54b 1fbf
00000380: ec20 963e 9a49 893e e3ee 933b 446c 8dbe
00000390: 2403 233e 8fd4 d93e d977 503e 319c d93e
000003a0: 7e04 403d 2991 3d3e 717c 3d3d 7791 43be
000003b0: 8b04 e2b9 7c1e 9a3d 2897 b0bc 0968 e8bd
000003c0: 19e7 773e 65fa 623e 70c3 9bbd 1190 82be
000003d0: 3d5f 5cbc ecbe 55bc b19d eabc f82b 613d
000003e0: df1a 043e b565 b7be ff8d cebe 90bc aa3e
000003f0: 906f ba3e 6f13 20bd 6094 40be 1bab 693e
0.5303476 0.19645466 0.40803695 0.4359845 -0.2373204 0.45601407 0.14190626 -0.19143029
0.010650102 -0.021508172 -0.08166937 0.004876712 -0.060365133 0.11064254 -0.08946015 0.22529702
0.15553223 0.21649827 -0.0063065677 0.2035582 0.23020871 -0.2144095 -0.085566506 -0.20662992
-0.051050797 0.088852726 0.09324905 0.407705 0.33967614 0.46972716 0.22906601 -0.1815749
0.34830356 -0.29433444 -0.06963872 0.13614535 0.5709699 0.21799396 0.3369288 0.09947384
0.2125364 -0.068592265 -0.0010926434 -0.3093319 0.024336988 0.26078364 0.23837091 0.12665536
0.037691735 -0.16706067 -0.04537689 0.1257709 -0.041452873 0.016353488 0.17619166 0.19238698
0.32996812 0.20894596 0.039921958 0.23247574 -0.24480483 -0.05228506 0.10551466 0.26225874
0.40149775 -0.0071783676 -0.31681278 -0.2279844 -0.11447176 -0.28355217 -0.096685536 0.03138266
0.5812907 0.20534861 0.3638084 0.16746128 0.0026632894 0.28432214 -0.17843816 -0.24920525
0.106173046 -0.037989598 0.06599956 -0.019774953 -0.29343402 0.33956328 -0.022758393 -0.16940603
0.0929346 0.10378702 -0.48899558 0.42522866 0.24492966 -0.6597033 -0.021157494 0.17339647
-0.2883789 -0.12985206 0.29570538 0.401899 0.44811186 0.643366 -0.057925094 -0.0072926814
0.67861885 0.0026619653 0.024870694 0.54128116 0.29207906 0.24695002 0.3076244 -0.24758537
0.40770262 0.1421877 -0.17800808 0.24599482 -0.20204885 -0.24932157 0.12466416 0.051958606
-0.47908914 -0.28615177 -0.035221674 -0.13348189 -0.40924522 0.26383469 -0.16001222 0.014232567
0.11710206 0.213419 -0.06185438 0.23217855 0.018003909 -0.28308582 0.5958664 -0.29197636
0.10227619 0.46781552 -0.38753343 -0.44066575 0.09400605 -0.21097511 -0.013240756 0.04806783
0.25311485 0.19597025 0.17693228 -0.050092842 0.010617942 -0.1258615 0.25022963 -0.2489462
0.07469369 -0.059336714 -0.10209023 -0.11515467 0.2907516 -0.05436798 0.016080113 -0.08818558
0.25461096 0.19523618 0.77483284 0.3160659 0.102737606 0.67144215 0.3624789 -0.18894282
0.542803 0.22640353 0.122268744 0.03650259 -0.04937934 0.08792631 -0.1902016 -0.18589298
0.031977046 0.28917685 0.19845727 -0.008414866 0.43300378 0.19456333 -0.031466402 0.43862894
0.18774587 -0.11891877 0.392855 0.2827913 -0.14602497 -0.27273512 -0.25151998 -0.087095216
0.28550968 0.12144643 0.100557916 0.5699599 0.35255164 -0.018509705 -0.110094674 -0.15930125
-0.16731097 -0.22012198 -0.13755715 -0.10774133 -0.08156547 -0.19162886 -0.48789227 0.31108284
0.11774417 -0.17937231 0.3886719 0.0964582 -0.18071766 0.282654 0.18639842 0.13759609
-0.19743213 -0.09330092 -0.3751494 -0.2686482 -0.18456088 -0.11774145 0.11682653 -0.6222518
0.29321992 0.26813966 0.0045145615 -0.27621663 0.15919167 0.42544982 0.20358218 0.42501977
0.046879284 0.18512405 0.046261255 -0.19098459 -0.00043109464 0.07525346 -0.021556452 -0.11347968
0.2420925 0.2216583 -0.07605636 -0.2550054 -0.013450441 -0.013046008 -0.028639646 0.054973572
0.12900876 -0.35819784 -0.4034271 0.33346987 0.3641324 -0.039081033 -0.188066 0.22819178

conv_dec1.bias f4 [8]
00000000: ca4d 233f 42fe 293f 48a5 f33d 5950 a13e
00000010: 222b 8d3e 6f92 4d3e 91dc ae3d cf17 f43d
0.6379057 0.6640359 0.11896759 0.31506613 0.2757197 0.20075391 0.085381635 0.11918604

conv_dec2.weight f4 [8, 3, 3, 3]
00000000: 245b a3bf 4c2f 08c0 b0d2 84be 525a 30be
00000010: 850f 0d3e a7e0 793d ccac c13e 4d28 efbc
00000020: f73e 33be cabb b8bf 9d88 01c0 2ae8 1ebf
00000030: b645 03be 4bf9 823e 669d 613d ddf0 b93e
00000040: 6af3 debd 3567 83be 80ac a8bf 0181 ffbf
00000050: c003 ecbe c2c5 7cbd c1ed d1bd 14d3 06be
00000060: bb85 873e 8cd5 813e ec23 c1bd 15cf cf3e
00000070: 00a3 be3c 8ed7 50be e86a 813e 6d52 e93e
00000080: 47a7 083e e3c0 c0be 5d2b 1dbe 2db9 8ebe
00000090: 83b0 483e 957a f93d b0dd 5bbd a922 943e
000000a0: cf5e b43e 856d cb3d c29d 06bf 7fbd 0abe
000000b0: 1fd3 33be 2eb6 f03e 3ae7 3e3e e8cc efbd
000000c0: 4c6c b73e 88e0 603e 90f7 243e 177e 10be
000000d0: 8b6c 74be 6139 b1be 748b 2abe 82ee 743e
000000e0: 8763 44be dad7 85bf 3e04 8d3e d3be 553d
000000f0: 0606 a2bf ff7b d03e 331e d3be 5442 a6bd
00000100: 27de 5d3e 4cf9 f0bd a59f 7cbf 914a 5e3e
00000110: 8507 e93c 023f 58bf 21dd a73e ceff 04bf
00000120: 6a58 bbbe eef2 5f3e 5b75 cdbd ae9a 6dbf
00000130: 37d4 113e cbaf 27be 1bbf b2bf 8d23 dbbc
00000140: 3bd2 2dbd 6e69 12be 845d 2abe f128 e2bf
00000150: f98f 6ebc 7e37 dbbe 1701 06bf 6127 053f
00000160: 70f4 383d c5b1 e9be 1efc 49be 6bfc 73be
00000170: 095b a9bf cd3d d63d 7a7e bbbe 9344 0abf
00000180: 8f31 133f f54b be3d ed8c b7be 40ed c4bd
00000190: 7545 13be c814 87bf 5f39 1abe 38d9 6fbe
000001a0: 247f f7be 8c07 cc3e 074b 17be 32fa cdbe
000001b0: f11f afbf d5b9 97bd 8f01 d8be e6c5 61be
000001c0: 341a 033f b90f 4a3e 5a7c 05bf 5a68 723e
000001d0: 5c50 083c fed8 9cbf ee22 483e 09e5 a3be
000001e0: 50d6 a5be 8f3b eb3e f035 0a3e c296 05bf
000001f0: 6b0e 163e 85cd c43c 268f 2abf 7ee1 203d
00000200: b90e 24be c401 a8be 69b8 fe3e 9447 7d3e
00000210: 9b57 c8be 2db9 ac3e 052a 59bd 8920 5e3e
00000220: c8a0 a83e 9e65 85bd 5bf0 a2be 3fd8 3ebe
00000230: 92e2 06be 0ce9 b5bf 7517 b0bf cb13 60bf
00000240: 6edc 953e 938a 343d dbff 34be 05e2 9bbe
00000250: e82c 963d f20a 4bbd cae3 b8bf e6cf 8abf
00000260: 37e8 35bf ffe8 a23b fb71 fa3d 8134 a83e
00000270: 8027 86be f83a 9ebd 6fad babe 6467 d2bf
00000280: c0db 9ebf ce3f 31bf a8ee 9b3e 3aad cebe
00000290: b068 f5bd 64c3 623d aa65 883e 87db 5bbe
000002a0: ab09 b1be c142 abbe d1de febe 5c2f d33e
000002b0: bace 8bbe b6a6 15be 2258 28bc b3ec c73d
000002c0: 5e5e 01bf f591 b5be 60ba 52bf 5dd9 48bf
000002d0: fd6c 37bd 0b15 6dbd 179c 4fbe f1df 593e
000002e0: f82e 573e 4c04 953d ff3c 5fbe 0f69 abbf
000002f0: 41f8 25bf 1bab f8be 005f 28be c188 20be
00000300: f8b1 d23e 5565 243e 035f e9bc 8898 8ebf
00000310: 22f9 cebe 8711 f53c d197 fabe 4f4c 8bbe
00000320: f8b3 abbe 890a d93e 1a0b 563e db5b 583c
00000330: 511a 6dbf bc33 b3be 1c82 183e 7b33 84be
00000340: cc36 89be 91b7 43be 815b 503e ce29 0c3e
00000350: 8c37 3dbe 0c53 84bf 5915 8cbe 9a27 04bd
-1.2762189 -2.1278868 -0.25941992 -0.17221954 0.13775451 0.06100526 0.37827146 -0.029194022
-0.17504488 -1.4432309 -2.0239632 -0.62073004 -0.12819561 0.2558082 0.055081747 0.36316577
-0.10886271 -0.25664678 -1.3177643 -1.9961244 -0.4609661 -0.061712034 -0.10250426 -0.13166457
0.26469216 0.25358236 -0.0943068 0.4058768 0.023271084 -0.20394728 0.25276875 0.45570698
0.13345061 -0.3764716 -0.15348573 -0.27875653 0.19598584 0.12181584 -0.053678215 0.28932694
0.35228583 0.099329986 -0.5258447 -0.1354885 -0.17561005 0.47013992 0.18642893 -0.11709005
0.3582481 0.21960652 0.16110063 -0.141106 -0.23869531 -0.3461409 -0.1665476 0.23919109
-0.19178592 -1.0456498 0.275423 0.052183937 -1.2658088 0.40719602 -0.41233978 -0.0811812
0.21666776 -0.117662996 -0.986811 0.21708132 0.028445968 -0.8447114 0.32785895 -0.51952827
-0.36590892 0.21870014 -0.100321494 -0.9281415 0.1424111 -0.16375653 -1.3964571 -0.02675035
-0.04243682 -0.1429803 -0.16637236 -1.7668744 -0.014560693 -0.42815775 -0.5234541 0.5201321
0.04515499 -0.4564344 -0.19725081 -0.23826759 -1.3230907 0.10461006 -0.3661993 -0.54010886
0.57497495 0.092918314 -0.35849705 -0.09615564 -0.14381965 -1.0553217 -0.15060948 -0.23422706
-0.48339188 0.39849508 -0.14774714 -0.40229946 -1.3681623 -0.074084915 -0.4218869 -0.22048149
0.5121186 0.1973256 -0.5214287 0.2367262 0.00831994 -1.2253721 0.19544575 -0.32010677
-0.3239007 0.45943877 0.13497138 -0.52183163 0.14653938 0.02402378 -0.6662468 0.039277546
-0.16021241 -0.32813847 0.4975007 0.24734336 -0.39129338 0.33735028 -0.05301859 0.21692099
0.32935166 -0.065135226 -0.31824002 -0.18637179 -0.13172367 -1.4211745 -1.3757159 -0.875302
0.29269737 0.044077467 -0.17675726 -0.30445877 0.07332784 -0.049570985 -1.4444516 -1.0844696
-0.71057457 0.004971623 0.12228771 0.32852557 -0.2620201 -0.07726091 -0.36460444 -1.6437802
-1.2410812 -0.69237983 0.30455518 -0.40366536 -0.11982858 0.05536212 0.26640064 -0.21470462
-0.3457769 -0.33449367 -0.4977937 0.4124707 -0.27306157 -0.14614376 -0.010274919 0.09761944
-0.5053462 -0.3546292 -0.82315636 -0.7845667 -0.044781674 -0.057881396 -0.20274387 0.21276833
0.21014011 0.0727621 -0.21800612 -1.3391436 -0.6483193 -0.48568043 -0.1644249 -0.15677167
0.41151404 0.1605428 -0.028487688 -1.1140299 -0.40424448 0.029915584 -0.48943952 -0.27206656
-0.33535743 0.4239085 0.20902672 0.013205494 -0.9261828 -0.35000408 0.14893383 -0.25820526
-0.2679962 -0.19112994 0.20347406 0.13687822 -0.1847822 -1.0337844 -0.27360037 -0.03226433

conv_dec2.bias f4 [3]
00000000: 009a a83c c616 d6bc f631 08bd
0.020581245 -0.026133906 -0.03325077
