test1/pth/vae_last.pth (torch, 55099 bytes, 14 tensors)

conv_enc1.weight f4 [8, 3, 3, 3]
000000 e1 fe ad 3d 64 32 d2 be e2 9a 86 bc 1a 6d 07 3c
       0.0849588 -0.4105407 -0.016431276 0.008265758
000010 6e 4d 95 3d 78 00 08 3e 08 c6 34 bd 23 18 8d bd
       0.07290159 0.13281429 -0.04413417 -0.06889369
000020 bb bc 04 3e 63 23 e5 3d 60 59 ab be 40 18 a9 3e
       0.1296262 0.1118839 -0.33466625 0.33026314
000030 2b 64 37 3d 95 ad 3d 3e 0c c5 8a 3e a6 4d 2b 3e
       0.044773262 0.18523248 0.2710346 0.1672884
000040 69 22 07 3e 69 06 a6 3e 56 02 46 3b 1d 66 25 be
       0.1319672 0.32426766 0.0030213795 -0.16152234
000050 ed 61 89 bd 5d 86 33 bd e1 cf 44 3e fb 1a cd 3d
       -0.06708131 -0.04382931 0.19219925 0.10014912
000060 32 ca 4c 3e 23 f0 39 bd 9c af b3 bd 83 c9 05 3d
       0.19999006 -0.045395028 -0.08773729 0.03266288
000070 74 3f 5b be bd 79 9e bd a8 ce c8 3d 2a bc 8c be
       -0.21410924 -0.077380635 0.098050416 -0.27487308
000080 e9 0b 28 3e 9a ed c3 3d 09 7b 27 3e 1e 7b 74 3b
       0.16410793 0.09566803 0.16355528 0.003730483
000090 86 f2 f1 3d 35 39 17 be a5 66 65 bd 5d 4f d7 3d
       0.11813836 -0.14767917 -0.056006093 0.10513184
0000a0 9a c6 41 be 21 be fe 3d 01 79 38 3d 97 c2 1e 3e
       -0.18923417 0.12438608 0.045037273 0.15503918
0000b0 f6 95 bc 3d 09 54 27 3d 7c ef c2 3d da 1a 52 3b
       0.0920829 0.040851627 0.09518334 0.0032059462
0000c0 ff dc 17 3e 8b c9 82 be 8f 1d 80 bd e6 a8 5c 3e
       0.14830397 -0.2554439 -0.06255638 0.21548805
0000d0 48 ce 86 3d 08 c0 7f 3e 11 08 3f be 5b 98 8f 3e
       0.06582314 0.24975598 -0.18655421 0.28045925
0000e0 2f 72 53 be 99 04 2b be a9 8e 1d bd 24 41 02 3e
       -0.20649026 -0.16700973 -0.03846613 0.12720162
0000f0 c7 29 55 be e3 31 00 be 28 f9 08 be 5b 44 ba be
       -0.20816718 -0.1251903 -0.13376296 -0.36380276
000100 33 fd 66 3d b8 e3 16 3e a9 57 83 3d bf 1c 8c bd
       0.056393813 0.14735305 0.06413204 -0.068414204
000110 34 1e b8 bd 95 ac 4b be 7c ef 83 3e 5d 6d 3b be
       -0.08990136 -0.19890054 0.2576865 -0.18303438
000120 52 97 e0 bd b9 77 04 3e 26 35 0d 3e 4e 76 83 bc
       -0.10966362 0.12936296 0.13789806 -0.016047623
000130 96 13 5e 3e 99 14 c9 3d 1f bc 9d bd 74 2b 3c 3e
       0.21687159 0.09818382 -0.07701897 0.18375951
000140 fa 44 05 be ee d2 f3 bd 8f 25 b6 3d 87 e8 70 3d
       -0.13014594 -0.11905466 0.088938825 0.058815505
000150 e3 d8 00 3d 29 27 a2 3d fc dd 64 3e da 6b 1e 3c
       0.03145684 0.079176255 0.22350305 0.0096692685
000160 bc 2e 12 3e fc 46 fe bd 73 ec a3 3c 55 20 09 3d
       0.1427564 -0.12415883 0.020010209 0.0334781
000170 5e 2e 0e be ca 11 12 3d 36 9a 80 3d 33 d4 a0 3c
       -0.13884875 0.035661496 0.062794134 0.019632434
000180 ac e9 02 3e f4 ce a3 be 87 7e 0d be 08 d3 06 be
       0.12784451 -0.3199383 -0.13817798 -0.1316644
000190 85 99 85 be e0 3d 0a be cf aa 64 bd cd f7 fd 3d
       -0.2609369 -0.13500166 -0.05582696 0.1240078
0001a0 4d 16 ee bb 1f b7 09 be a1 3a 46 be d1 56 80 3e
       -0.007265842 -0.13448761 -0.19358303 0.25066236
0001b0 af 6f d6 bc da 99 81 3d 67 f4 2b be b7 60 de bd
       -0.026176302 0.06328173 -0.16792451 -0.10858291
0001c0 87 76 2d be 48 34 ae be 9d 94 81 3e 51 5a 90 3e
       -0.16939746 -0.34024262 0.25308695 0.28193906
0001d0 aa 47 f9 bd cd 0d 35 be 13 df a6 3d 0d d2 04 3e
       -0.12171872 -0.17681046 0.08148017 0.12970753
0001e0 2a c6 74 3d 52 a3 f4 bd fc a9 c2 be 31 fb 17 3c
       0.059759296 -0.119452134 -0.38020313 0.009276197
0001f0 81 5b 6b 3e ec 92 ae 3d 15 51 a1 be 2c f7 76 bd
       0.22984125 0.08524117 -0.31507173 -0.060294315
000200 5b 4c 37 be ea 0b ca 3d 0b 88 1a be 5e 46 6b be
       -0.17900221 0.09865554 -0.15090959 -0.22976062
000210 58 79 88 3e d1 e5 35 3d c2 8d 1d be 64 23 14 3e
       0.26655078 0.044408623 -0.15386108 0.14466625
000220 ae 4c 90 bd 16 29 17 3e 24 57 40 3e 75 a7 20 3e
       -0.070458755 0.14761767 0.18783242 0.1568888
000230 fe c7 2b 3e b3 da 37 3e ae 92 e0 bd d1 6f ae bd
       0.1677551 0.17954521 -0.10965477 -0.08517421
000240 61 ec 84 be 7c 8e 31 3d b0 8c 3f 3e 5e f9 2c be
       -0.25961593 0.043348774 0.18706012 -0.16892001
000250 c8 bb 57 3d d9 84 a7 bd 94 a3 e3 bd b8 76 19 3e
       0.052669317 -0.081796356 -0.111151844 0.14986694
000260 75 47 d2 3d cb cf 25 be 46 7b 7f bd 1b 88 88 3e
       0.102675356 -0.16192548 -0.062373422 0.2666634
000270 fc e2 4e 3e 10 b5 82 3d 12 80 09 3e 5a fe 67 3e
       0.20203775 0.06382191 0.13427761 0.22655621
000280 4d f3 2b 3e cf aa 11 be cd a1 f3 bd 07 4d 28 3b
       0.1679203 -0.14225315 -0.118960954 0.0025680677
000290 5c af 91 be ab 70 80 3e 27 63 3e bd d2 06 83 bd
       -0.284541 0.2508596 -0.046481278 -0.06397785
0002a0 3f 21 45 be 17 34 0a be fb 09 a2 3d 3f 2a 29 be
       -0.19250964 -0.13496433 0.0791206 -0.16520022
0002b0 08 b2 78 bd 16 1b 7d 3e b4 25 18 3e 05 5e 09 3e
       -0.06071666 0.24717364 0.14858133 0.13414772
0002c0 b8 9c ae 3c ba 02 2b be 57 09 a3 3e 3b c6 89 3d
       0.021314964 -0.16700259 0.31843063 0.067272626
0002d0 d5 d4 cd 3d bc cc 59 3e f2 d4 fb bc 7f fc aa 3e
       0.1005036 0.21269506 -0.030741189 0.33395764
0002e0 a9 38 85 bd 5b 21 22 3d d6 2e 56 bd e9 f2 a4 bd
       -0.06504948 0.03958259 -0.05229076 -0.08054144
0002f0 b8 9d 17 be ac e0 7d 3d 7c 38 13 3e 5f a7 9e 3e
       -0.14806259 0.061981842 0.14377016 0.3098707
000300 1a fa ff bd e4 34 18 be 89 4b 80 3d c1 9f 2d be
       -0.12498875 -0.14863926 0.06264407 -0.16955473
000310 3e cd 7b bc 7f 0a 6e 3e 14 42 74 3c 42 24 de bd
       -0.015368758 0.23246191 0.014908332 -0.108467594
000320 a2 67 89 3e c2 ad 19 3d d9 97 28 be 43 bc a0 3e
       0.26836878 0.037519224 -0.16464175 0.31393632
000330 ab 6c 1c bd 4d 27 49 3e be bb 82 bd 3e c6 e5 3c
       -0.03818957 0.19643898 -0.06383465 0.02804863
000340 7e 07 e0 bc 76 80 90 3e a6 d1 39 3d 7a 09 2a 3e
       -0.027347323 0.28223008 0.045365952 0.16605178
000350 10 bc ca bd d4 fe 04 3e 5b 8d 6a bd c1 3d c6 3d
       -0.09899151 0.12987834 -0.057263713 0.096797474

conv_enc1.bias f4 [8]
000000 51 50 f8 bd ee fd 37 3e 81 3e 1f 3e 10 87 ea bd
       -0.12124694 0.1796796 0.15551187 -0.114515424
000010 fc 3a e5 bd 92 f9 5f bd 5d 6c 70 bc f2 92 a8 bd
       -0.11192891 -0.05468137 -0.014674273 -0.082311526

conv_enc2.weight f4 [16, 8, 3, 3]
000000 13 70 b3 3d 59 b1 17 be fa 94 50 3e 9c 75 a1 3d
       0.08761611 -0.14813747 0.2036933 0.0788376
000010 5a 76 27 be d5 90 19 be 97 fb 94 be ca e8 ae bb
       -0.16353741 -0.14996655 -0.29098198 -0.005337809
000020 3d d9 c2 bc d9 88 79 3b a7 55 37 3d af e6 52 3d
       -0.023785228 0.0038075952 0.04475942 0.05148953
000030 46 58 2a be a3 4f 33 be 40 cd 97 bd d4 7d 35 bd
       -0.16635236 -0.17510848 -0.07412195 -0.044309452
000040 4d ae b7 bc af 87 87 bd a3 41 bd 3d 25 83 4b be
       -0.02242198 -0.066176765 0.09241035 -0.19874246
000050 da ff 82 bd 1a d0 0f 3c 68 b5 f1 bb 16 5f 1a 39
       -0.06396456 0.008777643 -0.0073763616 0.00014722007
000060 79 eb ae 3c 66 8e 6b be 36 d6 e7 bc 55 46 6b bd
       0.021352516 -0.2300354 -0.028300386 -0.05744012
000070 97 8a d5 3d 04 64 e2 3d 98 58 0c be dd aa 2b bd
       0.104268245 0.11054233 -0.13705671 -0.041910995
000080 15 70 7d bd 95 84 9e 3d 66 61 87 bd f2 4c 32 bb
       -0.061874468 0.07740132 -0.06610374 -0.0027206508
000090 52 87 18 3e e0 10 fd 3d 4d 35 3f bd aa 30 df 3d
       0.1489537 0.12356734 -0.04668169 0.10897954
0000a0 c8 35 91 bc ae 18 92 be 20 f2 d1 be b4 e5 6e bd
       -0.01772584 -0.28534454 -0.4100504 -0.05832453
0000b0 44 63 97 bd 36 80 25 3e f9 5d 40 3d 22 89 9e 3d
       -0.0739198 0.1616219 0.04696462 0.07741
0000c0 19 91 0f 3e a5 1a 02 bd a3 ab 67 3b 3d fa 06 be
       0.14020194 -0.03176369 0.0035350106 -0.13181396
0000d0 01 ac 71 be 09 32 d2 bd f9 f6 63 be 03 bf 25 bd
       -0.2360077 -0.1026345 -0.22262181 -0.040465366
0000e0 32 ce 84 3c 28 f9 5c 3e 60 10 21 3d 7a e7 63 be
       0.016211603 0.2157942 0.039322257 -0.2225627
0000f0 dd fb af 3b db 24 84 be 5d db 57 3a c5 e4 45 3e
       0.0053706006 -0.25809368 0.0008234287 0.1932555
000100 27 93 3c be 51 54 04 3e dd df d1 bd a2 bc 44 be
       -0.18415509 0.12922789 -0.10247777 -0.19212583
000110 67 15 34 3e 3a df 71 3c 0b 71 a1 3c 45 80 4d be
       0.1758629 0.014762694 0.019707223 -0.20068462
000120 80 63 e3 3d 72 0a 08 bd cf b8 81 3d 5f dc ad 3d
       0.111029625 -0.033213086 0.063340776 0.08489298
000130 17 a1 92 bd 06 dc 58 3e 32 64 91 bd f4 f0 0d be
       -0.07159632 0.21177682 -0.07099189 -0.13861448
000140 68 ca 32 3c 02 04 b8 bd 32 0a 8a 3d 17 9a 80 bd
       0.010912515 -0.089851394 0.06740226 -0.0627939
000150 8e 76 af bd 5d 98 1b 3d 43 30 05 bc a4 40 e8 bd
       -0.085675344 0.0379871 -0.008129182 -0.11340454
000160 ac 41 57 be 90 b1 67 3d e8 c2 27 bd cf 83 18 be
       -0.21021146 0.05656582 -0.04095736 -0.14894031
000170 77 d5 79 bd b3 57 ba 3d 7d 4f 77 3c 95 04 7d be
       -0.06099459 0.090987585 0.015094635 -0.24708779
000180 9a 34 b0 3d 85 08 c4 bd ae e1 d1 bd 04 fb 18 3e
       0.08603783 -0.095719375 -0.10248123 0.14939505
000190 71 ec 0d be 09 cc a2 3d 58 d0 ae 3d 82 24 b3 bd
       -0.13859726 0.07949073 0.08535832 -0.08747198
0001a0 9f 43 0c be f9 77 d3 3c 4c 66 90 bd 60 ff 9d 3d
       -0.1369767 0.025814043 -0.070507616 0.077147245
0001b0 eb cc 8a bd 11 d9 b5 39 2e 16 d8 3c f7 e4 e3 bd
       -0.06777366 0.00034684737 0.026377764 -0.11127656
0001c0 4f 3a 1b be da 79 1b 3e 00 ff b5 3d 37 52 d6 bd
       -0.15158962 0.15183201 0.08886528 -0.104649
0001d0 bf 44 0d 3d de e0 b2 bc 18 4e b7 3d 61 de e1 3c
       0.03448939 -0.02183574 0.08950442 0.027571859
0001e0 1e d0 a0 bd a3 78 08 bc 19 53 02 bd ef 83 93 3d
       -0.07852195 -0.008329543 -0.03181753 0.07202899
0001f0 b2 05 9e 3d 6b ab 0b 3d 45 14 b9 bc 38 61 74 3d
       0.0771593 0.034099024 -0.022592673 0.059663028
000200 99 ae 44 be fc 7d ac 3d 06 78 14 3e ba a4 ed 3d
       -0.19207229 0.08422467 0.1449891 0.11603685
000210 d9 46 0f bc f2 e4 fb bd 42 92 7c bc 40 9a 12 3e
       -0.008744919 -0.12299527 -0.01541573 0.14316654
000220 9e c6 64 bd 8c f0 8d 3e 66 66 b3 3d 07 ea d2 bd
       -0.05585348 0.27722585 0.08759765 -0.102985434
000230 3d fc 26 be d4 72 d2 3d d1 66 ba 3d 66 02 0e 3e
       -0.16307159 0.10275808 0.09101642 0.13868102
000240 c8 6a 66 3e 73 29 2f be 70 d4 1f be 6e 4c e0 3d
       0.22501671 -0.17105655 -0.15608382 0.10952078
000250 21 9d 29 3d 89 61 23 bc 12 10 17 bd ac d6 88 3b
       0.041409615 -0.009971985 -0.03688056 0.0041759815
000260 77 f1 29 be 00 91 e7 3d f8 c4 32 be 98 fa b2 bc
       -0.16596018 0.113069534 -0.1745795 -0.021848008
000270 3a dc 42 3c bd 12 15 3e f0 f0 fd bb 95 c1 49 be
       0.011893326 0.1455793 -0.0077496693 -0.19702752
000280 ec 5a 4f 3e f1 5e 99 bc fc 2b d2 3d a4 aa 1f bd
       0.20249528 -0.01872203 0.102622956 -0.038981095
000290 62 bd 3a bd 12 05 8e bd d3 45 17 be 8d de fa bd
       -0.045590766 -0.06934561 -0.1477273 -0.122494794
0002a0 91 b4 db bd 8d ec fd bd b3 cb 30 3d 9e 73 83 bd
       -0.107278 -0.12398634 0.043163013 -0.064185366
0002b0 99 9d 0b 3e bc 24 75 bd 79 bb e0 bc 2c d9 00 3c
       0.13634337 -0.059849486 -0.027433144 0.007864278
0002c0 9b 7b 9c 3d 9a 34 aa bc a3 99 d5 3c 2e bf e8 3d
       0.07640763 -0.020777036 0.026074236 0.1136459
0002d0 67 1c 16 bd 4c 1c 49 39 21 80 10 be 85 a4 8d 3e
       -0.03664818 0.00019179395 -0.14111377 0.2766458
0002e0 89 8d 0f 3e 2d a5 af 3d 42 24 7a be 82 11 56 3e
       0.14018835 0.08576427 -0.24427894 0.20905116
0002f0 b1 72 36 3e d5 c8 ba bb 51 8b b0 3d 8a f4 97 be
       0.17817189 -0.0057002106 0.086203225 -0.29678756
000300 9e a3 dd 3d 1b 91 bf bd 8a 65 29 be 96 6c 27 3e
       0.10822223 -0.093538485 -0.1654264 0.16350016
000310 e0 c5 32 bd a6 7a 0d be 78 e8 9e 3c 0b 0b f5 3d
       -0.04364574 -0.13816318 0.01939796 0.11964997
000320 1c 6a 42 3c ce 24 fd 3d 8c 15 11 3d 86 2c 78 be
       0.011866119 0.123605356 0.03542094 -0.24235734
000330 36 0f 3b 3c 77 59 16 3e e1 76 26 be 2e bb 76 3d
       0.011417201 0.14682566 -0.16256286 0.060237102
000340 f1 29 34 bd 5f 51 22 be e8 00 c3 3d 13 25 20 bd
       -0.04398531 -0.15851353 0.09521657 -0.039097857
000350 14 c0 95 be 67 12 ff bd 50 5a 9c bc bf 28 82 be
       -0.29248106 -0.12454682 -0.019086033 -0.25421712
000360 0a f6 b4 3d 2d 19 d8 3d d0 4f ff bd fe 98 de 3d
       0.08835991 0.10551677 -0.12466395 0.10869025
000370 57 48 d0 bd 1e b5 64 bd 70 33 10 be a5 db 38 be
       -0.10170048 -0.05583679 -0.14082122 -0.18052538
000380 f6 e8 75 3b 7f 44 d5 3c a0 9c dd bd 69 70 12 3d
       0.0037522889 0.026033638 -0.108208895 0.035751734
000390 5e 86 b1 bd cd e4 0c bc 49 43 ed 39 da 5c 8b be
       -0.08668207 -0.008599472 0.00045254294 -0.27219278
0003a0 73 99 ad bd 88 c2 8c 3c 59 ca a5 3d 74 29 40 be
       -0.08476534 0.017182603 0.080952354 -0.18765813
0003b0 36 22 48 bd 49 67 3e bd 4c a5 18 be e7 b7 00 be
       -0.04886075 -0.04648522 -0.14906806 -0.12570153
0003c0 b2 e4 21 3e e3 6a a7 bd 68 1b 59 bd f6 bf 61 3d
       0.15809897 -0.08174684 -0.053004652 0.05511471
0003d0 3e 88 b7 bd 27 3a db bc 9b 4f 65 bd 8d 12 a5 3d
       -0.08961533 -0.026761128 -0.05598412 0.08060179
0003e0 51 5d 8e bd 3e 13 a5 bd 9c 4f c0 bd e0 9b c1 bd
       -0.069513924 -0.08060311 -0.09390184 -0.09453559
0003f0 ff d9 32 be ad 94 19 3d 8f 18 f1 3c 09 bd 83 be
       -0.17465971 0.037495304 0.029430656 -0.2573016

conv_enc2.bias f4 [16]
000000 88 02 b9 3c 12 13 8f 3d eb f1 0e be af 2e 55 bd
       0.022584215 0.06986059 -0.13959472 -0.052046474
000010 3b f7 ef bd a9 a0 36 3d 3a 99 20 3e b0 83 aa 3c
       -0.11717077 0.04458681 0.15683451 0.020814747
000020 04 71 ab bd 42 25 6d 3b 32 ee 4f bd 6c 06 a6 3d
       -0.083711654 0.0036185537 -0.05076427 0.081066936
000030 94 9f 33 bd 35 4d e9 bd 9c 33 b7 bd 15 94 56 bd
       -0.043853357 -0.11391679 -0.089453906 -0.052387316

dense_encmean.weight f4 [8, 400]
000000 b7 96 c7 3c 30 f5 40 3d 54 a0 69 3b 3d c7 1d 3d
       0.024363859 0.04710883 0.0035648542 0.038520087
000010 b0 a3 c1 3b 94 e8 4e bb 79 28 31 bd c1 e8 41 bd
       0.0059094056 -0.0031571733 -0.04325149 -0.047341112
000020 5e 94 d7 bb 81 62 ec 3d 56 08 57 3d 35 e1 bd 3d
       -0.006578966 0.11542226 0.052498184 0.092714705
000030 7e 00 a7 3d d8 d1 29 bd ae 5d 3d 3d 6e f1 3a bd
       0.08154391 -0.04145989 0.046231918 -0.0456404
000040 96 b3 c9 3c 50 0b 20 bb 72 76 42 3d a3 d7 e1 3c
       0.024621766 -0.0024420805 0.04747624 0.027568644
000050 0f 14 31 3c 12 5c 9a bc 9e 1e 7e 3d a4 08 e7 3d
       0.010808005 -0.01884273 0.062040918 0.11280945
000060 c6 17 e2 bd 02 97 13 bd 77 4c 49 3d 0d f6 08 3d
       -0.11039691 -0.036032684 0.04914519 0.033437777
000070 19 7b 12 bd 84 f0 8b 3b 16 d5 93 bc 81 f6 9d 3d
       -0.035761926 0.004270615 -0.018045943 0.077130325
000080 8f a5 32 bd bf 15 13 3d 09 ab 48 bd b9 b0 ad bc
       -0.04361492 0.03590941 -0.048991237 -0.021202432
000090 cc 04 61 3d b0 ff a4 3d 96 fd 3d 3d 5e 1a 52 bd
       0.054936215 0.08056581 0.046384417 -0.051294677
0000a0 ee e1 10 bd 70 75 65 bd 92 b1 02 3d 13 86 7d bd
       -0.035371713 -0.0560202 0.031907625 -0.06189544
0000b0 55 d3 15 be da d6 0b 3d 35 8f 45 bd 79 27 79 3d
       -0.14631398 0.034140445 -0.048232276 0.06082866
0000c0 89 51 9e 3d bf e4 12 be a0 cc 76 bd 70 6f c4 bd
       0.07730395 -0.14345072 -0.06025374 -0.095915675
0000d0 c6 5c df ba 94 4e 10 3e c8 bd 21 be 19 ad 97 bc
       -0.0017041198 0.14092475 -0.15795052 -0.018515157
0000e0 bb 85 40 bc a4 40 5e 3e 69 b6 87 3d 6f d2 1b be
       -0.011750634 0.21704346 0.06626589 -0.15216993
0000f0 e3 08 8d 3c d7 c4 e1 bc 65 48 20 bd 5c fb 30 3e
       0.017216152 -0.02755968 -0.03913154 0.17283386
000100 09 f2 0b bd 13 e3 59 3d 28 0e d6 3b 31 1c 93 bd
       -0.03416637 0.05319507 0.0065324493 -0.071831115
000110 aa bd 06 3d b3 2b 71 3c 14 1c 8b 3c 5c 0d f6 bd
       0.03289572 0.014719891 0.016981162 -0.12014267
000120 0d df 40 bd b7 6b cf bd 54 ef 56 3b 24 ef 86 3c
       -0.047087718 -0.10127967 0.003279646 0.016471453
000130 aa c8 b0 3d ab f0 29 bd 03 8a 14 be 22 84 28 bd
       0.08632024 -0.041489284 -0.14505772 -0.041141637
000140 43 cd 10 bc 27 3d 42 bc b0 9a 98 3c 75 15 99 bd
       -0.008838001 -0.0118554 0.018628448 -0.07474796
000150 83 44 74 3d 0c 7f 8c bd d8 bb 38 bc 94 46 a5 bc
       0.05963565 -0.0686017 -0.011275254 -0.020175256
000160 de 41 37 bd d9 58 7a 3c 92 a9 3d bd 6a 4b 3f bd
       -0.04474055 0.015279972 -0.046304293 -0.04670278
000170 d6 90 b6 3d 7d d5 15 3e 98 95 f8 bd f0 d9 0f 3c
       0.08914344 0.1463222 -0.12137908 0.008779988
000180 ed ed b2 bd 22 46 92 3d 9c 9c 4b bd 12 94 af bd
       -0.08736787 0.07142283 -0.0497099 -0.08573164
000190 c8 95 34 3d 6f 22 9a bc a1 cd bb 3c 36 77 be bd
       0.044088155 -0.018815247 0.0229252 -0.093000814
0001a0 3b e0 a7 3c 6b d2 44 bc 30 f2 4b 3b d9 7b be bd
       0.020492664 -0.012013058 0.0031119697 -0.09300966
0001b0 4a 0d a4 bd 13 d7 3c 39 6b 40 74 bd 57 3b dc 3d
       -0.08010347 0.00018009199 -0.059631746 0.10753506
0001c0 7e 3b 10 bd e6 e5 0e 3d b3 b4 bc 3c 02 14 2f 3c
       -0.035212986 0.034887217 0.023035383 0.010685923
0001d0 01 b2 08 bd 69 15 7c bd a8 a7 3d bd 56 38 09 3d
       -0.033372883 -0.061543856 -0.046302468 0.03350099
0001e0 d6 e5 a7 3c 6f c1 3a bd 02 e8 1d bd 47 3a 8a bd
       0.020495337 -0.04559463 -0.038551338 -0.06749397
0001f0 45 8d 22 bd 88 e6 ce b8 3d 6e 39 bd d1 c7 c3 3c
       -0.039685506 -9.865785e-05 -0.045271147 0.02389899
000200 86 49 0d be 72 cb 25 bd 56 e7 b3 3d 28 68 97 3d
       -0.13797578 -0.040477224 0.08784358 0.07392913
000210 c6 06 13 3e 4e 01 15 3d 94 bf 92 bd 86 a3 f8 3c
       0.14358053 0.036378197 -0.07165447 0.030351412
000220 e6 71 a3 3d e1 3a b9 3c d6 85 3f 3d 6e 9c 94 bb
       0.07980709 0.022611083 0.046758495 -0.0045352494
000230 86 c8 12 3d b7 60 f2 3d 99 ca a8 bd a3 74 8f 3c
       0.035835765 0.11834853 -0.082417674 0.017511671
000240 83 66 cc b9 e6 47 cc 3c cc 2a 9f bc 0c 92 9f bd
       -0.0003898629 0.024936628 -0.019429587 -0.07791528
000250 d3 de 30 bd 50 d6 1c be 5f d3 ad bd bf a9 37 bd
       -0.04318125 -0.15316129 -0.084875815 -0.044839617
000260 1e f9 77 bc 07 6f b2 bc 71 be ab bd ae 99 82 3c
       -0.015135078 -0.021781458 -0.08385933 0.01594242
000270 d8 51 37 3c 9f 16 28 bd 41 06 40 bd de 46 fc bc
       0.011188947 -0.0410372 -0.046880964 -0.03079551
000280 2b 94 30 bd db 9b 6e 3d aa d9 2a bd 25 9c 05 bd
       -0.043110054 0.058254104 -0.041711487 -0.032619614
000290 6c 35 b3 bd 4b 73 c4 3c 71 63 8c bd a7 45 a8 bd
       -0.08750424 0.023980757 -0.068549044 -0.0821641
0002a0 d4 9a 68 3b ee 6c 07 bd f0 a5 f0 bd ca fe a4 bd
       0.0035492675 -0.033062868 -0.117504 -0.0805641
0002b0 d9 b6 85 bd 1b 73 fb 3b ab 69 29 bc 85 62 a2 3d
       -0.06529016 0.0076736338 -0.010340135 0.07928947
0002c0 fc d8 47 3d 09 74 ea bc 49 c3 69 bc 47 8a 05 bc
       0.048790917 -0.028619783 -0.014267751 -0.008150644
0002d0 d9 06 2b bd 73 d9 6e 3d 6a 93 4a bd 3d 9c d7 3c
       -0.041754577 0.058312844 -0.04945699 0.026319617
0002e0 4b 67 bf 3b 8d e3 d6 3c c2 78 17 3c ef 6d 5b bd
       0.005841171 0.026231552 0.0092450995 -0.053571638
0002f0 5d 08 b1 3c 06 8b f5 bc 24 fa 57 bd 0c f2 ec 3c
       0.021610433 -0.029973518 -0.052728787 0.02892401
000300 77 7e f8 bc 8a 2a bd bc 0f 10 2c 3d 77 b3 60 3d
       -0.03033374 -0.023091573 0.042007502 0.05485865
000310 d1 b3 e1 bb 7d 62 37 3b 10 16 d4 bc 11 14 cb ba
       -0.006887891 0.0027982288 -0.025889426 -0.0015493651
000320 98 6d c6 3d 50 f5 fd 3c c5 b1 55 bd 67 31 b6 3d
       0.09688872 0.031000763 -0.052171487 0.088961415
000330 30 85 d6 3c 4e 60 fd bc 0b 8d 20 3d 42 a9 cc bd
       0.026186556 -0.03092971 0.03919701 -0.09993221
000340 39 ab 30 3c b4 67 52 bb 80 bd 97 bd 02 b3 57 3d
       0.01078301 -0.003210527 -0.07409191 0.05266095
000350 18 0a c8 bc 5a a9 c0 3d aa a5 32 3c cf 89 0f 3b
       -0.024418876 0.09407301 0.010903755 0.0021902209
000360 58 8a f9 bc be 09 75 bc b7 ff 03 3e 5d fa 0c be
       -0.030461475 -0.014955936 0.12890516 -0.13767381
000370 5a 6d d8 3c 89 98 c0 bc f9 2c 1a bd 97 6a b0 bd
       0.02641933 -0.023510234 -0.037640546 -0.086140804
000380 5f 54 af 3d 92 be 83 bd 14 18 8f bc 6c b0 35 bd
       0.085610144 -0.06432833 -0.017467536 -0.044357702
000390 d5 08 36 bd 26 40 96 3d 1f 27 c2 bc a7 a0 37 3c
       -0.044442017 0.07336454 -0.023700295 0.011207736
0003a0 13 00 3d 3d 36 87 46 bd 34 da 84 bb b9 fa 74 3d
       0.04614265 -0.04846879 -0.004054332 0.05980942
0003b0 bc 76 9f bc a0 40 c1 3d 75 94 42 bc 60 41 5a bd
       -0.019465797 0.09436154 -0.011876215 -0.053285003
0003c0 15 fd f4 3c b5 82 71 3c 7b b8 cb 3c d3 92 8f bd
       0.029905835 0.014740636 0.02486824 -0.07010426
0003d0 91 66 b1 bd 87 32 29 3d 52 08 43 bd a2 23 60 3d
       -0.08662141 0.041307952 -0.047615357 0.054721482
0003e0 74 76 68 bd 18 46 95 3c 22 fd 28 bc 6d c7 49 3b
       -0.05675359 0.0182219 -0.010314258 0.0030789033
0003f0 8e 03 e8 3c 75 4c a6 3c ae ee d7 39 b9 ef b8 bc
       0.028322008 0.02030013 0.00041185826 -0.022575246

dense_encmean.bias f4 [8]
000000 44 9f 22 bd db 07 16 3c 8e 93 47 3c 81 08 58 3d
       -0.03970267 0.009157146 0.012181176 0.052742485
000010 a5 33 5f 3d c5 25 4a 3d c6 d5 1b bc ff 6b ae 3b
       0.05449261 0.049352426 -0.009511417 0.0053229327

dense_encvar.weight f4 [8, 400]
000000 42 12 4e bc 48 72 60 3d 23 c9 ca 3d c0 9a 39 bc
       -0.012577595 0.054796487 0.09901645 -0.011328399
000010 c9 33 bb 3d 23 5b 56 bc cb cb 87 3d 72 ad 8d 3d
       0.091407366 -0.013083252 0.06630667 0.06917848
000020 54 a9 06 3d 7e b9 a5 3d db d0 bc 3c 7d 45 1a 3d
       0.032876328 0.080920205 0.023048809 0.037663925
000030 69 86 15 3d b4 41 ac 3b 81 d7 23 3e 7e b1 10 3d
       0.036505137 0.005256856 0.16000177 0.03532552
000040 ef 16 4c 3d 2e b2 08 3d f0 82 24 3d 95 57 48 3d
       0.04982656 0.03337305 0.040163934 0.04891165
000050 d8 1c c1 3c 78 40 95 3c b0 eb b7 3b aa a7 35 3e
       0.023573324 0.018219218 0.005612813 0.1773974
000060 a7 e9 e9 3b b2 5e e4 3c 55 d6 b9 3c 99 9e cf 3c
       0.0071384492 0.027877185 0.02268521 0.02534418
000070 6e d9 97 3d 07 c3 a7 3d 6b 58 8d 3d 88 f1 b1 bc
       0.07414518 0.081914954 0.0690163 -0.021721616
000080 4c 64 72 bc a0 fc af 3d 28 11 16 3d a1 f5 dc 3c
       -0.01479442 0.08593106 0.036637455 0.026972594
000090 9b fd 25 bd 1b da a9 3c 9f 0c eb 3c b8 09 36 3d
       -0.04052506 0.020733884 0.028692542 0.044442862
0000a0 6e 34 bc bb a1 10 84 3c 67 2a 57 bd fa 40 b0 3d
       -0.005743555 0.01612121 -0.052530672 0.08606143
0000b0 32 1e 9c 3d 23 de 7c 3d 5c ae 9f 3c c7 8a a4 3c
       0.07622947 0.061735284 0.01949232 0.020085705
0000c0 c8 63 21 3d 8f c9 e6 3b 8a c9 9e ba 6f 63 92 3d
       0.0394018 0.0070430706 -0.0012114507 0.07147872
0000d0 56 d8 e6 3d 45 8e 78 3d db 8e 57 3d 81 a0 d9 3c
       0.112717316 0.060682554 0.052626472 0.026565792
0000e0 84 cd b7 3b 11 fd 12 3d 35 47 e4 3b ef 74 2f bd
       0.005609216 0.035885874 0.0069664964 -0.042836126
0000f0 f2 42 ef 3c e3 23 2e 3d 5c 06 6d 3d a4 7f 00 3d
       0.029206727 0.042514693 0.057867393 0.031371728
000100 19 e2 f0 3d 72 65 77 3b 85 66 c7 3c 46 5d 90 3d
       0.11761875 0.0037749675 0.024340877 0.070490405
000110 01 a0 ae 3a b7 d9 74 3d 34 08 66 3d d9 c8 b6 3b
       0.0013322831 0.05977794 0.056160167 0.005578142
000120 5e 05 7c 3d ea 03 a2 3c cb 23 ba 3c d7 50 a6 3c
       0.061528556 0.019777257 0.022722146 0.02030222
000130 c7 d4 e1 3c 60 90 9a bb 7f 9d 3b bc 28 c1 aa 3d
       0.02756728 -0.004716918 -0.011451124 0.08337623
000140 ed ba 5e 3c df 4c b9 3c 71 3a 10 bd 6a f4 8b 3d
       0.013594371 0.022619663 -0.035211984 0.06833728
000150 52 82 cc 3c 31 70 74 3d 13 a8 99 3d 3e 39 95 bc
       0.024964485 0.059677307 0.07502761 -0.018215772
000160 6f 74 8a 3d b5 1a 5c 3d 32 73 4f 3c 2e a8 29 3c
       0.06760489 0.053736407 0.012661742 0.010355039
000170 b0 2b b1 3d 46 31 aa 3c 55 4d 63 bc 14 f8 7c 3c
       0.08650911 0.020775449 -0.013873418 0.015440006
000180 0b 00 99 3d ea 89 b9 bc 92 90 8e 3d 94 7a 8f bc
       0.07470711 -0.02264877 0.06961168 -0.017514504
000190 0b fb 12 3b c7 4e be 3d 37 2a 02 3d c8 06 99 3d
       0.0022427465 0.09292369 0.03177854 0.074719965
0001a0 1e 5c e3 3c d2 c6 9f bb 55 5f 5f 3d 5a f4 ca 3d
       0.027753886 -0.004875996 0.054534275 0.099098876
0001b0 e0 f4 aa 3c 78 7e e1 3c 55 58 ab 3d 93 b0 36 3d
       0.020868719 0.027526125 0.083664574 0.044601988
0001c0 86 fa 86 3d c5 b7 10 3d d8 76 34 3d 3e 11 ee 3c
       0.06590752 0.035331506 0.04405865 0.029060956
0001d0 66 3b f9 3b 3b 26 9b 3d 06 ff 28 3d 5b 73 b3 3c
       0.007605958 0.07575651 0.041258834 0.021905592
0001e0 6c fe 33 3d 36 6d 05 bd 49 76 e7 3d 2d 3d c2 3d
       0.043943807 -0.032574855 0.11301858 0.094843246
0001f0 72 70 a3 3d a2 c4 31 3d 48 2d f6 3c 38 0d 8f 3c
       0.079804316 0.043400414 0.030050889 0.017462358
000200 0a 9c 37 3d de 99 c6 3d b2 62 c3 3b fe 65 82 3d
       0.044826545 0.096973166 0.005962693 0.0636711
000210 9b d2 b0 3d 50 b4 71 bc fa 20 31 3d bf a9 b7 3d
       0.0863392 -0.0147524625 0.04324434 0.089679234
000220 8b 8a 9c 3d 73 de bb 3d 64 84 03 3d 42 fa f7 3d
       0.076436125 0.09173288 0.03210868 0.1210828
000230 07 e4 17 bc 72 1d b6 3d a8 91 f4 3d 9f 40 43 bc
       -0.009270675 0.08892335 0.11941844 -0.011917262
000240 8c 2b 0e 3d fb d8 f1 bc 42 5d c7 3c 59 44 d6 3c
       0.0347095 -0.02952241 0.024336461 0.026155638
000250 43 a7 69 bb 2c 7a 36 3d 08 45 ba 3c ed 23 90 3c
       -0.0035652674 0.044550106 0.022737995 0.017595256
000260 e8 b6 8f 3d 21 1b f9 3c b2 21 3e bb 8d 0b c2 3d
       0.070173085 0.030408444 -0.0029011783 0.094748594
000270 1d c6 0b 3d 1a 9b 01 3d 94 15 83 3d 10 48 ac 3d
       0.034124482 0.031642057 0.064006 0.08412182
000280 b4 28 0c 3d 18 a8 47 3d d7 55 98 3d 4b b2 d1 3d
       0.034218505 0.04874429 0.07438248 0.10239085
000290 4c af 50 3d 60 06 21 3d 39 99 ab 3d d3 22 5a 3d
       0.050948426 0.03931272 0.08378834 0.053255867
0002a0 af bb 97 3d 0e 20 23 3d 18 b2 75 3d a9 1c 45 3d
       0.07408845 0.03982549 0.059984297 0.048123036
0002b0 2a ed cf 3d 7d 91 8f 3c 54 7e 0d 3d 5d 8e 53 bb
       0.10152657 0.017525429 0.034544304 -0.00322809
0002c0 03 20 ae 3c ef 49 0d 3c 95 c2 1e bc 9b e2 53 3c
       0.021255499 0.008623584 -0.009689947 0.012932445
0002d0 44 64 61 3d 68 dd ba bc b4 fa dd 3b cb 41 13 3c
       0.05502726 -0.022810653 0.006774271 0.008987854
0002e0 6d ae 68 3c b1 71 b5 3c 3c 70 ca 3c 9d 5b 45 3c
       0.014201743 0.022148939 0.02471172 0.012045768
0002f0 f2 64 1a bd f7 2e de 3c 14 cc 93 3d ef 6c 7b 3d
       -0.037693925 0.027122004 0.07216659 0.061383184
000300 57 5e 54 3d 58 7a c1 3d 57 c2 67 3d c0 5b 8b 3c
       0.051847782 0.09447163 0.05658182 0.017011523
000310 00 23 1b 3d 89 df a0 3d ae 34 58 3c ff bc 52 bb
       0.037875175 0.07855136 0.013196154 -0.0032156107
000320 74 f9 88 3c 47 75 58 3c 40 f4 82 3d 11 69 75 3d
       0.016720511 0.013211555 0.06394243 0.059914652
000330 3c b2 64 3d 82 f2 88 3c dd 8d 14 bc a0 99 30 3c
       0.05583404 0.0167172 -0.009067026 0.010778815
000340 15 0b b6 3d bf 75 12 b8 93 19 f9 3c 30 41 67 bb
       0.088888325 -3.4918772e-05 0.030407703 -0.0035286658
000350 00 7a 36 3d e9 07 9f 3d 45 f7 21 3d d9 e8 5a 3c
       0.044549942 0.077651806 0.039542455 0.013361179
000360 6c 10 44 3d c5 0b b8 3d 91 96 b6 3d d8 81 9f 3c
       0.047867224 0.0898662 0.08915437 0.019471094
000370 fe 6e de 3c e5 d3 ea 3c 16 f0 9b 3d aa 9c c6 3d
       0.027152535 0.028665492 0.07614152 0.0969785
000380 7c 72 08 3d b6 d0 36 3d 21 b3 3f 3d 97 eb 8a 3d
       0.033312306 0.044632636 0.04680169 0.067832164
000390 69 64 10 b9 a9 e3 64 3d ad 74 76 3c 1d 69 bc 3c
       -0.00013770316 0.055881176 0.015042466 0.02299934
0003a0 18 81 0e 3d b7 ff 3a bb 54 09 a0 3d 34 f1 2a 3c
       0.034791082 -0.0028533766 0.07814279 0.010433484
0003b0 a6 48 c7 bb a1 cb 2c bc 4a b3 f6 3c 00 01 5a 3d
       -0.0060816584 -0.010546596 0.030114789 0.05322361
0003c0 68 a5 30 3d e5 f8 0d bd f0 e8 0e bc d2 a9 84 bc
       0.043126494 -0.034661192 -0.008722529 -0.016194258
0003d0 a5 30 84 bd f8 ce 91 3d f6 8a 10 3d 72 f9 0b 3d
       -0.06454591 0.07119554 0.035288773 0.034173436
0003e0 a4 f5 58 3d c0 c3 d8 3c 75 72 81 bc 4c 6f 6c 3d
       0.052968636 0.026460528 -0.015801648 0.05772333
0003f0 19 31 3a 3d 79 8c d5 3b 27 88 fd 3c b0 82 f0 3c
       0.04545698 0.00651699 0.030948712 0.029359192

dense_encvar.bias f4 [8]
000000 74 fd c7 3a c4 9b 9c bd 04 37 03 3d 51 ff ef bd
       0.001525803 -0.076468974 0.03203489 -0.117186196
000010 5c 14 12 bd bd d6 87 bd 6b 99 9c bd 4a d5 0a be
       -0.035663947 -0.06632755 -0.0764645 -0.13557926

dense_dec.weight f4 [400, 8]
000000 b8 64 0e bc 27 d6 cd 3d 78 5b 3a 3c ce 6e 8a be
       -0.008691005 0.10050612 0.011374347 -0.27037662
000010 e6 e1 08 3d 98 68 69 bc 45 19 30 bf f2 8c d6 be
       0.03341856 -0.0142461285 -0.6878856 -0.41904408
000020 38 91 c0 3b bb 54 50 be 20 9d 06 3d 34 26 a2 be
       0.0058766864 -0.20344822 0.03286469 -0.31669772
000030 4b 4a 26 bd 96 98 1b 3d db fc 05 bf 71 07 7a 3f
       -0.040598195 0.037987314 -0.5233895 0.97667605
000040 7b a5 cf 3b d4 9f 1b bf 04 a9 63 3c 68 63 c7 bd
       0.0063368655 -0.60790753 0.013895277 -0.09735757
000050 c4 42 79 bd d5 1b bf 3c 79 93 e5 3e 23 fd e6 3e
       -0.06085469 0.023328701 0.44839075 0.45115003
000060 c3 e3 ce 3b d7 17 b7 bd c3 14 7e 3b 5c af 23 3f
       0.0063137724 -0.08940094 0.00387697 0.6393945
000070 db 2e 23 bd 45 a3 69 bd e5 79 2d 3f 71 1c 4e 3f
       -0.039839607 -0.05704047 0.6776412 0.8051215
000080 45 c3 53 bd 3b 1b d4 3e 64 a8 4e 3d 13 f8 c9 bf
       -0.051699895 0.41427025 0.05045356 -1.5778831
000090 98 f4 ad 3c 1d 87 a0 bc 20 d4 f5 3e c1 13 c3 3f
       0.021234795 -0.019595677 0.480134 1.5240403
0000a0 13 57 3d bc 92 a5 5f bd 47 23 a5 bb e6 fb 66 be
       -0.011556405 -0.05460126 -0.005039606 -0.22557029
0000b0 e4 98 02 3d 79 32 34 3e 04 e7 00 3f 17 dd 75 bf
       0.03188409 0.17597379 0.503525 -0.9604048
0000c0 b6 6d e2 bb 47 4d 86 be af 13 3d bd cc 49 77 bf
       -0.006910051 -0.26230833 -0.04616135 -0.9659698
0000d0 fa 5b 36 3d 15 2d 4f 3e 7b 63 1c 3e 13 ec 8c 3e
       0.04452131 0.20232041 0.15272324 0.2752386
0000e0 e4 9e 9e 3c a0 11 85 bd d6 89 a9 38 8e cf 3d bf
       0.019362874 -0.06497502 8.084222e-05 -0.7414483
0000f0 b9 28 45 3c 76 23 4f be f2 7f 5e 3e 3a c8 61 3e
       0.012033635 -0.20228371 0.21728495 0.22049037
000100 e8 79 de 3b c6 c8 ae be 35 65 f3 ba dc ab 56 bf
       0.0067894347 -0.34137553 -0.0018569591 -0.83855987
000110 e7 57 2a bc e3 a0 d3 be 09 06 78 be 44 3a 3d bf
       -0.010396934 -0.41333684 -0.24221052 -0.7391703
000120 0f 90 16 bd 8a f5 21 bf df 96 54 bd 68 8f 8f 3e
       -0.03675848 -0.6326529 -0.051901694 0.28039098
000130 28 97 1c 3e b1 df 37 bd bb b7 36 3f e2 77 be bd
       0.15292037 -0.044891063 0.713741 -0.093002096
000140 7a 5f e9 bb 53 84 2d bd 6d 06 a5 bc 86 66 30 bf
       -0.0071219774 -0.042362522 -0.020144666 -0.6890644
000150 1a 42 ba 3c e1 18 ba 3d 1c 2a 5d be 76 89 cc 3c
       0.022736598 0.090867765 -0.21598095 0.02496789
000160 7b fd 1c 3c 5a 0e ea bc 87 45 40 3d a8 a2 db be
       0.009581919 -0.028571296 0.046941306 -0.42897534
000170 49 ba f9 bc 1e 59 c4 3e 2f 62 02 3e 1c fb 09 3f
       -0.030484335 0.3834924 0.12732767 0.5389879
000180 c6 b7 3f 3c 67 c7 14 3d d2 e3 09 3b 8d 5a e3 3e
       0.01170153 0.036322977 0.0021040333 0.44405022
000190 4f f6 38 3c d7 53 c6 3d 8f 7b 4b 3e c0 70 b6 3e
       0.011289193 0.0968396 0.19871353 0.35632896
0001a0 6a fe 41 bc ef 66 30 be b1 ab 88 3c 65 fb 11 3e
       -0.011840442 -0.17226766 0.016683431 0.14256056
0001b0 75 9e 9a bd ab 56 1b be 1c ad 56 3e ea 2a c1 bc
       -0.075497545 -0.1516978 0.20964473 -0.023580033
0001c0 52 0b 40 bb ff 8c 8e bd 94 bf 96 3d 2b 30 8f 3b
       -0.0029303622 -0.069604866 0.073607594 0.0043697557
0001d0 c6 f1 7f be 4e 22 d3 bd ae b8 da 3e dc be ea bd
       -0.24994573 -0.103092775 0.42719024 -0.11462185
0001e0 09 00 c4 bc 8b e8 39 3d 97 d4 ac bc a7 b2 7f 3f
       -0.023925798 0.045387786 -0.021097464 0.99881977
0001f0 9a a7 0c 3c e1 6e c4 bd fc 80 c2 bd 9e 01 bd be
       0.008584881 -0.09591461 -0.09497258 -0.36915296
000200 24 45 d1 bb 02 a2 ca bc f9 22 a4 3b b2 a8 71 3f
       -0.006386416 -0.024735454 0.005009052 0.94398034
000210 95 a8 40 bb a1 23 40 3d 2b cd e2 3d 3a 07 2b be
       -0.0029397358 0.04690898 0.11074289 -0.16701975
000220 83 21 55 bd 5e 9d f3 3e 61 a2 90 bd ca 64 31 3d
       -0.052033912 0.47581 -0.07062221 0.04330901
000230 b6 38 1e 3d 77 e4 1c 3e 89 11 b8 bd 3e 40 34 bd
       0.038628303 0.15321527 -0.089877196 -0.04400658
000240 37 e2 90 bc 94 19 08 be 72 72 2e bd a5 08 89 3f
       -0.017685993 -0.13291007 -0.042589612 1.0705763
000250 67 9f 06 3e 83 9c 8b be 0b 98 16 3f 05 8a 36 3f
       0.13146745 -0.27267846 0.5882575 0.7130435
000260 25 bf 84 bc d0 55 2e 3f 46 71 01 3e 1b 43 66 3f
       -0.016204426 0.6809969 0.12640867 0.89946145
000270 6d cf c7 bd 8e cb 2e bf 67 0f 4f 3e 8e e3 e4 bd
       -0.0975636 -0.6827935 0.2022072 -0.11176215
000280 4a ce 2d bc a5 30 f3 bc b5 e8 c2 ba 4a 11 f6 be
       -0.010608265 -0.029686281 -0.0014870377 -0.48060066
000290 05 1c 0f 3b 49 d7 5d be 4e 0f 71 3a dc 83 31 3f
       0.002183677 -0.21664156 0.0009195701 0.69341826
0002a0 43 df 88 bc f7 87 b1 3d 31 2f 4c 3d 1c 0c 0b bf
       -0.016708022 0.08668511 0.049849693 -0.5431535
0002b0 0a bd 8c bc 7f ca 68 be d5 30 29 3e 40 14 29 3f
       -0.017179985 -0.22733496 0.16522534 0.66046524
0002c0 3f 8e dd 3c 68 ef 2e 3d 66 9c 05 3d 21 66 a4 be
       0.027045367 0.042708784 0.032619856 -0.32109168
0002d0 7a a6 73 bd 45 22 0f 3e 5f 80 2b 3e 62 b5 eb 3e
       -0.059484936 0.13977917 0.16748188 0.46036822
0002e0 50 8c 54 bc 17 8b 9e be f1 c0 d3 3c 79 a2 ba 3e
       -0.012972906 -0.30965492 0.025848838 0.36452082
0002f0 d1 2c c5 3c 3f 0e 55 bf af d6 4b bd e1 a3 30 3e
       0.024069222 -0.8322486 -0.049765285 0.17250015
000300 f6 63 47 bb bf b5 90 3f b3 59 86 3d 55 ac 94 bd
       -0.0030424572 1.1305465 0.065600775 -0.07259432
000310 d3 ca 29 3d 42 78 c5 3d db d2 69 3e 8b 0d 27 3f
       0.041453194 0.09642078 0.22834341 0.6525504
000320 f7 cd d7 bb 91 50 38 3c 0d 49 30 bc 24 88 f2 be
       -0.006585832 0.011249677 -0.010759604 -0.47369492
000330 32 c7 18 3c 69 88 c4 bc e1 e0 3d 3e 48 e7 8a 3e
       0.009324836 -0.023990827 0.18542816 0.2712958
000340 25 76 12 bc f9 49 48 be 49 f2 f9 bc 99 d4 84 bf
       -0.008939301 -0.19559468 -0.030511038 -1.037738
000350 98 e9 09 3d 57 6d f3 bd 23 cc cd be 9b 31 1d bf
       0.033670038 -0.11886089 -0.40194806 -0.61403817
000360 9d b7 ad 3c 47 33 7d be 96 e5 ba 3d b6 0f e6 be
       0.021205718 -0.24726592 0.09125821 -0.44933861
000370 97 8d 74 bd 89 05 f7 3e 56 a2 5b 3d c3 62 cd be
       -0.059705343 0.4824641 0.053621612 -0.40114412
000380 2e 42 94 3c 19 81 d9 3d 65 f9 e8 bc cc 7c 53 3e
       0.018097963 0.106203265 -0.028439233 0.20653075
000390 b0 c3 7c 3d 75 a1 da 3c 55 36 b2 3e 23 e1 19 40
       0.06171006 0.026688317 0.34807077 2.4043663
0003a0 ee db 01 3c 12 7c ed be ec 3d bc 3d c8 9f 08 3e
       0.0079259705 -0.4638372 0.09191498 0.13342202
0003b0 93 ab a5 bd 6a 17 1b 3e 9b fa 39 3f f0 00 53 3d
       -0.08089366 0.1514565 0.7264802 0.051514566
0003c0 a5 23 0b 3b 64 06 35 3c 08 19 00 bd 5a 42 ee bd
       0.0021230963 0.011048887 -0.03127387 -0.11633749
0003d0 c8 37 4c 3c 92 11 de 3e 49 3c 77 bd 5d 5e ab bd
       0.012464471 0.4337278 -0.060360227 -0.08367608
0003e0 46 0a e2 39 19 ba 9b 3d 99 37 33 3c ec a3 6f bf
       0.00043113733 0.07603855 0.0109385485 -0.936095
0003f0 64 44 f2 bc 22 2a dc bd aa 98 7e 3e c2 92 6f bd
       -0.029573627 -0.10750224 0.24862924 -0.05848957

dense_dec.bias f4 [400]
000000 8d db 23 3e 6e 23 00 3f fe 29 87 3e 6e 8e 5a 3b
       0.1600172 0.5005406 0.26399225 0.0033349055
000010 f8 a3 13 3f 7d 71 15 3f af 0c e0 3e cb 1e 7b 3e
       0.5767207 0.58376294 0.43759677 0.24523465
000020 59 ea 3f 3e 8a 83 1a 3f 05 a9 22 3e 15 75 cf be
       0.1874174 0.6035696 0.15884788 -0.40519014
000030 6a 60 f4 bc f5 a2 8f be 23 16 8b be 2a cf dc be
       -0.02983113 -0.28054014 -0.27165326 -0.43126804
000040 ad 6a 22 bf c9 81 e9 be b8 db a6 3e 36 41 00 3f
       -0.63444024 -0.4560683 0.32589507 0.50099504
000050 c8 02 9f 3d ab 1e 8e 3a 12 f3 c2 3d b9 39 76 be
       0.07764202 0.001084288 0.09519018 -0.24045457
000060 3a eb cf 3e 4c 88 d8 3d 32 18 dc 3e 7a 08 a1 be
       0.4060915 0.105728716 0.4298721 -0.3145178
000070 cc be 9b be 17 34 13 3f 80 9a cd be 85 88 2e be
       -0.30419004 0.5750136 -0.40156937 -0.17044266
000080 0c 18 43 be 89 9c 50 3e 7c 1e 2c 3f ee ef 1b bf
       -0.19052142 0.20372213 0.67234015 -0.6091298
000090 d8 f6 53 be 2c 19 ec be ff bb 10 be 47 d3 b3 be
       -0.20699632 -0.46112955 -0.14134215 -0.3512213
0000a0 67 1f 13 be 26 ce ff be 53 e3 d4 be f9 31 98 3e
       -0.14367448 -0.49961966 -0.41579685 0.29725626
0000b0 85 66 04 3f 1c d1 3f 3f 67 de ba be 85 10 37 bd
       0.5171893 0.7492845 -0.36497805 -0.04469349
0000c0 96 fc 4e bd b9 f9 65 3e c0 5d 30 bf 9b d4 77 be
       -0.050533853 0.22458543 -0.6889305 -0.24202196
0000d0 c4 82 7e bd c7 b7 cc 3e c1 37 f2 3e 72 81 fe bb
       -0.062136427 0.3998396 0.47308162 -0.007766896
0000e0 41 12 f2 be 90 47 a1 bd 81 86 96 3e 35 e6 d5 3e
       -0.47279552 -0.078749776 0.29399493 0.41777197
0000f0 6a db d0 3e e9 d7 6a be fb 93 62 be d7 44 3d be
       0.407924 -0.22933926 -0.22126763 -0.18483292
000100 b2 b5 3f be c8 2f e0 be c9 6a 08 3f 02 70 98 3e
       -0.18721655 -0.43786454 0.5328794 0.29772955
000110 e3 af a4 be 56 f7 7a 3e 86 8f 21 3f 8e f3 3d 3f
       -0.3216544 0.24508414 0.63109624 0.7419976
000120 fa 3e 07 3e 3d a4 52 3f 9c 7a 56 3f c3 d2 7c bf
       0.13207617 0.8228186 0.8378084 -0.98759097
000130 fe 30 ac be 51 93 78 bd dc ca 6f be d0 5b 80 3e
       -0.33631128 -0.060687367 -0.23417228 0.25070047
000140 17 0f 8a be 58 8e 6f be 70 1e 6b be 98 14 c2 3d
       -0.26964638 -0.23394144 -0.2296083 0.09476584
000150 57 ec cc 3e d2 f4 96 3e b8 b1 8a 3e cb 69 93 3d
       0.40024063 0.29483658 0.27088714 0.07197913
000160 32 0b b8 3e f9 0b 9f 3d 1b 98 46 3f 88 72 92 bd
       0.3594604 0.077659555 0.77575845 -0.07150751
000170 94 33 cb 3e 50 fb 8e 3e 0f 5e 82 3d df 16 8f 3f
       0.39687788 0.2792611 0.063655965 1.1178855
000180 b9 10 ac 3e fd ea f8 bd 3a 56 82 bd 35 a5 d9 3e
       0.33606508 -0.121541955 -0.06364103 0.42508855
000190 30 59 5e 3f 93 fa e2 3e 57 8c f9 3e 26 e5 27 3e
       0.8685484 0.44331798 0.48739883 0.16396007
0001a0 ac 1e bd bd f2 7f 0c 3f 94 a1 cd 3e 58 9f 89 bd
       -0.09234366 0.5488273 0.40162337 -0.067198455
0001b0 4a cf 1d bd 2b 1c f6 3d 29 d4 82 3e bb d1 52 be
       -0.038527764 0.12017091 0.2555249 -0.20587818
0001c0 d0 d3 11 3e 31 91 11 bd c6 f3 fe 3d 57 8c bb bd
       0.14240956 -0.035538856 0.1244884 -0.09157627
0001d0 f8 95 52 be 22 d7 5f 3e 6a 3a 31 3e a8 a5 0b be
       -0.20565021 0.2185941 0.1730744 -0.13637412
0001e0 54 60 15 bf 5e 5f d9 be 31 b0 4b 3d 4e a9 23 3c
       -0.5835011 -0.42455572 0.049728576 0.009989096
0001f0 f0 96 4e 3f 67 fe db be d6 66 27 bf 57 ee cc bd
       0.8069906 -0.4296753 -0.6539129 -0.10006397
000200 c5 46 68 3d 17 c7 c4 3e 9f 23 38 be 6a 9e 51 bc
       0.056708116 0.38433143 -0.17982338 -0.0127941165
000210 a2 55 5d 3e 5b d5 fa 3d de 49 65 bc f7 78 c2 be
       0.21614698 0.122477256 -0.013994662 -0.37982914
000220 5d 57 c2 3e c0 5d 81 3d ca eb 84 3d 8c 42 00 3c
       0.37957278 0.063167095 0.06490286 0.007828366
000230 a5 de e4 3e 0d dc b4 3e b2 6d df be a9 6a 6a 3c
       0.44701114 0.35324135 -0.43638378 0.014307656
000240 cc 6d 9e 3e 6f 41 0c 3f 38 db 1c 3f 6e b9 54 3e
       0.30943143 0.54787344 0.61272 0.20773861
000250 cd 83 b8 3e f0 94 30 bd 96 74 f0 be 67 e2 a0 3e
       0.36038056 -0.043110788 -0.46963948 0.3142273
000260 06 1a f3 37 82 cb 61 3e 14 5e a5 3f 61 72 23 3e
       2.8979975e-05 0.22050288 1.2919335 0.15961601
000270 48 a2 d6 3e b6 b9 aa 3e cf bc 38 3d 4d e3 5a 3e
       0.41920686 0.3334481 0.045101937 0.21375771
000280 ae e0 08 bd 21 2b a9 bd f5 f9 03 be f9 94 1e be
       -0.033417396 -0.08260179 -0.1288832 -0.15486516
000290 80 71 0a 3d ac 02 9a 3b 78 cb ca bd f4 6e a4 bd
       0.03379965 0.0047000255 -0.0990209 -0.08028975
0002a0 fb e4 83 be 95 43 10 3f dd fc 32 3f c1 3d b7 be
       -0.25760636 0.5635312 0.6991709 -0.35789302
0002b0 8c 6a 8b be 04 0a 56 be 22 ef ac 3d 73 ac 43 3f
       -0.27229726 -0.20902258 0.084440485 0.7643501
0002c0 1c 43 8d 3e f0 94 ff 3d c1 90 91 3e 87 43 65 3f
       0.27590263 0.124795794 0.2843075 0.89556164
0002d0 51 69 24 bf 7c 39 04 3f 8b 0b b3 be 64 31 c7 bd
       -0.642232 0.51650214 -0.34969744 -0.097262174
0002e0 2a 63 24 3f 36 97 ea be d5 b1 0b bf 9b 57 82 3d
       0.6421381 -0.4581849 -0.54568225 0.06364366
0002f0 ab 4f 98 be 23 74 df 3d 82 f7 e4 be 21 ff 89 be
       -0.29748282 0.10910823 -0.44720083 -0.2695246
000300 76 e7 b6 be 1b fa 05 3e f9 83 d4 be a3 33 06 3e
       -0.35723466 0.13083689 -0.41506937 0.13105635
000310 ba 07 69 3e b6 d1 3a 3c 6d f6 60 3f 38 82 a2 3f
       0.22756854 0.011402538 0.87876016 1.269599
000320 34 81 07 bf 06 04 6c 3e 2b 27 39 be 0e 81 bd bd
       -0.52931523 0.2304841 -0.18081348 -0.09253131
000330 f1 54 33 3e 2a ea bf be 92 b0 90 be 8b e6 04 3f
       0.17512871 -0.3748334 -0.28259712 0.5191428
000340 7d ea 01 bf 75 7c 81 3c 69 75 35 be d2 98 1f 39
       -0.50748426 0.015806416 -0.1772057 0.00015220352
000350 98 f0 a8 be 53 07 42 be 9b 1e ca be 03 24 93 bd
       -0.32996058 -0.18948106 -0.39476475 -0.07184603
000360 b1 e4 00 be 41 78 53 3e d8 a5 42 be 9f ea be 3e
       -0.12587239 0.20651342 -0.19008577 0.37288377
000370 b0 5b 94 be e1 08 9e be 00 e0 3c be 99 96 87 3e
       -0.28976202 -0.3086615 -0.18444824 0.26482084
000380 53 81 13 3f c1 f6 19 be ff a4 0b bf d6 e1 d2 be
       0.5761921 -0.15035535 -0.5454864 -0.41187924
000390 15 0a a4 bd 97 0a d6 be 91 47 40 be 35 66 57 be
       -0.080097355 -0.41804954 -0.187773 -0.21035083
0003a0 9a be a2 bd 0d 4a 6d bd 6d f1 df 3e 73 f5 0a bf
       -0.079465106 -0.05793195 0.4373888 -0.54280776
0003b0 d6 31 cb be b2 fd 57 bd 99 81 80 3d 06 14 d5 3e
       -0.3968646 -0.052732177 0.06274719 0.4161684
0003c0 a4 bb 33 bc 09 b3 f0 3e 6f 99 f0 be df f7 ea 3e
       -0.01097003 0.47011593 -0.4699206 0.45892236
0003d0 f2 a6 82 3e 51 86 a0 3e 71 39 b9 be 80 15 bd be
       0.25517994 0.31352475 -0.36176637 -0.36930466
0003e0 b7 1f 14 3f a8 e7 f6 3e f8 98 35 bf 80 be dd be
       0.57860893 0.48223615 -0.70936537 -0.43309402
0003f0 98 a4 00 3e 97 62 a5 3e c0 08 7a 3f 23 9d a7 3e
       0.12562788 0.3230178 0.976696 0.32737073

conv_dec1.weight f4 [16, 8, 3, 3]
000000 25 83 5a 3f a4 f5 0c 3f 41 5a 2a 3f 0c ae 55 3e
       0.8535636 0.5506232 0.66543967 0.20867175
000010 75 99 2a 3d 74 9a a3 3e 7f 4a 12 3e 1b 08 86 be
       0.041650254 0.31953776 0.1428623 -0.2617806
000020 56 ce 54 be ee 48 08 3f 4c ec b1 be b8 fd d7 be
       -0.20781836 0.5323628 -0.34750593 -0.4218576
000030 3d 38 b1 bd b5 fc 51 3d ee 4b 93 3e 25 50 ae be
       -0.08653305 0.05126639 0.28768867 -0.3404552
000040 87 96 1f be ca 1b c3 bc 20 ba b9 3e 32 7b ec 3d
       -0.15584765 -0.023816962 0.36274815 0.11546935
000050 7b 92 63 3d df 09 c6 bd c3 92 2c 3d a7 65 23 bd
       0.055559617 -0.096698515 0.04213215 -0.039891865
000060 41 1f 1c 3f 86 ad 61 3d 1b da 15 3f e5 1a 9c 3e
       0.6098519 0.055097125 0.5853593 0.3048927
000070 6c b2 22 3f 49 d0 0c 3e b8 8a 72 3d b4 10 13 3e
       0.635535 0.1375133 0.059214324 0.1436184
000080 5e c1 74 3c f7 0d 00 be f3 99 1e 3e 31 d1 b1 be
       0.01493868 -0.12505327 0.15488414 -0.34729913
000090 86 5e 4d be 21 2e 00 be 24 30 8f 3e 47 95 e2 be
       -0.20055589 -0.12517597 0.27966416 -0.44254515
0000a0 2a 3e 44 be fe 4e 1d bf 93 db b8 3e 7c cc ae bd
       -0.19164339 -0.6144866 0.36105022 -0.08535096
0000b0 32 a3 cd 3e fd 74 b9 3e bf 84 35 3f ba 17 c7 3e
       0.4016357 0.36222067 0.7090568 0.3888529
0000c0 23 86 cc 3d 27 7e 15 3f e3 98 80 3e b4 70 ea 3d
       0.09986522 0.5839562 0.25116643 0.11447278
0000d0 44 0e 4c 3f 09 ea 89 3e 06 5d 38 3f c7 3b 9b 3e
       0.7970927 0.26936367 0.7201694 0.30319044
0000e0 28 78 b8 3e 57 1c a7 3e aa af af bb 00 23 02 3e
       0.36029172 0.3263881 -0.005361517 0.12708664
0000f0 e5 e4 06 3e 6a 6f 85 3e e9 9e 88 3e 84 36 05 3e
       0.13173254 0.26061565 0.2668374 0.13009077
000100 8b f2 08 be 56 a9 8e bb f1 47 ef 3d 4c c1 84 3e
       -0.13373773 -0.0043536825 0.116836436 0.25928724
000110 32 94 26 3f 28 bc e0 3c cc 2e 7e be 2d fa fb 3d
       0.6506988 0.02743347 -0.24822539 0.123035766
000120 e6 65 a0 3d 6a f4 20 3f 9d 69 bf 3b 54 00 45 3f
       0.078319356 0.62872946 0.0058414475 0.76953626
000130 e1 3e 7a 3e 7b 32 bd 3e 3f d2 f7 3e 2d 9d 38 3e
       0.24438049 0.36952576 0.48402593 0.18028708
000140 72 a7 b3 3e 34 c6 04 3f 9f de 39 bf 1b 08 cf be
       0.35088688 0.51864934 -0.7260532 -0.4043587
000150 d4 3d 46 3f 27 ec 26 3f 6f e6 1f be 60 6d 35 3f
       0.7743809 0.6520409 -0.15615247 0.7087002
000160 3d 3d 5d 3f a0 a3 fe 3e f1 55 cb 3e 98 8b 60 3f
       0.8642157 0.4973421 0.39714006 0.87713003
000170 d9 6a 05 be 18 ce a8 3e 65 a7 c3 3e 3e 72 8c 3f
       -0.1302904 0.32969737 0.3821365 1.0972364
000180 70 58 9a 3e 27 46 3c 3f 6c a7 1b 3f e1 ff 0b bf
       0.30145597 0.73544544 0.6080234 -0.54687315
000190 b9 3d 13 3e 6b fa 81 3e d3 35 cf be b7 b7 ac be
       0.14379014 0.25386366 -0.40470752 -0.33733913
0001a0 d4 a9 7d 3e 2b df 89 be b1 37 2d be ef 0b 7b be
       0.24771816 -0.26928076 -0.16915776 -0.24516271
0001b0 4f b0 23 3e 57 ad d4 bd d3 8d 5c be e4 62 ca 3e
       0.15985225 -0.103846245 -0.21538477 0.39528573
0001c0 73 c0 c9 3e d1 5b 2f 3e b6 f0 77 3f 3d b1 13 3f
       0.3940464 0.17124869 0.9685167 0.5769232
0001d0 86 11 04 3f a9 59 c1 be cd 65 92 3e 0b 08 1d 3f
       0.5158924 -0.37763718 0.28593293 0.613404
0001e0 9b ab ba 3e 00 df bf 3e e3 d9 2e 3f df 5f 09 be
       0.3645905 0.37474823 0.6830122 -0.13415478
0001f0 62 46 59 3e 26 1a 36 3f bb 71 81 be c9 c3 01 bf
       0.21218255 0.7113365 -0.25282082 -0.5068937
000200 cb 0d 87 3d f0 4b 63 bd 70 6b 04 3f ce 57 fb 3c
       0.06594428 -0.05549234 0.51726437 0.030681517
000210 c4 4d d0 be a9 0e b9 be 3b 51 04 be 65 92 e4 3e
       -0.4068433 -0.36143997 -0.12921612 0.4464294
000220 c2 cb 8d 3c 2e 7c cb 3e 8b ee e7 3e 28 a8 0d 3f
       0.017309073 0.3974318 0.4529918 0.5533471
000230 0c cb d9 3e e6 38 cc 3e ef 40 1e 3f d9 bc 22 3f
       0.42537725 0.3988716 0.6181783 0.6356941
000240 49 50 24 bf 1d 0e 12 3d d7 1e d3 be af ee 83 3d
       -0.64185005 0.03565799 -0.41234466 0.0644201
000250 f4 d4 7f 3e 08 34 b3 3e be 88 76 3e 81 ee 8d 3d
       0.24983579 0.35000634 0.240756 0.06930257
000260 5a 64 0a bd cf d2 22 bd 09 ae fc 3d 08 2c e2 3d
       -0.03378711 -0.039751824 0.12337882 0.110435545
000270 a0 65 9c 3e 4c 0f 3e 3e f3 be 0e 3f 6c f2 74 3e
       0.30546284 0.18560523 0.55760115 0.23920602
000280 70 b8 28 bd 4a 0f 91 3e 56 f7 dc bd 1f a6 cb be
       -0.04119152 0.28331977 -0.10789363 -0.39775178
000290 74 83 b6 bd eb ab b6 bd 36 f6 84 3e fd cb e8 3d
       -0.089117914 -0.089195095 0.25969094 0.11367033
0002a0 58 f5 3f 3d 15 0d c4 3e 0d 6a 39 3e 0f a0 1c be
       0.046864837 0.3829123 0.18106861 -0.15295433
0002b0 83 4d af be f0 47 16 3e 21 fc 78 3e 47 71 55 be
       -0.34238824 0.1467588 0.2431493 -0.20843993
0002c0 ed b8 f4 3e 1b 23 f0 3e 08 14 6b be b7 90 2c 3f
       0.47797337 0.46901783 -0.2295686 0.6740832
0002d0 9e 33 30 3d 58 b4 b2 3e 88 57 3a 3d 44 47 c2 3e
       0.043017976 0.34903216 0.045493633 0.37944996
0002e0 e7 01 99 3e 41 f6 da 3e 78 dd 8b 3e 64 a4 3e 3e
       0.29884264 0.42766002 0.27317405 0.18617398
0002f0 7c 74 16 3f 68 25 b5 3c 06 98 89 be 22 74 d1 3e
       0.5877149 0.022112563 -0.26873797 0.40908915
000300 8e 23 67 be ad 24 47 be 71 49 c5 3e d7 9c 20 3e
       -0.22572157 -0.19447584 0.38532594 0.1568483
000310 96 99 86 bc 74 c3 91 3f 52 25 fb be a8 f1 75 be
       -0.016430657 1.1387773 -0.4905191 -0.24017966
000320 42 25 85 3e de f0 82 be 36 46 a5 3e b4 23 6d be
       0.26004988 -0.25574392 0.3228013 -0.23158151
000330 91 03 c7 3d d1 e1 01 bd 9f c7 d9 3e eb 23 10 bf
       0.09717477 -0.031709496 0.4253511 -0.56304806
000340 60 30 84 3e 07 70 2d be 91 d7 8c 3b ff 2d f9 3e
       0.25818157 -0.16937266 0.0042981585 0.48667905
000350 8b 7b 68 3e a5 7b ab 3e 92 c9 80 3e 60 c3 3e 3f
       0.22703378 0.3349277 0.25153786 0.7451687
000360 c0 f7 00 bf 85 a8 f8 be e3 b0 cb be a0 e2 a1 be
       -0.50378036 -0.4856607 -0.3978339 -0.31618214
000370 98 4b b7 bd c6 f6 99 bd 44 b1 fa bd f5 84 77 3e
       -0.08949965 -0.075177714 -0.12240842 0.24171813
000380 0a 45 89 bd 5b 08 9e bc 26 2d 87 be f1 3a 8f bd
       -0.06702621 -0.019291094 -0.26401633 -0.06993664
000390 bd 76 a3 3e 89 8b 9f 3e 3b 05 08 be b9 60 85 3e
       0.31926528 0.31161144 -0.13283245 0.26050356
0003a0 6a cf 0d 3f 5a 98 db 3d 37 8d af be 84 84 f5 bd
       0.55394614 0.10722418 -0.34287426 -0.11988166
0003b0 4e 71 62 3d 8b 9e 6d 3e b4 f4 9f 3e 80 26 b3 be
       0.055283837 0.2320501 0.3124138 -0.3499031
0003c0 77 44 35 3e 36 ed a6 bc a1 b1 62 3e fd 82 41 bf
       0.17701899 -0.020376783 0.22138073 -0.755905
0003d0 16 2b f4 bd fd f5 86 be d8 e7 65 bd 66 18 2b 3f
       -0.119222805 -0.2635955 -0.056129307 0.66834104
0003e0 da 08 da be 60 4d 18 bf 03 a4 71 bf ed 0c 1c bf
       -0.42584878 -0.59493065 -0.9439089 -0.60957223
0003f0 af a2 8d 3e ae 15 4d be 97 5c 16 3e a2 81 dd 3e
       0.2766318 -0.20027801 0.14683758 0.43262964

conv_dec1.bias f4 [8]
000000 16 ca 2d 3e 3c c5 8b bd 1a 09 85 be 69 24 48 3e
       0.16971621 -0.06824729 -0.25983506 0.1954514
000010 9d 63 07 be 4a 7d 5c bb 38 11 99 3e f7 89 fc 3d
       -0.13221593 -0.0033644014 0.2989595 0.12331002
